baselines/pretrained/MPE_simple_speaker_listener_v4/qmix_ps.safetensors (safetensors, 152904 bytes, 27 tensors)

agent,params,Dense_0,bias f4 [64]
0	0xbe979bd7	-0.29611084
1	0xbe9ca662	-0.3059569
2	0xbe5a74ff	-0.21333693
3	0xbe45fdbe	-0.19335076
4	0xbe4cc240	-0.19995975
5	0xbe0fc9b0	-0.14041781
6	0xbeac9f31	-0.33715203
7	0xbeb58ada	-0.35457498
8	0xbeccac76	-0.39975327
9	0xbe7758f8	-0.24155033
10	0xbe4a48aa	-0.19754282
11	0xbeb22bcc	-0.3479904
12	0xbe90f32e	-0.2831053
13	0xbcd320e9	-0.025772529
14	0xbea2b128	-0.31775784
15	0xbea4f6d5	-0.32219568
16	0xbe869113	-0.26282558
17	0xbd86fdc1	-0.065913685
18	0xbe8b943c	-0.2726153
19	0xbeb5c6c9	-0.35503224
20	0xbe11a68d	-0.1422369
21	0xbe885c2f	-0.2663283
22	0xbe4871ab	-0.19574611
23	0xbea144e3	-0.3149787
24	0xbeaf017c	-0.3418082
25	0xbe8bb30f	-0.27285048
26	0xbe4674fd	-0.19380565
27	0xbea7b5fb	-0.32756028
28	0xbe7b4f8a	-0.2454206
29	0xbe118128	-0.14209425
30	0xbeb21b87	-0.34786627
31	0xbe6412e1	-0.22272827
32	0xbe15628e	-0.14588377
33	0xbe8cc001	-0.27490237
34	0xbed173af	-0.40908572
35	0xbeb101cf	-0.34571692
36	0xbebbbf95	-0.36669603
37	0xbefb09c6	-0.49030894
38	0xbe8eebcb	-0.2791427
39	0xbe4ce64d	-0.20009728
40	0xbe5bac41	-0.21452428
41	0xbea03e18	-0.31297374
42	0xbe840748	-0.25786805
43	0xbe309b87	-0.17246829
44	0xbef86aab	-0.4851888
45	0xbebec602	-0.37260443
46	0xbe0ef560	-0.1396079
47	0xbedd8096	-0.43262166
48	0xbe8ea42c	-0.27859628
49	0xbea91b5d	-0.3302869
50	0xbe8a3616	-0.2699439
51	0xbe8552f2	-0.26039845
52	0xbe638afd	-0.22220989
53	0xbee5c9a7	-0.4488041
54	0xbe43ec93	-0.19133215
55	0xbeb65622	-0.3561259
56	0xbe6e5060	-0.23272848
57	0xbec0f78a	-0.37688857
58	0x3da3b90c	0.07994279
59	0xbe26d8a2	-0.16293576
60	0x3b5b2cc1	0.0033443423
61	0xbe7208b5	-0.23636134
62	0xbd126048	-0.035736352
63	0xbefb91ae	-0.49134582

agent,params,Dense_0,kernel f4 [13, 64]
0	0xbd34e926	-0.04416766
1	0xbdb22503	-0.08698466
2	0xbc5291ea	-0.012852171
3	0x3da39b0c	0.07988557
4	0x3d2c646d	0.04208796
5	0xbe2870a3	-0.16449217
6	0x3eaa7661	0.3329344
7	0xbdff889d	-0.12477229
8	0x3d918327	0.071050934
9	0xbd3a3aa8	-0.045466095
10	0xbe44bb94	-0.1921218
11	0x3e20be7e	0.15697667
12	0x3e37555b	0.17903654
13	0x3e9a6c03	0.3016053
14	0xbc8f0a3e	-0.017460939
15	0xbef3e53c	-0.4763583
16	0x3e1d001e	0.15332076
17	0x3e2574db	0.16157858
18	0x3cd260fd	0.025681013
19	0x3d405919	0.04695997
20	0x3edfa4ff	0.4368057
21	0xbd8a990a	-0.06767471
22	0x3ed6265b	0.41826138
23	0x3ed313e3	0.4122611
24	0x3e1a7675	0.1508425
25	0xbe7f2d99	-0.24919738
26	0x3dfae694	0.122510105
27	0x3e083920	0.13303041
28	0x3e6bbfdc	0.23022407
29	0x3e8b0f53	0.2716013
30	0x3f0ea442	0.5571939
31	0x3e0bdd0c	0.13658541
32	0xbce5f208	-0.028069511
33	0x3ea95879	0.33075312
34	0xbeb0741d	-0.34463587
35	0x3cc7ecf1	0.024404975
36	0xbeb8b7a5	-0.3607761
37	0x3a662eb7	0.0008780765
38	0x3ea3eab3	0.32015
39	0xbd41746e	-0.047230177
40	0xbe60e9b4	-0.2196415
41	0x3ec8dbca	0.39230186
42	0x3f006d45	0.5016673
43	0xbe8bd44e	-0.27310413
44	0xbe133617	-0.14376102
45	0xbdc1b95b	-0.09459182
46	0xbcd92e8d	-0.026511455
47	0x3e5fdbd4	0.21861202
48	0x3e6740eb	0.22583358
49	0x3e655c3e	0.22398469
50	0x3db46204	0.088077575
51	0xbec35833	-0.38153228
52	0xbdbd6238	-0.09247249
53	0xbc718d3f	-0.014743148
54	0x3eed38ab	0.46332297
55	0x3e09f864	0.1347366
56	0xbea45ea4	-0.32103455
57	0xbd4dc11b	-0.050232988
58	0xbde6c26b	-0.11267551
59	0x3efd1bac	0.49435174
60	0x3e6cb0aa	0.23114267
61	0x3d0a27f0	0.033729494
62	0xbd3e67cd	-0.04648571
63	0xbd366b67	-0.04453602
64	0x3e0c5be3	0.13706927
65	0x3ec2e1ab	0.38062796
66	0x3eb7979c	0.35857856
67	0x3dc93db7	0.09826224
68	0xbe8d2a85	-0.27571502
69	0x3e07e8fa	0.13272467
70	0x3e7eacdd	0.2487063
71	0x3f05a72d	0.52208215
72	0xbdc38fc0	-0.095489025
73	0x3dce8939	0.10084767
74	0x3c149b10	0.009070173
75	0x3d6fa4eb	0.058506887
76	0x3e1a2de2	0.15056565
77	0x3e0ed64b	0.13948934
78	0xbe8849c9	-0.26618794
79	0xbe14b391	-0.14521624
80	0xbe919f00	-0.2844162
81	0x3e771a91	0.24131228
82	0x3eb62e13	0.35582027
83	0xbdde3885	-0.10850624
84	0xbcf7139a	-0.030160714
85	0x3d94e1f2	0.07269658
86	0xbe46316e	-0.19354793
87	0xbe8b2820	-0.2717905
88	0x3e9e642e	0.30935806
89	0xbd74a0d5	-0.059723694
90	0xbd96e3c6	-0.07367663
91	0x3e071de4	0.13194996
92	0xbe2976da	-0.16549245
93	0xbe1615f4	-0.14656812
94	0xbf03d296	-0.51493204
95	0xbc66b2d1	-0.014080719
96	0x3ecc9ecf	0.3996491
97	0xbd58dad2	-0.05294306
98	0x3e2976b0	0.16549182
99	0x3ce21986	0.027600061
100	0x3e0b79c9	0.13620676
101	0x3ea36893	0.3191572
102	0xbd4dad24	-0.050213948
103	0xbd0af503	-0.033925068
104	0x3e850fc3	0.25988588
105	0x3eb7c824	0.35894883
106	0xbed58361	-0.41701797
107	0x3ef2af0e	0.4739918
108	0xbd91d016	-0.07119767
109	0x3e683002	0.22674564
110	0xbef6ee01	-0.48228458
111	0x3c677c3f	0.014128744
112	0x3e58de80	0.21178627
113	0x3e270c54	0.16313297
114	0x3eb2c83c	0.34918392
115	0x3ea402d9	0.32033423
116	0x3cb6781d	0.022274071
117	0xbee3e554	-0.445109
118	0xbf148696	-0.5801786
119	0xbd15b70b	-0.036551517
120	0xbdd6b8af	-0.10484444
121	0xbea3896d	-0.31940785
122	0x3e9a14ef	0.30094096
123	0x3e4dbb54	0.20090991
124	0x3e867f52	0.26269013
125	0x3d9a9e26	0.07549696
126	0x3e988a93	0.29793224
127	0x3e126c59	0.14299144
128	0xbe3c272e	-0.18374321
129	0xbd0b9148	-0.034074098
130	0x3e43d432	0.19123915
131	0xbe7e23c1	-0.24818327
132	0x3d9f9b34	0.077932745
133	0x3eb838be	0.3598079
134	0xbf004da8	-0.50118494
135	0x3ce0e1d2	0.02745143
136	0xbe8b48ee	-0.27204078
137	0xbe9f333f	-0.31093785
138	0xbe9bb466	-0.3041107
139	0x3e2d697c	0.1693477
140	0x3df9cf3b	0.12197729
141	0xbf650aef	-0.8946981
142	0x3e876b38	0.2644899
143	0x3f3a3790	0.7274103
144	0xbd522ac1	-0.051310305
145	0x3e1c4d65	0.15263899
146	0x3e3a2270	0.181772
147	0x3f06da1c	0.5267656
148	0x3e2dbb78	0.16966045
149	0x3ea49fd2	0.32153183
150	0xbde76a55	-0.11299578
151	0xbeb14bb1	-0.3462806
152	0xbc8de0af	-0.017319052
153	0x3f8a4c6e	1.0804574
154	0xbf1fd68c	-0.6243675
155	0xbe477804	-0.19479376
156	0xbe22cb00	-0.15897751
157	0xbf08a260	-0.53372765
158	0xbda7b686	-0.081891105
159	0xbf64753b	-0.8924138
160	0x3d318204	0.043336883
161	0x3c8b9808	0.017040268
162	0xbd9212d2	-0.07132496
163	0xbe4e58b6	-0.20151028
164	0xbb5dc203	-0.0033837564
165	0xbdfb6828	-0.122757256
166	0x3d6aa366	0.057284735
167	0x3e0feae0	0.14054441
168	0x3d011b4e	0.03152018
169	0x3d8e490d	0.06947527
170	0x3eb873cc	0.36025846
171	0x3df94cfa	0.12172885
172	0xbd9eb90a	-0.07750137
173	0xbe145280	-0.14484596
174	0x3ebfcfd6	0.37463254
175	0x3bac4f24	0.0052584577
176	0x3d347775	0.044059236
177	0xbe89a196	-0.26881093
178	0xbe912ffa	-0.28356916
179	0x3eff2d8a	0.4983943
180	0x3ccbc8d8	0.024876043
181	0xbd3d514d	-0.046220113
182	0xbc73c461	-0.014878363
183	0xbee54533	-0.44779357
184	0xbdda15a3	-0.10648658
185	0x3d8dd707	0.06925779
186	0xbd869ea3	-0.06573226
187	0x3bb57582	0.0055376897
188	0x3d2b5e16	0.041837774
189	0x3e696f32	0.22796324
190	0xbe61aa2e	-0.22037575
191	0xbdcb33b6	-0.099219725
192	0xbf04a828	-0.51819086
193	0x3eb4d7b3	0.35320815
194	0xbeb7b2a8	-0.3587849
195	0xbc7c29db	-0.0153908385
196	0xbd4d75a4	-0.05016102
197	0xbe836b90	-0.25668
198	0xbf4693a0	-0.7756901
199	0x3e1e1632	0.15438154
200	0xbd186191	-0.03720242
201	0xbe078109	-0.13232817
202	0x3f0f3dde	0.55953777
203	0x3ddc992a	0.10771401
204	0x3e8cedb8	0.27525115
205	0xbdc7b038	-0.09750408
206	0x3f5a0cf4	0.85176015
207	0x3e8ae328	0.2712643
208	0x3ef1665d	0.4714841
209	0xbe9abd9b	-0.30222782
210	0xbe8c6e7c	-0.27428043
211	0xbf0dfe37	-0.55466026
212	0xbef57b90	-0.47945833
213	0xbd0fd638	-0.035116404
214	0x3ec6d6e0	0.38835812
215	0xbe1d638a	-0.15370002
216	0xbc9d3cd0	-0.019194037
217	0x3d81d224	0.06338909
218	0x3f1bfcc6	0.60932577
219	0xbde64a41	-0.112446316
220	0xbe9970a2	-0.29968745
221	0xbdfff71e	-0.12498306
222	0x3e904c19	0.28183058
223	0x3e3ad721	0.18246128
224	0xbce80b2c	-0.02832564
225	0x3ca9f825	0.020748207
226	0xbcab9ce8	-0.020948842
227	0xbc9b76da	-0.018977571
228	0x3d11a328	0.03555599
229	0x3ded6556	0.11591594
230	0xbd7cd6ba	-0.061728217
231	0xbe477e41	-0.19481756
232	0x3d71b296	0.059008203
233	0x3dfa6dfe	0.122280106
234	0x3c309622	0.010777982
235	0xbe3080d2	-0.17236641
236	0xbdab85e3	-0.08375146
237	0xbf8614ea	-1.0475132
238	0x3e0a5b09	0.1351129
239	0xbe163b55	-0.14671071
240	0x3d166f66	0.03672733
241	0xbe2df73f	-0.16988848
242	0xbf4b9f0f	-0.7953958
243	0xbf467b4c	-0.77531886
244	0xbd5ce50f	-0.053929385
245	0xbc8e27b3	-0.017352914
246	0x3dacdfa8	0.084410965
247	0xbdbd67c6	-0.09248309
248	0xbe0d62c2	-0.13807204
249	0x3f4aad2c	0.7917049
250	0xbf3ae968	-0.730124
251	0xbe2312a2	-0.15925077
252	0x3e161107	0.14654933
253	0x3f0a22d7	0.5395941
254	0xbeea7f40	-0.4580021
255	0x3c00c6b8	0.007859878

agent,params,Dense_1,bias f4 [5]
0	0xbe0cce85	-0.13750656
1	0xbe898dce	-0.26866
2	0xbe12b609	-0.14327253
3	0xbe8d1432	-0.2755447
4	0xbe0c24dc	-0.13685936

agent,params,Dense_1,kernel f4 [64, 5]
0	0x3dfdb227	0.123874955
1	0xbef1c9ed	-0.4722437
2	0x3e54a3d2	0.20765617
3	0xbb974ba8	-0.004617173
4	0xbdf066e3	-0.11738374
5	0x3f18a4d2	0.59626496
6	0x3e90717c	0.28211582
7	0xbeb8ddfd	-0.36106864
8	0x3e4cc7fa	0.1999816
9	0x3e97ae35	0.29625097
10	0xbf496b50	-0.7867937
11	0xbe7aaef8	-0.24480808
12	0xbeb576a8	-0.3544209
13	0xbea058fe	-0.31317896
14	0xbedd7538	-0.43253493
15	0x3ed43036	0.41443032
16	0x3f013379	0.50469166
17	0x3e89ba5a	0.26899987
18	0x3f317745	0.69322616
19	0x3e8fae01	0.28062442
20	0xbe10c1ab	-0.14136378
21	0xbedfba2e	-0.4369673
22	0xbec7c331	-0.39016107
23	0xbbe3e2d6	-0.006954531
24	0xbe26b153	-0.16278581
25	0x3c5e4f86	0.013568765
26	0xbf0c0aac	-0.54703784
27	0xbf0055aa	-0.50130713
28	0xbeeb3044	-0.4593526
29	0xbeb4093d	-0.35163298
30	0x3d97e16d	0.074160434
31	0x3e74875c	0.2387976
32	0x3f276761	0.6539212
33	0xbbf69e66	-0.007526207
34	0x3f0e3a3c	0.5555761
35	0xbe4989dd	-0.19681497
36	0xbe5627da	-0.2091364
37	0xbefc48ff	-0.49274442
38	0xbd3fe801	-0.046852116
39	0xbf0256d4	-0.5091374
40	0x3da4ce24	0.08047131
41	0xbe1e3130	-0.15448451
42	0xbe8bdb48	-0.27315736
43	0xbe7c09b9	-0.24613084
44	0x3e97f4e3	0.2967902
45	0xbe975188	-0.2955439
46	0xbe8e9fa8	-0.27856183
47	0x3da45b73	0.08025255
48	0xbd40b0d5	-0.04704364
49	0xbc8f579c	-0.01749783
50	0x3e5774c0	0.2104063
51	0x3e4f3b14	0.2023738
52	0xbd36fe17	-0.044675913
53	0xbe0add8d	-0.13561077
54	0x3f011f36	0.5043825
55	0x3ef17d5f	0.47165963
56	0x3ea0c50d	0.31400338
57	0x3e13fe66	0.14452514
58	0x3f18ca0a	0.5968329
59	0x3da5d44a	0.080971316
60	0xbea7de8a	-0.3278697
61	0xbee973d4	-0.45596182
62	0xbeda3f55	-0.42626444
63	0xbf815928	-1.0105333
64	0xbf04eb39	-0.5192142
65	0x3dd50865	0.10401992
66	0xbe59255f	-0.21205662
67	0xbe8e0551	-0.2773843
68	0x3df3862b	0.11890825
69	0xbeddb2b6	-0.43300408
70	0x3d3aeee8	0.045637995
71	0xbe1441d3	-0.14478235
72	0x3e7d7d81	0.24754907
73	0x3ef04db3	0.4693428
74	0x3eb1383b	0.34613213
75	0xbe2a233c	-0.16615003
76	0xbf504c4c	-0.8136642
77	0xbeb25552	-0.3483072
78	0xbe707b2b	-0.23484485
79	0xbf178c83	-0.5919878
80	0xbe4bc549	-0.19899477
81	0xbe3d0f29	-0.18462814
82	0x3ddb0310	0.106939435
83	0xbe984558	-0.29740405
84	0xbe839f3b	-0.2570742
85	0xbe8bc6fb	-0.27300248
86	0xbf2fda52	-0.68692505
87	0xbecd28a1	-0.4007006
88	0xbeb28e76	-0.34874314
89	0xbec05e08	-0.3757174
90	0xbeac95fb	-0.33708176
91	0xbe72d570	-0.23714232
92	0xbdfd4a3f	-0.12367677
93	0xbe9877cb	-0.29778895
94	0xbc43f4d8	-0.011960231
95	0xbe418929	-0.18899979
96	0xbc9ecadc	-0.01938384
97	0xbe427027	-0.18988095
98	0xba93edba	-0.0011286058
99	0xbe10936d	-0.14118738
100	0xbf019312	-0.50615036
101	0xbebfae82	-0.37437826
102	0xbcfa40be	-0.03054845
103	0xbe1652d8	-0.1468004
104	0xbed02073	-0.40649757
105	0xbf1cade5	-0.6120284
106	0xbe8c6fac	-0.2742895
107	0xbdb640b9	-0.088990636
108	0xbee14bd4	-0.44003165
109	0x3c5ccbc4	0.013476316
110	0x3e0aeb64	0.13566357
111	0xbd315cb4	-0.0433013
112	0x3f046a60	0.51724815
113	0x3ea1df97	0.31615898
114	0xbc00c97b	-0.007860537
115	0x3e57a731	0.21059872
116	0xbca552a6	-0.020181011
117	0x3ea302d0	0.31838083
118	0x3ec0b9c0	0.37641716
119	0x3ec720ce	0.38892215
120	0xbe743eca	-0.23852077
121	0xbec12e28	-0.37730527
122	0xbecb9f1a	-0.39769822
123	0xbf034a4d	-0.5128525
124	0xbe96a6fc	-0.29424274
125	0xbe87a096	-0.26489705
126	0xbea20e8f	-0.31651732
127	0xbe3107a3	-0.1728807
128	0xbe5a21ee	-0.21302006
129	0xbf0842e5	-0.5322707
130	0xbe31601a	-0.17321816
131	0x3dbca7be	0.09211682
132	0xbf169a31	-0.5882903
133	0x3e450138	0.19238746
134	0xbd5dfe6a	-0.054197706
135	0x3f0ac5a5	0.5420783
136	0x3eff0b24	0.49813187
137	0x3ed30312	0.4121328
138	0x3da4dbcb	0.08049735
139	0x3edf6f2a	0.436395
140	0xbf1031cc	-0.56325984
141	0x3d8a1c42	0.06743671
142	0xbf1c125a	-0.609655
143	0xbe459366	-0.1929451
144	0xbe1c225e	-0.15247485
145	0x3e3cf078	0.18451107
146	0x3dbcb5eb	0.092143856
147	0xbd459c6f	-0.04824489
148	0x3d93ccb3	0.07216778
149	0x3f0da7d9	0.5533424
150	0x3ea21fcf	0.31664893
151	0x3e185e42	0.14879707
152	0x3d7970b0	0.060898483
153	0x3e7dbad8	0.24778306
154	0x3f21ddbc	0.63228965
155	0x3e54c8e8	0.20779765
156	0x3efc8b72	0.49325138
157	0xbe7900c2	-0.24316695
158	0xbe69442f	-0.22779916
159	0x3e4be845	0.19912823
160	0x3cb63d54	0.02224604
161	0x3e2539d1	0.16135336
162	0x3eddf9ab	0.43354544
163	0x3c647514	0.013943929
164	0x3ed68782	0.4190026
165	0xbf01e53e	-0.5074042
166	0xbf47a77a	-0.77989924
167	0xbee99fce	-0.45629734
168	0xbf97f7c8	-1.1872492
169	0x3e9ae771	0.302547
170	0xbc2253c4	-0.009907667
171	0xbede76b4	-0.43449938
172	0xbe51d259	-0.20490398
173	0xbefd6a6f	-0.49495265
174	0x3e8439af	0.2582526
175	0xbe487321	-0.19575168
176	0xbf2ed782	-0.6829759
177	0x3ed036c5	0.40666786
178	0xbf3c5481	-0.7356644
179	0x3cb30c9e	0.021856602
180	0xbd01ed51	-0.031720463
181	0xbeac4c5e	-0.33652014
182	0x3dbb8df5	0.091579355
183	0x3e5860d5	0.21130688
184	0xbdf5ccc2	-0.12001945
185	0xbea8fb2a	-0.33004123
186	0xbdd8d871	-0.10588158
187	0xbe2cf372	-0.16889742
188	0xbeb6e2f4	-0.35720026
189	0x3e92edc2	0.2869702
190	0x3e7559f4	0.23960096
191	0x3e2b2678	0.16713893
192	0x3eacadb3	0.33726272
193	0x3ec0c917	0.3765342
194	0x3e58b57f	0.21162985
195	0x3ef4a599	0.4778259
196	0xbed36c2e	-0.41293472
197	0x3f0fade3	0.56124705
198	0x3e6e5308	0.23273861
199	0x3e2fe5d0	0.1717751
200	0xbe9a6f0d	-0.3016285
201	0xbd959980	-0.073046684
202	0xbeb5e5c5	-0.35526863
203	0xbe423d30	-0.18968654
204	0xbe9abfdb	-0.302245
205	0xbdb8ea86	-0.09029107
206	0x3ad70b02	0.0016406479
207	0xbe60875d	-0.21926637
208	0xbea5013a	-0.32227498
209	0x3c61efb9	0.0137900645
210	0x3e417daa	0.18895593
211	0x3f2eeb85	0.68328124
212	0xbf0b3fde	-0.5439433
213	0xbdd753d8	-0.10514039
214	0xbd9afd56	-0.07567851
215	0xbf09efdc	-0.5388162
216	0xbebf7251	-0.37391904
217	0xbe8c6866	-0.274234
218	0xbe963e7e	-0.29344553
219	0xbecdaa8a	-0.40169173
220	0xbdddd4a7	-0.10831576
221	0xbd229724	-0.03969492
222	0xbe9bef41	-0.30455974
223	0xbe70cc1f	-0.23515366
224	0xbf092831	-0.5357695
225	0xbe0f366a	-0.13985601
226	0xbee5fa15	-0.4491736
227	0x3e208bae	0.15678284
228	0xbe964493	-0.29349193
229	0x3dd68d50	0.10476172
230	0x3ef60ee8	0.48058248
231	0x3e3c1b96	0.18369898
232	0x3ee0cc4b	0.43905863
233	0x3eea24f7	0.45731327
234	0x3e65471a	0.22390404
235	0x3d1e2753	0.03861172
236	0xbec2010c	-0.37891424
237	0xbd5800db	-0.05273519
238	0xbd95eba2	-0.07320334
239	0x3e317e7c	0.17333406
240	0x3ed27369	0.41103676
241	0x3e42289c	0.18960804
242	0xbdda680e	-0.10664378
243	0x3dda9955	0.10673777
244	0x3e54dfbe	0.20788476
245	0x3e9f2964	0.31086266
246	0x3e851e8c	0.25999868
247	0x3f73ae90	0.95188236
248	0x3f3ed8cf	0.74549574
249	0x3d21b3b3	0.039478015
250	0x3eb6d44e	0.3570885
251	0xbcd4dfb6	-0.02598558
252	0x3eff983b	0.4992083
253	0xbd768a7f	-0.060190674
254	0x3e44c30d	0.19215031
255	0xbe121e38	-0.1426934

agent,params,ScannedRNN_0,GRUCell_0,hn,bias f4 [64]
0	0x3d1fe0b2	0.039032646
1	0x3dc17337	0.094458036
2	0x3c864db3	0.016394472
3	0xbe0dcdd9	-0.13848056
4	0xbdfc15d6	-0.123088524
5	0xbd844470	-0.06458366
6	0x3de0b873	0.10972681
7	0xbdd1425c	-0.10217735
8	0xbd7ba655	-0.061437923
9	0x3d1287aa	0.03577391
10	0x3d1448a3	0.036202084
11	0xbd8dde5f	-0.069271795
12	0xbdbe78fe	-0.09300421
13	0xbe210a26	-0.15726528
14	0x3e108d48	0.14116395
15	0xbd9e5e16	-0.07732789
16	0xbd3fce85	-0.04682781
17	0xbd1c7b95	-0.038203795
18	0xbc676de8	-0.014125325
19	0xbe037a43	-0.12839608
20	0xbdd81679	-0.10551161
21	0x3ddb1c56	0.10698764
22	0x3dbfd1f1	0.09366215
23	0xbbe88ab5	-0.0070966133
24	0x3d11f3d1	0.035632912
25	0x3dbbb1a8	0.091647446
26	0xbc839ab7	-0.016064985
27	0x3dd848dd	0.105607726
28	0xbc674640	-0.01411587
29	0xbd1d6a7e	-0.038431637
30	0x3dd27daf	0.102778785
31	0x3d9bb611	0.07603086
32	0x3e4a0351	0.19727828
33	0xbe870af1	-0.26375535
34	0x3e065f55	0.13122304
35	0xbe1b2e23	-0.15154319
36	0xbdc4ea1e	-0.09614967
37	0xbe6242b1	-0.22095753
38	0x3b86150f	0.004091866
39	0x3d59a969	0.053140078
40	0xbe2b924f	-0.16755031
41	0x3cce47fe	0.025180813
42	0xbdacc63e	-0.08436249
43	0xbc9df133	-0.019280052
44	0xbe3b235c	-0.18275207
45	0x3d048444	0.0323527
46	0x3cf17144	0.029472955
47	0x3d63aa2f	0.05558222
48	0x3d5cdf6a	0.053924
49	0x3dcc5a82	0.099782005
50	0x3d84a037	0.06475871
51	0xbc9b7c4e	-0.018980172
52	0x3e418805	0.18899544
53	0x3e05f3f4	0.13081342
54	0x3e14575c	0.1448645
55	0x3dfdf2b0	0.123998046
56	0x3e2136fe	0.15743634
57	0x3c4607f8	0.012086861
58	0x3dfe981a	0.12431355
59	0x3e2cf6b6	0.16890988
60	0x3d5942a5	0.053042073
61	0xbbd8578c	-0.0066022333
62	0x3cd21111	0.025642904
63	0x3e368a4f	0.17826198

agent,params,ScannedRNN_0,GRUCell_0,hn,kernel f4 [64, 64]
0	0xbeaaa3aa	-0.3332799
1	0x3e4fb92d	0.20285483
2	0xbdefa678	-0.11701673
3	0xbdedf04c	-0.116180986
4	0x3d4b138f	0.0495792
5	0x3d4b8106	0.049683593
6	0xbccbce66	-0.024878692
7	0x3e58e35a	0.21180478
8	0x3e296451	0.16542174
9	0x3e1b3e23	0.15160422
10	0xbe01b7ae	-0.12667724
11	0x3e036aa0	0.12833643
12	0xbe3499d3	-0.17636804
13	0xbe8aecfc	-0.2713393
14	0xbdc73ab7	-0.09727996
15	0x3d042c0c	0.03226857
16	0xbdf93f3d	-0.12170265
17	0xbea4ae60	-0.32164288
18	0xbe8a167f	-0.26970288
19	0x3cc60cb2	0.024175975
20	0x3ec98fd8	0.39367557
21	0xbd94a847	-0.07258659
22	0xbebfe95f	-0.37482736
23	0xbdb1b32d	-0.08676753
24	0x3cb07979	0.021542298
25	0xbe2fb751	-0.17159773
26	0x3dcc0893	0.09962573
27	0xbe1860c3	-0.14880662
28	0x3d821335	0.0635132
29	0x3e1b0685	0.15139206
30	0x3e796bcc	0.24357527
31	0x3d224405	0.03961565
32	0xbd423ad0	-0.04741937
33	0xbe73288e	-0.23745939
34	0xbdc72dcd	-0.09725533
35	0x3e4c7d17	0.19969593
36	0xbe3fba44	-0.18723398
37	0x3d84bd38	0.06481403
38	0xbd97b392	-0.07407297
39	0x3911287b	0.00013843358
40	0xbd0d1648	-0.034445077
41	0x3d8858cb	0.06657561
42	0xbed91f59	-0.4240673
43	0x3de34daf	0.11098801
44	0xbdb13890	-0.086533666
45	0xbd3cee55	-0.04612573
46	0x3deda9cb	0.11604651
47	0xbef3d35a	-0.47622186
48	0x3dba9c57	0.09111851
49	0xbeb9a7ca	-0.36260825
50	0xbddfd635	-0.109295286
51	0xbe11fc03	-0.14256291
52	0x3c6356c4	0.013875667
53	0xbc9f4c82	-0.019445661
54	0xbe182660	-0.14858389
55	0x3dea3775	0.11436359
56	0x3d5e7b4c	0.054316804
57	0xbd5b7e78	-0.053587407
58	0x3e5c59b6	0.21518597
59	0xbd2451c5	-0.040117044
60	0xbd2a518b	-0.04158167
61	0xbd968fd2	-0.0735165
62	0x3e219859	0.15780772
63	0xbdcf1edb	-0.10113307
64	0x3cfcc0f6	0.03085373
65	0xbe420bb1	-0.18949772
66	0x3e3d980a	0.1851503
67	0xbb97e15a	-0.0046350183
68	0xbb98220f	-0.004642732
69	0xbdb8af04	-0.090177566
70	0xbd2ca8fc	-0.042153344
71	0xbd9d5ad5	-0.076833405
72	0xbc69fd53	-0.014281589
73	0xbc74691b	-0.014917637
74	0xbdc9ca59	-0.09853048
75	0x3dbe22b3	0.09283962
76	0x3e81a1a8	0.25318646
77	0x3cf1ea80	0.029530764
78	0x3ae99f7d	0.001782402
79	0xbecce459	-0.40017965
80	0x3dcddffb	0.100524865
81	0x3e5ecaeb	0.21757095
82	0x3e4a190c	0.19736117
83	0xbd4a123e	-0.049333803
84	0x3e9a092b	0.3008512
85	0x3ed8d8a3	0.4235278
86	0x3dc1bdc8	0.09460026
87	0x3d88e641	0.066845424
88	0xbe1d42be	-0.15357491
89	0x3d01cf42	0.031691797
90	0x3da0b487	0.07846933
91	0xbe0e6a08	-0.13907635
92	0xbd4c0485	-0.049808998
93	0x3c545a89	0.012961038
94	0xbdce4cc9	-0.10073239
95	0xbe830989	-0.25593212
96	0xbe3e7154	-0.18597919
97	0x3e5dd073	0.21661548
98	0x3e01845f	0.12648152
99	0x3e3df5b3	0.18550758
100	0xbd973f1f	-0.07385086
101	0xbe8731b5	-0.2640511
102	0x3c291dc8	0.010322042
103	0x3ebe53d2	0.37173325
104	0xbdaae666	-0.08344726
105	0x3d922dda	0.07137652
106	0x3d9d135c	0.07669708
107	0x3d9dddef	0.07708346
108	0xbdc58787	-0.096449904
109	0x3def9ebc	0.11700198
110	0xbe2f2c3b	-0.17106716
111	0xbe26947c	-0.1626758
112	0xbe21911c	-0.15778011
113	0x3ecb64f3	0.39725456
114	0xbd518167	-0.0511488
115	0x3cfecdb6	0.03110395
116	0xbe27bec4	-0.16381365
117	0xbe14f3be	-0.14546105
118	0x3e0116dd	0.12606378
119	0x3e8722bd	0.2639369
120	0xbd8b8267	-0.06811982
121	0xbd0686db	-0.032843452
122	0xbd845eb5	-0.064633764
123	0x3e8e3278	0.2777288
124	0x3e060cbe	0.13090798
125	0xbe4f7d3a	-0.20262614
126	0xbd747b03	-0.059687626
127	0xbe0751f7	-0.13214861
128	0x3e2d06e3	0.16897158
129	0x3de27de6	0.110591695
130	0xbeb3541b	-0.35025105
131	0xbe78c566	-0.24294052
132	0xbe5b5b73	-0.21421604
133	0xbcf46fdd	-0.029838497
134	0x3e9f918a	0.31165725
135	0xbd704ee8	-0.058669
136	0x3e2286cf	0.15871738
137	0xbe309103	-0.17242818
138	0x3e6dc11a	0.23218194
139	0x3e1c4ad9	0.15262927
140	0x3da6ca57	0.08144062
141	0xbda28192	-0.0793487
142	0xbd209e98	-0.039213747
143	0xbe9c90b7	-0.3057916
144	0xbde663ed	-0.11249528
145	0xbe0875a4	-0.13326126
146	0xbda531f3	-0.08066168
147	0x3c3b06b5	0.011415173
148	0x3cb82426	0.022478174
149	0xbdd0f9d4	-0.10203901
150	0xbcbce4cf	-0.023058323
151	0x3e14c278	0.14527309
152	0x3db54157	0.08850353
153	0xbdb66743	-0.08906414
154	0x3da21a9c	0.079152316
155	0x3d960fba	0.07327218
156	0xbe1c80df	-0.15283535
157	0x3e34f7df	0.1767268
158	0xbe573c24	-0.21019036
159	0xbd43a004	-0.047760025
160	0x3ea01487	0.3126566
161	0x3e65773d	0.22408767
162	0xbe656b2a	-0.22404161
163	0xbcb61688	-0.02222754
164	0x3d042ebb	0.03227113
165	0x3e4b0349	0.19825472
166	0x3e9befa8	0.3045628
167	0x3e3b8bdf	0.18315075
168	0xbe812f2a	-0.25231296
169	0x3c7d90b4	0.015476394
170	0xbd037d7a	-0.032102086
171	0xbe4e9c5e	-0.20176837
172	0xbd90f760	-0.07078433
173	0xbe1cd0a3	-0.15313964
174	0xbdd9783b	-0.10618635
175	0x3c3c8566	0.011506414
176	0xbda294a2	-0.07938506
177	0xbd8810da	-0.06643839
178	0xbd96b9f4	-0.073596865
179	0xbd176e34	-0.036970332
180	0x3cdd84c1	0.027040841
181	0x3ea3b8f5	0.3197705
182	0xbd807248	-0.062717974
183	0x3eb0d34a	0.345362
184	0x3e3c1fac	0.18371457
185	0xbded3c3e	-0.11583756
186	0x3d4fd79c	0.05074273
187	0x3e1dc75a	0.15408078
188	0x3dfa0211	0.122074254
189	0x3c0d147a	0.008610839
190	0xbd94e3c4	-0.07270005
191	0x3dc23e25	0.094845094
192	0x3ea16cf9	0.31528452
193	0xbe240c38	-0.16020286
194	0x3ea11ba7	0.3146641
195	0xbe9abe7a	-0.30223447
196	0x3dde5cf3	0.108575724
197	0x3e0a249a	0.13490525
198	0x3cad14b1	0.02112803
199	0xbd9ca537	-0.076487
200	0xbe5f71d1	-0.21820761
201	0x3dd8e9c0	0.10591459
202	0xbe9bbbb5	-0.30416647
203	0xbd981c79	-0.07427306
204	0x3db96945	0.09053282
205	0xbe5af43b	-0.21382229
206	0xbe4872a1	-0.19574977
207	0x3d974ad3	0.073873185
208	0x3dbea631	0.09309042
209	0x3e76c3e7	0.24098168
210	0x3e5e2e2d	0.21697302
211	0xbd1c9aec	-0.038233683
212	0x3ecccaf0	0.3999858
213	0x3e6c8b32	0.23099974
214	0x3eaabba1	0.33346274
215	0xbe9c6572	-0.30546147
216	0x3ea7181a	0.32635576
217	0x3da7b218	0.081882656
218	0xbd15fbfe	-0.03661727
219	0xbdc91228	-0.09817916
220	0x3ea97aae	0.3310141
221	0xbd94d728	-0.072676
222	0xbd5b8012	-0.053588934
223	0xbd8445d2	-0.0645863
224	0xbee78a1b	-0.45222554
225	0xbd6586dc	-0.056036815
226	0x3e0118ed	0.12607165
227	0x3e21ad9d	0.15788884
228	0xbbfb6937	-0.0076724547
229	0x3ec98193	0.3935667
230	0xbe44aa75	-0.19205649
231	0xbda405bf	-0.080089085
232	0x3e969911	0.29413655
233	0x3d148411	0.03625876
234	0xbda0789a	-0.07835503
235	0x3ea0b86e	0.3139071
236	0x3e043f54	0.12914783
237	0x3df1c2ab	0.11804708
238	0xbea97764	-0.330989
239	0x3e0d3851	0.13791014
240	0xbe371098	-0.17877424
241	0xbead7457	-0.33877823
242	0x3e242a3a	0.16031733
243	0xbd264f4b	-0.040602963
244	0xbd582684	-0.052771106
245	0xbde8efb5	-0.113738455
246	0xbcd527b6	-0.026019912
247	0xbdaa4f21	-0.08315874
248	0xbd7d0de4	-0.061780825
249	0x3e86c49c	0.26321876
250	0xbe7d4631	-0.24733807
251	0xbe3a9d4d	-0.18224068
252	0xbd4aafda	-0.04948411
253	0x3e9935ff	0.29924008
254	0x3ce49ed8	0.027907774
255	0x3cf7ef31	0.030265423

agent,params,ScannedRNN_0,GRUCell_0,hr,kernel f4 [64, 64]
0	0x3a8c4a80	0.0010703355
1	0xbdbbf9a4	-0.091784745
2	0xbc847718	-0.01617007
3	0x3ddadc96	0.10686605
4	0xbe97463f	-0.2954578
5	0xbe0b643b	-0.13612454
6	0x3c588df1	0.013217435
7	0x3e1d7324	0.15375954
8	0x3d4c9495	0.049946386
9	0x3e57c512	0.2107127
10	0xbe4695b5	-0.19393046
11	0x3dd08805	0.10182194
12	0xbe4a695b	-0.19766752
13	0xbd840233	-0.06445732
14	0x3d40c1a7	0.04705968
15	0x3e234440	0.15944004
16	0x3e2dd64f	0.16976283
17	0xbe7767b8	-0.2416066
18	0xbc719822	-0.014745744
19	0xbb3c3614	-0.0028718757
20	0xbcf38bfd	-0.029729838
21	0xbd71af6f	-0.059005197
22	0xbe37de79	-0.1795596
23	0x3db1ac82	0.086754814
24	0xbe2e90c9	-0.17047419
25	0xbe8eec9e	-0.279149
26	0xbd7d75ec	-0.061880037
27	0x3e81bae7	0.25337908
28	0x3cae6eed	0.021293128
29	0xbc5d5b28	-0.013510503
30	0x3c859528	0.016306475
31	0x3d6c118c	0.05763392
32	0x3e0c5363	0.13703685
33	0x3d707abb	0.058710795
34	0xbe4c4f59	-0.19952144
35	0xbe04d34c	-0.12971228
36	0x3d9f22f0	0.07770336
37	0x3d9d7959	0.07689161
38	0xbade9c8f	-0.0016983914
39	0x3ca88a7d	0.020573849
40	0xbc701e8a	-0.014655719
41	0xbcb51c1a	-0.022108126
42	0xbc731a34	-0.01483779
43	0xbdbd0bd5	-0.092307724
44	0xbd11336f	-0.03544944
45	0xbd9b9043	-0.07595875
46	0xbe3da403	-0.18519597
47	0xbea77a9f	-0.3271074
48	0xbcb58926	-0.022160124
49	0x3e94d709	0.2907031
50	0xbc9b4bf2	-0.018957112
51	0x3d2a9f2e	0.04165571
52	0x3e4dbf86	0.20092592
53	0x3e0ae5e5	0.1356426
54	0x3c833244	0.01601518
55	0x3eadb913	0.33930263
56	0x3c599fca	0.013282726
57	0xbc6ea6b5	-0.014566113
58	0xbe7a4400	-0.24440002
59	0x3d312860	0.043251395
60	0x3e6071a8	0.21918356
61	0xbd9ea60a	-0.07746513
62	0x3d7ee5f5	0.062231023
63	0x3d9eee78	0.07760328
64	0xbc8b2ff0	-0.016990632
65	0xbe38d2a6	-0.18049106
66	0xbe69c8aa	-0.22830454
67	0xbcd4393c	-0.025906198
68	0xbe3c476c	-0.1838662
69	0xbe8b6994	-0.27228987
70	0x3e81b9b9	0.25337008
71	0xbdc658ab	-0.09684881
72	0xbbe732d7	-0.007055621
73	0xbdb14dc2	-0.08657409
74	0x3c9fd82c	0.019512258
75	0xbd3dfcea	-0.046383776
76	0xbdd5392a	-0.10411294
77	0x3e0c42da	0.13697377
78	0x3e4018d1	0.18759467
79	0xbd91259a	-0.0708725
80	0xbe0906f9	-0.13381566
81	0x3e1643aa	0.1467425
82	0xbd4dbb79	-0.050227616
83	0xbc975081	-0.018471004
84	0x3b96dcc8	0.004603956
85	0x3e288e35	0.16460498
86	0xbc863b85	-0.016385803
87	0xbe89f9be	-0.2694835
88	0xbdf7d38d	-0.12100897
89	0xbc388f87	-0.011264688
90	0x3cd6bb62	0.026212398
91	0xbe2cb85b	-0.16867201
92	0x3db63ebc	0.088986844
93	0x3cb2e916	0.02183966
94	0x3d354aa7	0.044260647
95	0x3d7ad188	0.06123498
96	0xbe59558a	-0.21224037
97	0xbd0bf812	-0.034172125
98	0x3d661a76	0.05617758
99	0x3e435685	0.19075973
100	0xbcaab292	-0.020837102
101	0x3d1fdaab	0.039026897
102	0xbd9b309b	-0.0757763
103	0x3e37c4c1	0.1794615
104	0x3d740aee	0.059580736
105	0x3e3599cb	0.17734449
106	0xbe4463a7	-0.1917864
107	0xbdf69ed8	-0.12042016
108	0xbe022700	-0.1271019
109	0x3e0a865f	0.13527821
110	0xbdb66baa	-0.08907254
111	0x3d78ea1f	0.06077015
112	0x3c86e6bc	0.016467445
113	0xbcfc6d49	-0.03081383
114	0xbc96b92f	-0.01839885
115	0xbdb1885e	-0.08668588
116	0x3d5616ec	0.052267954
117	0x3e1f0d48	0.1553241
118	0x3c76dd40	0.015067399
119	0xbd26b151	-0.040696446
120	0x3cdf161a	0.027232219
121	0x3d91c908	0.07118422
122	0x3d70d477	0.058796372
123	0xbd255f09	-0.040373836
124	0x3e06554e	0.13118479
125	0x3e3d2033	0.18469314
126	0xbe3d5068	-0.18487704
127	0x3d976bf0	0.07393634
128	0xbde5449e	-0.11194728
129	0xbe25e02d	-0.16198798
130	0x3dff346f	0.12461173
131	0x3e0d2f15	0.13787492
132	0xbd827dab	-0.063716255
133	0xbd6917fc	-0.05690764
134	0xbde8b3ee	-0.11362444
135	0x3c0c4ab6	0.008562734
136	0xbd936802	-0.07197572
137	0x3e70523c	0.2346887
138	0xbc1c4ce7	-0.009539819
139	0xbe1078d0	-0.14108586
140	0xbe195bb9	-0.14976396
141	0xbd9b24d1	-0.075753815
142	0x3d8f35d5	0.069926895
143	0x3dfb4d98	0.12270659
144	0xbdfff5a7	-0.12498026
145	0xbdefcbba	-0.1170878
146	0xbd902830	-0.07038915
147	0xbd6d3269	-0.057909403
148	0x3e1bb4e9	0.1520573
149	0x3e59c4aa	0.21266428
150	0xbda764f3	-0.081735514
151	0xbd7abd0b	-0.06121544
152	0x3e27715a	0.16351834
153	0xbd048c32	-0.032360263
154	0x3d0008b5	0.031258304
155	0xbda3dcb9	-0.08001084
156	0x3ea9783b	0.3309954
157	0xbe13922c	-0.14411229
158	0x3d3800b2	0.044922538
159	0xbe05a650	-0.13051724
160	0xbe02792b	-0.12741534
161	0x3c7473d3	0.014920193
162	0x3e5e48a5	0.21707399
163	0x3d27116b	0.040788095
164	0xbb4d3097	-0.003130948
165	0x3dd2f776	0.10301106
166	0x3e04908f	0.1294577
167	0x3ce87312	0.028375182
168	0x3bd45123	0.006479399
169	0xbe3985ce	-0.18117449
170	0xbd8ca5d5	-0.068675674
171	0x3de8dc2a	0.11370118
172	0xbe490a3e	-0.19632813
173	0x3d454af1	0.048167173
174	0x3e38cc29	0.18046631
175	0xbebe826a	-0.37208873
176	0x3d31aa19	0.04337511
177	0xbda9d83a	-0.08293195
178	0xbdf279fe	-0.118396744
179	0xbe1f5127	-0.15558301
180	0xbdfbabda	-0.122886375
181	0xbd9aa4e6	-0.07550983
182	0x3cc67d4b	0.024229666
183	0xbdd253a1	-0.10269857
184	0x3df2c3bd	0.1185374
185	0x3e284b09	0.16434874
186	0x3d599fe5	0.053131003
187	0xbc2f5e08	-0.010703571
188	0xbcb23a68	-0.021756366
189	0xbdc60bd9	-0.096702285
190	0x3d29f1ce	0.04149037
191	0xbc5c3b6b	-0.013441901
192	0x3caccdff	0.02109432
193	0x3e52e5dd	0.20595498
194	0xbc9c54fb	-0.01908349
195	0xbb47ae25	-0.0030468788
196	0xbe93538e	-0.28774685
197	0x3e1a0ecd	0.15044709
198	0xbd8046f4	-0.06263533
199	0x3e81ed76	0.2537648
200	0xbbbfd79b	-0.0058545596
201	0x3c7fc95c	0.015611973
202	0xbdc0ab3a	-0.09407659
203	0x3e410920	0.18851137
204	0xbd467ac8	-0.048456937
205	0x3c9e4e69	0.019324498
206	0xbe66eb1f	-0.22550629
207	0xbdd7570a	-0.10514648
208	0x3c21f291	0.0098844925
209	0xbd4fe3da	-0.050754406
210	0x3d7caf05	0.06169035
211	0x3e22de3e	0.15905091
212	0x3e3d8b1c	0.18510097
213	0xbdd4e26b	-0.10394748
214	0x3e01b1e9	0.12665524
215	0xbe7ae713	-0.2450221
216	0x3d8f4ad4	0.06996694
217	0xbe337076	-0.17523369
218	0x3e74fed1	0.2392533
219	0xbe313b82	-0.17307857
220	0xbcd7330f	-0.026269464
221	0xbe4365e8	-0.19081843
222	0x3c512d54	0.012767155
223	0x3e3fa8cc	0.18716735
224	0xbcd2608c	-0.025680803
225	0xbdcfcacc	-0.10146102
226	0xbd9a7a36	-0.07542841
227	0x3da5950a	0.080850676
228	0xbddf527e	-0.10904406
229	0xbd2040ce	-0.039124303
230	0x3e631c04	0.22178656
231	0xbcc2abe8	-0.023763612
232	0xbd3a927b	-0.04554985
233	0xbda108fe	-0.07863043
234	0x3d97645a	0.073921874
235	0x3c8b1398	0.016977116
236	0x3d84c935	0.0648369
237	0x3d13bd34	0.03606911
238	0xbda5fcd5	-0.081048645
239	0xbc0df569	-0.008664467
240	0x3e017aca	0.12644497
241	0xbd229ae3	-0.039698493
242	0xbdb8ea05	-0.09029011
243	0xbd764400	-0.060123444
244	0x3d5d615d	0.05404793
245	0x3d9c7e3d	0.076412655
246	0x3c8fc5d3	0.017550385
247	0x3c75a846	0.014993733
248	0xbea665a5	-0.32499424
249	0xbde5ea1d	-0.11226294
250	0x3dd1b580	0.102396965
251	0xbc8ba0dd	-0.017044479
252	0x3d94033c	0.072271794
253	0xbd838925	-0.064226426
254	0xbdc25119	-0.094881244
255	0xbdb615d9	-0.08890886

agent,params,ScannedRNN_0,GRUCell_0,hz,kernel f4 [64, 64]
0	0xbe0f1b52	-0.13975266
1	0xbc4bdfd9	-0.012443506
2	0x3dbfa140	0.09356928
3	0xbe87e881	-0.26544574
4	0x3d85d5a6	0.06534891
5	0xbc97c282	-0.018525366
6	0x3cda1d53	0.026625311
7	0xbdaace22	-0.08340098
8	0xbd367817	-0.04454812
9	0x3dfa4fdb	0.122222625
10	0x3dc7c6cb	0.097547136
11	0xbe30298e	-0.17203352
12	0xbecde1aa	-0.4021123
13	0x3e115690	0.14193177
14	0xbe44e39a	-0.19227448
15	0x3eaa8a38	0.33308578
16	0x3ca7bc7d	0.02047562
17	0x3d818efe	0.06326102
18	0xbe1740fe	-0.14770886
19	0x3e6153a2	0.2200456
20	0xbdd8c050	-0.10583556
21	0xbb059ed6	-0.0020388863
22	0x3cb71532	0.022348974
23	0x3e82ba55	0.25532785
24	0x3df6251b	0.12018796
25	0xbd11109d	-0.035416234
26	0xbd89b9cd	-0.06724892
27	0xbe771530	-0.24129176
28	0x3e9b02b2	0.30275494
29	0xbda6c41b	-0.08142873
30	0xbd76dc5c	-0.060268745
31	0xbe0aaa2b	-0.13541476
32	0x3d8f7ab6	0.07005827
33	0x3e07d612	0.13265255
34	0xbc944b32	-0.018102262
35	0xbe847b5c	-0.25875366
36	0xbe111ce8	-0.14171183
37	0xbde7c617	-0.113170795
38	0x3e54b003	0.20770268
39	0x3e2670b2	0.16253927
40	0x3d6b3be1	0.05743015
41	0x3d17d889	0.03707174
42	0xbd9e8038	-0.077392995
43	0x3e0d7b78	0.13816631
44	0xbdca0619	-0.09864444
45	0xbd64127a	-0.055681683
46	0xbe0e2705	-0.13882072
47	0xbd0f3540	-0.034962893
48	0x3cc20ca7	0.023687674
49	0x3d9c7d2c	0.07641062
50	0x3dcc59da	0.09978075
51	0xbde0633d	-0.10956428
52	0x3c6d6f7b	0.014491911
53	0xbd2e84e6	-0.04260721
54	0x3d045fff	0.03231811
55	0xbc978432	-0.018495653
56	0xbd57f8f0	-0.05272764
57	0xbe2eeaeb	-0.17081802
58	0x3e788b1e	0.24271819
59	0x3e4799b0	0.19492221
60	0xbe714a7e	-0.23563573
61	0xbe961716	-0.29314488
62	0xbdf8418a	-0.121218756
63	0xbe15f620	-0.1464467
64	0x3da6c427	0.08142882
65	0xbe2bf865	-0.16793974
66	0x3c644add	0.013933864
67	0xbd8f93c9	-0.0701061
68	0xbe023d07	-0.12718593
69	0x3d1288de	0.035775058
70	0xbdda0812	-0.106460705
71	0x3df4e40e	0.119575605
72	0xbe433925	-0.19064768
73	0xbd9dd6f8	-0.07707018
74	0xbe3028c0	-0.17203045
75	0xbe55674c	-0.20840186
76	0x3de971d6	0.113986656
77	0xbe3313f6	-0.17488083
78	0x3c944423	0.018098896
79	0xbd709aa7	-0.058741238
80	0xbd1d6ee3	-0.038435828
81	0x3c0d6f8b	0.008632551
82	0xbe61d7ca	-0.22054973
83	0x3d55d22b	0.052202385
84	0x3d1520f6	0.036408387
85	0x3e38f8f9	0.18063726
86	0x3c90a83d	0.017658347
87	0xbddf180e	-0.1089326
88	0x3c3457d2	0.011007266
89	0x3e1d3215	0.15351136
90	0xbcd14e29	-0.025549965
91	0x3d9f6c2b	0.07784303
92	0xbe416f15	-0.1889003
93	0x3e36e0db	0.17859213
94	0xbe078c14	-0.1323703
95	0xbe0ee33c	-0.1395387
96	0xbe477c1b	-0.19480936
97	0x3d3f6379	0.046725724
98	0xbe420b58	-0.1894964
99	0x3e208f8d	0.1567976
100	0xbd4ca677	-0.04996344
101	0x3e26bfd3	0.16284113
102	0x3e89286b	0.2678865
103	0x3c4f690c	0.0126593225
104	0x3df9ae02	0.121913925
105	0x3d92f932	0.071764365
106	0xbd4fdff1	-0.050750677
107	0x3d589fea	0.05288688
108	0x3e1f499a	0.1555542
109	0x3dc1b0ec	0.09457573
110	0x3da581e6	0.08081417
111	0x3e2f5c31	0.17125012
112	0xbcf19828	-0.029491499
113	0x3e1aa9a8	0.15103781
114	0xbd1b015a	-0.037843086
115	0xbdcc35de	-0.09971212
116	0x3e0e88aa	0.1391932
117	0x3d70d376	0.058795415
118	0xbe22cc02	-0.15898135
119	0xbc2aad01	-0.010417224
120	0xbdcc068a	-0.09962185
121	0xbe0e7126	-0.1391035
122	0x3e28fc03	0.16502385
123	0xbe01d898	-0.1268028
124	0xbd049812	-0.032371588
125	0x3a9e5baf	0.0012081767
126	0xbe8337a5	-0.2562839
127	0x3d700da8	0.058606774
128	0x3c7e1b3f	0.015509426
129	0x3d3936dd	0.045218337
130	0xbe464af6	-0.19364533
131	0x3e2f4932	0.17117766
132	0xbda7ae65	-0.0818756
133	0xbdbc24d6	-0.091867134
134	0x3ec583cb	0.38577113
135	0xbd2cc36e	-0.042178564
136	0xbbf89683	-0.007586302
137	0x3d074dbd	0.03303312
138	0x3dec525d	0.11539147
139	0xbd4a1c5d	-0.049343456
140	0xbdfa5003	-0.12222292
141	0x3e21b39c	0.15791172
142	0x3d911aed	0.07085214
143	0xbeaef36e	-0.34170097
144	0xbdd60bfd	-0.10451505
145	0xbd144f1e	-0.036208265
146	0xbdf23f13	-0.11828437
147	0x3daeec3e	0.08541153
148	0xbe2d2cba	-0.16911593
149	0x3d82a273	0.06378641
150	0x3ddcd467	0.107827
151	0xbd11bae5	-0.035578627
152	0xbdbdbe90	-0.092648625
153	0xbca819d1	-0.020520123
154	0xbdcb6223	-0.099308275
155	0xbe05fa5f	-0.1308379
156	0xbdc9dc02	-0.09856416
157	0x3d9d379a	0.07676621
158	0x3e2ce5ec	0.16884583
159	0xbd6e53fe	-0.05818557
160	0x3e09c567	0.1345421
161	0x3e281935	0.16415866
162	0x3db9c9d9	0.090717025
163	0xbd7a0cea	-0.061047472
164	0xbe1e0f39	-0.15435494
165	0x3caf7403	0.021417623
166	0x3dbba2f1	0.09161938
167	0xbe5e1082	-0.21685985
168	0x3d9b05b0	0.07569444
169	0xbdd9c069	-0.106324024
170	0xbd978bf4	-0.07399741
171	0x3bd3293c	0.0064441245
172	0x3dc38ebb	0.09548708
173	0x3da93a39	0.08263058
174	0xbe83e218	-0.25758433
175	0x3d708ebf	0.058729883
176	0xbe474821	-0.19461109
177	0xbe0e8716	-0.13918719
178	0x3d53dd32	0.05172462
179	0xbd9d6e15	-0.07687012
180	0x3d449527	0.047993805
181	0xbdf247a4	-0.118300706
182	0x3d42b5c9	0.047536645
183	0xbdfb895f	-0.12282061
184	0x3c050985	0.008119945
185	0x3dc53e84	0.096310645
186	0x3d989b09	0.074514456
187	0xbe66cf85	-0.225401
188	0xbc22d72c	-0.009938996
189	0xbe71f151	-0.23627211
190	0xbbed2bfc	-0.0072379094
191	0xbcd8eadb	-0.026479175
192	0xbdab3969	-0.083605595
193	0xbd121b4a	-0.035670556
194	0xbcf9ae7e	-0.030478712
195	0xbdae3bd6	-0.085075065
196	0xbe407666	-0.18795165
197	0xbe2781af	-0.16358064
198	0xbe26909b	-0.162661
199	0x3d595fba	0.053069808
200	0x3e0eec7b	0.13957398
201	0x3ded0654	0.115734726
202	0xbbdb3893	-0.006690094
203	0xbc6af726	-0.014341151
204	0x3b2c0a70	0.0026251338
205	0x3ceff5d1	0.02929202
206	0x3e90498e	0.28181118
207	0x3e41ede5	0.18938406
208	0x3d82d5c9	0.063884325
209	0x3d16e542	0.03683973
210	0x3dcd08d1	0.10011447
211	0x3d9b7b91	0.07591928
212	0xbe2a801e	-0.16650435
213	0x3dff0b27	0.12453299
214	0x3e1745b5	0.14772685
215	0x38aac530	8.142961e-05
216	0x3e533e5a	0.20629254
217	0x3ca42331	0.020036312
218	0xbe5e5000	-0.21710205
219	0x3e214b93	0.15751486
220	0x3e7c3431	0.24629284
221	0xbe2ce41d	-0.16883893
222	0x3cc6eeb8	0.024283752
223	0x3e63046e	0.22169659
224	0x3d2323c3	0.039829027
225	0x3d4a4dc8	0.049390584
226	0x3c7169f8	0.014734738
227	0xbd176a9c	-0.036966905
228	0x3de10e5f	0.10989069
229	0x3dc90196	0.098147556
230	0x3c16b8a5	0.009199296
231	0xbc8df3b6	-0.017328124
232	0xbcf1b07a	-0.029503096
233	0xbd7ba6b7	-0.06143829
234	0x3ea42937	0.32062694
235	0x3c0e92e7	0.008702016
236	0x3e81ee4a	0.25377113
237	0xbe068e3f	-0.131402
238	0xbe16ac66	-0.14714202
239	0xbe075606	-0.13216409
240	0xbd3315a9	-0.04372183
241	0xbc2e468c	-0.010636937
242	0xbca3861f	-0.019961415
243	0x3cbab506	0.022791397
244	0xbdec586a	-0.11540301
245	0x3e553166	0.20819625
246	0xbdfebb59	-0.124380775
247	0xbe59f4cc	-0.21284789
248	0xbdfb3e99	-0.12267799
249	0x3e2c12bf	0.16804026
250	0x3e599b73	0.21250705
251	0xbe96e9ab	-0.2947515
252	0xbd93df59	-0.072203346
253	0x3e324bea	0.17411771
254	0x3d979fba	0.07403512
255	0x3c7f043d	0.015564975

agent,params,ScannedRNN_0,GRUCell_0,in,bias f4 [64]
0	0xbb1212c2	-0.0022289013
1	0x3e454c77	0.1926745
2	0xbddd6972	-0.10811128
3	0xbe0366dc	-0.12832206
4	0xbe42e134	-0.1903122
5	0xbdc7acfa	-0.097497895
6	0x3e230320	0.15919161
7	0xbe147080	-0.1449604
8	0xbe0d0e78	-0.1377505
9	0xbcd7630e	-0.02629235
10	0x3d9eae94	0.07748142
11	0xbdbd3b3e	-0.09239815
12	0xbd916d6c	-0.07100949
13	0xbe7ff218	-0.24994695
14	0x3e5ea8b7	0.21744047
15	0xbe387b1b	-0.18015711
16	0xbda22c02	-0.0791855
17	0xbe32e51e	-0.17470214
18	0xbe11b2a8	-0.14228308
19	0xbe2ed96b	-0.17075126
20	0xbe74333c	-0.2384767
21	0x3dffb094	0.124848515
22	0x3d97b779	0.074080415
23	0xbaca9c52	-0.0015457964
24	0xbd249943	-0.040185224
25	0xbc6d5e91	-0.014487878
26	0x3d745fd7	0.059661712
27	0x3e197195	0.14984734
28	0xbe0ec999	-0.13944091
29	0x3d743443	0.059620153
30	0x3e42273e	0.18960282
31	0x3e6f9d14	0.23399764
32	0x3ea42da9	0.32066086
33	0xbdb0e784	-0.08637908
34	0x3dc70186	0.097170874
35	0xbe02222c	-0.12708348
36	0xbe06efbe	-0.13177392
37	0xbe8404bc	-0.25784862
38	0x3e12ee7e	0.1434879
39	0x3e143240	0.14472294
40	0xbe8b26fc	-0.2717818
41	0x3dca5a3e	0.098804936
42	0xbe1bafb1	-0.1520374
43	0xbe2a2a1f	-0.1661763
44	0xbe9a02be	-0.30080217
45	0xbd8c4c9d	-0.0685055
46	0x3e34587b	0.17611878
47	0x3e0f3b12	0.13987377
48	0x3e1219b5	0.14267619
49	0x3e0db0cb	0.13836972
50	0x3da193c7	0.078895144
51	0xbd23e106	-0.04000952
52	0x3e5f3482	0.21797374
53	0x3e2c4fd6	0.1682733
54	0x3e8e4ab9	0.27791384
55	0x3e1c1a47	0.15244399
56	0x3e862f5d	0.2620801
57	0xbd96e322	-0.07367541
58	0x3e56bcbb	0.20970432
59	0x3e6a040f	0.2285311
60	0x3e28a7e3	0.16470294
61	0xbd814046	-0.06311087
62	0x3de4be34	0.11169091
63	0x3e66cfd8	0.22540224

agent,params,ScannedRNN_0,GRUCell_0,in,kernel f4 [64, 64]
0	0x3e40434c	0.18775672
1	0xbe0342ff	-0.12818526
2	0x3d6c603a	0.057708956
3	0xbc2b2c36	-0.010447552
4	0x3e8b1c51	0.2717004
5	0x3d9e3000	0.07723999
6	0xbe0ed37c	-0.13947862
7	0x3eabcf10	0.33556414
8	0x3e84204c	0.2580589
9	0xbe08ed75	-0.13371833
10	0x3d06d713	0.032919955
11	0x3e048d7a	0.12944594
12	0x3e8c2177	0.27369282
13	0x3dd67827	0.10472136
14	0x3e241cd8	0.16026628
15	0xbd97f5c0	-0.0741992
16	0x3e62505b	0.22100966
17	0xbd846ff7	-0.06466668
18	0x3d8b547c	0.068032235
19	0x3e15d5a0	0.14632273
20	0xbdf09e35	-0.117489256
21	0x3e36e8e4	0.17862278
22	0x3dece9f7	0.11568063
23	0x3c99c2ec	0.018769704
24	0x3e4fe2cc	0.2030136
25	0xbdd4f0f5	-0.103975214
26	0x3dcf44dd	0.101205565
27	0xbd9837bf	-0.07432508
28	0x3db7cf3a	0.08975072
29	0x3dd66de6	0.1047018
30	0xbdbe105b	-0.09280463
31	0x3d8daddf	0.06917929
32	0xbde9e71e	-0.11421035
33	0xbe861b8b	-0.2619289
34	0xbdccf60e	-0.10007869
35	0xbdbf85ce	-0.09351693
36	0x3d86a3e9	0.06574232
37	0xbd2970ca	-0.04136733
38	0xbd84d436	-0.064857885
39	0xbe4ae85a	-0.19815198
40	0x3e8ba083	0.27270898
41	0xbd76d88b	-0.060265105
42	0x3d4c1ac5	0.049830217
43	0x3e47d4c6	0.1951476
44	0x3d93f408	0.0722428
45	0xbe6be094	-0.23034889
46	0xbe3a9174	-0.18219548
47	0x3e2d05fe	0.16896817
48	0x3d1f518f	0.03889614
49	0x3d29c910	0.041451514
50	0xbe9ca35a	-0.30593377
51	0xbb83bc71	-0.0040202667
52	0x3d82eb7b	0.063925706
53	0xbe79ddb0	-0.24400973
54	0xbb900c2d	-0.0043959827
55	0xbe4369e1	-0.19083358
56	0xbd92bb41	-0.07164622
57	0x3e13c43e	0.14430329
58	0x3d929bdd	0.07158635
59	0xbe816ca1	-0.2527819
60	0xbe528467	-0.2055832
61	0x3d01dd9f	0.031705495
62	0x3e9384b5	0.28812185
63	0x3d203e46	0.03912189
64	0x3db59237	0.08865779
65	0xbcebda54	-0.02879063
66	0x3cc672ef	0.024224726
67	0x3dd99209	0.10623557
68	0xbdb1d549	-0.08683259
69	0x3e2c5e37	0.16832815
70	0xbdf15a5b	-0.11784812
71	0x3d584fce	0.052810483
72	0x3ce3c440	0.02780354
73	0x3d85e901	0.065385826
74	0x3e2f7165	0.171331
75	0xbe65dfa2	-0.2244859
76	0x3e1defae	0.15423462
77	0xbe26a421	-0.16273548
78	0xbe5c7734	-0.21529847
79	0xbe0ec374	-0.13941747
80	0x3e4d414d	0.20044442
81	0x3cb26b1c	0.02177959
82	0x3e16eeab	0.14739482
83	0x3d32cf4c	0.043654725
84	0x3e885c0b	0.26632723
85	0xbd87cfb6	-0.066314146
86	0x3de4df3b	0.1117539
87	0xbc7fea96	-0.0156198945
88	0x3de17293	0.110081814
89	0xbced763c	-0.028987043
90	0xbe2ec2c9	-0.17066492
91	0x3cdbc1c2	0.02682579
92	0x3e1dbc5e	0.15403888
93	0xbb0b5f06	-0.0021266355
94	0x3e0e219b	0.13880007
95	0x3c025989	0.007955917
96	0x3d99f55d	0.075175025
97	0xbc27221d	-0.010201004
98	0x3e95e86e	0.29278892
99	0x3d175033	0.03694172
100	0xbdbcae56	-0.092129394
101	0x3e11478d	0.1418745
102	0x3d10f508	0.03538993
103	0xbe31f1a8	-0.17377341
104	0xbd363dc2	-0.04449249
105	0xbd74ca8a	-0.05976347
106	0x3cb931f3	0.022606825
107	0x3da16efd	0.078824975
108	0xbe067997	-0.1313232
109	0x3e73cdbf	0.23808955
110	0x3d2c2cf6	0.042035066
111	0xbe8055d4	-0.25065482
112	0x3cc26b75	0.02373288
113	0xbe12a3e4	-0.14320332
114	0x3e193254	0.14960605
115	0xbdd00531	-0.1015724
116	0xbe0d8245	-0.13819225
117	0x3d73cc0d	0.05952077
118	0xbbf3fa85	-0.0074456357
119	0xbbb0df0b	-0.0053976825
120	0xbd0fa8c2	-0.03507305
121	0x3df1973c	0.11796424
122	0xbdd7bdb9	-0.105342336
123	0x3df0a908	0.1175099
124	0xbe87efa0	-0.26550007
125	0x3e9d5dc4	0.307356
126	0xbe1a6143	-0.15076165
127	0x3d883c43	0.06652119
128	0xbd87794a	-0.06614931
129	0xbe24990d	-0.16074009
130	0x3e0a3c5b	0.13499586
131	0xbe9fffbe	-0.31249803
132	0x3d82fb7b	0.06395622
133	0x3e613790	0.21993852
134	0xbe13dd7f	-0.14439963
135	0x3da0f047	0.07858329
136	0xbcf1041d	-0.029420907
137	0x3d87eef4	0.066373736
138	0xbea65485	-0.32486358
139	0xbd41f0ec	-0.0473489
140	0x3e7b6dee	0.24553654
141	0xbc242170	-0.010017738
142	0xbe85bbda	-0.26119882
143	0x3e283c8e	0.1642935
144	0x3c8e4a22	0.017369334
145	0x3de53bae	0.111930236
146	0xbda56a04	-0.080768615
147	0xbd6582d6	-0.056032978
148	0x3cb31075	0.021858433
149	0xbc051854	-0.008123476
150	0x3dbd8e3f	0.09255647
151	0xbe9b81ec	-0.3037256
152	0x3e33e499	0.17567672
153	0x3ea118d0	0.31464243
154	0x3e253091	0.16131808
155	0x3d355c38	0.0442774
156	0x3e8da13e	0.2766208
157	0xbed71c03	-0.4201356
158	0xbe878641	-0.26469615
159	0xbdf09a4b	-0.11748179
160	0xbe8c9932	-0.2746063
161	0xbee4c2e4	-0.4467994
162	0xbe325000	-0.1741333
163	0xbdc7e352	-0.09760155
164	0x3ca559ff	0.020184515
165	0xbdc20888	-0.094742835
166	0xbe2392c1	-0.15973951
167	0x3d510b6b	0.05103628
168	0xbe61feee	-0.22069904
169	0xbd8fcb8e	-0.07021247
170	0xbdde7a2f	-0.108631484
171	0x3eb12d57	0.34604904
172	0x3e249953	0.16074114
173	0xbbca90f1	-0.006181829
174	0xbd8141d6	-0.06311385
175	0xbc91d5aa	-0.017802078
176	0xbd8ef121	-0.069795854
177	0xbd62a35a	-0.055331565
178	0xbcece0c8	-0.028915778
179	0xbdcec7c1	-0.10096694
180	0xbeb50409	-0.3535464
181	0xbe281dc9	-0.16417612
182	0xbcaa0660	-0.020754993
183	0xbb47cc4f	-0.0030486768
184	0xbeb6b057	-0.35681412
185	0x3dd38779	0.10328574
186	0xbdd0d025	-0.101959504
187	0x3da41486	0.08011727
188	0xbe67b3a6	-0.22627124
189	0x3da9a42b	0.08283266
190	0x3e4b3f75	0.19848426
191	0x3e9b05b8	0.302778
192	0xbde44a15	-0.111469425
193	0xbd91cd89	-0.07119281
194	0x3d22e16a	0.039765753
195	0xbd9355e4	-0.07194117
196	0xbe1383e2	-0.14405778
197	0x3d211d5a	0.039334632
198	0x3dcb6041	0.09930468
199	0xbe00defe	-0.12585065
200	0x3c95b060	0.018272579
201	0xbe13b397	-0.14423977
202	0x3b9de9ee	0.0048191464
203	0xbe7c533f	-0.24641131
204	0xbe009137	-0.12555395
205	0x3cb4b2b4	0.022057869
206	0x3d5abd55	0.053403217
207	0xbe68c578	-0.22731578
208	0xbe6a31d4	-0.2287057
209	0xbe5dd301	-0.21662523
210	0x3e265c7b	0.16246216
211	0xbd4a7d53	-0.049435925
212	0xbe257741	-0.16158773
213	0x3dd7e338	0.105413854
214	0x3e310e56	0.17290625
215	0xbe827c8f	-0.25485656
216	0x3dca698b	0.09883412
217	0x3d9c9db4	0.07647267
218	0xbd514169	-0.05108777
219	0x3e37d2a7	0.17951451
220	0x3d85e1f4	0.06537238
221	0xbe247500	-0.16060257
222	0xbca28146	-0.019837033
223	0x3e14c0df	0.145267
224	0xbc59aa1a	-0.013285184
225	0x3c592b0a	0.01325489
226	0xbe135874	-0.14389211
227	0xbe15dfd9	-0.14636172
228	0x3d03ff3b	0.03222583
229	0xbdd36d57	-0.10323589
230	0x3d391d5a	0.045194007
231	0xbe3f4cfb	-0.1868171
232	0x3cb93ba1	0.022611441
233	0xbdc5667f	-0.0963869
234	0x3e3c092f	0.18362878
235	0x3e37a392	0.17933491
236	0xbe52e56c	-0.2059533
237	0x3dd2e212	0.10297026
238	0x3e59ff0d	0.212887
239	0xbd2e6757	-0.04257902
240	0x3cb4f2a4	0.022088356
241	0x3e0eb7d2	0.1393731
242	0xbd8aff4c	-0.06786975
243	0x3e27d884	0.16391188
244	0x3d692f03	0.0569296
245	0x3e9c9891	0.3058515
246	0xbdf5c0b3	-0.11999645
247	0x3e9b002a	0.30273563
248	0x3db3b5f3	0.087749384
249	0x3d374d83	0.044751655
250	0xbc9ad4cd	-0.0189003
251	0x3e9bea8c	0.30452383
252	0xbd1e6785	-0.038672943
253	0x3d52134c	0.051287934
254	0xbd38f9c4	-0.04516007
255	0x3e131add	0.14365716

agent,params,ScannedRNN_0,GRUCell_0,ir,bias f4 [64]
0	0x3bb4c4b3	0.0055166124
1	0xbdbcdb69	-0.09221537
2	0xbd73b892	-0.05950219
3	0xbe02f44d	-0.12788506
4	0xbd8a5506	-0.06754498
5	0xbe1892e0	-0.14899778
6	0xbd878377	-0.06616872
7	0xbd5fa2bd	-0.05459856
8	0xbcc8fb8e	-0.024534013
9	0x3cc6c36b	0.024263104
10	0x3d4cb116	0.04997357
11	0xbe0cac41	-0.13737585
12	0xbd97eb20	-0.074178934
13	0x3ced340d	0.028955484
14	0xbcbcac30	-0.023031324
15	0x3d16398a	0.036675967
16	0xbddca7bd	-0.10774181
17	0xbd97e96d	-0.07417569
18	0xbd8cf364	-0.068823606
19	0xbdd49b09	-0.10381133
20	0xbdab0865	-0.083512105
21	0xbe10a85b	-0.14126723
22	0x3ca7eae2	0.020497743
23	0xbdc94d33	-0.09829178
24	0xbe10a582	-0.14125636
25	0xbd8de9f4	-0.06929389
26	0xbd832eca	-0.06405409
27	0xbdedb9e2	-0.1160772
28	0xbddbda5e	-0.107350096
29	0xbd26b24f	-0.040697392
30	0x3c95bd65	0.018278787
31	0xbd75e55b	-0.060033184
32	0x3d811c5f	0.063042395
33	0xbe31d4dd	-0.17366357
34	0xbd1963e2	-0.03744877
35	0xbcffb68a	-0.031214971
36	0xbdbc291d	-0.09187529
37	0x3db2ab15	0.087240376
38	0x3d1ea50b	0.038731616
39	0xbe923ecf	-0.28563544
40	0x3d43aeda	0.047774173
41	0xbd6352cf	-0.055498894
42	0xbe1d720e	-0.1537554
43	0xbd9b234b	-0.07575091
44	0x3c0c01d4	0.008545358
45	0xbdb8b03e	-0.090179905
46	0x3ade29e7	0.0016949744
47	0xbd3a1753	-0.0454324
48	0xbdfd065f	-0.12354731
49	0xbc63aa92	-0.013895648
50	0xbdfa5254	-0.12222734
51	0xbe82c032	-0.25537258
52	0xbd371fb0	-0.044707954
53	0xbd9491e9	-0.07254393
54	0xbd878f09	-0.06619079
55	0xbdf352c3	-0.1188102
56	0x3b25605c	0.0025234437
57	0xbd23fcb2	-0.04003591
58	0x3cf9b17a	0.030480135
59	0xbd101801	-0.035179142
60	0xbd82b8e6	-0.06382923
61	0xbd9d493a	-0.076799825
62	0xbcc032af	-0.023461668
63	0xbddfc7de	-0.109267935
