baselines/QLearning/checkpoints/MPE_simple_reference_v3/iql_ps.safetensors (safetensors, 119816 bytes, 14 tensors)

params,Dense_0,bias f4 [64]
000000 ae 6a f8 bd b2 b6 17 bd 69 6a 54 be 93 2b be bd
       -0.121297225 -0.037039466 -0.20743717 -0.09285655
000010 78 01 98 3c b9 f3 42 3d bc 4d fa bd 03 58 ab bd
       0.018555388 0.047595713 -0.12221858 -0.08366396
000020 64 f2 29 be e7 b1 47 be 63 45 e5 be a6 37 0c be
       -0.16596371 -0.19501458 -0.447795 -0.13693103
000030 56 59 1a be b3 75 4e be 22 ad a4 bc 49 e3 36 be
       -0.15073141 -0.20162086 -0.020102087 -0.1786014
000040 b5 65 70 be 00 28 81 bc 91 c3 01 bd f0 e7 56 be
       -0.23476298 -0.015766144 -0.031680647 -0.20986915
000050 ec a6 19 be 48 a4 31 be 2a b4 84 bc 31 ae e6 bd
       -0.15005082 -0.17347825 -0.01619919 -0.11263693
000060 4f 2d 38 be 77 38 57 be 01 c6 40 be 7f 4c b7 bd
       -0.17986034 -0.21017633 -0.18825532 -0.08950137
000070 7f 03 13 bd 0c f9 d4 3c 1b 4b 03 bd b8 a9 3b be
       -0.035892006 0.025997661 -0.032054048 -0.18326461
000080 41 14 13 be e9 5d 51 be e1 1f 8c be d5 a0 a5 be
       -0.14363195 -0.2044598 -0.27368072 -0.32349268
000090 35 99 af be 54 33 92 be ce 35 92 bc d6 bd a2 be
       -0.34296575 -0.28554785 -0.017847922 -0.31785458
0000a0 89 e7 96 be 75 3a 3e be dd d1 ef be ee f7 3a be
       -0.29473522 -0.18576987 -0.468398 -0.1825864
0000b0 d0 1a 02 be da ca 68 be b1 4f a5 3d ab d3 65 be
       -0.1270554 -0.22733632 0.080718406 -0.22444026
0000c0 f8 00 91 be d9 7d a7 be 8e f8 cc bd 9f 52 1c be
       -0.28321052 -0.32713202 -0.100083455 -0.15265892
0000d0 ea 6a 41 3c 85 01 5e be cd e4 3e be 1e 93 91 be
       0.011805275 -0.21680267 -0.18641968 -0.28432554
0000e0 3b 07 82 be 06 67 55 be 77 18 32 be 41 af 84 be
       -0.2539614 -0.20840082 -0.17392145 -0.25914958
0000f0 98 23 52 bb a4 67 76 be 06 af a8 be ce e6 06 bd
       -0.0032064673 -0.24062973 -0.32946032 -0.032934956

params,Dense_0,kernel f4 [23, 64]
000000 31 fc 28 3d 24 71 e1 3d 48 3b 00 3e 07 7b f4 bd
       0.041256133 0.11007908 0.12522614 -0.11937528
000010 04 e0 6e be a9 66 bc 3e 67 8a 9d 3e ae 0e f6 3d
       -0.23327643 0.36797073 0.30769655 0.12014519
000020 67 71 5d 3d ab c5 88 3c 3a 8b 42 3e 80 ae 86 be
       0.054063227 0.016695818 0.18998423 -0.26305008
000030 d2 99 37 bd ff e2 5a 3d 7f f4 89 3e 63 73 43 be
       -0.04482443 0.053439137 0.26944348 -0.19086985
000040 08 19 57 be 85 9d 19 be df 16 12 bc 8c 57 03 bd
       -0.21005642 -0.15001495 -0.008916586 -0.032065913
000050 e6 a4 2b bd 0c 59 83 3c d0 75 0b bd 69 d6 16 bd
       -0.041905306 0.016033672 -0.0340479 -0.03682557
000060 07 4a 07 bf b0 46 19 3e 11 87 86 bd a7 1b 10 3e
       -0.5284733 0.14968371 -0.065687306 0.14073049
000070 00 6f 4a be 22 84 90 be 41 f8 ab be e1 65 8c bd
       -0.19768906 -0.2822581 -0.3358784 -0.06855369
000080 ea 42 9a 3e ed ac 9e 3e 30 18 fd bd 05 a0 15 3d
       0.30129176 0.30991307 -0.12358129 0.03652956
000090 5a 37 ea bd b4 d8 44 3e bd 0b 7b 3e bb 7c 5a 3e
       -0.11436339 0.1922329 0.24516197 0.21336643
0000a0 c6 85 3f be 36 0c ae 3d ef 9f 20 be 66 ef 55 3b
       -0.18703374 0.08498423 -0.1568601 0.0032643913
0000b0 7c a7 49 3e e5 3b ea bd c4 bb 11 be 7c 0a 23 3e
       0.19692796 -0.11437205 -0.14231783 0.15921968
0000c0 de cd bc bd db ed 16 bd a3 3e 62 3e a0 45 af 3d
       -0.092189535 -0.03684793 0.22094207 0.08558202
0000d0 09 17 8e be 10 e5 a2 be 69 69 7b 3e eb 3b 1f 3d
       -0.2775195 -0.31815386 0.2455193 0.0388755
0000e0 06 7c a5 3e d9 f3 51 bc dd bc 44 3d df e7 32 be
       0.32321185 -0.0128144855 0.048031677 -0.17471264
0000f0 7a 1b 4b 3c 70 45 31 bb c7 91 d5 be 51 6b c1 3e
       0.012396688 -0.0027049445 -0.41712782 0.37777188
000100 fa 65 1a 3e 44 65 0d 3d 83 89 c4 bc fc 1f 69 bd
       0.15077963 0.034520403 -0.023991352 -0.05691527
000110 99 f9 03 3e 91 fd 97 3d b1 15 bd bd 8a 43 ee bd
       0.12888183 0.07421411 -0.09232653 -0.11633976
000120 7c 29 ad 3e 51 40 2d be 7f 6d a8 3c 31 4e 25 bd
       0.33820713 -0.16919066 0.020560024 -0.040357772
000130 1e 46 bb 3b 23 7c d6 bb b1 43 98 be f9 b6 bb bd
       0.0057151457 -0.00654556 -0.29739144 -0.09165759
000140 f7 e2 a9 bd 84 94 8d 3e 1b bd 7a 3e 24 ec 36 be
       -0.08295243 0.2765237 0.244862 -0.17863518
000150 d2 45 45 3e 4a 07 c7 3a b1 54 5f 3d e9 f3 82 be
       0.19264916 0.0015184667 0.054524127 -0.25576714
000160 1e 2d 6d be 14 21 bb bd 79 c9 4d 3e b3 52 8a 3e
       -0.23161742 -0.091371685 0.20096387 0.2701622
000170 21 80 88 be 4e 78 81 3e e3 c3 aa bc 60 c4 5a 3e
       -0.26660255 0.25287098 -0.02084536 0.21363974
000180 56 d1 c9 3d d3 23 9e bd 40 89 0a be 1a 0f 9f 3d
       0.09854381 -0.07721677 -0.13528919 0.07766552
000190 f2 1e 44 3d 35 35 79 3d 0c 38 03 3f 81 3a d1 bd
       0.047881074 0.060841758 0.51257396 -0.10216237
0001a0 d8 ec 42 be f4 7d 39 38 18 a0 ac 3c fa ce f2 3d
       -0.19035661 4.422474e-05 0.021072432 0.11855884
0001b0 e4 5e 85 bb 69 a0 d3 bd 1b 13 a6 bd e9 de 83 bb
       -0.0040701497 -0.1033333 -0.08109113 -0.0040243757
0001c0 d2 05 63 3e 67 b0 33 3e 0c 22 81 3e 07 d1 b7 be
       0.22170189 0.17547761 0.25221288 -0.35901663
0001d0 28 e1 78 3c 27 2a b9 bd b2 8d c2 bc aa 87 22 be
       0.0151904 -0.09041243 -0.023749206 -0.15872064
0001e0 2f 3b 6c 3d 61 35 24 3d 0f ea 2c be be d6 76 bc
       0.05767363 0.04008997 -0.16886161 -0.015065847
0001f0 1f 38 9a be eb a9 0e bd bf 49 42 be 53 2c 1b be
       -0.30120942 -0.034830015 -0.18973444 -0.15153627
000200 75 8d 27 3e e4 4c 40 be f6 5a 9d 3e 53 47 d4 bd
       0.16362555 -0.18779331 0.3073346 -0.103651665
000210 cc 9e 86 3e 1e 57 41 bf 5d 73 f5 be 72 22 f5 3d
       0.26293027 -0.75523555 -0.47939578 0.119694605
000220 cc 84 74 3e 1c 69 00 3e ee a3 50 bf 9f 8e 79 3f
       0.23878783 0.12540096 -0.81500137 0.9748325
000230 4e fe 5c be 8c 70 d5 be 83 7c eb be 61 9f 89 3e
       -0.21581385 -0.4168743 -0.45993432 0.2687941
000240 15 cc 47 be 2c 0d 9e 3e a4 db 3f 3e a3 75 71 3d
       -0.19511445 0.30869424 0.1873613 0.058950078
000250 c8 e0 37 3e 1f 12 c5 3e a0 08 f9 3e 91 6c 3d 3d
       0.17956841 0.38490388 0.48639393 0.046246115
000260 11 39 64 bd ef e4 88 bd a5 8e e7 bd ed a3 5e be
       -0.055718485 -0.066842906 -0.11306504 -0.2174222
000270 9f 7b 0e 3f 0b 88 fd 3d 87 c7 f1 3c eb bc b4 3d
       0.5565738 0.12379464 0.029514087 0.08825096
000280 5f 1d 63 bf 7e 6a 84 bf 39 07 f7 be 95 1d ee 3d
       -0.8871669 -1.0344999 -0.48247698 0.11626736
000290 2d 07 ab be 61 80 ce 3c b9 5f b6 3d 33 d6 c4 3e
       -0.33403912 0.0252077 0.089049764 0.3844467
0002a0 7a 9f dd bb 96 ee cd be 91 9f 53 3f e0 1a b5 3c
       -0.006763396 -0.4022109 0.82665354 0.022107542
0002b0 7b bb e9 3e 12 f1 8c 3e 9a c8 03 3f 3f 53 12 bd
       0.4565085 0.27527672 0.5147797 -0.03572392
0002c0 03 6c c7 bd 22 40 09 be 86 aa 98 bd f1 e7 8f be
       -0.097373985 -0.13403371 -0.074544 -0.28106645
0002d0 49 73 9e be a4 96 66 be 59 38 5a 3e b6 f8 82 3d
       -0.3094733 -0.22518402 0.21310557 0.06395094
0002e0 0c 1b cb bd ee 5f a7 3c 86 0c fd bc 75 75 9c be
       -0.09917268 0.020431485 -0.03088976 -0.30558363
0002f0 24 da 81 bb ff 5c 10 be f8 3d 2d be 72 1d ee 3c
       -0.003962772 -0.14097975 -0.1691817 0.029066775
000300 cf 2d 4d 3b 31 15 d7 3d c8 fd fc 3e 45 47 55 3e
       0.0031307822 0.10502089 0.4941237 0.20827968
000310 89 15 2b bf 71 fe 46 be c0 e2 26 3d f7 13 2b 3e
       -0.66829735 -0.19432999 0.04074359 0.16706835
000320 d3 dc c5 bc 14 38 7b be 6f 5b ac 3d 1a 4e db 3c
       -0.024153149 -0.24533111 0.08415877 0.02677064
000330 e4 0e 36 bc 6b a9 1f 3f 67 87 16 3d 20 e9 3c 3d
       -0.011111949 0.62367886 0.036750223 0.046120763
000340 bf 91 8a be e1 d8 b8 bd 34 17 78 3e ee 02 aa be
       -0.2706432 -0.09025741 0.24227601 -0.3320536
000350 57 48 aa 3e f6 f6 04 bf c6 51 1a bf 23 48 32 be
       0.33258316 -0.5193933 -0.60281026 -0.1741033
000360 14 73 31 3f 11 2e 9f be ac 63 14 3e d6 1e 4d bf
       0.6931622 -0.31089833 0.14491147 -0.80125177
000370 35 9a 24 3f fd 0e 63 3c a7 df 0c bc 9d 83 86 bf
       0.642978 0.013858554 -0.008598245 -1.0508915
000380 09 51 a6 3d 1c 72 3c be d5 46 5e 3e 14 6c 04 3f
       0.08120925 -0.18402904 0.21706708 0.51727414
000390 75 a7 9e bd ed 31 4e bd 5a fb da 3d ac 8d 07 be
       -0.07746784 -0.05034058 0.10692473 -0.13237637
0003a0 60 d7 1b bf 01 24 d4 be c1 99 4e 3e 42 5c 93 be
       -0.6087551 -0.4143372 0.2017584 -0.28781325
0003b0 f9 2d 8f 3d ac 58 e4 bd ef 1a e5 3d 2d ae 7e be
       0.069911905 -0.11149725 0.11186778 -0.2487113
0003c0 d4 07 b9 3d 1c 6f 3d 3e 5d cc 8c 3d 8a 17 7e 3e
       0.09034696 0.18499416 0.06874917 0.24813667
0003d0 2f b9 f8 bd 4b 0d 34 bd 3e f7 b3 3d a5 6d 16 bf
       -0.12144696 -0.04395799 0.08787392 -0.58761054
0003e0 c3 1c 50 bd 1f 96 03 be bd de 78 3f e8 0d 86 b9
       -0.05080868 -0.12850235 0.9721487 -0.00025568833
0003f0 ff d9 8d bc c3 50 49 3d 1e 21 2f be 2a 3e 0e 3e
       -0.017315863 0.049149286 -0.17102477 0.13890901

params,Dense_1,bias f4 [50]
000000 70 42 ba be db 45 ed be 65 6d b3 be 19 02 d5 be
       -0.36378813 -0.46342358 -0.350444 -0.41603163
000010 46 95 dc be 97 44 c1 be 69 37 df be 90 49 e3 be
       -0.43082637 -0.37747642 -0.43596962 -0.4439206
000020 c8 78 c4 be 04 2f f5 be 0d 5d a9 be dd 9a bd be
       -0.383734 -0.47887433 -0.33078805 -0.37032214
000030 af 90 dc be 51 45 e9 be 53 83 e7 be ca 3d cf be
       -0.43079135 -0.45560697 -0.4521738 -0.4047683
000040 b1 9e e7 be 38 a5 a8 be 3c ed e1 be 90 9f c0 be
       -0.4523826 -0.32938552 -0.44126308 -0.37621737
000050 10 72 e2 be 16 8a e6 be e8 58 e4 be f7 28 f0 be
       -0.44227648 -0.45027226 -0.4459908 -0.46906254
000060 0a 44 e7 be c9 29 c2 be 27 8b ce be 45 02 d6 be
       -0.45169097 -0.37922505 -0.4034054 -0.41798607
000070 f3 fe f7 be 78 02 cb be e5 df aa be ff 88 d3 be
       -0.48436698 -0.3965032 -0.33373943 -0.41315457
000080 ca 11 0a bf 45 6a ab be 5d 33 e2 be 26 07 e3 be
       -0.53933394 -0.33479515 -0.44179812 -0.4434139
000090 95 e9 c6 be 21 d4 e2 be ee 0e d6 be d8 67 e3 be
       -0.38850084 -0.44302467 -0.41808265 -0.44415164
0000a0 da e9 d2 be 0f c7 ef be 15 ac f2 be 96 58 bb be
       -0.4119404 -0.46831557 -0.47396913 -0.36591023
0000b0 8d 96 d9 be 52 fd b9 be ba c6 c5 be 88 6e e2 be
       -0.42497674 -0.3632608 -0.3862818 -0.44224954
0000c0 58 fd ef be f8 1e 06 bf
       -0.46872973 -0.52391005

params,Dense_1,kernel f4 [64, 50]
000000 24 73 93 3d ee 8e d4 3d 5f e5 ac 3e d9 e4 6d 3e
       0.07199696 0.10378824 0.33768746 0.2323183
000010 4a d9 df 3e 54 c4 db 3e 94 0b f0 3e ba 38 82 3e
       0.43720466 0.42923224 0.46883833 0.25433904
000020 c3 a1 a3 3e 3c ce 2d bd ff c2 be 3e e7 b8 27 3e
       0.31959352 -0.04243301 0.37258145 0.16379128
000030 57 5d d2 3e 01 20 32 3e b8 73 ac bd 4a 85 c4 3e
       0.41086838 0.17395021 -0.08420509 0.3838294
000040 94 7b 87 3e 63 3b 7c bc 26 ae 9f 3e 36 99 a6 3e
       0.2646147 -0.015395018 0.31187552 0.32538766
000050 37 b7 d7 3e 61 c5 43 be af 6e a1 3e 20 62 ce 3e
       0.4213197 -0.19118263 0.31529757 0.40309238
000060 7d 82 b7 3d 12 10 87 bb 71 76 b7 3e cf 91 b6 3d
       0.089604355 -0.004121789 0.3583255 0.089145295
000070 6b fa 3b 3f 14 d7 d1 3e fe ad 9e 3e fc 5f 26 3d
       0.7342898 0.40984404 0.3099212 0.04061888
000080 61 10 05 3f 15 f3 06 3d af 60 0e 3f f3 bc fd 3d
       0.5197812 0.032946665 0.5561628 0.12389555
000090 eb 7e fc bd ea eb 6d 3e f3 6f db 3e 6f ed b5 bd
       -0.12328895 0.23234525 0.42858848 -0.088831775
0000a0 90 96 32 3e 29 a6 b1 3d 6e 87 c8 3e 0b ca e3 3e
       0.17440248 0.08674271 0.39165825 0.44490084
0000b0 b3 b6 85 bd 10 b6 9e 3e 5b de 10 3f 09 87 d3 3d
       -0.06528988 0.30998278 0.5658929 0.1032849
0000c0 db 6c e2 3e 8b 0f 3d 3d f3 25 b5 3e 1b c4 8b bd
       0.44223675 0.0461574 0.35380515 -0.068245135
0000d0 3d 8d ba 3c 82 81 b6 3e 08 e5 7e 3e a3 79 ae 3e
       0.022772426 0.35645682 0.24892056 0.34077176
0000e0 db 47 32 3e af 5f 81 3d 24 9e dc 3e 9e 6c 92 3d
       0.17410223 0.06317078 0.43089402 0.07149623
0000f0 d5 aa 00 3e d5 5e d5 bd 3e 59 bf 3e cf 6e f4 3d
       0.12565167 -0.104184784 0.37372774 0.119351976
000100 36 32 8b 3e 4a 5a 1c 3e b2 4e e0 3e a2 81 8d 3e
       0.27186745 0.15268818 0.4381004 0.27637964
000110 83 13 9f 3d 27 87 8a 3e 80 36 04 bd c7 e3 ad 3e
       0.077673934 0.27056238 -0.032278538 0.33962843
000120 e2 f6 9d 3d 35 de 40 bd 33 80 e0 3d f4 e3 e0 3e
       0.07713105 -0.047086913 0.10961952 0.43923914
000130 5b 8a 65 3d 6d 6a 13 3f 0f 19 0a 3f 9e a9 04 be
       0.05604015 0.5758427 0.53944486 -0.12955329
000140 1c b5 f1 3c d9 ae 98 3e ff a4 63 3e ae 0d b7 3c
       0.029505305 0.29820898 0.2223091 0.02234539
000150 02 48 82 3e c7 cf 49 be 75 b4 8d 3d 1f c2 82 3e
       0.25445563 -0.19708167 0.06919185 0.25538728
000160 71 29 8e 3e 97 d4 f8 3d 5b 63 c2 3e 91 39 6e 3e
       0.27765992 0.12149923 0.37966427 0.23264147
000170 20 a6 ab 3e 9e 27 ea bd b8 3c ed 3b 93 5b de 3e
       0.3352518 -0.11433338 0.0072399043 0.4342924
000180 61 13 e9 3e 32 b4 fd 3e 20 c8 0b be f9 3b 09 be
       0.45522597 0.4955154 -0.1365056 -0.13401784
000190 b7 4b ab bd 0f f0 27 be 8e dc 01 bf 94 72 8a be
       -0.08364051 -0.16400169 -0.50727165 -0.2704054
0001a0 6e 57 98 be 04 f2 7f bd a3 80 0b bf 56 14 4c 3b
       -0.29754204 -0.062486663 -0.5449316 0.003114005
0001b0 84 8c 9f be 14 f5 8f bd 51 ca 6f be 29 47 f6 bc
       -0.31161892 -0.07029167 -0.23417021 -0.030063229
0001c0 1f 60 4e bf 18 58 0d bf ca 04 51 be 88 27 0b bf
       -0.8061542 -0.55212545 -0.20411983 -0.54357195
0001d0 4d db 2b be 20 cb 18 bf 99 9f 89 be 28 51 dc bd
       -0.16782875 -0.59684944 -0.26879576 -0.10757667
0001e0 89 19 b4 be 1f cb f0 be 74 59 3c be 5c 72 c7 be
       -0.35175732 -0.4702997 -0.18393499 -0.38954437
0001f0 03 5b 1b bf 40 e6 39 be a9 9c f5 be 8b 61 a3 be
       -0.6068575 -0.1815424 -0.47971085 -0.31910357
000200 67 d3 fe bd e1 5a 91 3d d5 3b 21 be f7 5f 8a be
       -0.124426655 0.07097412 -0.1574548 -0.2702634
000210 92 39 a8 be 6b 02 43 be 67 62 37 be 59 72 87 be
       -0.32856423 -0.19043891 -0.17908631 -0.26454428
000220 1b a0 05 bf 0a e4 87 be 33 28 87 be 7c d7 61 be
       -0.52197427 -0.26541167 -0.26397857 -0.22054857
000230 42 53 ab be be ca d6 bd b6 a9 2d 3d 8c d9 cb 3b
       -0.33461958 -0.10487889 0.042398177 0.006221002
000240 75 cf 0f be 3e ea a1 be 40 e2 dc be 83 b1 d3 be
       -0.14043982 -0.31624025 -0.43141365 -0.41346368
000250 72 fe 8d be 89 be 02 bf 18 69 fb bd 36 aa ff be
       -0.2773319 -0.51071984 -0.122759044 -0.49934548
000260 5e 5d 91 be ab f4 39 be b7 0e cd be e3 a3 b9 3d
       -0.28391546 -0.1815974 -0.4005029 0.09064462
000270 ca 28 cc bd 52 26 37 be 87 58 00 bf 9e ac 0e bf
       -0.099687174 -0.17885712 -0.5013508 -0.5573214
000280 6d 72 56 be 75 66 c8 be 27 b1 09 be c6 bb 6b be
       -0.20942087 -0.3914067 -0.13446485 -0.23020849
000290 94 b3 0b bf 30 03 3e bf 4f c4 82 3e fc e1 a1 be
       -0.5457089 -0.74223614 0.25540397 -0.31617725
0002a0 3a 7e 65 be 9f 68 05 bf 22 b3 f6 be ce 65 b6 3b
       -0.22411433 -0.52112764 -0.48183542 0.0055663353
0002b0 4d ac e6 be 45 da 77 be 4b 81 7a 3c 94 7f db be
       -0.4505333 -0.24204357 0.015289615 -0.42870772
0002c0 7f ca 99 be d4 20 a0 be b5 12 09 bf 8e 59 83 be
       -0.30037305 -0.31275046 -0.5354417 -0.25654262
0002d0 7f d3 c4 be c0 c8 fa bd fb be 8c bd 2f 48 fa be
       -0.3844261 -0.12245321 -0.06872364 -0.48883197
0002e0 fd bc 31 bf 02 c5 ad be 10 c4 9f be ea 11 cc 3d
       -0.69429 -0.33939368 -0.3120427 0.09964354
0002f0 93 e4 7e be 21 ef 31 bf 96 e0 14 bf 7d dd 08 bf
       -0.24891882 -0.69505507 -0.5815519 -0.53462964
000300 d5 22 a5 3c 7d 72 fc bd 78 52 10 bf 41 16 29 bf
       0.02015821 -0.123265244 -0.5637584 -0.6604958
000310 ce 44 d3 be c9 f4 f5 be 95 12 29 3d e9 85 05 be
       -0.4126343 -0.4803832 0.041277487 -0.13039364
000320 d6 6d 64 bd 68 9c 9f 3e 47 98 0d be fd e0 15 3f
       -0.05576881 0.31174016 -0.1382762 0.5854643
000330 b3 32 9d 3e 5e dc 9a 3e e0 77 2c 3e 14 28 9b 3e
       0.30702743 0.30246252 0.16842604 0.30304015
000340 83 40 26 3e 35 2f c7 3d b6 03 b3 bd 9c 11 39 3e
       0.16235547 0.09725801 -0.08740942 0.18073124
000350 eb c3 31 3d 7f 26 8a 3e 7c 2c 0b 3f 38 e6 61 3d
       0.043399733 0.26982495 0.5436475 0.055151194
000360 ff 81 d1 3e ec 45 95 3e 81 7a c0 3e a0 6c 76 3e
       0.40919492 0.2915491 0.37593463 0.24064875
000370 e8 07 97 3e e5 11 9b 3d 75 b1 21 ba 6a 09 bc 3e
       0.2949822 0.075717725 -0.0006168106 0.36725932
000380 cb 2a 4c 3e 4e 7a 13 3e 40 dd f6 3e e7 71 19 3f
       0.19938199 0.14402124 0.48215675 0.59939426
000390 81 1f f7 bc c4 07 97 3e e8 1f da 3e 78 bd 33 3e
       -0.03016639 0.29498112 0.42602468 0.17552745
0003a0 c9 46 a3 3e 9c 1f 9a be bf 7e b3 3e db 2e cf 3e
       0.31889942 -0.3010224 0.35057637 0.40465435
0003b0 63 bd c1 3d c1 0b a2 3e 1a 49 27 3e 95 b1 68 3e
       0.09459951 0.31649593 0.1633648 0.22723992
0003c0 d2 b1 ab 3e 9b 3c 0b 3f bc 49 a5 3d 75 83 2c 3e
       0.33534104 0.5438935 0.08070704 0.16847022
0003d0 a1 7d b4 3e df 7d f4 3e 0b 1c 98 3d 26 ff ba bc
       0.35252097 0.47752282 0.07427224 -0.022826742
0003e0 c6 fe ad 3e dd 9e d6 3e f2 ec bc bd 75 a2 b6 be
       0.3398344 0.41918078 -0.09224881 -0.3567082
0003f0 9d 31 bf be 67 33 87 bd cc b2 62 3e ce 6d 71 bd
       -0.3734254 -0.06601601 0.22138518 -0.05894261

params,ScannedRNN_0,GRUCell_0,hn,bias f4 [64]
000000 8d 00 8a be cc a0 cb bd 0e 22 11 3e 32 d1 7d 3e
       -0.26953545 -0.09942779 0.14173147 0.24786833
000010 5e 20 5b be 74 22 d4 3c 45 ed 95 be 62 96 4a 3e
       -0.21399066 0.025895335 -0.29282585 0.19783929
000020 9a ad 83 3e 66 19 5e 3e c2 c9 a5 be 49 7b 96 be
       0.25718385 0.21689376 -0.32380491 -0.29390934
000030 22 95 da 3d 95 2f 03 be 08 6a 89 3e 5b 3c a7 be
       0.10672976 -0.1281112 0.26838708 -0.32663235
000040 46 ee 5d 3e 8b eb 98 3d 2e 96 8a be 9e 11 9d be
       0.21672925 0.07466801 -0.27067703 -0.30677503
000050 ab 07 60 3e 5d 89 5c 3e 63 bf b5 bc b9 1a eb bd
       0.21877925 0.21536775 -0.022185987 -0.11479706
000060 5c b2 90 3e 04 a4 5c 3e fd 37 1e 3e 81 94 8a 3e
       0.28261077 0.21546942 0.15451045 0.27066424
000070 27 c0 8e be 2b 78 97 be f4 ca b0 be 84 e3 70 be
       -0.27880976 -0.29583868 -0.3452984 -0.2352429
000080 4b a0 4b 3e ff aa a4 3e 19 56 91 3e 08 11 88 be
       0.19885366 0.3216171 0.28386 -0.26575494
000090 21 9f 61 be 20 a7 34 3d 2c cb 53 3e 08 a8 ba 3e
       -0.22033359 0.044104695 0.20682973 0.36456323
0000a0 17 2b 10 3e eb 75 8b be 46 ce cc 3d 88 0d 90 3e
       0.14078937 -0.27238402 0.10000281 0.28135324
0000b0 5e b3 db 3c d4 60 49 3e 6b 4f 82 be d0 78 4f be
       0.026818927 0.19665843 -0.25451216 -0.2026093
0000c0 08 25 13 be 46 fd 91 be 49 68 17 be d4 22 0b 3e
       -0.14369595 -0.28513545 -0.14785875 0.13587505
0000d0 57 fa 4f 3e 2e 86 8e 3e 85 68 2e be bc ac 47 be
       0.20310341 0.27836746 -0.17032059 -0.19499487
0000e0 cd 57 77 be 0b 3d 0c be a8 cb 63 3e 58 e6 12 bd
       -0.24154587 -0.13695161 0.22245657 -0.035864204
0000f0 37 3c 06 3e 87 c7 c7 3d d0 5f d6 bd 52 07 25 be
       0.13108908 0.09754854 -0.104674935 -0.16116074

params,ScannedRNN_0,GRUCell_0,hn,kernel f4 [64, 64]
000000 3b f7 df be 3a df 9c bd 7a c9 fc 3c a4 17 f1 bd
       -0.4374331 -0.076597646 0.03085779 -0.11772087
000010 a7 cc 40 bd aa 97 69 bc e7 d2 a0 38 bc e9 4c 3e
       -0.04707017 -0.014257351 7.668678e-05 0.20011038
000020 ac 51 5b 3e b2 cb 1a 3e eb 68 9e be 31 8c 8a 3b
       0.21417874 0.15116766 -0.3093942 0.004228138
000030 16 bf 4a 3d e5 2d 21 be 7f 15 83 bd bd 30 2d 3d
       0.04949864 -0.15740164 -0.064005844 0.04228281
000040 f8 f2 5c 3c 4d 95 e7 bc aa 57 87 be 30 bb b7 3a
       0.013485663 -0.028269434 -0.2643407 0.0014017578
000050 e3 84 a6 3e 50 4a bc 3d fb 62 58 be 5e 56 8b bd
       0.3252326 0.091938615 -0.21131508 -0.068035826
000060 0f 36 ce 3d 80 e4 16 be 9f 62 01 3c 3d 1a b6 3d
       0.100689046 -0.14735603 0.007897048 0.08891723
000070 8d 10 39 bd 01 e5 ca 3d fc d9 2a 3e 38 04 47 3d
       -0.0451818 0.0990696 0.16684717 0.048588008
000080 aa bf 0b 3b 10 74 8f bd 6b a9 9b 3c 12 3f b1 bd
       0.0021323957 -0.07004559 0.019001683 -0.08654608
000090 78 37 3f be 4d 04 86 3d 30 77 48 3b 3b bc f1 3d
       -0.18673503 0.06543789 0.003058862 0.1180348
0000a0 cc dc e1 3d 3c 48 bc bc 1a a7 85 be 89 7e e9 3d
       0.11028442 -0.022983663 -0.2610405 0.11401088
0000b0 e0 fe 3c bd 53 5b 01 3e 31 1d 24 bd 65 00 be be
       -0.046141505 0.12632494 -0.0400669 -0.37109676
0000c0 b1 a2 91 bd 3e c3 a2 bd 6b 18 01 bd b9 fa 77 bd
       -0.07111109 -0.07947396 -0.031517427 -0.060541842
0000d0 f4 9b 82 3d 74 20 8e bd b3 bf d9 bd 1e f3 e6 3d
       0.06377402 -0.06939784 -0.10632267 0.1127684
0000e0 0a 8b 58 3d 0f b0 d0 ba ff d2 bd 3d 56 ea 11 be
       0.052866973 -0.001592161 0.0926876 -0.14249548
0000f0 ef 49 d9 3d 8e e4 88 bd dc df ee 3d 1b 02 55 bd
       0.10609805 -0.06684218 0.116637915 -0.05200396
000100 30 d0 7c 3d 4a 64 95 be 25 a2 64 3e 64 95 b4 3c
       0.06172198 -0.29178077 0.22327478 0.022043891
000110 ed 49 8b bd c4 87 c8 3d 83 51 91 bd e7 e7 ce bd
       -0.068012096 0.0979152 -0.07095625 -0.101028256
000120 3f 4d 52 3d 44 8c e1 3c 63 82 8b bc 0b 70 bb 3d
       0.0513432 0.027532704 -0.017029947 0.0915223
000130 16 d0 21 3e 94 cc 98 bd 59 e7 ff 3c d7 82 a2 be
       0.15802035 -0.07460895 0.031238245 -0.31740448
000140 00 4a e6 3d 52 64 11 3e ec 03 6c 3d 82 cb d7 bd
       0.11244583 0.14198425 0.057620928 -0.10536863
000150 40 49 85 3e 1e a1 97 3e 5f 2c c8 3c 0e 7a 4b 3d
       0.26032448 0.2961511 0.02443522 0.049676947
000160 2b b9 54 be 72 6b b2 bb 7a 5d 04 3e 84 91 d8 bd
       -0.20773761 -0.0054449374 0.12926283 -0.1057463
000170 7d d4 06 3d ae e7 96 3d 9f 19 69 3d f4 0a 81 be
       0.03291749 0.07368408 0.0569092 -0.2520367
000180 57 85 09 3a ee 7e 0f 3e c8 50 2f 3d b2 0a da 3d
       0.00052460044 0.14013264 0.04280165 0.10646571
000190 a2 4e 1d be e4 9b 47 be 3b 21 ca 3d 18 1e 26 3e
       -0.15362027 -0.19493061 0.098696195 0.16222417
0001a0 b5 7c 0d bc 70 9d 5e 3d c4 60 09 3e 3d df 94 3c
       -0.0086356895 0.054349363 0.1341582 0.018172855
0001b0 15 d0 88 bd 67 84 1e 3e 86 4c 25 be 21 25 e0 bd
       -0.066803135 0.15480195 -0.16142473 -0.10944582
0001c0 f7 98 32 3d 58 bd 25 3e a4 9e 15 be b5 50 ca 3d
       0.04360291 0.1618551 -0.14611298 0.09878675
0001d0 8f 77 4f 3b 62 f6 21 bc 23 91 e5 3d 75 cd 58 3e
       0.0031656956 -0.009885402 0.11209323 0.21172126
0001e0 cc ad a4 bd 7f 4e a5 bd 2a 7a 88 bc e3 db 45 3e
       -0.080409616 -0.080716126 -0.016659815 0.19322161
0001f0 70 51 58 3e 8e b3 ba bd 81 32 a2 bc a8 8d 4c be
       0.21124816 -0.091162786 -0.019799473 -0.19975913
000200 e8 46 16 3e f3 37 ff bc a8 8d a7 be e8 88 7d be
       0.14675486 -0.031154608 -0.32725263 -0.24759257
000210 e1 92 29 be 52 e6 10 3e c0 69 00 3e 2a b9 5b bc
       -0.16559936 0.1415036 0.1254034 -0.013410846
000220 02 95 29 3e dc db b9 bd 93 c7 bd 3d d5 15 83 3d
       0.16560748 -0.09075138 0.092665814 0.064006485
000230 83 65 a6 3d 17 b0 08 bd 18 00 75 bd 5a fb bb be
       0.081248306 -0.033371057 -0.059814543 -0.36715204
000240 39 1e 57 bd 33 65 ae bd f5 0b 69 bd 58 89 d9 3d
       -0.052519057 -0.08515396 -0.05689617 0.10621899
000250 ad fd 7c 3d ec 3f 69 bd b5 52 8b 3d a9 fb bd 3d
       0.06176536 -0.056945726 0.068028845 0.09276516
000260 b8 e1 09 3e 49 ae 0e bc 5e fe 16 3e a5 2b 1a 3d
       0.13465011 -0.008708545 0.14745471 0.03763928
000270 2f f1 a1 3c ac a4 8d 3d 3f 67 be be f0 64 ba 3c
       0.019768326 0.06916174 -0.37188146 0.022753209
000280 07 52 37 3e ef 81 a6 3d 14 22 76 be ef 4a 8a bd
       0.17902385 0.081302516 -0.24036437 -0.06752574
000290 60 31 26 bd 74 36 19 3e d7 b1 24 3e 6d 9e bf 3d
       -0.04057443 0.14962178 0.16083466 0.09356389
0002a0 0e 6d e8 bd 24 81 28 bd 0f d6 46 3c 52 7f 05 be
       -0.113489255 -0.041138783 0.0121359965 -0.1303685
0002b0 33 d4 4b 3d c2 53 a3 bd 63 85 3a be c2 0f 1b bc
       0.049762916 -0.0797496 -0.18214945 -0.009464206
0002c0 76 81 18 be 4e 11 fd bd 9c bf 11 be b5 ac e0 3d
       -0.14893135 -0.12356816 -0.1423325 0.10970441
0002d0 88 20 b1 3b 5f 61 97 3e 81 7e b0 bd d7 5b 92 3e
       0.0054054894 0.29566476 -0.08617879 0.28585693
0002e0 25 49 0f 3e 38 56 02 bd 5a c0 08 3c c5 a4 80 3d
       0.13992746 -0.031820506 0.008346641 0.06281427
0002f0 47 e4 19 3d 04 92 89 3d 9d 8a 3c bd 57 2d 07 3e
       0.037571218 0.067173034 -0.04603063 0.1320089
000300 26 56 68 3e 8e 1c 23 3d 9c bb 8a 3d 2c dc 21 be
       0.22689113 0.039822154 0.06774065 -0.15806645
000310 b0 78 6c bd 68 2b 20 bc 11 81 f8 3c 18 5c ca bd
       -0.057732284 -0.009775974 0.030334981 -0.09880847
000320 2f a5 9f be 80 cb 9b bd 8e 56 1d be 1a fa b6 3a
       -0.31180713 -0.07607174 -0.15365049 0.0013960034
000330 bd 66 89 bd 60 4e 52 be b0 40 b1 bd 4d 14 d9 3d
       -0.06709049 -0.2053771 -0.08654916 0.10599575
000340 c9 77 51 bd 28 80 6f bd 0c 1c 15 3e 3b 7e 4c be
       -0.051139627 -0.05847183 0.1456148 -0.19970028
000350 02 fc 50 3e 75 5d be 3d f4 f4 7b 3e 10 a8 10 be
       0.20408633 0.09295169 0.24605161 -0.14126611
000360 3b 32 5f 3e 64 84 2a 3d bc 8d 0b bd 83 ca 85 3d
       0.21796505 0.041630164 -0.034070715 0.06532767
000370 b4 29 0f 3e e6 9b 34 3d 51 7a 4b 3a 8f 71 92 bd
       0.13980752 0.04409399 0.0007762062 -0.07150566
000380 68 a3 a1 be e9 2a c8 bd aa aa 16 bb 25 6c 31 3d
       -0.31569982 -0.097738095 -0.0022989907 0.043316025
000390 14 90 03 bd 44 7b 26 3e bd 47 70 bc ce d3 c4 bd
       -0.032119825 0.1625796 -0.014665541 -0.09610711
0003a0 1c 5a c7 3d 1a d4 9f 3d 26 62 a6 bd cd 0c 4c 3e
       0.09733984 0.07804127 -0.08124189 0.19926758
0003b0 3f 41 80 bc c7 34 fe bd 1b ad 2d be 52 96 00 3c
       -0.015656112 -0.1241241 -0.16960566 0.007848339
0003c0 f5 07 bf 3d bc 1f 34 be 2b f8 3e 3e 50 4f c5 bd
       0.093276896 -0.1759023 0.18649356 -0.09634268
0003d0 dd 04 4b 3d b9 27 fe 3d 69 11 a1 bc 0f a2 aa 3d
       0.049565185 0.1240992 -0.019661622 0.083316915
0003e0 42 69 f5 3c f3 9e 27 3e 7f fa 32 be 85 16 01 3d
       0.029957417 0.16369228 -0.17478369 0.031515617
0003f0 bc c3 35 bd f0 a9 96 3d ce 34 1b 3b ca 3d 70 bc
       -0.04437612 0.07356632 0.0023682597 -0.014663169

params,ScannedRNN_0,GRUCell_0,hr,kernel f4 [64, 64]
000000 69 28 70 bd 64 19 05 3d f4 8d f8 3d a1 23 69 3d
       -0.058632288 0.032494918 0.121364504 0.056918744
000010 52 3d 8d be 08 3b 4a be df 98 de 3d 4a aa 12 3e
       -0.27585846 -0.19749081 0.108690016 0.14322773
000020 cb 52 0c bd 80 a9 5f 3e ec 97 13 be 03 c2 1d 3e
       -0.034258645 0.21842003 -0.14413422 0.15406041
000030 cd 29 26 bd b6 dc 19 3d d9 b8 2e 3d 76 e9 1c 3e
       -0.040567208 0.037564002 0.042656753 0.15323433
000040 00 ac 3d 3e cd 56 03 3d 2d 97 eb 3d 8a 71 fd 3c
       0.18522644 0.0320652 0.11503444 0.030937929
000050 03 ed e2 3c 15 6b 3f bd c8 bd 7c be 22 57 a5 3d
       0.027700907 -0.04673298 -0.24681771 0.0807326
000060 b2 e9 02 be cc d0 0d be 54 4e 4a bd ad 08 59 3e
       -0.1278446 -0.13849181 -0.049391106 0.21194716
000070 25 84 9a bd 35 de 38 3d 19 36 a7 3d 95 aa 12 3e
       -0.07544736 0.04513379 0.08164615 0.14322884
000080 9a 05 67 3e ce d8 c6 3c 08 dd 4f be 28 de 13 be
       0.2256073 0.024273302 -0.2029916 -0.14440215
000090 10 12 ac 3d 23 5d 58 3b b4 a1 00 3d 89 e3 43 3d
       0.08401883 0.0033014498 0.031404212 0.047824416
0000a0 b3 ce 53 3c 62 d1 cb 3c cb b7 c3 bc c4 3a 48 bd
       0.012927699 0.024880115 -0.02389135 -0.04888417
0000b0 7d 02 21 bd 03 2f 95 bc 11 2f 86 bd d3 62 8a be
       -0.039309014 -0.018210893 -0.06551946 -0.27028522
0000c0 c8 ec 2e 3d ab c9 25 3e 20 81 6e bc ea d6 11 3e
       0.04270628 0.16190211 -0.014557153 0.1424214
0000d0 f3 71 30 3e 8d b7 99 3d b2 09 88 3d 86 6d 9c 3e
       0.17230968 0.07505713 0.06642474 0.3055231
0000e0 fb 4e b8 3d 5e a0 c1 3d 94 cf 47 be fa 74 1b 3d
       0.08999439 0.09454416 -0.19512779 0.037953354
0000f0 51 76 65 3e e4 89 21 bd 7c 44 85 3d fd a7 8c 3d
       0.22408415 -0.039438143 0.06507203 0.06867979
000100 ed 82 a9 3d 3c 6b 29 be 2b b1 09 be 12 21 0b 3d
       0.08276925 -0.16544813 -0.1344649 0.033967085
000110 a6 92 c8 bd a8 54 87 be 2a bd 71 3e 55 b3 ab bd
       -0.09793596 -0.26431775 0.23607317 -0.08383814
000120 09 03 5d 3b dd 56 14 bb 7f fc 86 3d 0b de 45 bd
       0.0033723733 -0.0022634782 0.065911286 -0.04830746
000130 32 36 28 bd 3b ae ce 3d 26 3c 7e 3e e4 e7 8b bd
       -0.04106731 0.100918256 0.24827632 -0.06831339
000140 32 22 11 be 5c 6d 1d 3e 9e 6c 36 bd 40 89 e9 3c
       -0.141732 0.15373749 -0.04453718 0.028507829
000150 9f 28 2a 3e b9 32 2b 3e 6d 06 7f bd 2b 2e 83 be
       0.16617058 0.16718568 -0.062261987 -0.2562116
000160 c3 80 23 be d9 37 8a 3c d7 ab be 3c c6 bc 0a be
       -0.15967087 0.016872333 0.023275299 -0.13548574
000170 f6 b4 b5 bc 1b d7 61 3d 08 0b 06 3e 91 a8 f7 3d
       -0.022181015 0.05513678 0.13090146 0.12092698
000180 64 a2 fe bd 4d c6 11 3c 67 c3 8e 3d 38 b0 75 3e
       -0.12433317 0.008897376 0.06970864 0.23993003
000190 e9 7a ed bc 45 77 db 3d 67 fe d5 bd af a5 86 3d
       -0.028989272 0.10716108 -0.10448914 0.065745704
0001a0 81 a1 a6 3d d1 3a 50 3e 6f bf 29 bd 46 89 1a bd
       0.08136273 0.20334937 -0.04144233 -0.03772857
0001b0 7a ec 14 be f0 64 30 3e 64 b7 f1 bd c4 35 56 3d
       -0.14543334 0.17226005 -0.11802557 0.05229737
0001c0 5d aa f8 3d 96 a8 58 bd ee a1 2d 3c 35 4a 46 bd
       0.12141869 -0.05289515 0.010597689 -0.048410613
0001d0 27 61 fd 3d fc 20 62 3e 20 66 87 3d da f9 32 3d
       0.12372046 0.22082895 0.06611276 0.04369531
0001e0 a7 01 fe 3d fd 44 eb 3c 50 60 86 3d 25 68 3b bd
       0.12402659 0.02871942 0.06561339 -0.045753617
0001f0 71 86 d9 3d de 27 52 3e 94 15 0f be 2d be 18 3e
       0.10621346 0.2052302 -0.13973075 0.14916296
000200 d4 79 43 be 1d d6 ef bd 0e dd 0c 3e 5e c4 1c 3e
       -0.19089442 -0.11710761 0.137562 0.15309283
000210 bc a8 16 be a3 15 88 bd f8 cc 21 be 97 1b b9 3d
       -0.14712805 -0.06644752 -0.15800846 0.090384655
000220 b7 5c 6d bc b8 ee 2d 3e af e9 e4 3c bb e1 8c bd
       -0.014487437 0.16985595 0.02794346 -0.06878992
000230 8b 1d 86 bd 19 36 7b bd 08 fb 85 bc fe 57 4d 3d
       -0.065486036 -0.06133089 -0.016355053 0.050132744
000240 2d 9b a3 bd 80 d7 35 be 25 17 a1 bc 8a 59 93 bd
       -0.07988582 -0.17757988 -0.019664356 -0.071948126
000250 0c cb 1e 3e d9 53 81 3e a0 1a 00 bd 8e 31 26 3b
       0.15507144 0.25259283 -0.03127539 0.0025359127
000260 1f b4 79 3e 69 65 bb bd 2f e1 a6 bc 59 ea 0c bd
       0.24385117 -0.09150202 -0.020371048 -0.03440318
000270 56 48 52 3e ad 70 16 be 1a 75 70 3c f6 b8 11 be
       0.20535406 -0.1469142 0.014676357 -0.14230713
000280 bc d8 34 be 12 78 db bc 0e 19 62 3e 2a 53 fb bc
       -0.17660803 -0.026790652 0.2207987 -0.030679304
000290 f5 9d d0 3b 17 ad 61 3c f3 7c 09 3e 2f 4e 93 bd
       0.006366486 0.013774178 0.1342657 -0.07192647
0002a0 ee 74 69 bd 81 13 18 be 10 d6 81 be e7 e6 70 3d
       -0.05699628 -0.1485119 -0.2535863 0.058813956
0002b0 28 20 77 be f6 42 00 3d b5 4e c5 3d 25 af d2 be
       -0.2413336 0.03131386 0.09634153 -0.4114925
0002c0 0a 0c b0 b8 a2 83 cf 3b 61 d1 64 bd db 4a 44 be
       -8.3945764e-05 0.0063328305 -0.05586374 -0.1916918
0002d0 f6 e8 26 be e0 30 92 bd 6c b3 a4 bb 76 3e 59 bd
       -0.16299805 -0.071382284 -0.0050262716 -0.053038083
0002e0 6a 50 f1 3c e8 da 30 3e 83 28 19 3b 82 79 ca bd
       0.02945729 0.17271006 0.0023370094 -0.09886457
0002f0 f1 15 db bc 91 c0 cc bd 0a 41 ea 3c 0f be e5 bc
       -0.02674386 -0.099976666 0.028595466 -0.028044729
000300 fc b7 91 3c b5 c6 9f 3d 36 62 5a bd 65 68 35 bc
       0.017787926 0.07801572 -0.053316317 -0.011072253
000310 31 5b ba be bc 41 8e 3d f0 bf 3c be d9 11 d5 3d
       -0.363977 0.069461316 -0.18432593 0.10403795
000320 38 5b e3 bd ef f1 91 3b 5f a2 6e be 81 67 55 3d
       -0.11101383 0.0044538896 -0.23304127 0.052100662
000330 9c 8f 83 be fe 77 26 bd 4f e4 9b be 93 bc 1b be
       -0.25695503 -0.040641777 -0.30447623 -0.15208654
000340 7a f4 bb bd cb 1c 7d bd 1c 0e d1 bd 40 e7 a5 3d
       -0.091774896 -0.061795037 -0.10207769 0.08100748
000350 38 c9 0f 3e 3b 47 8f be 77 ca 53 3d c4 3c c9 be
       0.14041603 -0.27984032 0.051706757 -0.39304173
000360 20 70 62 bd ff 99 83 be 2f c3 1a 3e 7a 10 93 be
       -0.055282712 -0.25703427 0.15113519 -0.28723508
000370 8a 94 57 bd 44 ea 80 be 2c 2a 0c bc be 40 bd 3d
       -0.052631892 -0.2517873 -0.008554976 0.09240864
000380 2a 00 41 bd b9 39 c5 bd 83 e5 9b bd 7a 0f fa 3c
       -0.047119297 -0.0963015 -0.07612135 0.030524958
000390 d8 e4 6a be df 5a e1 bc a2 c3 06 3e 03 c4 10 be
       -0.2293886 -0.027509151 0.13160565 -0.14137273
0003a0 d3 fc d0 bd e5 f6 06 be 5f 2e 09 3d 65 99 20 3d
       -0.102044724 -0.1318012 0.03349149 0.03920879
0003b0 e8 42 9b 3c e0 7c ad bd 84 6c 97 bd 8d e2 f0 bd
       0.018952802 -0.08471084 -0.073937446 -0.11761961
0003c0 59 8d 69 3c e5 63 39 be 10 cf 32 be 87 1f 22 be
       0.014254891 -0.18104513 -0.174618 -0.15832339
0003d0 a7 43 7f bc 25 e4 59 bc 1e dc 95 bd fe 9e ac bd
       -0.015580094 -0.013299023 -0.07317375 -0.08428763
0003e0 37 d9 3f be 93 0d 37 be fa db 61 3d 39 75 15 3c
       -0.18735205 -0.17876272 0.055141427 0.009122186
0003f0 ad 7b c3 3c b8 37 f3 bd 33 8a 24 be b7 13 06 be
       0.023862684 -0.11875862 -0.16068344 -0.13093458

params,ScannedRNN_0,GRUCell_0,hz,kernel f4 [64, 64]
000000 d1 78 f8 bd 13 e1 dc bb e5 9b 14 3e 75 90 36 be
       -0.12132419 -0.006740698 0.14512594 -0.17828543
000010 fa 7f ec 3b 8b 49 d2 3c 4c 03 ba 3b cd a9 8a bc
       0.0072174044 0.025669834 0.0056766625 -0.01692667
000020 1d b4 8c bd a7 c8 e6 3d e8 1f a6 3d 31 df 29 be
       -0.068702914 0.1126874 0.081115544 -0.16589047
000030 63 2c 7e be 0a bf 69 3d 24 ce 0f be 02 41 3f 3e
       -0.2482162 0.057066955 -0.1404348 0.18677142
000040 c1 a8 61 3d c9 71 84 bd 65 97 2f be 5f 8c 49 3e
       0.055092577 -0.06467015 -0.17147596 0.19682454
000050 75 3f 23 3d 8d 51 26 3d 94 2b a6 3c a2 95 67 3e
       0.03985544 0.040605117 0.020284452 0.22615674
000060 e3 28 f3 3d 5c 7c a9 bd fc 51 e1 bc 59 d4 30 be
       0.11873033 -0.08275673 -0.027504914 -0.17268504
000070 17 dd 92 3e ce 07 99 bd 5c b2 c4 bc c5 76 a5 bd
       0.28684303 -0.07472192 -0.02401083 -0.08079294
000080 a9 d2 b4 3d d6 54 2a 3d 2f c6 f5 3b 8e e0 24 be
       0.08829243 0.041584812 0.007500432 -0.16101286
000090 71 e0 f4 bd 4c e8 3a be 18 2c 34 3e 5f 60 55 3d
       -0.11956871 -0.18252677 0.17594945 0.05209386
0000a0 3e ca 9f 3b 69 68 b9 bc c4 b7 29 bd 5c e5 0f 3e
       0.004876404 -0.022632794 -0.04143502 0.14052337
0000b0 9c 5a 2b be 80 4b 68 bd 0f 20 3e be 7c dc 8a bd
       -0.16733783 -0.056712627 -0.18566917 -0.06780335
0000c0 38 73 5d 3d 43 9d 07 3e ff 71 bc 3c b4 4f 22 be
       0.05406496 0.13243584 0.023003576 -0.15850717
0000d0 69 47 83 ba 1f db 7c 3c f3 ab e0 3b 45 8f 11 3d
       -0.0010015789 0.015433102 0.0068564354 0.035537023
0000e0 6a bc 40 3d 03 11 7f be eb 8d 2a 3e f2 8b 2f 3e
       0.047054686 -0.24908833 0.166557 0.17143229
0000f0 0b 12 3a be 70 82 94 be 64 cd 0c be 5f 35 eb bd
       -0.18170945 -0.29005766 -0.13750225 -0.11484789
000100 65 77 84 bc 3b be 60 be 13 09 3c bd ba b3 e4 bd
       -0.016170213 -0.21947567 -0.04590709 -0.111670926
000110 bc 73 39 be 92 21 f5 bc 5b d6 97 bd 22 2e 94 3d
       -0.18110555 -0.029923234 -0.07413932 0.07235362
000120 2d 9a 73 be 01 20 15 be 2f 2f 73 be 91 4a 81 be
       -0.23789282 -0.1456299 -0.23748468 -0.25252202
000130 0c 14 61 3c 5f a4 19 be 7b fb 39 bb ec a2 c3 bd
       0.01373769 -0.15004109 -0.0028378654 -0.09552559
000140 1c 62 8d bd 55 1e 1d be 68 de a9 be 8f a8 16 3a
       -0.069034785 -0.15343602 -0.33177495 0.0005747163
000150 fc df 03 be cf ae bb 3d fa db 3c 3c 25 6d 2a be
       -0.12878412 0.091642015 0.011527056 -0.16643198
000160 72 33 de bc f8 6b c1 3d 44 53 a0 bd 38 d9 01 3c
       -0.02712414 0.094444215 -0.07828382 0.007925324
000170 00 ad 6f be f5 a3 d3 3d 4d c4 3d be 3b 47 5c be
       -0.23405838 0.10334007 -0.18531914 -0.21511547
000180 23 5b 56 be 41 89 16 3c 0d f4 31 be 80 43 de 3c
       -0.20933203 0.009187997 -0.17378254 0.027131796
000190 f7 dd a0 bd 15 e1 0e 3e a8 fa 84 3e f1 2e 1c bd
       -0.078548364 0.1395305 0.25972486 -0.038130704
0001a0 1f 15 ae 3d f0 d7 90 3d 66 a3 19 be 2d db df b9
       0.08500122 0.07072437 -0.15003738 -0.00042697173
0001b0 85 50 ad 3d 32 65 e0 3b c1 84 e2 3c af 2a 1d 3e
       0.084626235 0.006848001 0.027651193 0.15348314
0001c0 b3 d9 c2 bd 0e 4e f1 3d ab a0 f1 bd 59 f6 06 be
       -0.09514179 0.11782466 -0.11798223 -0.13179912
0001d0 62 b7 c7 3d d8 e2 3f bc 33 23 5e be a5 37 c0 bd
       0.09751774 -0.011711799 -0.21693115 -0.09385613
0001e0 15 37 43 be ec d0 28 be 84 90 df 3d 78 ea 1e be
       -0.19063981 -0.16485947 0.10916236 -0.1551913
0001f0 f0 72 e3 bd 31 db 83 bd bb e6 8f be bb eb 80 bc
       -0.11105907 -0.06438292 -0.2810572 -0.015737405
000200 f3 35 be bc 9d 91 a0 3b 89 bc 9a be c7 7a 23 3e
       -0.023219084 0.004900171 -0.30221966 0.15964805
000210 5f 69 1b be 0f b1 ca bd 35 b2 c8 3e 2a 1f 80 bd
       -0.15176915 -0.098970525 0.3919846 -0.06255944
000220 bd a6 c4 bd 33 b5 13 3b 7d b4 43 3c a5 3d b4 bc
       -0.09602115 0.0022538423 0.011944887 -0.02200205
000230 3d 1f 3c be 9d 31 11 3e 71 87 af 3b 45 5d b1 be
       -0.18371291 0.14179082 0.005356722 -0.34641472
000240 b8 56 58 be 90 e1 b8 3d 02 45 2c be 38 2c bf 3d
       -0.2112683 0.09027398 -0.168232 0.09334606
000250 aa d2 6e be 15 82 97 3d df dd d2 3d 16 22 07 bd
       -0.2332255 0.07397858 0.10296225 -0.03299149
000260 7f f8 4c bd f7 b6 8a bc ac 42 5a be 7c 84 26 be
       -0.05004167 -0.016932948 -0.21314496 -0.16261476
000270 db b0 99 bc 98 fb fe 3c 96 a8 48 3e d7 c0 50 bb
       -0.01876109 0.031125829 0.1959556 -0.0031853223
000280 ce be 22 3d 76 54 68 3e d7 3f 08 3d 55 24 82 bd
       0.039732747 0.2268847 0.033264007 -0.06354586
000290 75 bf 2c be 05 96 74 3c fc f2 ab 3d 40 73 46 be
       -0.1686991 0.014928346 0.08395955 -0.19379902
0002a0 31 a4 54 3c 89 71 4c be 39 fc d2 bd d8 a4 f0 3c
       0.012978599 -0.19965185 -0.10302014 0.029375479
0002b0 88 81 0d 3e 97 7c db bc 86 c5 68 be 6b 4e 62 3d
       0.13818944 -0.026792808 -0.22731599 0.055250566
0002c0 f7 ca 67 be a6 b8 9d bd ff 51 1d 3d 21 25 ae bd
       -0.22636019 -0.077012345 0.038408276 -0.085031755
0002d0 8a 9d 2a 3c 1a c6 2c be 24 e5 a1 3d 68 ef 1c be
       0.010413537 -0.16872445 0.07905033 -0.15325701
0002e0 60 d2 61 3d c7 47 04 3e 63 c3 42 3d c7 33 49 be
       0.05513227 0.12918006 0.047549617 -0.19648658
0002f0 c9 98 17 bc ea cc 70 be c8 ad 3a bd e0 13 08 3d
       -0.009252735 -0.23515669 -0.045575887 0.03322208
000300 a9 09 5a 3d d3 b1 24 3d 7b b5 f3 3d 95 25 e0 bd
       0.05323187 0.04020865 0.11899849 -0.10944668
000310 55 bf 7c 3d ae 66 90 bd 43 98 ce bd de 24 d0 3d
       0.061705906 -0.070508346 -0.10087635 0.10163282
000320 16 d0 90 3e 93 e5 3a 3e a1 06 28 3e 18 8c e0 bc
       0.28283757 0.18251638 0.16408779 -0.027410552
000330 94 ed d5 3d 29 7f c0 3d 88 f4 b4 3e db b8 ba 3e
       0.10445705 0.09399254 0.35342813 0.3646916
000340 3c 71 44 3e af a5 23 3e ce 95 86 3e 1e f3 bd 3d
       0.1918382 0.15981172 0.26286167 0.092748865
000350 7d 5e 6e bc 06 67 33 3e 24 ea 19 3e a3 d7 c0 3d
       -0.014548895 0.17519769 0.15030724 0.094161294
000360 80 d7 30 3e 30 24 fe 3d 77 1c 49 bc 09 e7 65 3e
       0.17269707 0.12409246 -0.012274853 0.22451414
000370 c3 2b 3f 3e 6c 6e 88 bd 26 ee eb 3c a7 7c 81 3e
       0.18669038 -0.06661686 0.028800081 0.25290415
000380 96 72 41 3e 20 2a 44 bd 49 ac 32 3d 85 4f 63 bc
       0.18891367 -0.047891736 0.043621335 -0.013873939
000390 b0 fd 57 3e 23 60 2a 3e 84 e8 47 3d ce 3d 81 3d
       0.21092868 0.16638236 0.04880573 0.063106164
0003a0 68 b7 03 3e 38 8d 37 3d 77 0a d4 3e 50 a4 1d 3c
       0.12862933 0.04481241 0.41414234 0.009621695
0003b0 a8 e5 bc 3e 54 97 6e 3d fe d4 f5 bd df ea 33 bd
       0.36893964 0.058249786 -0.12003516 -0.043925162
0003c0 32 a9 b1 3d 94 03 87 bc be 29 0f 3e 55 e8 fc 3d
       0.086748496 -0.016481198 0.13980767 0.12349001
0003d0 8d 55 0c 3d 6d 10 af 3e 94 5a ad bd 1b b9 00 be
       0.034261275 0.3419222 -0.08464542 -0.12570612
0003e0 a8 25 31 be 9f c6 37 3e 8e ec b7 3e b1 42 52 be
       -0.17299521 0.17946862 0.35922664 -0.20533253
0003f0 25 5c c4 3c 66 30 79 3e 79 59 4b 3e 5b 39 7e 3d
       0.02396972 0.24334869 0.1985835 0.062066417

params,ScannedRNN_0,GRUCell_0,in,bias f4 [64]
000000 42 d7 b1 bd 7a da e6 bd 53 fc 25 bd 02 6d de 3e
       -0.08683635 -0.1127214 -0.04052384 0.4344254
000010 cd aa 84 be 9d ab 9d 3d a2 45 a5 be 3b f5 72 3e
       -0.2591156 0.07698748 -0.32279688 0.2372636
000020 a5 78 04 3d 91 b0 da 3d 87 bf ce bd b8 2d bb be
       0.032341618 0.106782086 -0.10095125 -0.36558318
000030 8a 01 a6 3b db db ab bd eb 2c b3 bc fe ef da bd
       0.0050661014 -0.083915435 -0.021872004 -0.10690306
000040 2e 73 95 bb 35 28 cf 3d 2c e2 c8 3b b3 8e c4 be
       -0.0045608496 0.10115091 0.0061304774 -0.3839012
000050 42 8e 06 3e b8 8b 59 3e d2 f1 1a be 8d 1f 77 bc
       0.13140205 0.21244705 -0.1513131 -0.015083206
000060 c0 32 c6 3e 8d c3 ee 3d 58 6e 39 3d c4 8f 17 3e
       0.38710594 0.11658392 0.045271248 0.14800936
000070 d7 1f ba be f2 d8 68 be 5f 0e e3 be 56 85 5c be
       -0.36352417 -0.22739008 -0.44346902 -0.21535239
000080 f0 02 8f 3d 90 6c df 3e ca 0d c9 3e 0b d8 0b be
       0.06982982 0.43637514 0.39268333 -0.13656633
000090 b7 02 65 be 1e 43 7b bc 57 d2 76 3e cf 55 4c 3e
       -0.22364317 -0.015335826 0.24103676 0.19954608
0000a0 7d 72 af bd 58 89 2d bc 25 1a 00 3d e4 47 6d 3e
       -0.08566759 -0.010591827 0.031274933 0.23171955
0000b0 79 55 58 3c 42 83 55 bd e1 9a 9a be 17 90 81 be
       0.013203972 -0.05212713 -0.30196288 -0.25305244
0000c0 27 37 82 bd b1 11 c6 be 1c 01 b5 bd af 6a 4f 3d
       -0.06358176 -0.38685372 -0.08838102 0.05063885
0000d0 6c 86 11 3e 20 0d b7 3e 0d 7b ba bd 88 b0 69 be
       0.14211434 0.357522 -0.09105501 -0.22821248
0000e0 0f c4 ab be b5 ac d3 bd 0b e1 80 3d d2 92 a3 3d
       -0.33548018 -0.103356756 0.062929235 0.07986988
0000f0 e4 17 68 3d 34 7b ec bc 11 b0 44 bc 87 9d 94 bd
       0.05666341 -0.028867342 -0.012004868 -0.072566085

params,ScannedRNN_0,GRUCell_0,in,kernel f4 [64, 64]
000000 90 97 70 3d a7 13 f6 bd 58 fc 17 3e 4b 0b 22 3e
       0.05873829 -0.12015467 0.14842355 0.1582462
000010 35 bc 55 bc 5d 68 7b bd a1 b3 45 bd 73 bf fb 3d
       -0.01304536 -0.061378825 -0.04826701 0.122923754
000020 df 5e 77 3e 47 b8 6e bd 14 9c 86 bc 84 23 07 bd
       0.24157284 -0.05828121 -0.016431846 -0.032992855
000030 18 c6 77 3d e2 13 db 3d da ef 9b 3e 4d a5 46 be
       0.06049165 0.10697152 0.3045643 -0.19398995
000040 a1 e8 82 3e ee bb 19 bc 0e 95 24 be bb af cb bd
       0.25568107 -0.009383185 -0.16072485 -0.09945627
000050 fa 83 11 bd 21 32 29 3e 92 ce 77 3e 3b 04 98 3c
       -0.035526253 0.16523029 0.24199894 0.018556705
000060 09 08 06 3e fa 44 c1 bd 04 38 04 3e ea 69 78 3d
       0.13089003 -0.09436984 0.12911993 0.060647883
000070 93 c2 e4 bd 38 25 0e 3e d4 d5 d7 bd fa ba c7 bc
       -0.111699246 0.13881385 -0.10538831 -0.02438115
000080 4f ac 58 3e 73 70 92 bd 6f d8 5e 3c 7f f8 93 3d
       0.2115948 -0.07150354 0.0136014065 0.07225131
000090 7e 62 36 bd 8b f7 16 bd 01 f1 86 3d 33 ca 24 3e
       -0.044527523 -0.03685717 0.065889366 0.16092758
0000a0 4a b7 6f 3e 46 89 53 be 0d f0 0b 3e a7 40 15 3e
       0.23409763 -0.20657834 0.13665791 0.14575444
0000b0 62 f0 04 3d b0 64 bf 3d c5 d3 19 be 24 0b b8 3a
       0.03245581 0.093453765 -0.1502219 0.0014041406
0000c0 a0 93 ca 3a 12 35 c6 3d ca 89 58 be 0c 26 51 bd
       0.0015455373 0.09678091 -0.21146312 -0.051061675
0000d0 71 70 c9 3d b8 65 00 bc a0 37 4f 3d 56 5e 01 be
       0.098358996 -0.007836752 0.050590158 -0.12633643
0000e0 fb 6b b7 bc 6f 71 0a be 62 7f 0f 3e d0 ad 7e be
       -0.022390356 -0.13519834 0.14013436 -0.24870992
0000f0 8a b4 1c bb 72 eb c3 3d 8b 2b 5f 3d 1c 03 6e be
       -0.002391132 0.09566392 0.054484885 -0.23243374
000100 68 2c 93 3d ee 95 bd bd 8a 8f 10 be fe 38 da 3e
       0.07186204 -0.092571124 -0.14117256 0.42621607
000110 e5 81 37 be b7 d0 09 3e 36 3a 72 3c e7 69 0c 3e
       -0.17920645 0.13458525 0.014784386 0.13712274
000120 12 28 62 3d 51 9a 25 3b fd 08 6a 3e 59 6f a4 be
       0.055213995 0.0025268982 0.22854991 -0.32116202
000130 1b 36 55 3c f5 6f eb bd 69 d7 07 be 4f e0 a3 3c
       0.013013388 -0.114959635 -0.13265766 0.02000442
000140 1a a5 09 3b a3 9d 43 bd d2 a0 05 3e 55 13 05 3d
       0.002100295 -0.047757756 0.1304963 0.03248914
000150 1e f2 11 3e cc 77 b6 3d f0 88 52 bd fd 1f 83 bd
       0.14252517 0.08909568 -0.051400125 -0.06402586
000160 59 51 1e 3e 7a f9 fa bd 21 10 bb bc 8d 5a 39 3e
       0.15460719 -0.12254615 -0.02283484 0.18100949
000170 8a e7 3e be 03 ca b2 bd 67 f9 93 3d 33 7c 16 be
       -0.18643013 -0.08729937 0.07225304 -0.14695816
000180 16 0f e0 3c eb 75 00 3e a4 de c6 3e 0d 6a 9c bb
       0.027350944 0.12544982 0.38841736 -0.0047733844
000190 71 29 28 be d1 93 2f 3e e3 05 16 3e e9 ff b3 bc
       -0.16422059 0.17146231 0.14650683 -0.021972613
0001a0 a2 c6 4b bc b6 50 0c bd 7b 5c fe bd 73 99 26 bb
       -0.0124374945 -0.03425666 -0.12419983 -0.0025421053
0001b0 a8 2a 97 bd 67 60 98 bc a0 5f 14 3e 60 7c 85 bd
       -0.07381183 -0.018600656 0.14489603 -0.06517863
0001c0 26 9f 44 3d 87 2f 85 be ef 45 d6 3d b1 cb 2a 3d
       0.04800334 -0.26012823 0.104625575 0.04169816
0001d0 b8 a8 55 3d dd 2f 5d 3e 19 4a 56 bd b3 f3 4c bc
       0.052162856 0.2160029 -0.05231676 -0.012509274
0001e0 93 8f 44 bd 88 c0 65 3d 15 23 46 3c ca 35 82 3e
       -0.047988486 0.056091815 0.012093325 0.25431663
0001f0 c3 3f 64 bc 03 e4 80 3d 22 83 86 3d 94 08 77 bd
       -0.013931218 0.0629349 0.0656798 -0.060310915
000200 ed 48 11 be 40 7a 0e be 4b 0f e7 3c a4 c9 d2 bd
       -0.14187975 -0.13913822 0.028205534 -0.10292366
000210 d9 4b 05 bd 9c 30 be 3d 13 7b bf bd 22 eb ea 3d
       -0.032543037 0.09286615 -0.093496464 0.11470629
000220 f4 2a aa bd e7 f7 14 bc 77 01 6a 3d 38 42 8c bd
       -0.08308974 -0.009092308 0.057130303 -0.06848568
000230 18 42 98 3d b9 a9 6b be 64 30 87 bd ef f1 c7 bd
       0.074344814 -0.23013963 -0.06601027 -0.09762942
000240 d2 7a 33 bd 7c 82 2c 3e 1e 52 a7 3d 4f 9d 08 be
       -0.043818302 0.16846651 0.081699595 -0.13341258
000250 48 29 b5 3d a9 96 80 bd 34 b5 f8 3c ba 63 bc bd
       0.088457644 -0.06278736 0.030359842 -0.09198709
000260 bd 16 9e 3d 9f 6b e8 3c 6e 64 dd 3d 3b cb 8b bc
       0.07719181 0.02837163 0.10810171 -0.017064681
000270 fa f1 06 3e 03 4d 0c be 07 a2 fe bd 22 fc 32 be
       0.13178244 -0.13701253 -0.12433248 -0.17478994
000280 79 66 c6 bd 56 e4 4e 3d 0b d7 8d bd 22 3f 1b bd
       -0.09687514 0.050510727 -0.06925782 -0.037902005
000290 5d 08 bb bd 6d 49 9f 3d 5b 84 f8 3d f1 f6 ed 3d
       -0.091324545 0.07777677 0.1213462 0.11619366
0002a0 bc 72 26 bd eb 39 a5 bd e6 d8 44 3d 2f ca 32 3d
       -0.040636763 -0.080676876 0.048058413 0.04364985
0002b0 b6 07 2c 3b 1f 23 37 3e cd d5 3d be 34 c7 21 3d
       0.0026249713 0.17884491 -0.1853859 0.039496616
0002c0 4f 29 4f be ca 6c 4d 3d ce b7 68 bd 81 77 d2 3c
       -0.20230602 0.050152577 -0.056815915 0.02569175
0002d0 9b 1d 0d bd 6a 1e 47 3d 9b 43 db bd dd fa e6 bd
       -0.034452062 0.04861299 -0.10706254 -0.11278317
0002e0 ac 1d 60 be be 89 e5 bb 65 60 c4 3c dc 2f a4 bc
       -0.21886319 -0.0070049455 0.023971746 -0.020042352
0002f0 a1 da 9b 3d 60 af 02 3e b2 d4 ee bd 0c dc fe bc
       0.076100595 0.12762213 -0.11661662 -0.031110786
000300 fb 69 a5 bd b6 80 d5 3c b0 fe b3 3b f4 53 c7 bc
       -0.08076855 0.02606235 0.0054930076 -0.024332024
000310 b8 b6 d3 bd d0 1e b4 3d 91 0c 20 3d 00 aa 79 3d
       -0.10337585 0.087949395 0.039074484 0.06095314
000320 11 a2 bd bd 34 a4 31 bc b3 ef ab 3d 40 e8 12 be
       -0.09259427 -0.010842372 0.083953284 -0.14346409
000330 ac 63 8f 3d 60 37 c2 bb 03 e0 0f bd eb 6e 1c be
       0.07001433 -0.0059270114 -0.035125744 -0.15276687
000340 b4 b5 32 be be b3 e6 bd 21 9d 20 3e 47 0a ad bc
       -0.17452127 -0.11264752 0.1568494 -0.021123065
000350 16 d6 8f bd 3c fb e4 3d 45 c7 f5 3d 89 b4 25 be
       -0.070232555 0.11180732 0.12000898 -0.1618215
000360 61 73 25 3e f5 68 75 bd b7 ce 94 bd 08 9d 45 3e
       0.16157295 -0.059914548 -0.0726599 0.19298184
000370 59 a9 e5 bd 61 64 bf bd 4d a6 16 bd 65 bb 2f bd
       -0.11213941 -0.09345318 -0.03677969 -0.042903323
000380 c6 e3 fe bc 48 bd 1b 3a da 26 ef bd d0 e2 e9 3b
       -0.03111447 0.0005940986 -0.11677332 0.007137634
000390 b1 33 ae bd bb eb 37 bd 3d d9 c1 3d d3 c8 96 3d
       -0.08505953 -0.044902544 0.09465263 0.07362523
0003a0 a0 f2 00 3e aa 2e fa bb cb d6 a4 3d 8e b5 70 3c
       0.12592554 -0.0076349573 0.08048781 0.0146917235
0003b0 34 24 b3 bd 1b 4f 0b 3d bc fd c3 3d d4 64 3b bc
       -0.087471396 0.034010988 0.0956988 -0.0114376135
0003c0 43 ce b7 bd 78 6f 32 3e 0b 1d 23 bd ab 17 65 3c
       -0.08974888 0.17425334 -0.03982262 0.013982694
0003d0 6e 41 09 3d e8 be 24 3e ef f1 59 be d1 f5 a3 3d
       0.033509664 0.1608845 -0.21283697 0.0800587
0003e0 eb b4 3b 3d 77 43 ad 3b f8 05 0e 3c 77 3f 43 3e
       0.045826834 0.0052875835 0.008668415 0.19067179
0003f0 ff d6 ae bc 3b ee 15 3d dd 02 7f bd 85 61 2c 3d
       -0.021342753 0.036604147 -0.06225859 0.04208519
