baselines/QLearning/checkpoints/MPE_simple_reference_v3/qmix_ps.safetensors (safetensors, 182532 bytes, 27 tensors)

agent,params,Dense_0,bias f4 [64]
00000000: 8a3c 84be c6e4 aebe e3ee b9be 263b 66be
00000010: c3b4 9dbe 5fba 84be 10b9 98bc 74c9 19be
00000020: 19f8 03be 4d03 5fbe fd9a d1bd e1e9 9abe
00000030: 14ba 1abe 9ca0 b2be a074 e7be 3671 66be
00000040: 8bde adbe 740d dabe 03be c1be 0f13 69be
00000050: b1a3 3cbe 5061 55be 9249 47be 482d f1bd
00000060: d6f5 05be 9d4e 82be 5df5 dabd acc7 9bbe
00000070: 7b85 99be 757b a6bb c04c c4bd 6213 59be
00000080: 9ad9 85be 9ab2 89be 6722 49be 2449 d9bd
00000090: 53c5 aebe 0550 50be f195 26be 8732 50be
000000a0: 0a3e d5be 16fc cebd 3ee3 cb3e 8861 b4be
000000b0: 9e4f 07be 7196 49be 02c6 2dbe 4d51 80be
000000c0: 46da 6cbe c01b c3be b12a 2e39 cb52 fdbd
000000d0: bbe2 babe b7cd a2bd 695d d6be 8f30 69be
000000e0: 7e44 5ebe 0e08 93be 4281 c5bd f197 bcbe
000000f0: 2413 ccbe 5b6f acbe 5452 a0be 0ffa febe
-0.25827438 -0.34158915 -0.3631507 -0.22483501 -0.30801973 -0.2592344 -0.018642932 -0.15018255
-0.1288761 -0.21778603 -0.1023464 -0.3025656 -0.15110046 -0.3488816 -0.45206165 -0.22504124
-0.3395885 -0.4258839 -0.3784028 -0.22761177 -0.18421818 -0.20837903 -0.19461659 -0.11776215
-0.1308206 -0.25450602 -0.106913306 -0.30425775 -0.2998465 -0.005080635 -0.095849514 -0.211988
-0.2614258 -0.26894075 -0.1964203 -0.106096536 -0.3413492 -0.20343025 -0.16268136 -0.20331775
-0.41648895 -0.10106675 0.3982181 -0.3523066 -0.13213965 -0.19686295 -0.16970065 -0.25062028
-0.2313014 -0.3810711 0.00016609837 -0.12369307 -0.36501107 -0.07949393 -0.4186814 -0.2277243
-0.21705815 -0.28717083 -0.096437946 -0.36834672 -0.39858353 -0.33678707 -0.3131281 -0.49800155

agent,params,Dense_0,kernel f4 [23, 64]
00000000: cdcc 85bd f313 54bd 79c6 863d 22c5 c1bd
00000010: 44ed 7abe bc21 c53e 22c2 8d3e b548 a7bc
00000020: ef49 cabd eead 9fbd 3918 753e b692 d7bd
00000030: 378e e13d c4b7 fd3d 2ccb 163e 057b bcba
00000040: 35bc a33d 9a2c 4c3c d721 26be 7a3c e0bd
00000050: 0ec2 30be 43ff 5abe 4bbe 57bd 7f57 9dbe
00000060: 7582 ffbd 9eb8 36bd ae64 553d 858c cbbc
00000070: eb9e ae3d 18e1 cfbd 7488 77be 586c e1bc
00000080: b86b db3d a556 6e3e 2f74 d4bd 90ae 70be
00000090: a855 9abd 1e5e 3a3e bdc9 e23c 867b c63d
000000a0: 6e23 67be a2ff 1d3d 8571 943d d835 a33c
000000b0: 902e 8c3d 5720 c6bd 3d18 ffbd 074b 9dbd
000000c0: f974 953e d33b d8bd d6f7 8c3d aab8 183d
000000d0: befd 53be 903b b5be 8bff a53e 66ad 9f3d
000000e0: 1806 bfbd da79 a9bc 3462 4c3d 1c63 833e
000000f0: 5453 a33d fb7a b53d 805f cabe 5a2d 9d3e
00000100: 0793 473d 143b 7b3e c836 a3bd e305 0bbe
00000110: 1b59 823e fbec 01be d28e 1abe aef0 8bbe
00000120: bd6f cf3d 2f98 fc3d 447f 943e dcb7 6fbc
00000130: 3d19 e93d 66bd af3b 79ec 3fbe f553 84be
00000140: 4674 7fbd 9c95 393e 3931 613e 2476 3d3d
00000150: 0a49 35be 33e5 383e 7421 583d f08f dabe
00000160: a011 23be def6 afbe b487 8b3b fb1a c73e
00000170: a262 55be 08c1 e93d c164 04be 497b 2b3e
00000180: 1b6e e73c ca25 d1bd d3d2 14bd acb7 893e
00000190: 9e2f 823b defa a03d 0354 033e 5010 a0bc
000001a0: a6e4 ee3c 5b84 f43d 1527 49be d4ec 2e3e
000001b0: edf0 64bd 6423 68bc 35b4 00be 3a18 42bd
000001c0: 3e59 04be 8049 633d e9bf b73d 6401 0fbe
000001d0: f40b d43d 10c2 17bd 6923 9b3c 3a39 253e
000001e0: 6bd2 9f3d f086 b43e 10ec 99bb da66 783c
000001f0: b8dd e5bd 38d2 6ebc cc07 d1bd 906d 89be
00000200: 3ee7 353e 219d b5bd 222f a03e a19e ce3d
00000210: 3d74 5f3e 9c83 05bf c003 84be 28b6 2cbd
00000220: f05b a63e 309a 613e 280e 28be 34d0 253e
00000230: bb64 183e 9fc7 8f3b 0f3b c3be 235d f93d
00000240: 20bd 60bf b6a8 393e 53fb fe3e 415b f4be
00000250: 33c0 173e 927e 213f c78c df3e 05a6 283e
00000260: f3a7 4d3e ee8a c63d eb9e 2bbf e6b6 293c
00000270: 2ab8 0abd 8874 413e 258b b43c 262f dd3d
00000280: 9b26 35bf c0ab 28bf dd3c e6be b834 513e
00000290: 2531 87be a304 dabb 51e4 bc3e 0ea6 153e
000002a0: 60d0 8f3e 9cf9 cbbe 2719 153e 99ec 5abd
000002b0: f6bd d83e 577b 4b3c f583 f73e c4c3 563d
000002c0: 1601 aabd 3ef6 943d 7a13 213d 2053 31be
000002d0: c47d b7be 9359 1e3e e710 b2be c691 edbd
000002e0: 4250 093e d764 aa3d d672 26bf 5526 7ebe
000002f0: da6b cfbb 9c15 923e 9054 133e 34a3 82be
00000300: 631b 943e ac73 e53d 6442 acbc 1144 083f
00000310: 72eb bfbe 27df 3cbd 3046 9a3d 8323 913d
00000320: 8c25 b4bd 5a5f 8ebd 02ae bcbd 2f97 7abe
00000330: 79fa 723e 39b3 133f 7f6f 0d3e 638f bc3e
00000340: 5a77 0bbe 7b1e 04bf a66f 2e3f 3cdf 92be
00000350: c14a 543f 275c 1dbf 39d5 e0be 41b0 253e
00000360: 0e8c 343f bf6f bf3e d551 d13c e902 04bf
00000370: 5c26 373e aa75 35be bf66 033d 5d7a 5dbf
00000380: d663 213e 960a 133e b372 c7bd dbc6 a6bd
00000390: 218d 913d dbbe 34bc 0f51 223e 42de 9abc
000003a0: c945 00bf 982b 2bbf 429a cbbd 668f a2be
000003b0: 2280 d43d a54c 58bd f2a1 2c3f fab5 64be
000003c0: 0d72 413e a476 c93e d3f6 72be 5e77 f33c
000003d0: 0170 35be 2929 ed3d 6235 a73d 583b 6abf
000003e0: f072 943c 8cf8 33bf b3ed 083f 7339 ebbe
000003f0: 008a 2f3e a769 a5bd 10f4 87bd 30a8 133f
-0.06533203 -0.051776838 0.065808244 -0.09461428 -0.24504572 0.385023 0.27687174 -0.020420412
-0.09877383 -0.07796846 0.23935021 -0.1052603 0.110134535 0.12388566 0.14725941 -0.0014379924
0.07994882 0.012461806 -0.16223846 -0.10949035 -0.17261526 -0.21386437 -0.052671712 -0.30730817
-0.124760546 -0.04460966 0.05209797 -0.024847278 0.08526405 -0.10150355 -0.24173146 -0.027517483
0.10713905 0.2327524 -0.10373723 -0.2350409 -0.07535869 0.18199965 0.027684087 0.09691529
-0.22572109 0.03857387 0.07248215 0.019923136 0.068448186 -0.09674137 -0.12455795 -0.07680326
0.29190806 -0.105582856 0.068832085 0.037285484 -0.20702264 -0.35397005 0.32421526 0.07796745
-0.09327334 -0.020687986 0.04989834 0.25661552 0.07974878 0.08861347 -0.39525986 0.30698663
0.0487242 0.24534255 -0.07969433 -0.13576464 0.25458607 -0.12688057 -0.15093544 -0.27332062
0.10128734 0.12333714 0.29003346 -0.014631238 0.11381767 0.005363154 -0.18742551 -0.25845304
-0.062366746 0.18123478 0.21991433 0.046255246 -0.17703643 0.18056183 0.05276628 -0.4268794
-0.15924692 -0.34368032 0.0042581204 0.38887772 -0.20838407 0.11413771 -0.1292906 0.16746248
0.028250745 -0.10212286 -0.03633387 0.26897943 0.0039729616 0.07860349 0.12825017 -0.019539028
0.029161762 0.11939307 -0.19643815 0.1708253 -0.055893827 -0.014168594 -0.12568744 -0.047386386
-0.12924668 0.055490017 0.08972151 -0.13965374 0.103538424 -0.037050307 0.018937783 0.16135111
0.07803806 0.352592 -0.0046973303 0.0151612405 -0.1122393 -0.014576487 -0.10206565 -0.26841402
0.17763993 -0.088678606 0.3128596 0.1008885 0.21821685 -0.52153945 -0.2578411 -0.042165905
0.32492018 0.22031474 -0.1641165 0.16192704 0.14882176 0.0043878104 -0.38130996 0.121759675
-0.8778858 0.18130764 0.4980112 -0.4772587 0.14819412 0.63083756 0.43662092 0.16469581
0.20083599 0.096944675 -0.67039365 0.010358548 -0.03386704 0.1889211 0.022039006 0.108000085
-0.7076203 -0.6588707 -0.4496831 0.20430267 -0.26404682 -0.006653385 0.36892942 0.14614126
0.28088665 -0.39838874 0.14560376 -0.053448293 0.4233243 0.012419543 0.48342863 0.05243279
-0.083009884 0.072735295 0.039325215 -0.17316866 -0.3583814 0.15463857 -0.3477852 -0.1160007
0.13409522 0.08320015 -0.65018976 -0.2481931 -0.0063299956 0.28532112 0.14387727 -0.2551514
0.28927144 0.11203703 -0.021027751 0.5322886 -0.37484318 -0.046111252 0.075329185 0.070868514
-0.08796224 -0.069517806 -0.09212877 -0.24471734 0.2372836 0.5769535 0.13812064 0.36828145
-0.13619748 -0.5160901 0.6813911 -0.2868594 0.82926565 -0.6146874 -0.43912676 0.16180517
0.70526206 0.37389943 0.025551716 -0.5156694 0.17885727 -0.17720667 0.03208041 -0.86514837
0.1576074 0.14359507 -0.09738674 -0.081433974 0.07106996 -0.011031832 0.15851234 -0.018904809
-0.50106484 -0.66863394 -0.09941532 -0.3175003 0.10376002 -0.05280747 0.6743461 -0.22335044
0.18891163 0.39348328 -0.23726968 0.029720005 -0.17718507 0.11580116 0.08164479 -0.914968
0.018121213 -0.7030113 0.534877 -0.45942268 0.17142487 -0.08076792 -0.06638348 0.5767851

agent,params,Dense_1,bias f4 [50]
00000000: d4ab 703e 66cc ca3e 9863 883e 1a30 863e
00000010: 015f 2a3e 6e7b 883e 64e7 873e 4781 243d
00000020: 1852 273e 58b6 8e3e b865 903e 2494 ec3d
00000030: 0a1c 923e 1b94 c33e a93c 683e f2ff 873e
00000040: bfa6 af3e 4a8d 883e 7170 153e e734 1c3e
00000050: e4fa 653e b996 c63e 69d1 d63d 8855 9b3e
00000060: fe9e 8b3e a995 553e 2cbd 253e 521f 013e
00000070: 430a 9b3e be34 a43d a72c 683e 8ef4 733e
00000080: 8e00 303e d29c b13e fec4 213e b497 f73d
00000090: f9a0 693e 03bc 663e 52c9 df3e b444 0f3e
000000a0: 7e9d 1a3e 70b4 8b3e 2795 633e 612c 323e
000000b0: acbc 5b3e d263 823e da57 6f3e 108a 993d
000000c0: d1d1 613e 6e87 493e
0.23503047 0.3960907 0.26638484 0.26208574 0.16637804 0.2665667 0.26543725 0.04016235
0.1633991 0.27873492 0.28202605 0.11551693 0.28537017 0.38198933 0.2267939 0.26562458
0.34306905 0.26670295 0.14593674 0.15254556 0.22458988 0.38786867 0.104891606 0.30338693
0.2726974 0.20857872 0.16185445 0.12609604 0.30281267 0.08017872 0.22673284 0.23823759
0.17187712 0.34689957 0.15797803 0.12089482 0.22815312 0.22532658 0.43708283 0.13991052
0.15099141 0.272861 0.22224866 0.17399742 0.21458691 0.25466782 0.23373356 0.074970365
0.22052695 0.19680569

agent,params,Dense_1,kernel f4 [64, 50]
00000000: eaed 22be acd4 5bbe 22bf cb3d a5e7 15bd
00000010: 2fbd 053e d059 4c3d 1cb0 0a3e 4cd6 c93c
00000020: c5e0 973c f54a a5be f83e 213d 14cd 06be
00000030: 6e27 4b3e 37a1 69bc 6751 87be 8b49 333d
00000040: ce48 1dbd 631a 62be 877b f83d 3792 2b3e
00000050: a6eb 913d 9a95 adbe d110 993d 4432 0c3e
00000060: 0cab 6abe 0ff0 a6bd cb75 e63c 9c4e 9cbd
00000070: 6d20 b53e 1bc7 373e 8c7a 093d 7d23 98be
00000080: ce94 7e3e 6e77 84be 38b9 513e 8b28 a1bd
00000090: 0778 babe cb13 17bd 6ec5 2b3e 1e16 c1be
000000a0: a9e2 07bc a7b7 12be ce81 913d bbaf 5b3e
000000b0: 3035 74be dce9 0b3d f6e1 4c3e a039 a1bd
000000c0: d5bd 1b3e fadf 3abe 4280 313e 4929 0fbe
000000d0: e0c7 0dbe ec12 373e ad6b 273d 183b 623e
000000e0: d198 e73c 39bc 50bc 84c5 523e 74b5 cabd
000000f0: afe7 fe3c fda9 2dbe dd4b 5c3e bbe2 80ba
00000100: 4c14 123e a482 9d3d d729 813e 4649 ad3d
00000110: 52b4 eb3c b71d be3d 84a6 25bc df55 4a3e
00000120: 55de 81bd ac76 1dbe 3742 6abb ad4b 153e
00000130: 1c56 c3bd c914 b03e c4a8 ae3e 4f0a 34be
00000140: 85c4 babd 472c d03d 9a3b 053e 20b9 abbc
00000150: efb8 863d ee17 7abe 68ab 193d 24b7 ef3c
00000160: 687a 833d 8b9d 7bbb c9d3 5e3e d361 3c3e
00000170: 6ac8 fa3d 38f0 40be 90f4 18bd 1e03 383e
00000180: ed16 8b3e 50d6 ac3e 0a0c 3fbe eb75 50be
00000190: 293d 983d e320 50bd 2a82 02bf d967 eebd
000001a0: 65ec 66be 9a66 e93d d187 93be b694 a53d
000001b0: 8f6c 60be b67b 413b 4911 afbc dbf4 fb3d
000001c0: 4d1f 47bf ab37 05bf 4658 13be bc73 bfbe
000001d0: 4c62 483b b1c7 00bf bb19 18be d60b c7bd
000001e0: 4cf1 3abe e252 a0be abaf 21be df88 5fbe
000001f0: e23d d7be b122 cbbd a5d4 a4be 632b 09be
00000200: aa58 8b3c 7edd 1a3e d01a d6bd 62f1 ecbd
00000210: a7b3 92be c839 f23c a6ba adbd 9dfe a7be
00000220: c76e 96be a254 87bd 5c4d 2dbe 2c7a 8bbe
00000230: e476 afbe 3894 943d a877 133e 3460 cb3d
00000240: 0c95 99bc 31d0 47be 7a9a 84be c896 acbe
00000250: 6345 3bbe 753a cfbe b4a6 a7be 8186 e9be
00000260: 73c0 abbe 0259 a7be 6e0e cfbe 944c bdbd
00000270: c24f 88be 6b32 8bbe 8a6b ffbe 5d3f 08bf
00000280: 5024 93be 6475 02bf 0135 38be 8d77 9dbe
00000290: 887f 14bf 1398 3ebf f2a8 6c3e 9798 c0be
000002a0: d8f3 b2be 980f 07bf 6887 f5be bea7 d6bc
000002b0: b3b6 c1be 8958 aebe 39a3 b8bd b5c6 f5be
000002c0: 146f b2be 120e debe 748e 1bbf 5765 55be
000002d0: 04ae cfbe 2a99 4dbe 3702 c4bd bd18 fabe
000002e0: b219 25bf be1b b5be 01b4 c6be f491 e6bc
000002f0: 8dfd 8fbe d8e2 29bf 3277 febe 38bd 05bf
00000300: 4258 26be 829a 43be 4ea1 1fbf a1a3 30bf
00000310: fa98 f1be 1de5 e2be dbaf b6bd bc01 e0bd
00000320: c162 73be 1fd3 a1bd 8544 d2be 9a13 863e
00000330: 2c66 abbd 2402 bf3a 421f cabd d7fa e7bd
00000340: cccd 81be 7014 89be 1893 e0be e905 07be
00000350: dada a2be 9bbc 0ebd 0d03 213e 68e5 81be
00000360: d8ba 003d 5b08 94bd 132e 45bd a1db babd
00000370: a0ae cabc 71aa 5dbe e59c aebe e611 2b3e
00000380: c2f0 9bbd 4bfe 19be e8d7 fb3d d8e4 0c3e
00000390: b2ca 8ebe f7df 34be 1f92 1b3d 7bb4 2dbe
000003a0: a25b 283d 363b 00bf 70f6 f4bc ccfc 3c3d
000003b0: 9b76 70be 5062 14bd 40aa 38bd e14b 1ebd
000003c0: f484 35bd a773 503e 1402 4bbe 6bb5 81be
000003d0: dd47 38bd 0f43 a83d cc53 62be 2e34 8abe
000003e0: df6c fc3c d76f 8c3d 87fd 6c3b ea3f 45be
000003f0: 0995 9cbe 5907 78bd 46bc 5b3e 34b1 823d
-0.1591107 -0.21467847 0.09948565 -0.036597867 0.13060449 0.04989034 0.13543743 0.024638318
0.018539796 -0.3228375 0.039366692 -0.13164169 0.1983926 -0.014259628 -0.26429293 0.043771308
-0.03839951 -0.22080378 0.12132936 0.16754995 0.071250245 -0.339032 0.074739106 0.1369105
-0.22916812 -0.08151256 0.02813234 -0.07632181 0.353763 0.17947046 0.033564135 -0.29714575
0.24861452 -0.25872368 0.20480812 -0.07869061 -0.364197 -0.03688411 0.16774532 -0.37712187
-0.008293786 -0.1432787 0.071048364 0.21453755 -0.23848414 0.034158573 0.20008072 -0.07872319
0.15209134 -0.18249503 0.17334083 -0.13980593 -0.13845778 0.17878312 0.040874172 0.22092855
0.02827111 -0.012740188 0.20583159 -0.09897891 0.031116335 -0.16959377 0.21513315 -0.0009833196
0.14265555 0.07690933 0.25227234 0.084612414 0.028772507 0.092830114 -0.010110501 0.1975932
-0.063412346 -0.15377301 -0.0035745034 0.1457965 -0.095379084 0.34390858 0.34113133 -0.17582057
-0.091195144 0.10164695 0.13011017 -0.020962298 0.06578242 -0.24423191 0.03751698 0.029262133
0.064198315 -0.0038393463 0.21760477 0.18396692 0.12245257 -0.18841636 -0.037342608 0.17969939
0.27165928 0.33757257 -0.18656936 -0.20357482 0.074335404 -0.050812613 -0.50979865 -0.11640901
-0.22551115 0.11396523 -0.28814557 0.08085005 -0.21916412 0.00295232 -0.021370547 0.12302562
-0.77782136 -0.5203807 -0.14389142 -0.37392986 0.0030576168 -0.50304705 -0.14853565 -0.097190544
-0.1825611 -0.31313235 -0.15789668 -0.21829556 -0.420394 -0.09918726 -0.32193485 -0.13395457
0.017010052 0.15123555 -0.10454333 -0.115694776 -0.2865269 0.029568568 -0.08482866 -0.32811442
-0.2938139 -0.06607939 -0.16924042 -0.27241647 -0.34270394 0.07254833 0.14401114 0.09930459
-0.018747829 -0.19513012 -0.25899106 -0.33708787 -0.18288188 -0.40474287 -0.32744372 -0.4561043
-0.33545265 -0.32685095 -0.40440696 -0.09243122 -0.2662335 -0.27186903 -0.49886733 -0.53221685
-0.28738642 -0.50960374 -0.1798897 -0.30755273 -0.580071 -0.74450797 0.23111323 -0.37616417
-0.34951663 -0.5275817 -0.4795487 -0.026203033 -0.378347 -0.34051922 -0.09015507 -0.48003164
-0.3485037 -0.4337011 -0.6076424 -0.2083944 -0.4056245 -0.20077959 -0.09570735 -0.48847
-0.6449233 -0.35372728 -0.38809207 -0.028145768 -0.2812313 -0.6636176 -0.49700314 -0.5224185
-0.16244605 -0.19101909 -0.62355506 -0.6899968 -0.47187024 -0.44315425 -0.089202605 -0.10937831
-0.2376814 -0.07901596 -0.410679 0.2618683 -0.08369097 0.0014572782 -0.09869243 -0.11327141
-0.25352323 -0.26773405 -0.43862224 -0.13185848 -0.31807595 -0.034847837 0.1572382 -0.25370336
0.031428188 -0.07228156 -0.048139643 -0.09123922 -0.02474147 -0.2164705 -0.34104076 0.16706046
-0.0761428 -0.15038411 0.1229704 0.13759172 -0.2788902 -0.17663561 0.03798115 -0.16963379
0.041103013 -0.5009035 -0.029902667 0.046139523 -0.23482744 -0.03622657 -0.045084238 -0.038646583
-0.044316247 0.20356618 -0.19825011 -0.25333723 -0.04499041 0.082159154 -0.22102278 -0.26992935
0.030813633 0.06857269 0.0036161856 -0.19262663 -0.30582455 -0.060553882 0.2145854 0.06381455

agent,params,ScannedRNN_0,GRUCell_0,hn,bias f4 [64]
00000000: e5ec 63bc 4338 0a3b d050 c3be 9869 02bf
00000010: 15a2 97be bc04 e4bd 8d9b 0b3f 47d8 d9be
00000020: 1cf7 0dbf fb0e b4bd c4be a63e b5b6 ec3e
00000030: 450c 05bf 5490 8fbc fa22 763e 1c23 cf3e
00000040: 4a75 12be 3fb4 2a3e 3c49 b83e e67f c03e
00000050: 9925 32bf aa4c bbbe d002 8bbd d180 56bd
00000060: a645 c9be 8fb3 463c 23fe 73be cd28 b4be
00000070: 0fdc 243f 0315 9cbe 6c8e e03e db23 0d3f
00000080: 1a7c 903c 0aa6 33bd d737 b7be 657b c23d
00000090: 0fb5 41be f849 9abe d84b d8bd b117 783e
000000a0: 52c0 b03d 0a38 ea3e e038 f1be 599f ccbe
000000b0: 07d3 2c3d f71b d3bc 3568 123f 430b 883e
000000c0: f309 193e 1455 c73e 3153 b83e b5b8 383e
000000d0: 78e2 86be cd5e a9be 7082 05be 3931 293f
000000e0: 49bd f43e 6448 c3be ee21 83be 4686 c6be
000000f0: ff83 cdbc af1a 883e 2eb6 0f3e f902 db3e
-0.0139114605 0.0021090664 -0.38147593 -0.50942373 -0.29615846 -0.111337155 0.54534227 -0.4254782
-0.55455184 -0.0879192 0.32567418 0.46233144 -0.51971847 -0.017524876 0.2403678 0.40456474
-0.14302555 0.16670321 0.35993373 0.3759758 -0.6958862 -0.36581928 -0.06787646 -0.052368943
-0.3931095 0.012127771 -0.23827414 -0.3518738 0.6439828 -0.3048478 0.4385866 0.55132836
0.017637301 -0.04385952 -0.3578479 0.09496192 -0.18916725 -0.3013456 -0.10561341 0.24227788
0.08630432 0.4574588 -0.47113705 -0.39965323 0.04219344 -0.02577017 0.5719026 0.26571092
0.14945202 0.38932097 0.3600097 0.1803921 -0.26344657 -0.3308014 -0.13038039 0.6609073
0.47800663 -0.38141167 -0.25611824 -0.38774318 -0.025087355 0.26582858 0.1403434 0.42775705

agent,params,ScannedRNN_0,GRUCell_0,hn,kernel f4 [64, 64]
00000000: ea44 1cbf ae76 8dbd 1204 82bd 3e12 ccbd
00000010: 0112 f7bc b145 54bd 1f78 163d de01 d73d
00000020: e682 df3d bf88 523d a2b7 83be baec e23d
00000030: 4c49 75bc 879b c3bd ae8d d8bd ba43 a23d
00000040: 25ad 50ba 9996 94bc 1ba0 8ebe 3557 213a
00000050: 0de7 bd3e 8f2c 133d ffa4 9fbe f651 71bd
00000060: ed4f 123e 61a3 4dbe b205 fabc 7923 923d
00000070: e16f 11bc ce06 c33d e7e4 4d3e 6063 6d3d
00000080: 5835 27bc f5d4 12be fc49 77bd 4b44 a6bd
00000090: c30b 47be 1b24 37bc 8b46 4abd b030 1f3d
000000a0: 374f 9c3d d298 d93c 0960 99be 1f7f bf3d
000000b0: 5ed9 a4bc ae8d d7bc b4b3 94bd b237 b0be
000000c0: de6f e7bb 677f 04bd 63a0 96bd f8da 03bd
000000d0: ae51 9d3d 5ab9 b5bd 6b66 b9bd edef 833d
000000e0: c7dd 843d 3363 fd3c 7cda 453d dc31 11be
000000f0: e303 a43d 41ba 97bd c9b6 393e 2db5 4ebd
00000100: 7db7 e43d d1c5 04bf d329 e63d 5c19 cf3c
00000110: 4fc1 06be 6443 4a3d db3e 8bbd e7ca 2cbd
00000120: 9602 183d fb6e 8cbc 1e12 833d c393 843d
00000130: bb0f ab3d 749e b8bd 3051 87bd e23a a6be
00000140: 48ad 483c cb65 3e3e 6fa9 8e3d 810b 46be
00000150: 4b2f 2f3e 312f 963e b30b cc3d 2d8f a73d
00000160: 8c09 0abe c547 38bd 9216 e73d a882 9abd
00000170: 35c4 003c 4737 6f3d 1ec6 033d b47e 6bbe
00000180: bdc1 03bc e7e4 903e f7e1 003e 0eb7 243e
00000190: 6e6a 3dbe 0077 64be d636 e53d c2d4 5a3e
000001a0: 1d65 e0bd b68b c73d 9935 d63d 52e0 dc3b
000001b0: bf67 38be bb48 f63d 18b7 cabd 8dea 1abe
000001c0: d611 2b3e 27c9 5a3e c694 1bbe 3ed2 b53d
000001d0: 8217 91bb 4890 4c3d 666e 4c3e d23e 943e
000001e0: 8f9e 4ebd 1665 a1bd 4c14 94bd 1c64 4a3e
000001f0: 98d9 763e 67d6 29be c94b d1bc cca0 fbbd
00000200: 76f0 103e e516 953c 120c 98be 012a 61be
00000210: ed7f 3abd 8484 263c 68e1 fb3d 92cc 0d3d
00000220: aa46 503e 3513 2abe ee53 b93d 831a b73d
00000230: 7afc 673d e328 04bd e47f 0abe fbe7 c6be
00000240: a4a1 a8bd 141a 98bd 931e 1cbd 1ae4 503d
00000250: a22f 94ba 0064 1dbd 818c 843d ac04 133e
00000260: af51 8e3d f05a f73c db15 133e 4506 f8bc
00000270: 2754 55bd d489 e03d 3db2 dbbe 40d3 86bb
00000280: 961a d13d 60b7 b53d 4f22 36be 482b 92bd
00000290: fbab 313d ca04 573e 14d1 593e fc97 413d
000002a0: fbb0 07be 2e17 27bd ba77 82bc 5d98 8fbd
000002b0: fd9e 973c c931 21bd 342e 42be 68cf 3cbd
000002c0: 015c 13be 9114 03be a2e0 d0bd 7dc4 a8bb
000002d0: b416 0ebd 7b87 8b3e 7f3b 70bb e84d 9d3e
000002e0: 1a02 ad3d 731e 6b3d 78b6 55ba c80a 083e
000002f0: 642f 81bb 7476 693c b3d8 d4bc d9db 1c3e
00000300: 2cdb 473e 2542 55bd c7fb 1a3e 3f24 23be
00000310: c81a fabc 792b 9f3d f981 df3c ff12 dcbd
00000320: 9614 85be 21c8 37bd 0096 57be 9ab4 6e3d
00000330: 697f 01bd 34ae 69be e7e3 5dbd c91a 373d
00000340: d41f 5c3c 5316 0fbd dac9 e13d 30bd 88be
00000350: 68f1 b73e 9b8b ad3d b71a 673e c77d 67be
00000360: 464c 0a3e 92f5 713d ea43 653d ba01 323d
00000370: e875 0b3e a003 bb3c 7bfb 7d3b cde3 ebbd
00000380: e0ae 73be 2c3b cbbd 5d46 a83c 7ff9 c33c
00000390: 67d9 9ebd 42a6 443e 517d 7e3d 9036 cbbd
000003a0: 7cbd 303e 5b45 d8bd 5690 7cbc 8f2d 783e
000003b0: ac42 87ba 654d ecbb a1f0 89be 236d 333d
000003c0: bf5c 7d3d 8d83 47be 77ea 4e3e 4175 a8bd
000003d0: b76d 083e 6edc af3d ef3f 81bd 86bd cdbd
000003e0: a10c 173d 6092 0b3e f9c2 07be 81cf b4bc
000003f0: bde3 4c3c 3a5b 1b3e 8104 683a f09f 12be
-0.61042655 -0.06907402 -0.063484326 -0.09964417 -0.030159952 -0.051824275 0.03673565 0.10498403
0.10913639 0.051399942 -0.25726038 0.11080308 -0.014971089 -0.09551149 -0.10573898 0.07923074
-0.0007960371 -0.018138217 -0.27856526 0.00061546575 0.3709034 0.035931166 -0.3118057 -0.058916055
0.14288302 -0.20081855 -0.030520294 0.07135672 -0.008876772 0.09522782 0.2010685 0.0579561
-0.010205589 -0.14339049 -0.06037329 -0.081184946 -0.1943808 -0.011178042 -0.04938368 0.03886479
0.076322965 0.026562128 -0.29956082 0.09350418 -0.02012318 -0.026312675 -0.07260838 -0.34417492
-0.007062896 -0.032348063 -0.0735481 -0.032191247 0.07681595 -0.08873244 -0.09052738 0.064422466
0.06487613 0.030931091 0.048304066 -0.14179176 0.08008554 -0.07408572 0.18136133 -0.05046575
0.1116781 -0.51864344 0.11238446 0.025280647 -0.13159679 0.049380675 -0.06799098 -0.04218569
0.03711184 -0.017142763 0.0639994 0.06473496 0.0835261 -0.090145975 -0.06607282 -0.324668
0.012248345 0.18593518 0.06965911 -0.19340326 0.17107885 0.2933288 0.09963169 0.081816055
-0.13480204 -0.04499032 0.11283602 -0.07544452 0.007859279 0.058402326 0.03217136 -0.22997552
-0.008041796 0.2829964 0.12586199 0.16085455 -0.18497631 -0.2231102 0.111921 0.21370223
-0.10956786 0.097434446 0.10459442 0.0067406083 -0.18008326 0.12025591 -0.098982036 -0.15128537
0.16706023 0.21365796 -0.15193471 0.08877991 -0.004427851 0.049942285 0.19963989 0.28954178
-0.050444182 -0.07880609 -0.07230434 0.19764751 0.24106443 -0.16585694 -0.025548832 -0.12286529
0.14154229 0.018199394 -0.2969671 -0.2198868 -0.045532156 0.01016343 0.12298852 0.03461892
0.20339456 -0.1660889 0.090492114 0.089406036 0.056637265 -0.032265555 -0.13525349 -0.38848862
-0.082339555 -0.07426849 -0.038115095 0.050998785 -0.00113057 -0.038425446 0.064721115 0.14357251
0.06949174 0.03019473 0.14363806 -0.030276427 -0.052082207 0.10963789 -0.42909423 -0.0041145384
0.10210149 0.08872867 -0.17786525 -0.071371615 0.043376904 0.2099792 0.21271163 0.047264084
-0.13251106 -0.04079359 -0.01592623 -0.07011483 0.018508429 -0.03935412 -0.18962938 -0.046096236
-0.14390565 -0.12800814 -0.10199095 -0.0051503764 -0.03468962 0.272518 -0.0036656556 0.307235
0.084476665 0.057402086 -0.0008152495 0.13285363 -0.003942417 0.014249433 -0.025982236 0.1531824
0.19517201 -0.052065033 0.15135108 -0.15931796 -0.030530348 0.077719636 0.027283655 -0.10745811
-0.25992268 -0.044868592 -0.21053314 0.058277704 -0.03161565 -0.2282036 -0.054172423 0.04470328
0.013435323 -0.0349334 0.11024828 -0.2670684 0.35926366 0.08473893 0.22568785 -0.22606574
0.13505659 0.059072085 0.05597297 0.043458678 0.13619196 0.022828877 0.003875463 -0.11518059
-0.23797178 -0.099233955 0.020541364 0.02392268 -0.0775631 0.19204047 0.06213123 -0.09922516
0.17259783 -0.105601035 -0.015415272 0.24236129 -0.0010319552 -0.0072113746 -0.26941398 0.043805253
0.061856028 -0.19483776 0.20206629 -0.082254894 0.13323103 0.085869655 -0.063110225 -0.10045914
0.03687728 0.13630056 -0.1325797 -0.022071602 0.012505469 0.15171519 0.0008850769 -0.14318824

agent,params,ScannedRNN_0,GRUCell_0,hr,kernel f4 [64, 64]
00000000: f816 53bd fe9f c53c b9a1 f33d 6919 de3d
00000010: cde9 81be 4122 62be 5bb6 f93d b2bb 213e
00000020: d69e 023d e499 753e a845 0ebe aa49 193e
00000030: 30f5 683b 660f 233d 2a72 0d3c 8dee 0b3e
00000040: bbe9 3d3e d535 8c3c 44fa 013e 4ad5 913d
00000050: e347 c73d f712 16bd e12d 6fbe 7fbe 833d
00000060: 1976 cdbd 6e0e 0fbe 5176 69bd 811e 823e
00000070: 64f4 9abb 9db2 7c3d 84fd 023e 4bc0 373e
00000080: 0cd6 403e 7285 27bb 9160 4dbe e690 2bbe
00000090: cf5d 413d ee27 4a3c 8de5 5b3d eef3 153d
000000a0: c64e 823c d3c3 233d 1d16 59bd 9d92 1ebc
000000b0: 5917 41bd 08bf 6ebc a64a 43bb f8c1 66be
000000c0: cee9 6d3c d6bd 353e 21f2 9eb9 bbde 193e
000000d0: 33f8 393e 540f a93d a7e5 de3c b2c7 aa3e
000000e0: ed7b dc3d 3ae8 cb3d db54 39be a219 a33d
000000f0: 33aa 633e fd2c 5ebd d9cf 623d 3fb6 813d
00000100: b005 4c3d 47b9 a6be 1bbe 38be 838d 2abb
00000110: de6f 2bbe e01d 96be 4985 0f3e 1eef 25be
00000120: bd85 55bd e946 16bd fc64 83b9 7da2 d2bd
00000130: 6516 ccbd a1a9 673d 9125 0b3e 5a26 14be
00000140: 2aba 33be 79fd f13d ac75 e1bd 0ca9 8dbd
00000150: 07f8 ac3d 833c cb3d 80bb 00be d4ab 93be
00000160: 45c6 51be f8c5 58bd 1dc5 c0bc 4788 24be
00000170: 6ec6 6bbd 0074 b83c 63b4 813d 57a1 923d
00000180: 0d20 66be b54a c3bd 4dde 563c 2143 393e
00000190: 633a c7bd ca67 1c3d 96cf 2bbe 8fb5 323c
000001a0: 64fe 6f3c c0b4 163e f97d e2bd 1499 ccbd
000001b0: 479e 50be b079 e83d 301e 54be 3ac9 e6bc
000001c0: 8b67 543d ca76 edbd ca08 b6bc 7077 8fbd
000001d0: 2209 653d 27d5 403e 038d c93b 2159 1bbd
000001e0: 823a d93d 5389 92bc 133c 963c bc2b 9fbd
000001f0: 2b97 443d acd6 203e 533d 33be b76d e53d
00000200: 2fcc 37be c512 d0bd 1152 1b3d ab81 023e
00000210: 817e f6bd 36d6 c8bc 5734 24be 0c8e a33d
00000220: 92c1 fcbc 8e2d 453e cf39 d63b 9f3c 2dbd
00000230: 3d79 6fbd 8e21 a4bc 4582 a53d 6647 b83d
00000240: 66e0 8abd f765 31be 1f52 18bc 9179 cebd
00000250: 63f0 2b3e 0f0f a03e d336 9abc 17a5 1b3d
00000260: c5a7 723e 35df 97bd d6c8 663d 0611 afbc
00000270: 52c0 393e 9223 02be eae2 9bbc 6fb8 1abe
00000280: c8ae 24be 9176 3fbc 200a 6f3e 1482 1ab9
00000290: 1054 193d 1003 a73d deac fd3d 7fcf b1bb
000002a0: c2d2 5abd b2cb 19be 9e7d 5bbe 0321 443d
000002b0: f6ec 5cbe a501 993d 6e3e 053e 16fe cabe
000002c0: a46d 663d 60b0 e43b 4d92 86bd 299b 2cbe
000002d0: 6f57 e0bd 80ec 90bc 7070 433d 95d6 a23c
000002e0: c94b c43c 664b 5f3e 2338 d8bb b790 9dbd
000002f0: d4e9 b4bb 4588 a8bd d42c 683d cf31 1b3c
00000300: 9de9 073e e364 693e d646 003e ee6a 0c3e
00000310: c983 15be 3c6e 3c3e aa3c c53d db86 8a3e
00000320: ed1d 0b3e 73f7 363e 30d7 47bc ac64 4b3e
00000330: da56 803c 550c 9d3d 57cb 02be 71e4 eb3d
00000340: 200d 8b3d 6a88 3c3c 1bfa 243e 461c 663e
00000350: 7b1f c73e 3871 9cbd b099 0e3e 65e7 84be
00000360: 2767 903d e077 8cbd 8406 983e ba63 2ebe
00000370: c255 343e 8c79 a2bd 9aaf 513e 7d80 983e
00000380: 8e9d 183e f1fb 4b3d 97f2 b03d ea1e 623e
00000390: 8595 f9bd d436 3d3e 791b 9f3e 41c2 a53d
000003a0: d9b2 673d a064 873d 5f26 713e a5a5 723e
000003b0: d7a2 473e bb8c 8c3d 38fd 433e e9b8 9c3d
000003c0: 08be 213e 2535 3a3d e547 0cbc f1d1 13bd
000003d0: 27a4 163e 1cd9 153e 7625 a33d 11ba 1e3e
000003e0: 49e6 7cba 3a62 2abc f4dd 833e 8e39 363e
000003f0: ec33 063e 21e6 383d 1d2e 81bc e78f 013d
-0.051535577 0.024124142 0.118960805 0.1084469 -0.25373688 -0.2208338 0.12192985 0.15794256
0.03188976 0.23984486 -0.13893759 0.14969507 0.0035546534 0.039809607 0.008633176 0.13665219
0.18546192 0.017115513 0.12693125 0.0712076 0.09730508 -0.03663918 -0.23357345 0.064328186
-0.10032291 -0.13970348 -0.0569976 0.25413898 -0.0047288407 0.061693776 0.12792021 0.17944448
0.18831652 -0.0025561717 -0.20056368 -0.16754493 0.047208603 0.012338622 0.053685714 0.036609583
0.015906703 0.039981674 -0.052999604 -0.00967851 -0.047141407 -0.014571913 -0.0029799133 -0.2253493
0.014521075 0.17748198 -0.00030316508 0.15026371 0.18161087 0.08254877 0.027209116 0.3335548
0.107658245 0.09956403 -0.18098776 0.079638734 0.22232895 -0.054242123 0.055374 0.06333589
0.04981011 -0.3256323 -0.1804127 -0.002602429 -0.16741893 -0.29319668 0.14015688 -0.16204497
-0.052129496 -0.03668872 -0.00025061506 -0.102848984 -0.09965209 0.056558255 0.13588549 -0.14467755
-0.17551485 0.11815924 -0.11008772 -0.06917009 0.08445745 0.09923651 -0.12571526 -0.28842032
-0.2048579 -0.052923173 -0.023531491 -0.1606761 -0.057562284 0.02251625 0.06333234 0.071596794
-0.22473164 -0.095357336 0.013114524 0.18092014 -0.09727933 0.03818492 -0.16778407 0.010907545
0.014648054 0.14717388 -0.110591836 -0.09990135 -0.20372878 0.11351335 -0.2071464 -0.028172124
0.05185656 -0.11594923 -0.022220988 -0.07005203 0.055916913 0.18831311 0.006150843 -0.037926797
0.106068626 -0.017887747 0.018339192 -0.077720135 0.047995728 0.15706891 -0.17503862 0.11202567
-0.17948984 -0.1015983 0.03792006 0.12744777 -0.120358475 -0.024516206 -0.16035591 0.07986078
-0.03085402 0.19255659 0.006537653 -0.04229414 -0.05846523 -0.020035531 0.080814876 0.08997993
-0.06781082 -0.17324053 -0.009296923 -0.10081781 0.16790919 0.3126149 -0.01882497 0.03799924
0.23696811 -0.0741562 0.056343876 -0.021370422 0.1813977 -0.12708881 -0.0190291 -0.15109418
-0.16082299 -0.011685983 0.23343706 -0.00014735042 0.037433684 0.08154881 0.123864874 -0.005426347
-0.05342365 -0.1501911 -0.21434638 0.047883045 -0.21574768 0.07471017 0.13012096 -0.39646977
0.056256905 0.0069790334 -0.065708734 -0.16856064 -0.10954177 -0.017690897 0.04771465 0.019877711
0.023961918 0.21806106 -0.006598489 -0.07693618 -0.0055210385 -0.08229116 0.056683376 0.0094723245
0.1327271 0.22792391 0.12527022 0.13712665 -0.14601053 0.18401426 0.096307114 0.27056012
0.13585635 0.17867832 -0.012197301 0.19862622 0.015666414 0.07668368 -0.1277288 0.11518181
0.06789613 0.011507133 0.16111033 0.22471723 0.38891205 -0.07638782 0.13925815 -0.2595779
0.07050925 -0.06858802 0.2969247 -0.1703023 0.17610839 -0.079333395 0.20477143 0.2978553
0.14903852 0.049800817 0.0864002 0.22082105 -0.12186722 0.18477947 0.31075647 0.080936916
0.056567047 0.066109896 0.23549794 0.23696001 0.19495712 0.0686278 0.19139564 0.07652456
0.15795147 0.04546084 -0.008562063 -0.036088888 0.14711057 0.14633602 0.079661295 0.15500666
-0.0009647352 -0.010399396 0.25755274 0.17795393 0.13105744 0.045141343 -0.015769059 0.031631377

agent,params,ScannedRNN_0,GRUCell_0,hz,kernel f4 [64, 64]
00000000: 5853 bbbd e09f 84bb 9df6 c63d 8bec 3cbe
00000010: 02ef efbb a6e7 423d e25e d5bc aa3d a6bc
00000020: dcaa 85bd fd20 e73d 1ad4 703d 3e65 2fbe
00000030: 4f4d 90be db4b 8b3d 0b82 15be d619 523e
00000040: e55c e23c 2ad6 8d3c e4ba 31be 05c7 5a3e
00000050: ff5b 6f3d 7ade 503d e341 623c 3e9a 833e
00000060: 456e f33d 9b89 4bbd c8f4 f8bc 2d23 2dbe
00000070: 22f9 833e b37b 9abd 2e10 68bd 04b6 7bbd
00000080: 7506 813d 68bf 3d3d 6f5b 3d3b 9fae 1dbe
00000090: 8487 d5bd 3372 2cbe b3a1 453e 2313 4c3d
000000a0: 6d15 8d3c 99cf 5fbd 0e37 33bd 0c74 033e
000000b0: 190e cdbd b18c 68bd 72f1 37be 4876 32bd
000000c0: 672c 7b3d 55d5 cc3d 9b18 853d aea9 07be
000000d0: 12c8 f13c 89e6 7e3c 552b e53c 1538 263d
000000e0: db4f ba3c 51fd 85be b4e1 273e c17c fe3d
000000f0: 2bfd 27be a9e3 95be 33e3 ffbd 2ba0 c4bd
00000100: 2d6a 3f3d a18a 3dbe bff6 123c 307a a3bd
00000110: 32b3 e1bd 0372 923c 20cb a9bc 46f4 f73d
00000120: fc3c 1abe 825b dcbd 1007 2cbe 9efb 48be
00000130: cd37 e13d b0ba f7bd 7994 1d3d 1550 45bc
00000140: c879 38bd 2b3d 8bbd 4afe 70be d41f 523d
00000150: a8b7 f7bc d0e5 113e f6a9 c53c 67b4 ecbd
00000160: d44e 4f3b fcc4 1b3e 165e 27bc 586c 5c3d
00000170: f09e 2ebe ef74 173e 45a2 02be f7f2 1cbe
00000180: 0b20 30be 9e8d 1e3d 29bd 19be 166c 813d
00000190: 20bf 04bd fd0a 3a3e 63d9 9b3e 271d f63c
000001a0: 174d 0e3e 235a 033e 9061 c2bc 5e7e 9a3d
000001b0: 6d0e 263e a688 7a3d 0b84 b13d 261d 553e
000001c0: 6003 03bd 831f 213e 8391 32bd d38b 83bd
000001d0: 8d5a 323e e534 783c 78d3 27be 37fe 0ebd
000001e0: 1d1a 15be e835 fbbd 6311 393e fc1e f5bd
000001f0: 9eb0 5fbd 77c0 eabc 4d59 77be 1ab7 ae3c
00000200: bef4 683c ee72 ee3c 69dd 20be 97d1 2f3e
00000210: af4d e8bd 5ab7 b5bd d723 db3e fc3a 66bd
00000220: af34 e4bb 95bc 313d 7917 d93d f18e 0bbd
00000230: 8fb2 c4bd b411 093e f92f c83d 7222 a3be
00000240: aa47 d4bd 793e 3e3d b5b1 b5bd ce4e f03d
00000250: 1638 5fbe 6d2e bb3d 38b4 253e 58bb bcbc
00000260: 8015 59bd 7d7b ac3c 778d 0ebe 6369 dfbd
00000270: 17b5 0d3c efa8 483d f78e 743e 8d91 643c
00000280: 36a4 113e a53c 6b3e 806f 263d 8a11 3cbd
00000290: b3fa 0ebe 5521 a0ba d22f bb3d 0211 27be
000002a0: 4714 803d 9d3b f2bd cbde f53a 5322 433d
000002b0: 9047 d83d a5a6 5f3d 7020 55be 37ed 843d
000002c0: 8a81 27be 809a 45bd 2493 263d c0e0 79bd
000002d0: e726 283c f1df 27be b144 bb3d 9eb2 21be
000002e0: eee3 653d bb6c 003e 3d5c d23d d3b9 32be
000002f0: b13a 233d 2278 4abe 342f 02bd a69c df3b
00000300: 933f b6bd 87d5 f93b 6b6a 64be d86b e9bd
00000310: 3dc3 60be 91a0 4bbe 3802 a9be 8004 893d
00000320: b04a 7c3d 5f7e d03d d003 9abd 8184 41be
00000330: bce5 62be 4038 0b3d 71c5 823e 6d4e 4e3e
00000340: d626 2c3c eb28 5ebd 4b1f 32bd 9a7e b43d
00000350: a29f 7ebe f8fd 183e 63e1 113e 1d28 a2bb
00000360: 5db8 573e 6e54 cdbb eaab 68be a8c7 cd3d
00000370: 96b1 63bd c3ea 3cbe ce65 ffbd 409e 253e
00000380: e9cc 0a3d 1b21 f9bd 79bd 2e3c 69b5 1abe
00000390: 018b b73d 6499 e73d d6bd 6e3d 84c0 fabd
000003a0: e2bf 46bd 7f18 33be 4906 1f3d 1ba0 00be
000003b0: f2a1 8f3e 86e5 e5bd 812f 5abe a6f9 cdbd
000003c0: 5ba3 aebd 198a 22be ecaf e6bd 9d46 b8bb
000003d0: daeb c4bd fd68 893e 5235 3cbe ffa0 71be
000003e0: 6330 afbe 2f92 c4bb cfe9 b13d a4d7 d9be
000003f0: 956a 94bd 31ec d23d a15c f03d ec61 83bd
-0.09146756 -0.004047379 0.097150065 -0.18449609 -0.007322193 0.0475842 -0.02604622 -0.020293076
-0.065267295 0.11285589 0.058796026 -0.17128465 -0.28183982 0.06801578 -0.14600389 0.20517668
0.027632186 0.017314035 -0.1735645 0.21364982 0.058437344 0.05099342 0.013809654 0.25703615
0.118862666 -0.049691778 -0.030390158 -0.1690795 0.2577601 -0.07543125 -0.056656055 -0.06145288
0.0630006 0.046325117 0.002889361 -0.15398644 -0.10426238 -0.16840439 0.19299965 0.049822938
0.01722213 -0.05464134 -0.043753676 0.12837237 -0.100124545 -0.0567748 -0.17963198 -0.043569833
0.061321642 0.10001627 0.06498834 -0.13248321 0.029514346 0.015557894 0.027974764 0.040580828
0.022743156 -0.26169828 0.16394693 0.12426139 -0.1640517 -0.29275253 -0.12494507 -0.09600862
0.046732116 -0.18509914 0.008969962 -0.0798229 -0.11020507 0.01787663 -0.02072674 0.12107138
-0.15062326 -0.10759641 -0.16799569 -0.19627234 0.10996971 -0.12096155 0.038471673 -0.012043019
-0.045038015 -0.06798776 -0.23534504 0.051299885 -0.030238941 0.14247823 0.024128895 -0.115578465
0.0031632679 0.15211862 -0.010215303 0.053814262 -0.17052817 0.147907 -0.12757213 -0.15327059
-0.17199723 0.038709275 -0.15013565 0.06319444 -0.032408834 0.18168254 0.3043929 0.030043198
0.13896595 0.12827353 -0.023728162 0.07543634 0.1621644 0.061165474 0.08667763 0.208119
-0.03198564 0.15734677 -0.043595802 -0.06423154 0.17417355 0.01514933 -0.16389263 -0.034910407
-0.14560743 -0.12266141 0.18073039 -0.119688004 -0.054611795 -0.028656228 -0.2415516 0.021327544
0.014218507 0.029107537 -0.15709461 0.17169796 -0.11342942 -0.08872862 0.4280078 -0.056208596
-0.006964288 0.043392736 0.1060018 -0.034071866 -0.0960437 0.1338566 0.09774775 -0.31862217
-0.10365231 0.046446297 -0.088717856 0.11733781 -0.21798739 0.091397144 0.16182029 -0.023038551
-0.05299902 0.021054978 -0.13921152 -0.10908773 0.008649132 0.048989233 0.23882662 0.013950718
0.14222798 0.22972353 0.04063368 -0.045915164 -0.13962822 -0.0012216965 0.091399804 -0.16315082
0.062538676 -0.118277766 0.0018758414 0.047640156 0.105605245 0.054602284 -0.20813155 0.06490558
-0.16358009 -0.048243046 0.040667668 -0.061005354 0.010263181 -0.1639402 0.09143961 -0.15790793
0.056125574 0.12541477 0.10271499 -0.17453699 0.039850894 -0.1977239 -0.031783298 0.006824094
-0.088988446 0.0076243314 -0.2230622 -0.11397523 -0.21949477 -0.1988547 -0.33009505 0.066903114
0.061594665 0.101803534 -0.075202584 -0.18898202 -0.22157949 0.03398919 0.2554126 0.20147105
0.010507306 -0.05423824 -0.043486875 0.0881321 -0.24865583 0.14940631 0.14246134 -0.0049486295
0.21066423 -0.0062661683 -0.2272183 0.10047847 -0.05558928 -0.1844893 -0.124705896 0.16173649
0.033886824 -0.121645175 0.010665291 -0.15108265 0.0896206 0.11308554 0.05828651 -0.12243751
-0.048522837 -0.17489813 0.038824353 -0.12561075 0.28053242 -0.11225419 -0.21307184 -0.10057382
-0.08527251 -0.15872993 -0.11264023 -0.005623652 -0.096152976 0.26837912 -0.18379715 -0.23596571
-0.34216604 -0.0059988718 0.086871736 -0.42547333 -0.072468914 0.10298956 0.117364176 -0.064151615

agent,params,ScannedRNN_0,GRUCell_0,in,bias f4 [64]
00000000: f6a8 83bc 4665 1cbd 97a0 68be 790d 0dbf
00000010: 4396 8cbe 58b5 52bd 2be9 be3e 9076 07bf
00000020: 518b 04bf 9cff a4bd 0382 753e 5e9a a83e
00000030: 3857 dfbe 647c ccbb 8ba8 6d3e 062b c13e
00000040: 6224 20be 5820 d83d c08c a53e 563f ec3e
00000050: f8f8 1fbf 19ac ddbe 2f03 12be c4bb 2dbd
00000060: b8b1 0dbf ec8e ba3c f711 79be 04ff 9cbe
00000070: 1cd5 093f c308 96be 7813 d03e 0382 0d3f
00000080: 7fa6 69bd c5ee 1ebe 7938 cdbe 21b6 ff3d
00000090: 9912 0ebe 7ed1 66be 3ce4 2dbe 99e5 843e
000000a0: 7873 893d dacb ea3e e433 9ebe f0fc c0be
000000b0: f821 aebc bc01 bbbd 889b 0c3f eefc cc3e
000000c0: a73f eb3d d8d4 c23e 8805 913e 6b9d de3d
000000d0: 3c06 a6be 1513 90be 250f b0bd 5a50 153f
000000e0: 697f d43e 0c01 abbe 88c3 9abe e61c 8dbe
000000f0: 7663 06bd 8b2e 063e 7253 3c3e 389a 9d3e
-0.016071778 -0.03818252 -0.2271751 -0.5509868 -0.2745839 -0.051442474 0.37287268 -0.52915287
-0.5177508 -0.08056566 0.23975377 0.32930273 -0.4362123 -0.0062404145 0.23208825 0.37728137
-0.15638879 0.10553044 0.32333946 0.4614207 -0.6248927 -0.43295363 -0.14259027 -0.042415395
-0.553493 0.022773229 -0.2432326 -0.3066331 0.53840804 -0.2930356 0.40639853 0.5527651
-0.05704355 -0.15520771 -0.40082148 0.1248591 -0.13874282 -0.22540852 -0.16981596 0.2595642
0.06711477 0.4585865 -0.30898964 -0.37692976 -0.021256432 -0.0913119 0.5492482 0.4003672
0.1148675 0.38053012 0.28324533 0.10869869 -0.3242663 -0.28139558 -0.085966386 0.5832573
0.41503456 -0.33399236 -0.30227304 -0.2756111 -0.032809697 0.13103692 0.18391207 0.30781722

agent,params,ScannedRNN_0,GRUCell_0,in,kernel f4 [64, 64]
00000000: d45a 173e fb3a 69bd e209 e43e 6c23 bc3e
00000010: cc7d ea3e 80b7 cd3d e56a c3be 6e2b c13e
00000020: e7c2 223f 844d 09be 2bbf 98be 224a c2be
00000030: b992 d23e 9f9f 673e 91c1 ea3d e803 d9be
00000040: 7d25 743e e7db d3bd 2a7e a1be 33ba b3be
00000050: ebca d03e 3495 a63e 9520 993b 44bd 4d3e
00000060: 629c b53e 6544 b3bc 1271 b43e 9f6b ba3d
00000070: ff67 1abf 84fb e33e f527 c3be 36d8 06bf
00000080: 827d 783d 3f33 50bb 50f7 ef3e dd62 42be
00000090: b2af 543e 1dc9 023e b003 f83c 7ef4 27be
000000a0: ea1a a83b 1897 0fbf f311 063f 1c4c 263f
000000b0: f1cb c9bd 2fcd c03d 9bc1 01bf 97c8 9dbe
000000c0: 25a4 9cbd f1b0 bdbe ef29 eebe 577b 8ebe
000000d0: 6092 873e bf50 8e3e 2b8d 993e fd66 07bf
000000e0: 68f5 ebbe e750 903e 753d e53e a109 bb3e
000000f0: af56 c13d 9416 62be 1be6 fdbd a3f1 e5be
00000100: 3322 d63d abe0 d6bc b7ca 0d3e 0f09 0b3e
00000110: af95 f6bd ccbf 053e 4382 06be fb13 063e
00000120: 6624 2c3e 6736 8e3c 9b66 963d 382b 4cbe
00000130: 8b75 3f3e 3c8a d9bd b89b efbc ec27 f4bd
00000140: b025 383d 53bb d2bc c95e 3c3c ffbe 65bd
00000150: 99b8 ed3d 7b04 9dbc bb91 163c 7720 c13d
00000160: 917c a13d d702 ae3d 9b9f 16bd 25bb 063e
00000170: d662 1abe 7925 4d3b 14e7 cb3b 6e3d 15be
00000180: 02c3 e83d 54eb 31bd c451 953d f3dd b1bd
00000190: c9df 88bd 0ec8 d73d a90b 1e3e ff55 d1bd
000001a0: 1fea 05be d499 85bd 0a61 9d3d 3eaa a23d
000001b0: 90ca 09be 50dd 363e 955d 143e 6613 8dbd
000001c0: 41b1 473b e61c 56be 021e bdbc e5a5 e9bc
000001d0: e193 b73d 360e 983d e727 a53c 389a 2c3d
000001e0: 5e0b 34be 0f15 823e 64ee 093d 5ad5 953e
000001f0: 6670 813b bc79 8b3d b6ac c7bc 9198 dfbd
00000200: b7f9 4fbe 4161 193d a507 a43e 8651 343e
00000210: 5af9 333e 6253 cf3d 8052 a3be 7f3f cc3e
00000220: 793f a63e 6222 bbbc 480b c7bd c37f e9be
00000230: 0464 a23e 7b24 17be 6b07 98be 2109 a6be
00000240: d20f dd3d 6437 113d d0e3 07be dcb8 dcbe
00000250: df5f 133f 7d7d 073e d5d1 4d3b 3709 e7bd
00000260: a60e 503e 5cad d93d 2ab9 633e 2226 513e
00000270: eb36 a2be 48d1 cf3d bdd0 84be 9e3c f1be
00000280: 69e0 58be 0857 053e 48fc 383e 8cf2 f3bd
00000290: 9d9b 83bd 6579 883e 608f 253e d3c1 aabd
000002a0: a139 2dbe bd09 ebbe 6956 a83e 5d5b e63e
000002b0: 0096 b73c 0eae 333e 3315 e5be 1607 0abe
000002c0: 9f17 39be 1484 8cbe fe6b d1be 1c9c 2fbe
000002d0: 3ae4 ec3d 82c8 a83e 66cf 193d b33d d4be
000002e0: bc71 edbe d2f2 be3e 3482 693e afb6 e43e
000002f0: d7aa ca3d d65e 55be efcd c3bd 3603 81be
00000300: f008 bebd dfca 38bd 0825 c8bb 9f43 d23d
00000310: 8e38 283c 3bb6 db3d b476 7dbd 3b22 c3bc
00000320: ff43 7bbd bd5b b93c 9f42 c73c 8576 d9bc
00000330: 32e2 8f3d 325f b2bc f5bf babb 782f 6bbe
00000340: 442c 8bbd a2bf 25be 021d 7f3d f164 92bd
00000350: 0204 1d3e b215 0c3e bd03 153e c1e0 7fbe
00000360: 28c1 413e 6e94 2cbd 4673 ddbd 9403 113e
00000370: 0e8a 51be 53ad 083c 4e74 edbd 0491 53bd
00000380: d300 23be dcd6 b3bc 5d0f f0bd 7c5c 3c3d
00000390: 870c 6fbc ea88 7ebc 01ba e13d 4ad8 48bc
000003a0: 7b96 993d d9ce 13be c967 643e 3a09 473e
000003b0: 2291 f0bd 7bb7 55bd 149d e5bd 6bbe b2bd
000003c0: da7c 43be 1193 983d e203 00be fb42 943c
000003d0: 1f55 3d3a 9edf 003e 4b18 3ebe ee1e a4bd
000003e0: c491 babd 8224 1a3e 7c0e bf3d 4af2 823e
000003f0: 4528 a6bc 9faa 373d cfce 11be e1ea 4fbd
0.14780742 -0.056941014 0.4453879 0.36745775 0.457991 0.100447655 -0.38167492 0.37728447
0.6357865 -0.13408476 -0.2983335 -0.37947184 0.41127566 0.22619484 0.11462701 -0.42385793
0.23842426 -0.103446774 -0.31541568 -0.35102996 0.40779814 0.32535708 0.0046730735 0.2009173
0.35470873 -0.021883199 0.35242516 0.09102558 -0.60314935 0.4452783 -0.38116422 -0.5267366
0.06066657 -0.0031768826 0.46868372 -0.18983026 0.20770147 0.12772031 0.030275196 -0.1640186
0.0051301615 -0.56089926 0.5237114 0.64959884 -0.09853352 0.09414136 -0.50686044 -0.308171
-0.076484956 -0.37049058 -0.46516368 -0.27828476 0.26478863 0.2779598 0.29990515 -0.5289152
-0.46085668 0.28186724 0.4477345 0.36530784 0.09440362 -0.22078925 -0.12397405 -0.44910917
0.10455742 -0.026230177 0.13846861 0.13577674 -0.12040269 0.13061446 -0.13135628 0.1309356
0.1681076 0.017359925 0.07343789 -0.19938362 0.18697183 -0.10622069 -0.029249057 -0.11921677
0.044957817 -0.025724089 0.011497208 -0.05609035 0.11607475 -0.019167176 0.009190018 0.0943002
0.07885087 0.084966354 -0.036773305 0.13157327 -0.15076765 0.0031302853 0.006222615 -0.14574215
0.1136532 -0.043437317 0.07290986 -0.086849116 -0.06683309 0.10536204 0.15434135 -0.102214806
-0.13077591 -0.06523481 0.07684524 0.07942627 -0.13456178 0.17857862 0.14488824 -0.068884656
0.0030470642 -0.20909461 -0.023085598 -0.028521487 0.089637525 0.074245855 0.020160628 0.042139262
-0.17582461 0.2540669 0.033674613 0.29264337 0.0039501665 0.06810328 -0.024374347 -0.109177716
-0.20310102 0.037446264 0.32037082 0.17609224 0.17575589 0.10123326 -0.3189888 0.39892194
0.324703 -0.022843543 -0.097189486 -0.45605287 0.3171693 -0.1476001 -0.2969316 -0.3242884
0.10794033 0.035453215 -0.13270497 -0.43109787 0.5756816 0.13231464 0.0031405587 -0.112810545
0.20318088 0.10628769 0.22238603 0.20424703 -0.31682524 0.10147339 -0.25940505 -0.4711656
-0.21179356 0.13021481 0.18064988 -0.119114965 -0.06426165 0.26655117 0.16167974 -0.0833775
-0.16916515 -0.45905867 0.32878426 0.4499158 0.022410393 0.17546865 -0.44742736 -0.13479266
-0.18075417 -0.27444518 -0.40902704 -0.17149395 0.11566968 0.32965475 0.037551306 -0.41453323
-0.46375835 0.37294632 0.22803575 0.44670627 0.09895866 -0.20836958 -0.09560763 -0.25197762
-0.092790484 -0.045115348 -0.00610793 0.10266804 0.01026739 0.10728117 -0.061880782 -0.023820033
-0.061344143 0.022626752 0.02432376 -0.026545772 0.07025565 -0.021773908 -0.0056991526 -0.22967327
-0.067955524 -0.16186383 0.062283523 -0.07148159 0.1533356 0.13680151 0.14552207 -0.2498808
0.1892134 -0.04213374 -0.10813002 0.14161521 -0.2046282 0.008342105 -0.11594449 -0.05165197
-0.15918283 -0.021953039 -0.1172168 0.045986637 -0.014590389 -0.015535573 0.110218056 -0.012258599
0.07499405 -0.14434375 0.22305216 0.19437113 -0.11746432 -0.052176934 -0.11211601 -0.087277256
-0.19090596 0.07449926 -0.12501481 0.018098345 0.0007222462 0.12585303 -0.18563955 -0.08013712
-0.09109834 0.15052989 0.093289346 0.25575477 -0.020282874 0.04484045 -0.14239047 -0.050761107

agent,params,ScannedRNN_0,GRUCell_0,ir,bias f4 [64]
00000000: 450e 89bd 5f17 d6bd f974 75bd ad21 2cbc
00000010: 611f 4cbe 3ce9 9abd 56fe 8dbb 4fcc 06bd
00000020: b89a 7dbd 0b42 f7bd 316f cebd 100c d63c
00000030: f4cb f3bc 47e8 dcbd 5888 e3bd 1868 b8bd
00000040: d704 22be 7fd0 bfbd 6611 0ebe b036 b23b
00000050: f37b 003e 0c37 b7bd cf63 02bd ea06 ebbd
00000060: 4965 f9bc 4393 ffbd 5dc1 bebd 036e 01be
00000070: 0fd8 453c cf79 38be 5fb3 fdbd 8c47 01bd
00000080: 6796 e7bd dfee cabd e2fb fcbd 25b9 20be
00000090: b853 60bd 6253 e4bd 6d98 c6bd 73a7 24be
000000a0: 4a25 94bd 87b1 81bd cffc c3bd 9b57 43bd
000000b0: c150 1bbe 5833 dcbd a2ed 053d 1bd7 0fbe
000000c0: c6be dabd c5ec bdbd a6da acbd 4fc8 0dbe
000000d0: 7dda dcbd 4a22 16be 13bd 04be bec4 993d
000000e0: 3156 67bd 7d89 c6bd 1f91 dfbd b260 febd
000000f0: f0a5 92bd 11b1 d4bd 6fe6 bdbd fe57 b1bd
-0.06692175 -0.104536764 -0.059926007 -0.010506076 -0.19933845 -0.07564017 -0.0043332977 -0.032909688
-0.06191513 -0.120731436 -0.10079802 0.026128799 -0.029760338 -0.10786491 -0.1110999 -0.09004229
-0.15822159 -0.09365939 -0.13873824 0.005438648 0.12547283 -0.08946046 -0.031833466 -0.11475928
-0.030443804 -0.1247926 -0.09314225 -0.12639622 0.012075438 -0.18015216 -0.12387728 -0.031562373
-0.11307984 -0.09908842 -0.1235273 -0.15695627 -0.05476734 -0.111487165 -0.09697042 -0.16079502
-0.07233675 -0.06332689 -0.09569704 -0.04769097 -0.15167524 -0.107519805 0.032697327 -0.140469
-0.106809184 -0.09273676 -0.084401414 -0.13845943 -0.10783861 -0.14661518 -0.12962751 0.07508229
-0.056478683 -0.096941926 -0.109163515 -0.12420787 -0.07160556 -0.10385335 -0.09272467 -0.08659361
