baselines/QLearning/checkpoints/MPE_simple_reference_v3/vdn_ps.safetensors (safetensors, 119816 bytes, 14 tensors)

params,Dense_0,bias f4 [64]
00000000: 1a58 89be 5f01 d0be f29d b5be 4732 b6be
00000010: 0a99 25bf faa4 c9be 85d8 c1be d128 c6be
00000020: a669 f4be 5157 7abe 92bd 2abf b4c7 b9bd
00000030: f9ac 41be 9429 7abe 0231 71be aa74 81be
00000040: 8def a7be 70e5 a4be a27a 84be da65 bfbe
00000050: 4ffa 86be 9598 09bf 1ba2 35be eb05 06bf
00000060: 5277 42be 88db b1be 1a51 3bbe a123 20be
00000070: bcc3 16be 7ed5 69be 3b2e cebd 9ffc 20be
00000080: 8449 92be 2229 55be 13ab a9be 8baf 43be
00000090: 08bd b3be 49a1 92be 1e91 7dbe 335d ddbe
000000a0: 1c07 3fbe 0e15 81be 3fe8 84be db5a 80be
000000b0: c054 2dbe 8a78 a4be 3eb8 11be b2b4 85be
000000c0: 3d8c 5dbe c810 75be 60d2 c7be c86f d4bd
000000d0: 2a95 2abe fe04 01bf 7592 27be 10ac 90be
000000e0: 886d 8abe 4f98 44be 9380 3fbe 12cf 9ebe
000000f0: 0d10 d1be a06c b0be 80d5 91be 5bb5 b2be
-0.2682503 -0.40626046 -0.35472065 -0.35585234 -0.64686644 -0.3938368 -0.37860504 -0.38703015
-0.47736853 -0.24447371 -0.6669551 -0.090712935 -0.1891364 -0.24429923 -0.23553851 -0.2528432
-0.3279995 -0.32206297 -0.2587481 -0.37382394 -0.26362845 -0.53748447 -0.1773762 -0.5235278
-0.1899083 -0.34737802 -0.18292657 -0.15638591 -0.14723104 -0.22835347 -0.100674115 -0.15721367
-0.28571713 -0.20816472 -0.33138332 -0.19109933 -0.35105157 -0.28638676 -0.24762389 -0.43235168
-0.18655056 -0.25211376 -0.2595844 -0.25069317 -0.16926861 -0.32123214 -0.14230439 -0.26114422
-0.21635528 -0.23932183 -0.3902769 -0.10372883 -0.16658464 -0.5039824 -0.16364463 -0.28256273
-0.2703669 -0.19198726 -0.18701391 -0.31017357 -0.40832558 -0.34457874 -0.284832 -0.34903988

params,Dense_0,kernel f4 [23, 64]
00000000: 8400 23bd bbe3 8ebd 90b3 2d3d 7aa6 ccbe
00000010: be41 f4be 5b97 1c3f e383 453e 6366 62bc
00000020: 4d47 0f3d aea3 f5bc 1547 db3e 68b2 6b3e
00000030: 7a2c 1dbe 3e3c 493e 7fa2 823d 8197 1e3c
00000040: a80d adbd 56c1 32be 69b6 91bd 3e0c 94bd
00000050: bcca c53b e349 ed3e d68f 8ebe b075 c9be
00000060: 2107 29bf 96e3 f9bc 2e73 38bd fd1e 0d3e
00000070: 7bb0 9a3d 68c7 9dbe abc9 00bf ce1f 27bd
00000080: 659b d83e 4aeb f5bb 0e8c c7bc 163b 95bd
00000090: 3255 bfbe ae93 8fbd 753f 03bd 7f55 d03e
000000a0: 87fd 61bd 60d2 a3be 6884 31be a971 853c
000000b0: 50f0 a83d 0d61 06be ecfc 2cbe c56d ea3b
000000c0: 7f6d 283e e6a4 85bc 0fcb 9c3d ea92 e9bd
000000d0: 02a8 4cbe 6e1b 02bf 057b 363f 328d ae3e
000000e0: 86c8 2e3e e60f 193d 400b 4dbc 4220 b03d
000000f0: cc9d bb3d fc6e 5e3d ee29 e2b9 0718 8a3e
00000100: 203f b83d a916 513e c198 a1bd 2f24 bf3d
00000110: 25db aa3e e6e6 eebe ccde 7d3c ffdb 85be
00000120: 5fdb 773e c64d c43c e20a b53e 0200 e13e
00000130: d7ca 0dbd 5d52 03be b7a0 07bf 8ea7 fcbe
00000140: 7e7f 7e3c 8649 af3e 7075 43bd 26d1 b3be
00000150: 6085 323d cbe8 0d3f cd84 223e b887 82be
00000160: d688 2a3e 8b86 10bf 684e 853d d3c8 c33e
00000170: 41f2 bdbe cd67 fbbd 4485 a13c bcfd 163e
00000180: 7b97 293e 7b1a 26be d06d c43d 390d 043f
00000190: d374 8cbe 4bfc 1abe cdb8 f63d 1fcc 9cbe
000001a0: e512 78be ce4b 863e e8d3 b0be 72a4 c03c
000001b0: d90e 693c 2095 47bc 1ccb 93bd b98c 17be
000001c0: 75c8 b8bd 152c be3d 9efb c23d b50d dbbc
000001d0: 5a42 f83e 846d dabe 8857 f2bd b262 fbbd
000001e0: 2093 bbbc 6c57 033e f6f9 35bd 064d c63e
000001f0: 666e 0abe 77b5 25bd f674 9ebc 8244 e4bc
00000200: e298 8c3d 4f09 a3be cc2c 543d 6622 dc3e
00000210: 1e20 d23e 2578 fabe 085a 323e 46e7 13be
00000220: 4c6b 193f 6dd4 d83d 91c6 c2be b999 19bd
00000230: c0aa afbe 5088 88be 10c5 e3bd 8daa 1c3d
00000240: 5724 20be 6174 3e3e f7ae 4d3f 5cea c93e
00000250: 5475 37bd b94e 24bd 15f6 083f 9f78 1b3e
00000260: 7927 1e3f 67e8 773c a53a aabe 8851 debe
00000270: d2d7 32be 9738 593c 868c bd3e 4eb2 4d3e
00000280: cfe2 28bf 59f7 4ebf 4496 c6be 51ab 5dbd
00000290: 90a4 f7be 2686 083d 0b65 36bd a96a c9bd
000002a0: 801b 36bc 953a 8dbe 0c10 d33e a6e9 dfbd
000002b0: a5ab bf3e a50f 423f 73ce 553f e4d4 17bc
000002c0: 7a2d 853e f629 d23a 3583 04bf 6062 bbbe
000002d0: dca6 293e a050 813e 1de9 12bf 3439 d0be
000002e0: 7b13 77bf c7e3 a33e 2b6e 88be 34ed 97be
000002f0: 0a7e bf3e 7b52 bc3e 1339 ecbe b26e 023d
00000300: 3cff 803e c285 fd3d 9881 b63e 8218 4d3e
00000310: 6c3a c3be 87d1 dc3d b343 5fbe 383f 143e
00000320: f021 c23c b7f3 85be ac87 20be 2f2d 93be
00000330: e982 753c 77cf 3d3f 2562 8b3e 145e a23e
00000340: 64ce 46bf 52d1 14bf 5d9c e13e 8473 053d
00000350: df9d e03e 59b6 15bf a680 d0be 8fd2 c73e
00000360: e7a1 6f3b 6b3c 0d3f 5dc9 de3d 4042 47bf
00000370: 02bb 4e3f 88c0 b93b 8980 d83c fe53 58bf
00000380: 36a6 713e f5c4 c73c 3097 843e e872 4ebe
00000390: 7b13 9ebe 18be aebe 7d08 0b3f a02a 763e
000003a0: ccfc 83be 0565 bcbe 7b2f a33e fe93 aa3c
000003b0: adaa f23d f5ac 15bf c327 123e 11e2 d3be
000003c0: 1198 1cbe 515b 773e aa38 21be deed 7b3d
000003d0: 26cf d2be 65de 8d3e c8af 2f3d fbd4 dfbe
000003e0: 5b8f 393c acbc 08be 099d 7d3f 22eb fbbe
000003f0: 5d8c da3d 1349 dbbb 9119 1bbf acd2 583e
-0.039795414 -0.0697703 0.042407572 -0.39970762 -0.47706407 0.6116845 0.19288592 -0.013818356
0.034980107 -0.029985275 0.4282767 0.23017275 -0.15348998 0.19651887 0.0637865 0.009679676
-0.0844987 -0.17456564 -0.0711487 -0.072288975 0.0060361307 0.46345434 -0.27844113 -0.393476
-0.660265 -0.03050403 -0.04503172 0.13781352 0.07553192 -0.30816197 -0.5030772 -0.040801816
0.42306057 -0.0075048553 -0.024358775 -0.072866604 -0.37369686 -0.070105895 -0.03204294 0.40690228
-0.055173423 -0.3199644 -0.17335665 0.016289549 0.08248961 -0.1312296 -0.16893357 0.007154199
0.1644802 -0.016313981 0.07655918 -0.11404975 -0.19985965 -0.50823104 0.7128146 0.34092098
0.17068681 0.037368678 -0.012514889 0.08599903 0.09160957 0.05430506 -0.0004313732 0.26971456
0.08996415 0.204188 -0.078904636 0.09333073 0.3337032 -0.46660537 0.015495013 -0.26144406
0.24204777 0.023962867 0.35359865 0.43945318 -0.03461727 -0.12824388 -0.52979606 -0.49346584
0.015533326 0.3423578 -0.04771942 -0.35120505 0.043584228 0.5543334 0.15870972 -0.2549417
0.16653761 -0.56455296 0.065090954 0.38239154 -0.37098888 -0.12275658 0.019716866 0.1474523
0.16561691 -0.16221039 0.095912576 0.51582676 -0.2743288 -0.15135305 0.12046967 -0.30624482
-0.24225958 0.2622971 -0.34536672 0.023515914 0.014224731 -0.01218155 -0.072164744 -0.14799775
-0.09022609 0.09285752 0.095206484 -0.026739934 0.48488122 -0.4266168 -0.118331015 -0.12274684
-0.022897303 0.12826318 -0.044427834 0.3873064 -0.13518676 -0.04045626 -0.01934288 -0.027864698
0.068650976 -0.3184304 0.051800534 0.42994994 0.41040128 -0.48919788 0.17417157 -0.14443693
0.5992935 0.10587392 -0.3804212 -0.037500117 -0.3430996 -0.26666498 -0.11121571 0.038248587
-0.15638863 0.18599083 0.803451 0.39436615 -0.044789627 -0.04011414 0.5350049 0.15182732
0.6177898 0.015131093 -0.33247867 -0.43421578 -0.17465141 0.013258121 0.37021273 0.20087549
-0.6597108 -0.8084617 -0.3878652 -0.05411846 -0.4836774 0.03333106 -0.044529956 -0.09834797
-0.011114955 -0.27583757 0.4122318 -0.10933237 0.37435642 0.7580512 0.8351814 -0.009267066
0.26011258 0.0016034234 -0.51762706 -0.36598492 0.16567558 0.25256824 -0.5738695 -0.40668643
-0.965141 0.32009718 -0.2664655 -0.2967316 0.37400848 0.36781678 -0.46137294 0.03184385
0.25194728 0.12379028 0.35645747 0.2002888 -0.3813051 0.10782152 -0.21803169 0.14477241
0.023697823 -0.26162502 -0.15676755 -0.2874541 0.014984825 0.7414469 0.27223316 0.317124
-0.7765868 -0.581319 0.44064608 0.032580867 0.43870446 -0.58481365 -0.4072315 0.3902783
0.0036565007 0.55170316 0.10878251 -0.77835464 0.807541 0.0056687035 0.026428478 -0.8450316
0.2359856 0.024385909 0.25896597 -0.20161021 -0.30874237 -0.34129405 0.5430983 0.24039698
-0.25778806 -0.36795822 0.31872162 0.020822521 0.1184896 -0.58467036 0.1427298 -0.41383412
-0.15292384 0.24155928 -0.15744272 0.061506145 -0.41173667 0.27708736 0.042892247 -0.4371718
0.0113256825 -0.13353223 0.9906774 -0.4920283 0.106713034 -0.0066920607 -0.60585886 0.21174115

params,Dense_1,bias f4 [50]
00000000: 61a2 f8be b428 d6be d563 03bf 8ce5 07bf
00000010: 0b1d efbe 93aa dbbe 437c dfbe d627 28bf
00000020: 0c90 eabe 903e 08bf f37a f9be 7449 02bf
00000030: 3381 05bf bbcb 03bf 6f97 08bf 039c f1be
00000040: 0d18 07bf 87ef f8be 4186 03bf e5f6 dcbe
00000050: 8c2f e4be df0b 24bf 0b0d 07bf f3a1 0fbf
00000060: aab1 03bf a8fb d8be 4713 0bbf 2b1c 17bf
00000070: 6b89 04bf 597e fabe 260c 0ebf 2bd3 0bbf
00000080: ff4c 11bf 04c7 f4be 22ba 30bf ed0c 03bf
00000090: 18ee 12bf ba52 e7be 05ea 0dbf c34e 1bbf
000000a0: 9334 ebbe 1628 11bf 2eb6 0bbf d35e 07bf
000000b0: f86c 16bf 4b51 efbe 8f50 06bf 380d 0fbf
000000c0: af64 f2be 20a1 20bf
-0.48561385 -0.4182793 -0.51324207 -0.53084636 -0.46701846 -0.42903575 -0.43649492 -0.65685785
-0.45813024 -0.5322046 -0.48726615 -0.5089333 -0.5215027 -0.51482743 -0.5335607 -0.4718934
-0.52771074 -0.48620245 -0.5137673 -0.43157116 -0.44567525 -0.64080614 -0.52754277 -0.5610649
-0.5144297 -0.42379498 -0.5432629 -0.59027356 -0.51772183 -0.4892452 -0.5548729 -0.5461909
-0.5675811 -0.47808087 -0.69034016 -0.511916 -0.5739455 -0.45180303 -0.5543521 -0.60667056
-0.45938548 -0.5670179 -0.5457486 -0.52879065 -0.58760023 -0.4674171 -0.5246667 -0.55879545
-0.4734244 -0.6274586

params,Dense_1,kernel f4 [64, 50]
00000000: 0ccc 213e a670 973e fa8f e53e 2d26 bc3e
00000010: f8ae 0f3f 4bd2 123f 2826 153f cc6c e53e
00000020: 75b8 053f ae79 ee3d f2f8 f13e bdc9 8d3e
00000030: 5bed 0f3f 7a2b a33e a92b 71bb 0504 183f
00000040: 5f03 d73e a08f b33d 470a f73e f3a2 ef3e
00000050: b1cd 0a3f 350d debc 6cdb ea3e c2ec 0a3f
00000060: 7f88 443e ce35 313d fe6e 0a3f d115 6e3e
00000070: 3fd3 783f 46e9 0f3f 1990 083f 778a 2f3e
00000080: 9837 463f 7370 333e 8da2 333f bd39 9e3e
00000090: e6f7 9cba 5c44 c23e 9dc6 1a3f 0f22 62b9
000000a0: 5546 d33e 0bd5 9a3e e43c 0c3f 3c25 1c3f
000000b0: ddb1 b13d d6d8 043f 2ba1 323f a3a8 9c3e
000000c0: 9d1f 233f 6e19 363e 108a 14bd d280 03bf
000000d0: 9851 70be c706 acbd 61b6 94bc 9d88 b9bd
000000e0: db39 81be 0879 42be 9fcc a2bd 461b 31be
000000f0: 06d7 88be a363 9abe 1468 23be 4c58 33be
00000100: acad 21be d4cc 4cbe c59e 72bc c06f edbd
00000110: 524f 94be 68c7 13be 6133 81be 31d8 9bbd
00000120: 5fbf 61be 6abc acbe 4033 53be 5e2b d9bc
00000130: f76b 52be e35f 4f3e 74f6 653e 8858 b2be
00000140: 20f3 29be 5aff b1bd 118b 0ebe 0a4b 93be
00000150: 26eb f9bd 3012 95be 9663 14be 960c 0ebe
00000160: bc2b 2d3d 4632 12be e652 90bd f8be 5bbd
00000170: 0807 78bd 3308 babe 7aa3 9dbe ac99 46bd
00000180: 8604 7d3c b2b8 a93d 29eb babe 983a a6be
00000190: 66de c0bd baa6 6bbe ce49 11bf 587f b3be
000001a0: 6d5d cebe 412b f8bd 80d8 0bbf bd1f b23c
000001b0: 7350 dcbe 62ce 32be 0936 7bbe d17b 88bc
000001c0: dfcc 69bf 227c 36bf 8ced 8ebe e4bb 29bf
000001d0: f8ae 66be 76a7 22bf 8d29 8cbe bc05 69be
000001e0: db40 c9be 4fb2 25bf 30c8 9cbe 64e4 f8be
000001f0: f405 3dbf 038a 6dbe 3f01 04bf b5ec 9cbe
00000200: a33e 81be 6cac 6c3b 7bba 96be c307 a7be
00000210: 2a97 d1be eaf9 92be 11b2 4cbe 7896 fdbe
00000220: c563 e3be 70d4 abbe 2138 f5be 6899 a5be
00000230: cb78 e9be d712 a6bd 8cc0 b6bd 3502 81bd
00000240: 4a31 34be cdef d2be 992a debe 0827 11bf
00000250: 159d debe c2bb 16bf ba9e 73be 57d7 e2be
00000260: bccf 96be 7626 1fbe d550 e5be c441 c3bc
00000270: bac9 5dbe d10a 2bbe 36b3 c5be 78eb 15bf
00000280: 31d2 afbe 7f40 b1be e97e 0abe 90ca c1bd
00000290: 956f f4be 1930 26bf ebc2 fb3d 5f89 92be
000002a0: 2eab 4fbe c175 f8be 6b7c cebe c31b cdbb
000002b0: e15d cabe e0b1 17be 8675 e5bd 31f6 cabe
000002c0: 9975 72be 8d90 87be 5aaf bcbe 596e 92be
000002d0: b73f dfbe 7e43 3dbe 1009 e1bc 65cd c6be
000002e0: a180 2bbf 5190 61be 8788 a5be ceae 51bb
000002f0: 0d93 0abe 3633 fcbe 8310 c6be e002 bebe
00000300: 3492 96bd 5fba b9bd d19d 0dbf ef3d 12bf
00000310: 7896 a6be 20bf c9be 46d1 493d 4366 febd
00000320: ad47 793d 0cdb bd3e 0c9e 6ebd 5cc7 2c3f
00000330: 23b9 d33e 192c d23e 8e46 673e d0fd b93e
00000340: bf05 803e 907b 803e 1040 2d3d 4f9e 533e
00000350: 1744 233d 54c2 a83e 0f17 1f3f 306c 483e
00000360: 5c6a f63e 502f be3e 9ac0 d63e bf30 8b3e
00000370: 974c b43e d1f3 523e a724 013e 21d4 d93e
00000380: 684e 8d3e fda5 8a3e bee9 fe3e 028e 243f
00000390: ed5c 313d ef8d d13e 523e 013f 97e0 a93e
000003a0: 2713 af3e 7f44 84be 4ae6 e23e 3465 d63e
000003b0: 852d 013e f0f2 b03e 1d39 573e b5cf b03e
000003c0: 70de b73e 0601 273f 41aa 5c3e 0843 713e
000003d0: 976c cb3e 962f 093f 6ffb 293e a39b f33d
000003e0: 2a8c fb3e 243d 013f 1fd4 593e 4137 573d
000003f0: 371a 903d f8f1 703e dcc4 d13e 9bc2 723e
0.15800494 0.2957813 0.44836408 0.36747876 0.56126356 0.5735213 0.58261347 0.44809568
0.52234584 0.11644302 0.47260243 0.27692977 0.5622155 0.31869107 -0.0036799705 0.59381133
0.4199476 0.08767629 0.48250028 0.46804008 0.5422011 -0.027105907 0.4587053 0.54267514
0.19192694 0.043264203 0.5407561 0.2325051 0.97197336 0.5621532 0.53344876 0.17142664
0.7742858 0.17523365 0.7016991 0.30903426 -0.0011975735 0.3794278 0.6045931 -0.00021565727
0.41264597 0.30240664 0.5478041 0.60994315 0.08676503 0.51893365 0.6977717 0.3059741
0.63720113 0.17783138 -0.03626448 -0.5136844 -0.23468626 -0.0839973 -0.018153371 -0.0905926
-0.25239453 -0.18991482 -0.079491846 -0.1729556 -0.2672655 -0.30154142 -0.15957671 -0.17514151
-0.15788907 -0.2000001 -0.014808361 -0.1159358 -0.28966767 -0.14431536 -0.25234511 -0.076095946
-0.22045659 -0.337375 -0.20625019 -0.026509937 -0.20548998 0.20251422 0.22457296 -0.3483317
-0.16596651 -0.086912826 -0.13920237 -0.28768188 -0.12203054 -0.29115438 -0.14491114 -0.13871989
0.042278036 -0.1427699 -0.070470616 -0.05364892 -0.06055358 -0.3633438 -0.30788785 -0.048486397
0.015442973 0.08287181 -0.36507538 -0.32466578 -0.09417419 -0.2301282 -0.5675324 -0.35058093
-0.40305653 -0.12117625 -0.5462723 0.02174365 -0.43030128 -0.17461541 -0.24532332 -0.016660603
-0.91328233 -0.7128316 -0.2791561 -0.66302323 -0.22527683 -0.63536775 -0.2737545 -0.22756094
-0.39307293 -0.647252 -0.3062148 -0.48611748 -0.7383721 -0.23197179 -0.515644 -0.30649343
-0.252431 0.0036113514 -0.29439148 -0.3262311 -0.40935642 -0.28706294 -0.19989802 -0.4952886
-0.44412056 -0.33560514 -0.47894385 -0.32343602 -0.4559997 -0.08109062 -0.08923444 -0.06299249
-0.17596927 -0.41198578 -0.43391874 -0.5670018 -0.4347922 -0.58880246 -0.23791018 -0.44304916
-0.29455364 -0.15542015 -0.44788232 -0.02383507 -0.21658984 -0.16703345 -0.3861329 -0.5856242
-0.3434005 -0.3461952 -0.13524975 -0.09462464 -0.4774138 -0.6491714 0.12293037 -0.2862043
-0.20280144 -0.4852734 -0.40329298 -0.006259413 -0.3952475 -0.14813948 -0.112040564 -0.39640954
-0.23677672 -0.2647747 -0.36852533 -0.28599814 -0.43603298 -0.18482777 -0.027470142 -0.3882858
-0.6699315 -0.22027709 -0.32330725 -0.003199506 -0.13532658 -0.4925782 -0.38684472 -0.37111568
-0.07352105 -0.090687506 -0.55318934 -0.57125753 -0.32536674 -0.3940363 0.049271844 -0.124218486
0.06085937 0.37081182 -0.058256194 0.674917 0.41352186 0.4104927 0.22585508 0.36326456
0.25004384 0.2509427 0.042297423 0.20665859 0.039859857 0.3296076 0.6214456 0.1957252
0.4812802 0.37145472 0.41943818 0.27185628 0.35214683 0.20600821 0.12611638 0.42544654
0.27598882 0.27079764 0.49787706 0.64279187 0.04330151 0.409286 0.5048572 0.3317916
0.341943 -0.25833508 0.44316322 0.41874087 0.1261502 0.34560347 0.2101788 0.34533468
0.35911894 0.65235937 0.21549322 0.23560727 0.39731285 0.53588235 0.1659982 0.1189492
0.49130374 0.5048392 0.21272324 0.05254293 0.0703625 0.23529804 0.40970504 0.23707049

params,ScannedRNN_0,GRUCell_0,hn,bias f4 [64]
00000000: a152 c6be aa0d 403e 35a4 a33e 46be c43e
00000010: e92e e2be 6b22 8ebe 3b7a 9dbe 4fa6 39be
00000020: 3e36 ae3e 7b3e 013f 4bba 73be b391 6cbe
00000030: a6bc 753e e9b4 6dbe bf15 a03e fd88 44be
00000040: b695 a03e 2099 f23d ed51 5cbe f36f d4be
00000050: 36dd f93d d4e0 2b3e 7333 8bbe 5b78 2bbe
00000060: d3a2 a73e a280 673d e5eb 7a3e 5767 ce3e
00000070: 33ea 95be ee9a a6be 4b2a c5be e595 57be
00000080: b548 b43d f12e 9c3e 354d ae3e 8c02 3dbe
00000090: 0837 4bbe 8b80 49be b2d9 f53e 2862 b83e
000000a0: e932 d53e af56 63bd 5121 8e3e dca4 8d3e
000000b0: d5b4 07be e883 423e b61b c3be 0410 0d3e
000000c0: 86bd a2be 8348 9fbe 3999 75be fd04 d93d
000000d0: 2e3b ba3e 8769 b53e d413 afbe 9e88 98be
000000e0: 3747 87be 259f 88be 023a 4c3e 4787 f2be
000000f0: 4d3d 7c3e 8492 193e dc57 e4be 0c01 f33d
-0.38734916 0.18755212 0.31961218 0.38426417 -0.44176415 -0.27760634 -0.30757317 -0.18129848
0.34025759 0.5048596 -0.23801534 -0.23102455 0.23997745 -0.23213543 0.3126659 -0.19192882
0.3136422 0.118456125 -0.21515627 -0.4149166 0.12200396 0.16784984 -0.2718769 -0.1674513
0.32741413 0.05651916 0.24504049 0.40313217 -0.29280242 -0.32540077 -0.3850883 -0.21053274
0.0880293 0.30504563 0.3404328 -0.18458003 -0.19845212 -0.19677942 0.4801765 0.36012387
0.41640404 -0.05550259 0.27759793 0.2766484 -0.13252576 0.1899563 -0.3810708 0.1377564
-0.3178522 -0.3111001 -0.23984231 0.105966546 0.36373276 0.35432073 -0.34194815 -0.2979173
-0.2642152 -0.26683918 0.19944003 -0.47368833 0.2463276 0.14997298 -0.4459828 0.11865434

params,ScannedRNN_0,GRUCell_0,hn,kernel f4 [64, 64]
00000000: f239 acbe 3108 61bd 4762 71bd 765d 1fbe
00000010: d42c ddbb 27bd 0b3c a385 e53d b5fd 0a3e
00000020: 0521 cd3d f9ba 9f3d a7a7 90be 1325 393d
00000030: 9e75 96bd c410 d9bd 0f18 20be dcdc 723d
00000040: a2c6 bbbc f872 7dbd 1f70 40be eaa2 d63d
00000050: eca1 533e 4274 e0bc aa92 72be 391f 5bbd
00000060: 3f2e 873d 307c 8abe 76e8 60bd ec35 b4bc
00000070: 1fc6 e23d e5b5 2a3e 78ac 573e c001 cc3d
00000080: 9fb8 9cbd 8517 9abd e394 53bd 8ac3 95bc
00000090: da31 e3bd e78f b53c 125b c0bd e81f 903d
000000a0: 6e53 5e3d 709b 853d 71df 9cbe 06bb 573c
000000b0: 0665 96bd c041 113d 9081 bbbc 80af 9ebe
000000c0: dce5 26bd b0f5 683d eb00 123d 772f 81bd
000000d0: ab6f 96bc 784f 08be 83f6 10bd 5532 563e
000000e0: 0057 0e3e 0d57 af3d 84c1 ad3c 5d45 e7bd
000000f0: 8dfe 883d 943c 9cbd 7c3e 073e a5af 05bd
00000100: 49d1 ea3d 904d 2abf 5662 4c3d 4d90 13be
00000110: 32e0 dc3d 840a 463e 5e83 90bd ca43 973c
00000120: a1b5 07bc cc66 8dbe 34c8 62bd 0618 6e3d
00000130: 8dc4 3e3c 8bc2 c43d ec12 bdbd 6821 8abe
00000140: fb19 7fbd a5af 8e3d 7dbe 8e3d d33a c4bb
00000150: 83db 013e f6c8 613e 56c4 8e3d b8ce 1a3e
00000160: e8dd 99be bbc8 66bd 8958 9b3c 2017 7fbe
00000170: 51dc 483c 9bca cc3d cb7e d93d ba74 3bbe
00000180: 38c5 c0bc 5cbe 2d3e aa58 8e3d 2d3e b93d
00000190: a29c fbbd a3bc b4bd 3522 d7bc 9c90 133e
000001a0: 4154 67be da2f 533e 00d0 903d 3eea 03bd
000001b0: 52bd 6d3d 30da c53d c81c 843d 056b 5abe
000001c0: 52e2 7a3e 80d8 643e 1c5e d7bd 90eb a83d
000001d0: ba7e 27be 215d 00bd af7b 3e3e 87a7 b43e
000001e0: 4b10 2fbd 8109 643c ab58 4abe 8797 b53e
000001f0: 2eb7 343e cf99 75be b15f a83d 7c54 84be
00000200: 8d9d 9d3d 90c2 43bd cb96 cfbe dde4 8ebe
00000210: 402c 3bbd b93c 823d e844 d53d 633c 5f3d
00000220: 12ca 4a3e 25d9 fbbd 1c53 073d a03f 6e3d
00000230: 9037 8b3d cced 483b 19aa c4bd 2678 9fbe
00000240: 0b92 82bd 790e 13be 28ca 9abd be16 4f3d
00000250: 7dbf 7a3b cf0d 98bc 0f72 193d 8956 223e
00000260: e1ce f33d 6f16 433d ad53 603d ffd5 033d
00000270: 4bb6 8cbd cf97 3a3d 871b cdbe 9eb0 fe3c
00000280: 85b0 383e 1780 bd3d f8c4 2fbe 6b39 ddbd
00000290: 8eaa afbc 8aae 3d3e aafb 0a3e 76b8 9d3d
000002a0: c5ea cebd 1eef 813a f20a df3b 613b cabd
000002b0: 9292 b43d 5b73 69bd 74c8 1bbe 40e9 61bd
000002c0: c419 88bd 356f 31be 335a 0fbe e0e5 4b3d
000002d0: 31d1 d0bc 7a7e 8e3e c5a2 73bc 940c a13e
000002e0: 0148 c53d 5b88 5fbc 37dd 43bc 690d a63d
000002f0: 3e95 a4ba dcbc c13b 168e ac3c a32c 0c3e
00000300: cb88 bf3e c4d6 4abd fda4 113c 416d 06bf
00000310: fa59 a63d 7a0f 213e 272e 693e 3fdb 1fbd
00000320: 9cae c6be 3edc 60be f28b fdbc c004 573e
00000330: 34ca 5dbe e5ba 26be 1dd8 50be 32bd f13d
00000340: cbe6 b2bd 6a39 debc cb6c 863e 8905 25bd
00000350: 7b3f 8d3d 16d8 803d 7ec8 bc3e eb84 3cbe
00000360: a9ad 813d dd57 48bd 136b f2bd 24f2 81bd
00000370: 2652 a33e 77cc 9e3d 9d67 4d3e 7f06 d33d
00000380: 496c 74be 637b 90be def5 49be 68d5 603e
00000390: 3231 853d b47d 923e e471 e5bd fe12 59be
000003a0: cb3d 8e3d 83ef 373d 9266 5cbe 36e6 073c
000003b0: 7c91 073e d7de 22be ee3f 393c a04c 24bd
000003c0: 853f 093e 9fb0 89bd 4410 873e 93fd c8bd
000003d0: 0c10 dcbc 3a2c 26bd e771 853d b71b 223e
000003e0: 0bd3 2c3e a018 963e 9f9e 9abe d133 093e
000003f0: 3bcb eebd b91e 183e d3c6 9b3d 68ff eabd
-0.3363796 -0.054939453 -0.058931615 -0.15562996 -0.0067497287 0.008528984 0.1120713 0.13573344
0.100160636 0.07799334 -0.2825291 0.045201372 -0.073466524 -0.10598901 -0.15634178 0.05929266
-0.022921864 -0.06187722 -0.18792771 0.10480292 0.20667237 -0.027399186 -0.2368876 -0.053496573
0.066006176 -0.27047873 -0.054909192 -0.021998368 0.11072945 0.1667095 0.21061885 0.09961271
-0.07652401 -0.07524017 -0.05165566 -0.018281717 -0.11093493 0.022163345 -0.0939237 0.07037336
0.054278784 0.06523788 -0.30639222 0.013167148 -0.073434874 0.035463095 -0.022888929 -0.3099327
-0.040746555 0.05687493 0.035645407 -0.06307881 -0.018363794 -0.13311565 -0.035391342 0.20917638
0.13900375 0.085615255 0.02121044 -0.11292527 0.06689177 -0.07628742 0.1320743 -0.03263821
0.11465699 -0.665246 0.049898468 -0.14410515 0.10784949 0.19339949 -0.07056306 0.018464942
-0.00828305 -0.2761749 -0.05536671 0.05812838 0.011643541 0.096074186 -0.09232125 -0.26978612
-0.062280636 0.06967095 0.069699265 -0.0059884577 0.12681393 0.22049317 0.06971042 0.1511792
-0.30052114 -0.056343775 0.018963115 -0.24911165 0.012259559 0.099995814 0.10619887 -0.18306246
-0.023531541 0.16967148 0.06950505 0.09045062 -0.12285735 -0.08825042 -0.026261428 0.14410633
-0.22590734 0.20623723 0.07070923 -0.032205813 0.058041878 0.096607566 0.06450802 -0.21329887
0.24500397 0.22348213 -0.10515997 0.08248055 -0.16356936 -0.031338815 0.18601869 0.35284063
-0.042740148 0.0139182815 -0.19760387 0.3546717 0.17648003 -0.23984455 0.08221377 -0.25845706
0.07696066 -0.04779297 -0.40544733 -0.27908984 -0.045696497 0.06359238 0.104135334 0.05450095
0.19803646 -0.122972764 0.033038244 0.058166146 0.06797707 0.0030659316 -0.09602756 -0.31146353
-0.06375512 -0.1436099 -0.075580895 0.050558798 0.0038261109 -0.018561272 0.03746229 0.15853323
0.119046934 0.047628816 0.0547673 0.032186504 -0.06870707 0.045554932 -0.40060064 0.031090077
0.18036087 0.09252947 -0.17164981 -0.10801967 -0.021443632 0.18523613 0.13572565 0.07701199
-0.101033725 0.0009913181 0.0068067247 -0.09874607 0.088170186 -0.056994777 -0.15213186 -0.055154085
-0.066455394 -0.17327578 -0.13999252 0.049779773 -0.025490375 0.2783087 -0.01487035 0.3145491
0.09632874 -0.0136433495 -0.011954597 0.081080265 -0.0012556685 0.0059124064 0.021063846 0.13688903
0.37409052 -0.049521223 0.008889434 -0.5251046 0.081226304 0.1572856 0.22771512 -0.03902745
-0.3880509 -0.21959016 -0.03095052 0.20997906 -0.21659166 -0.16282232 -0.2039494 0.11803664
-0.087354265 -0.027126987 0.26254877 -0.04028848 0.068968736 0.06291215 0.36871713 -0.18410079
0.06331951 -0.048911918 -0.11836829 -0.06345013 0.31898612 0.07753842 0.20059057 0.103039734
-0.23869433 -0.28219137 -0.19722697 0.21956408 0.06503524 0.2861153 -0.112033635 -0.21198651
0.0694538 0.04490615 -0.21523502 0.008294633 0.13239092 -0.15905319 0.011306746 -0.040112138
0.13403137 -0.06723141 0.26379597 -0.098139904 -0.02686312 -0.04056952 0.06515866 0.15830885
0.16877382 0.29315662 -0.30199143 0.13398673 -0.11659857 0.1485547 0.07606282 -0.11474496

params,ScannedRNN_0,GRUCell_0,hr,kernel f4 [64, 64]
00000000: ce4b 943d 3f43 fd3c 11f0 5f3e 329b 263e
00000010: 4ecb 48be 9f08 2abe 88eb 833e a750 113e
00000020: 14d6 e13d cd38 8a3e 7615 3a3d 3f63 9b3e
00000030: c61a 1f3e fb25 da3d 16cd 6c3e c6d7 303e
00000040: a1e7 933e bbec d93d 3592 903e d1ee e53d
00000050: c95f 1f3e fdd2 923d 40e7 62be 7aef e13d
00000060: ad1e 93bc ff97 01bd 6a1b e13c 10e5 a33e
00000070: 4034 873d 9cad 0f3e 84b2 513e 91f4 653e
00000080: 97ca 843e 6a98 373e 661f 8abd 80a0 d0bc
00000090: fb93 6d3e a3a0 373d 41ea e73d 5244 1b3e
000000a0: 3bab a9bc cdf1 d63d 0c6f e53d 79bd ad3d
000000b0: 1d7c c43b bccd b83d 0376 4dbd 4545 54be
000000c0: 3515 683d 3682 5d3e 01e3 df3d 75cc 5f3e
000000d0: f750 723e 7b9d 443e ed15 fa3d 4190 a93e
000000e0: b46f 503e cbcc 433e d18b fabd 4932 a03c
000000f0: c040 943e d615 ca3c f065 0d3e 25f9 0f3e
00000100: c00b ac3d feee 8cbc b2be 29be 8995 99bc
00000110: b5dc e1bd 9698 98be a3cc 793e 0143 98bd
00000120: 4ac2 803c b902 13bb 8a17 553d d028 99bd
00000130: fb1a a6bd 04d6 553d b47f 813e 6056 06be
00000140: ee69 0abe 2e7c 053e abe1 9bbd 89bd f4bc
00000150: 94cc 093e fa2a 123e c5e6 abbd d5f2 8cbe
00000160: 1e94 71be 9c25 09bd f430 da3c 1261 04be
00000170: 9ef2 55bd 378e 8e3c f50a ee3d daa1 413d
00000180: efa8 60be 9022 483b d350 be3c ae95 663e
00000190: b5fb 82bd 27ab ce3d e6ea 16be 3f08 2f3d
000001a0: e096 2bbd 9047 493e 39f6 60bd 3e4f 4bbd
000001b0: 20ce 38be bf33 2d3e 488c 38be de2d b43c
000001c0: 23da 163d 29c3 38be 7385 d2bb 199d 7ebd
000001d0: b521 813d f3d3 7e3e c6a2 7e3c 43d9 6fbd
000001e0: 6560 9f3d 6558 0abd 1b03 a93d abc3 80bd
000001f0: b57a 093d 1670 3e3e 4804 3ebe 3d2a d93d
00000200: 02cb 80be 5ae2 0cbe 7a52 d63c 0503 2b3d
00000210: fbe3 21be 9f8a 0ebd 3341 6abe f33e d73d
00000220: 9a5f 0dbe a873 0f3e 9521 fabd 7c6d 3abe
00000230: 068e 34be 61fd d8bd 5ad5 8abd 081e ce3c
00000240: c640 25be 61d1 5ebe e4d5 f2bd 423d f3bd
00000250: e80f 8b3d 1d06 603e a496 efbc a3c7 86bc
00000260: 07ca 123e 8241 1cbe 3c68 12bb 418d 91bd
00000270: a953 d23d 003c 66be ef35 31bd a02e 4cbe
00000280: ed0f 67be 603a e6bd 2c9a f23d 4e82 d5bd
00000290: e86b abbd 7392 0a3b 0e74 8f3d 2861 01be
000002a0: ecb9 dbbd 9094 49be 08cc a7be 7f68 16bc
000002b0: 630e 85be 617e 83bc 655c 7d3d 2a09 dfbe
000002c0: 0e66 b23a bfae b2bd 7378 2fbe 6db2 66be
000002d0: 1b2b 4bbe 331c d3bd 50a4 26bd c377 abbd
000002e0: f601 81bd b53e 0b3e 394b 5ebd dd57 b8bd
000002f0: 1a0f 98bd 8a8c 2abe eb80 dfbc 6c7a 87bd
00000300: 8555 b2bd 6b1c ca3d 73c6 fabd e733 8cbd
00000310: 07cb c7be 9d8c cc3d 53d5 87be b863 253e
00000320: 0de5 39be a2b6 4d3d f43c acbe 3655 a9bd
00000330: 367d 97be 40e5 90bd 9675 d2be de7b 01be
00000340: 3b64 1bbe d742 d3bd a710 41be fb15 ddbc
00000350: 8a69 333e f7ad 9ebe 1507 0a3d b790 cabe
00000360: b95d 43be 686a 9dbe 3bb9 b13d 09d2 c0be
00000370: 9445 30be e5fd a7be bb24 1abe 84ca 933d
00000380: e5cb 063c 3c33 81be efc5 50be ef72 68bd
00000390: 3dc3 90be fd46 22bd efa6 0b3e 40fb 57be
000003a0: 9cf8 7fbd ab83 1dbe 433b 85bd 3749 98bd
000003b0: 5b24 613d 0345 edbd 26a6 90bc eaee 08be
000003c0: 46ca 0e3d 6022 9bbe caa5 8bbe 4371 41be
000003d0: 8670 b9bd f702 d4bd b7dd cdbd a086 4dbd
000003e0: 66fc b2be 7524 6abe cc87 6c3d 2407 3f3d
000003f0: 53f8 923b 4187 0abe 224f 5fbe f777 29be
0.07241021 0.030915854 0.21868922 0.1627014 -0.19608805 -0.16604851 0.25765634 0.14190923
0.1102716 0.2699646 0.045430623 0.30349156 0.15537557 0.106517754 0.23125109 0.17269811
0.28887656 0.10640856 0.28236547 0.11227191 0.15563883 0.07169149 -0.22158527 0.11032005
-0.017958963 -0.031639095 0.027478892 0.32010698 0.06601763 0.1403107 0.20478255 0.22456576
0.25935814 0.17929235 -0.0674427 -0.025467157 0.23200981 0.04483093 0.11323977 0.15162781
-0.020711532 0.104953386 0.11202821 0.08483405 0.005996241 0.09023616 -0.050161373 -0.20729549
0.05666085 0.21631703 0.109319694 0.21855338 0.23663698 0.19200699 0.12211213 0.3311787
0.20355111 0.19121091 -0.12233699 0.019555228 0.2895565 0.024668615 0.13808417 0.14059885
0.08400679 -0.017203804 -0.1657665 -0.018748062 -0.11028425 -0.29803914 0.24394469 -0.07434655
0.015717644 -0.0022432043 0.0520244 -0.074784875 -0.08110615 0.052206054 0.25292742 -0.13118887
-0.13516971 0.13035652 -0.07611402 -0.029875534 0.13456947 0.14274207 -0.08393625 -0.27529016
-0.23591658 -0.033483133 0.02663467 -0.12927654 -0.05223333 0.017401798 0.11623184 0.047273494
-0.21939443 0.003053818 0.0232319 0.22518036 -0.063956656 0.100912385 -0.14738044 0.042732473
-0.041891932 0.19656205 -0.054922316 -0.049636118 -0.1804738 0.16914271 -0.18022263 0.021994527
0.036829125 -0.18043198 -0.0064246 -0.06216154 0.06305257 0.2488554 0.015541738 -0.058556806
0.07782058 -0.033775706 0.082525454 -0.06287321 0.03356429 0.18597445 -0.1855632 0.106037594
-0.25154883 -0.13758221 0.026162375 0.041750927 -0.15809624 -0.034800168 -0.22876434 0.105100535
-0.13806 0.14008963 -0.122134365 -0.18205827 -0.17632303 -0.10595203 -0.06778975 0.025160804
-0.1613799 -0.21759559 -0.11857203 -0.118769184 0.06790143 0.21877332 -0.029246636 -0.016452616
0.1433488 -0.15259364 -0.002233996 -0.0710702 0.10269863 -0.22483826 -0.043264326 -0.19939661
-0.22564669 -0.11241603 0.11845812 -0.10425244 -0.08370191 0.002114442 0.070045575 -0.12634718
-0.10728821 -0.19685578 -0.3277285 -0.009180187 -0.2598754 -0.016051473 0.061855692 -0.4356168
0.0013610737 -0.087247364 -0.17135791 -0.22529002 -0.19840662 -0.10308113 -0.040684044 -0.08372452
-0.06299202 0.1359814 -0.054270957 -0.090011336 -0.074247554 -0.16655174 -0.027283153 -0.06615147
-0.08707718 0.098687015 -0.122448824 -0.06845837 -0.39022085 0.09987757 -0.2652994 0.16151321
-0.18153782 0.050223 -0.33640254 -0.08268206 -0.29587716 -0.07074976 -0.41105336 -0.12644908
-0.15174954 -0.10315483 -0.18854009 -0.02698802 0.17520729 -0.309921 0.03369816 -0.39563534
-0.19078721 -0.30745244 0.08677908 -0.37660244 -0.17214042 -0.32810894 -0.15053074 0.07216361
0.008227323 -0.252344 -0.20388006 -0.056750234 -0.28273955 -0.03961848 0.13637899 -0.21091938
-0.06249295 -0.15382259 -0.06505444 -0.074358396 0.054966312 -0.115854286 -0.01765735 -0.13372388
0.03486087 -0.30299664 -0.27274925 -0.18890862 -0.09054665 -0.10352128 -0.100520544 -0.050177217
-0.3495819 -0.2286547 0.057746693 0.04663767 0.004485169 -0.13528158 -0.2180753 -0.16549669

params,ScannedRNN_0,GRUCell_0,hz,kernel f4 [64, 64]
00000000: d6f0 58be 41ac 8cbd cae8 433d 564b 3bbe
00000010: dddd bbbc a2e4 2bbd 9adf 97bd d6f8 9bbc
00000020: 3a59 35be 32de 473d 32ba bd3b 3ee6 75be
00000030: 6ea9 c1be cce8 143d 3419 8fbe 791b 553e
00000040: 8e9f 62bd bb3b 973c 3136 93be f3a0 233e
00000050: e1ba bcbc 4bdd 603d c63c 23bd e7ea 7c3e
00000060: f5b9 e23d 39df 01be d02b f0bd 6dd5 53be
00000070: 370c 5a3e e4d4 26bd 6c6e d0bd 3f01 0abe
00000080: 6a11 3bbd 4a6b a1bc a47e d4bd e961 4bbe
00000090: a1ce 17be 2ad9 8cbe da39 573e 1343 503c
000000a0: 5a2a 86ba 2054 e4bd 268a 3cbe 633a 8a3d
000000b0: fbc0 edbd 0cb5 adbd b419 39be e97f d9bd
000000c0: df50 49ba 98ce 0d3e d896 62bd 7874 28be
000000d0: 1230 d9bb 7e02 4cbd 0a63 4dbd 2a05 073d
000000e0: 4afd c43c 5986 a6be 19e6 103e c0fa 033e
000000f0: 57b0 27be 22dd b0be bca5 41be c4cc 3bbd
00000100: ad19 44bc 8882 88be 7d53 1dbd f0ce 1ebe
00000110: fc3e 25be 4e38 8bbc 8513 f4bd 634a 9e3d
00000120: 2c53 78be 9a32 3cbe 80ac 83be 5640 9ebe
00000130: 3987 953c 8a40 23be b6ba 5cbc 9ebd 1fbd
00000140: 0c48 f1bd 36bf d8bd dbb1 a4be aa17 eebc
00000150: 9b40 f2bd 33c2 9a3d 9778 13bd dacb 04be
00000160: e1a0 79bd 99c2 c83d ee9f b7bd 9536 98bc
00000170: 57d9 8ebe ec90 bc3d 6f7e 63be 70af 53be
00000180: 0f66 18be 6b91 86bc b9ab 4fbe 5d98 e9b9
00000190: e904 07be 1edb ff3d 3cc7 7c3e 3b23 54bd
000001a0: 2747 043e 4a57 ad3d da39 12be 08ae 16bd
000001b0: 9855 d93d f76c f2ba 4a27 8c3c 91d8 1d3e
000001c0: 46f6 9ebd 960d b63d 4035 d8bd de62 dcbd
000001d0: 62e4 be3d 472e 28bc 1c0e 47be df7e b6bd
000001e0: a8ea 79be 6ab8 2fbe f699 023e 6e7c 32be
000001f0: 8694 d4bd afef 9cbd cf87 97be 1911 40bd
00000200: 92da 483d dcc3 343d 8d15 31be 4d84 1c3e
00000210: 60fc f1bd c4be 62bd 3943 cf3e c42e 5abd
00000220: 5817 da3c 0bb7 503d c46f f53d 18d1 963b
00000230: cac9 67bd 0039 0b3e 41aa d43d 69ea 9dbe
00000240: e1c2 a5bd 9e85 f93c d178 4cbd 8cd3 e63d
00000250: d95d 31be 276b 903d 0c6a 153e 58ad 87bc
00000260: 37ef 70bd 6b24 073d 3139 d2bd d424 0bbe
00000270: 8b4a 1039 0fbf 7f3c 4a35 643e 43ea 1a3d
00000280: 975f 5f3e 8d3f 723e 9121 8a3d 0ca8 2fbd
00000290: e52e 25be 011c 553d 9e73 863d d8ac 11be
000002a0: 2c22 d33d df96 8bbd 0a38 8a3c 28ce 733d
000002b0: d865 a23d 427a 7e3d 5314 5dbe d400 883d
000002c0: 48ff 11be 6328 abbd 437d c53d f70e 78bd
000002d0: b9c1 463c 0b63 1abe 0284 023e fe62 04be
000002e0: 10a5 603d e892 183e 099b ce3d 374e 1fbe
000002f0: d95f 393c 7849 30be 4f26 8dbc 8799 f8bc
00000300: 8652 303d 98bb 053d e9e5 ae3d 46c2 dabd
00000310: 8b4f c33b 4f54 ffbd 3338 5bbd 387f a43d
00000320: fd72 773e ccb9 063e d6bf 133e 0c05 833d
00000330: d5d5 b63d 9c74 703d 5ab2 b73e c141 823e
00000340: 602f 2d3e f547 d4bc aac4 823e d5f4 ca3d
00000350: 171d a4bd 54c9 ef3d 67ce fc3d 8f5a e53b
00000360: 0ddd 363e 9ada 883d 9ba0 d0bd f54f 2b3e
00000370: 416f 823e e13c f4bd e3fa c33d f552 673e
00000380: d9b0 053e 8c12 b13c 5456 193e 6eca 18bc
00000390: 5b2d 233e b7ef 3b3e 4672 34bc 39fb 0c3d
000003a0: c312 bd3c 1d90 a5bc 7100 d43e 2ce3 0a3d
000003b0: 6c65 813e 0aa9 76bd 9499 43be 58ee b2bd
000003c0: 30bd 4fbc 0b62 8ebc be87 1c3e 8f40 0f3d
000003d0: 63c8 7cbc f7e2 bf3e 865a e4bd f865 47be
000003e0: 9124 14be 384f 523e 3929 843e 9738 69be
000003f0: 794f cfbd 8127 403e 2df3 3d3e 6f15 56bd
-0.21185622 -0.06868792 0.047829427 -0.18290457 -0.022932941 -0.041966088 -0.074156955 -0.019039553
-0.17709818 0.048795886 0.0057900185 -0.24013612 -0.37824577 0.036354825 -0.27948916 0.20811261
-0.055327944 0.018461099 -0.28752282 0.15979366 -0.02303833 0.05489854 -0.03985288 0.24698983
0.11070625 -0.12682809 -0.117271066 -0.20686884 0.21293722 -0.040730372 -0.10177311 -0.13477038
-0.045670904 -0.01970448 -0.10375717 -0.19861569 -0.14824916 -0.27509433 0.21018162 0.012711304
-0.001023601 -0.11148858 -0.18412074 0.06749418 -0.11609074 -0.084817976 -0.18076211 -0.106201
-0.0007679592 0.1384834 -0.055319637 -0.1645068 -0.006628045 -0.049807064 -0.05014328 0.03296391
0.024046559 -0.32524374 0.14150275 0.12888622 -0.16375862 -0.3454371 -0.18910879 -0.045849577
-0.011969012 -0.26662087 -0.0384097 -0.15508628 -0.16137308 -0.016994622 -0.119177856 0.07729032
-0.24250478 -0.18378678 -0.25717545 -0.3090846 0.018252956 -0.15942588 -0.01347225 -0.038999192
-0.1178132 -0.105833456 -0.32166943 -0.029064018 -0.11828729 0.07556572 -0.036003675 -0.12968388
-0.06094444 0.098027416 -0.08966051 -0.018580714 -0.27900192 0.09207329 -0.222162 -0.20672393
-0.14882682 -0.016426763 -0.2028035 -0.00044554743 -0.13185467 0.12492965 0.24685377 -0.05179141
0.12917767 0.08463915 -0.14279881 -0.036787063 0.10612029 -0.0018495609 0.017108578 0.15414645
-0.07761817 0.0888931 -0.10557032 -0.10761045 0.09320904 -0.01026494 -0.19438976 -0.089109175
-0.2440592 -0.17160192 0.12754044 -0.17430279 -0.10379891 -0.076629035 -0.295958 -0.046891306
0.04903657 0.0441321 -0.17293377 0.15284844 -0.11815715 -0.05535771 0.40480974 -0.053267255
0.02662246 0.050955813 0.11984208 0.0046025626 -0.056588925 0.13595963 0.10384036 -0.30842903
-0.08093811 0.030459221 -0.049919907 0.11270818 -0.17320956 0.07051688 0.14591235 -0.016562149
-0.058821883 0.032993715 -0.10264815 -0.13588268 0.0001376068 0.015609517 0.22285953 0.037821066
0.21813808 0.23657055 0.067446835 -0.04288487 -0.1613117 0.05202866 0.06565021 -0.14226091
0.10309252 -0.06815886 0.016872425 0.059522778 0.079295814 0.062128313 -0.21589784 0.06640783
-0.14257538 -0.083573125 0.096430324 -0.060561147 0.012131148 -0.15076844 0.1274567 -0.12928388
0.054844916 0.1489979 0.10088164 -0.1555718 0.011314356 -0.17215526 -0.017230181 -0.030346645
0.04304745 0.032649606 0.08539946 -0.10681586 0.00596041 -0.124672525 -0.053520393 0.080320776
0.24164958 0.13156813 0.14428648 0.06397447 0.08927504 0.058704957 0.3587826 0.2544079
0.16912603 -0.025913218 0.25540668 0.09909979 -0.08013361 0.11708322 0.123440556 0.006999321
0.17857762 0.0668232 -0.10186883 0.1672972 0.25475505 -0.11925674 0.09569337 0.2259024
0.13055743 0.02161529 0.14974338 -0.009325607 0.1593527 0.18353163 -0.011013573 0.034419272
0.023080235 -0.02021032 0.41406587 0.033908054 0.2527269 -0.060219802 -0.19101554 -0.08736867
-0.012679383 -0.017380735 0.15286157 0.034973677 -0.015428635 0.37477848 -0.111500785 -0.19472492
-0.14467074 0.20538032 0.258127 -0.22775494 -0.1012258 0.1876507 0.18549795 -0.052266534

params,ScannedRNN_0,GRUCell_0,in,bias f4 [64]
00000000: 1b8a 57be 1c15 a0bc adec 0a3e 518a 823e
00000010: 3966 8cbe c83d 42be 5269 1abe 1570 0fbc
00000020: 1b27 813e 13c5 383e db5c 5dbe efd7 30be
00000030: 9f28 553e aad1 35bd f60c 203e be9d 7abd
00000040: c7cb ae3d f549 5cbd aca5 11be c5c5 c5be
00000050: 5c49 993c 8dda 453c 7294 97bd faea 1ebd
00000060: 5614 693e 4e53 b3bb 9317 0a3d 51f3 713e
00000070: 077e abbe 301c 85bd 2e1c adbe bd62 5abd
00000080: f466 083e f1cd 463e e0ea 583e 3353 23be
00000090: 71e6 f2bd 628f deba ef7f 9d3e 9602 c33d
000000a0: a368 303e 2aec 3e3d 0b63 4c3e 95f7 4c3e
000000b0: 8fc5 ba3d 0588 5f3d 75ff 1fbe 8336 f9bc
000000c0: b4ef 60bd 9e94 7cbe a50b 14be f0b7 36bd
000000d0: d2b2 303e 3dd1 2c3e 4c9b f3bd 47af 19be
000000e0: 6f3c 8fbe 1a4e 66bd adad 0dbd db25 f5bd
000000f0: b614 353d 4204 49bc ccc0 5fbe 291a f23a
-0.21048777 -0.019541316 0.13566847 0.25496152 -0.2742174 -0.1896888 -0.15079239 -0.00875475
0.25225148 0.18043928 -0.21617453 -0.17269872 0.20816277 -0.044389404 0.15629944 -0.06118559
0.08534961 -0.05378147 -0.14223355 -0.3862745 0.018711738 0.012076032 -0.074013606 -0.03879831
0.22761664 -0.005472577 0.03371389 0.23627974 -0.3349459 -0.06499517 -0.33810562 -0.05331682
0.13320524 0.19414498 0.21183348 -0.15949707 -0.118603595 -0.0016979987 0.30761668 0.095219776
0.17227416 0.046611942 0.19959657 0.2001632 0.091197126 0.054573078 -0.15624793 -0.030421501
-0.0549161 -0.24666068 -0.14457567 -0.04460901 0.17255715 0.16876693 -0.11894855 -0.15008269
-0.27975795 -0.056226827 -0.03458946 -0.11970111 0.044209205 -0.012269082 -0.2185089 0.0018470931

params,ScannedRNN_0,GRUCell_0,in,kernel f4 [64, 64]
00000000: 243d 5abe d588 593e 9272 f03e 7853 5d3e
00000010: a0a3 94be 28c7 98be 3cba 04bf d3f4 14be
00000020: 1caa 143f a85c 6c3e 2850 f0be 95cf e1be
00000030: 9aef fc3e abdd b1bd 62f3 653f ab7f 8dbd
00000040: 5539 0c3f e0f9 233e 7eba 0fbf b47a c3be
00000050: 273c 1b3e d570 883e 34a3 ffbd 82d0 b9bb
00000060: f800 9c3e 1edf 9b3e 8bf4 a63e 8232 b33e
00000070: 78dd 1cbf 8a1d 18be da7f cbbe 0432 82be
00000080: 4340 1b3e 58f3 993e 5631 0b3f 233a 93be
00000090: 5631 90be e7b2 e5be e556 46bd b536 973e
000000a0: 4b86 2e3e 19b0 81be db81 143f f176 e93e
000000b0: c226 b6be 6738 4f3e 2280 38be 153f ae3e
000000c0: 30f4 36be 64e1 02be ba8b c7be 6fc8 083e
000000d0: b1e6 9b3e 6d58 e03e 9f6f d5bd 948f e4bd
000000e0: 8740 56be 5ea1 c6be d9c5 9c3e a997 8dbe
000000f0: 81d1 a63d fff0 9e3e 2f7d 56be f604 263c
00000100: b201 523c a569 db3c 4043 94bd df51 363e
00000110: 6826 5fbe 0867 983d 5590 06be 9734 de3c
00000120: 8679 cf3c 6b94 cd3b c03b 0e3e 7fe8 84be
00000130: 7d8f cabd f457 d0bd a452 063c 6826 b4bc
00000140: 66d7 453c c396 c83b 2a18 5b3d 80c0 cd3b
00000150: 9df1 f93d a2f4 84bd 4da3 e7bc e555 e83c
00000160: 22a2 72bd 2006 f4bc 11da d3bc 288d 143e
00000170: 01a4 09be 5890 e2bc 85da 7d3d 11cf cebc
00000180: 27b1 2e3e b5c8 abbc 455e 3c3e 8372 55bd
00000190: 855d 1ebd 92a2 ee3d ebc6 4b3e e360 a23c
000001a0: c29d 323d 6a80 febc c793 dd3c 591d 52bb
000001b0: ecb3 d0bd b196 0a3d 5bc1 a53d 6622 803d
000001c0: 6094 d1bd bffc 19be 79fc 313d f27c 8ebb
000001d0: 6003 15bc 79fe aa3d c518 32bd 033a 91bb
000001e0: e183 b0bd 9bac d53c c74c f5bc 6bd8 443e
000001f0: 840f aa3a 5277 0f3e 9089 13bc 4b9e bbbc
00000200: 608e 9dbe c476 db3c 55de 1a3e 224f 0abe
00000210: eb9a e63b f4de dc3d cab6 4ebe 6435 873c
00000220: 758a fa39 db1b 823d 9415 c4be 378b 93be
00000230: 086b 853e 32a3 1dbe a0d4 bd3c 0c4a 2a3e
00000240: 0f41 2e3e 8da2 853e 2fe9 69be 9a3f 45be
00000250: c8c1 373e 24d1 d3bc d211 64bd c171 99bc
00000260: 06de bdbb b6f5 113e 9b33 f13d ca77 2d3e
00000270: eb4c 08be 7e4c c1bd 9b40 14be 6d66 a4bd
00000280: d0db 08bd 3f29 b93e 3d57 dc3c 2e44 6dbe
00000290: 7536 14be d098 58be 9ae7 033d 7ce5 263e
000002a0: a290 02be f356 16be 2c86 b73d b9a7 de3d
000002b0: 1231 11bd e8ff 133e 5f81 febc e3c4 413e
000002c0: a8ed 3cbe d476 383d ad29 22be 763e 503d
000002d0: 364e d4bd ce0c 6b3e 4d9d 02be 34e9 ae3c
000002e0: 59dd 82be eaf7 5a3d e016 d63d ad18 093e
000002f0: f0b6 8d3c 3a1b 633d 9d37 3a3d 7ebe 053e
00000300: 5f8b c7bc 9552 e53b f47e a43c 624e 17bc
00000310: 5833 f8bd cf0d 073d 2a0c 683c e9da 90bd
00000320: 88a3 57bd 6095 8c3d d2cf e8bd f90d 06be
00000330: 8dfc b03d fcec aabd dfab a83d 1b70 1e3d
00000340: 5b30 e5bd 64a9 863d e422 fe3d a4ac c4bd
00000350: 077c c03d d935 d23d 9843 8e3d 8819 f1bd
00000360: 9d61 c63c 3509 ae3c c11c 023c 9422 7d3e
00000370: a190 2abe d011 07be bcde 8dbb aed9 08be
00000380: 0365 39bc a48f b23d c21a 333d 8f0c c2bd
00000390: 35ac 8fbd 63e3 edbd 0dde df3d 7b81 563d
000003a0: b9ac ba3d 7eea ccbd 5a19 d43d 4f8a 573d
000003b0: 668f 65bc c6ea f83c eb98 8e3c a6ed cd3d
000003c0: 8902 da3b 20ca 6ebc 3b0d a63d 1864 073d
000003d0: 48e7 b8bc 67e7 993d 063a 6abe 0f44 373d
000003e0: 2d5c c1bd 5309 51bd 9621 843d 6958 0a3e
000003f0: 1473 503e 503e 673d 53c4 25be 0aaa a53d
-0.21312386 0.21243604 0.4696241 0.21613872 -0.29031086 -0.29839444 -0.5184667 -0.14546518
0.58072066 0.2308222 -0.46936154 -0.44103685 0.4940155 -0.08684858 0.898245 -0.06909116
0.5477498 0.16013288 -0.5614394 -0.38179553 0.15159665 0.26648584 -0.124823004 -0.005670608
0.3046949 0.30443662 0.32608446 0.34999472 -0.61275434 -0.14855018 -0.3974598 -0.25428784
0.15161233 0.3006847 0.54372156 -0.28755292 -0.2816264 -0.44863054 -0.048422713 0.29533926
0.17043416 -0.25329664 0.58010644 0.45598558 -0.35576445 0.2023636 -0.18017629 0.34032503
-0.17866588 -0.12781292 -0.3897379 0.1335771 0.3044944 0.43817464 -0.10421681 -0.11160198
-0.20923053 -0.38794988 0.30619696 -0.2765477 0.081454284 0.3104324 -0.20946191 0.010133019
0.012817787 0.026783774 -0.072393894 0.17804669 -0.21791995 0.07441527 -0.13140996 0.027124686
0.025326502 0.0062737963 0.1388998 -0.2595863 -0.098906495 -0.10173026 0.008198414 -0.02199097
0.012075281 0.006121488 0.05348984 0.0062790513 0.12204287 -0.064919725 -0.02827611 0.02836127
-0.059236653 -0.029788077 -0.025860818 0.14506972 -0.13441469 -0.02765672 0.061975975 -0.025245221
0.17059766 -0.020969728 0.18395336 -0.05211116 -0.038663406 0.116521016 0.199001 0.01982159
0.04360748 -0.031067092 0.027048005 -0.003206095 -0.101905674 0.033835117 0.0809352 0.06256561
-0.102333784 -0.15037821 0.043453667 -0.0043483907 -0.009095043 0.08349318 -0.043480653 -0.0044319644
-0.08618904 0.026083281 -0.029943837 0.19223182 0.0012974595 0.14010361 -0.009004965 -0.022902628
-0.30772686 0.02679003 0.15123875 -0.1350675 0.0070375106 0.107847124 -0.20186916 0.01650495
0.00047786874 0.06352969 -0.38297713 -0.2881715 0.2605822 -0.15394285 0.023172677 0.16629809
0.17017005 0.2610058 -0.22842859 -0.19262543 0.17945015 -0.025856562 -0.055681057 -0.018731
-0.0057942895 0.14253888 0.11777421 0.16940227 -0.13310592 -0.09438418 -0.1447777 -0.08027349
-0.033412755 0.3616428 0.026897067 -0.2317054 -0.14473899 -0.21152043 0.032203294 0.16298479
-0.12750486 -0.14681606 0.08961138 0.10871834 -0.035447188 0.14453089 -0.031067548 0.18922763
-0.18450034 0.0450352 -0.1583621 0.050840817 -0.1036648 0.22954103 -0.12755318 0.021351434
-0.255595 0.053459086 0.10453582 0.1338832 0.017299145 0.055445887 0.045463193 0.13060948
-0.02435845 0.00699837 0.020080067 -0.0092349965 -0.12119168 0.032972153 0.014163056 -0.07073004
-0.05264619 0.068644285 -0.113677636 -0.13091268 0.0864192 -0.083459824 0.08235907 0.03868113
-0.11190864 0.065752774 0.124089986 -0.09603241 0.09398656 0.10264177 0.06946486 -0.11772448
0.024216468 0.021244625 0.007941426 0.24720222 -0.16656734 -0.13190389 -0.0043295305 -0.13364288
-0.011315587 0.087188035 0.04372669 -0.094750516 -0.07015268 -0.11615636 0.10931025 0.052369576
0.091149755 -0.10005663 0.10356398 0.052622136 -0.01401124 0.030385386 0.017406901 0.100550935
0.0066531342 -0.014574558 0.08107992 0.03305444 -0.022571221 0.075148396 -0.22873697 0.04474264
-0.09441409 -0.051034283 0.064517185 0.13510288 0.20356399 0.05645591 -0.16188173 0.08089073

params,ScannedRNN_0,GRUCell_0,ir,bias f4 [64]
00000000: 0168 8fbe 9526 37be 974f 96be 8fa5 25be
00000010: 6d5a 87be 4a86 58be f721 b3be 6446 12be
00000020: 5e68 88be d281 59be fbaa 8bbe 38fd b3be
00000030: 987e e9be 8d49 2cbe e528 ccbe d38d c3bd
00000040: 0410 b0be 962c 25be c65f b5be 8d91 24be
00000050: 2367 b3be a385 87be f7cb f2bd adcf 33be
00000060: 7f01 dfbd 8f1e 9abe f6d6 54be 1b75 59be
00000070: a3ae c7be 4f91 2abe acd5 91be efd6 26be
00000080: 2b12 07be 48b9 93be 5b20 99be 48f7 9ebe
00000090: c63f c5be f004 83be 67f2 0abe 344a 65be
000000a0: ea6c c8bd aa34 50be 1ef4 a8be 3801 99be
000000b0: 30ba 3bbe aff1 b5be e06f 0bbe 3515 5ebe
000000c0: 856c 37be 552b 3fbd 1952 abbe 7551 2fbe
000000d0: c405 40be 173d a3be d280 55be 7bb2 04be
000000e0: 78d4 2abe 5e02 7fbe 4280 77be edc4 b2bd
000000f0: 0782 c8bd 8eee 59be 1036 2cbe 4877 49be
-0.28009036 -0.17885812 -0.29357597 -0.16176437 -0.26436177 -0.21144977 -0.3498685 -0.14284664
-0.26642126 -0.21240929 -0.27278885 -0.35154128 -0.45604396 -0.16824932 -0.3987495 -0.09548535
-0.3438722 -0.1613029 -0.35424632 -0.16071148 -0.35039625 -0.26469144 -0.118553095 -0.17559691
-0.10888957 -0.3010144 -0.20785126 -0.21236078 -0.39000425 -0.16656993 -0.2848333 -0.16292928
-0.13190524 -0.28852296 -0.29907498 -0.31048036 -0.38525218 -0.25589705 -0.13569032 -0.22391587
-0.09786399 -0.2033259 -0.32998747 -0.29883742 -0.18332744 -0.35535952 -0.13616896 -0.21687777
-0.1791249 -0.046672184 -0.33461073 -0.17120917 -0.187522 -0.31882545 -0.20849922 -0.1295871
-0.16682613 -0.24903247 -0.2417002 -0.08728967 -0.09790426 -0.21282408 -0.16817498 -0.19674408
