baselines/QLearning/checkpoints/MPE_simple_speaker_listener_v4/iql_ps.safetensors (safetensors, 105548 bytes, 14 tensors)

params,Dense_0,bias f4 [64]
-0.71348614 -0.27430013 -0.29610705 -0.25783363 -0.6351105 -0.17902659 -0.469834 -0.2262825
-0.3336329 -0.3119256 -0.56116474 -0.28165248 -0.242014 -0.23602684 -0.41989568 -0.44593015
-0.05270208 -0.07716105 -0.1486344 -0.39893 -0.47160906 -0.2725788 -0.21045294 -0.27870363
-0.4144171 -0.22680439 -0.16780542 -0.21112375 -0.6666165 -0.1648902 -0.20508523 -0.47345963
-0.22736077 -0.5640598 -0.44488305 -0.2631051 -0.39377457 -0.3677816 -0.41399866 -0.11573384
-0.22099586 -0.3311904 -0.7158697 -0.26890215 -0.44364792 -0.4507611 -0.09489961 -0.45574495
-0.3410125 -0.33705455 -0.23338768 -0.20810264 -0.34194908 -0.44918668 -0.35384193 -0.19570115
-0.5277978 -0.32155323 -0.14023864 0.15217187 -0.19917859 -0.1714303 -0.23127475 -0.2874753
00000000: 07a7 36bf 1171 8cbe 589b 97be c502 84be
00000010: 9a96 22bf bf52 37be 158e f0be 9ab6 67be
00000020: eed1 aabe b6b4 9fbe 7ea8 0fbf c134 90be
00000030: 85d2 77be 05b1 71be 91fc d6be f550 e4be
00000040: 23de 57bd 9d06 9ebd 9e33 18be 8e40 ccbe
00000050: be76 f1be 738f 8bbe fa80 57be 3eb2 8ebe
00000060: 7a2e d4be 693f 68be 2fd5 2bbe d330 58be
00000070: 61a7 2abf fad8 28be dd01 52be 4d69 f2be
00000080: 43d1 68be 3966 10bf b6c7 e3be b6b5 86be
00000090: d29c c9be df4d bcbe a2f7 d3be dd05 edbd
000000a0: bd4c 62be ca91 a9be 3d43 37bf 8bad 89be
000000b0: d225 e3be 29ca e6be ba5a c2bd 6757 e9be
000000c0: 3199 aebe 6a92 acbe 2efd 6ebe dc18 55be
000000d0: f313 afbe ccfb e5be c52a b5be e265 48be
000000e0: c21d 07bf a0a2 a4be b89a 0fbe f1d2 1b3e
000000f0: 79f5 4bbe 6d8b 2fbe 4ad3 6cbe f62f 93be

params,Dense_0,kernel f4 [13, 64]
0.19258264 -0.12750626 -0.08623002 0.017783372 -0.03338825 -0.06676375 -0.06831512 0.0052521047
-0.03323318 0.01724215 0.016535694 0.0221416 -0.012908983 0.42564553 -0.058699884 -0.2331151
-0.021938393 0.0031988295 0.0345754 0.44612858 0.06715707 -0.40744236 0.13120264 0.49252784
0.14958602 -0.21430556 0.31202987 -0.5112751 0.41022503 0.15599062 0.14259188 0.15901461
-0.02866181 0.33098853 0.0048935656 0.12332986 -0.17462899 -0.039606307 0.4285389 -0.18979104
-0.45110017 -0.12292531 -0.2568873 -0.25806063 -0.15761039 -0.52385926 0.047619212 0.12611938
0.088019475 0.0389986 0.20126253 0.08855324 -0.48362544 -0.06615305 0.005205898 0.46114835
-0.4527447 0.07306006 -0.18816519 -0.26953793 0.032175686 0.24755625 -0.30403486 -0.043679345
0.14483857 -0.2776933 0.5729581 0.25579983 -0.3111438 0.40217587 -0.27992332 0.053118687
0.0979618 0.26346812 -0.16586466 -0.2268397 0.09338908 -0.16460288 -0.051097196 -0.19811605
-0.54902446 0.29992408 0.1613034 -0.064050466 -0.16602929 0.02405043 -0.15552592 0.13324478
0.2830537 0.09305003 0.43633303 -0.17250137 -0.48851103 -0.01940425 -0.14252986 0.12592703
0.2895734 -0.059808217 2.5628935e-05 -0.15318055 -0.0063775196 0.4604428 0.034659218 -0.039877556
0.05602516 0.15818018 -0.3619843 0.26858526 0.0043240516 0.38720107 -0.4822286 0.059774503
-0.0510672 0.100949995 0.2751175 0.06531251 0.24789608 -0.02760927 0.23296414 -0.17294998
-0.09230308 -0.6259274 0.52573264 -0.25831583 -0.019535245 0.01582753 0.565265 -0.010931918
-0.35960335 -0.2234952 0.38073212 -0.33682388 -0.014960345 0.11511114 0.019131161 -0.54814905
-0.500522 -0.15921156 -0.6612942 0.79617214 0.010676791 -0.965969 0.21492471 0.51732576
-0.061841346 0.38737226 0.018293122 -0.10878615 0.7941244 0.4151914 0.10295765 -0.70295244
0.09408503 1.0724305 -0.42787227 0.023959024 -0.24367101 -0.21385463 -0.31081247 -0.44136992
0.46182334 -0.41706276 -0.9089584 -0.5549487 0.47893438 -0.66552866 0.10918525 0.13647294
-0.04674208 0.5547419 0.1806401 0.5267348 0.11682692 0.25354382 0.6156818 -0.11086033
0.38854232 -0.5487579 -0.2991543 0.23880014 0.09160339 -0.52611876 -0.20479488 -0.56759226
0.40482634 0.16242124 -0.20477362 0.05122969 0.8616857 0.32585695 -0.002264057 -0.60613286
-0.622419 1.0849015 0.27437305 -0.20784336 0.3334952 -0.1578646 0.043921866 0.16095132
-0.80455184 -0.10917285 0.49082908 0.84363765 0.3297398 -0.14706212 -0.003886459 0.7298842
0.42133513 -0.84079164 -0.25564137 -0.4076622 -0.43064538 0.001180602 0.18516088 0.19889158
-0.64544624 -0.32512668 -0.19988188 -0.20304967 0.25297213 0.3227064 0.18845904 -0.11171911
-0.049740173 -0.009151919 -0.16727686 0.7863534 -0.032080505 -0.108285524 0.03977752 0.58321285
-0.6010374 0.6778972 0.29289648 0.08861591 -0.1473892 -0.55102605 -0.280484 -0.87977046
0.19868138 -0.14152822 -0.9516385 -0.40244913 -0.1707263 -0.8591161 0.7517872 -0.022109212
0.043304358 0.57708347 -0.46283025 0.045755036 0.00659258 0.3604772 -0.27277094 0.4352472
00000000: 6234 453e 0091 02be 5d99 b0bd 6fae 913c
00000010: 1ec2 08bd 6fbb 88bd cce8 8bbd d919 ac3b
00000020: 841f 08bd 693f 8d3c dd75 873c 4d62 b53c
00000030: 3380 53bc 36ee d93e 4a6f 70bd bab5 6ebe
00000040: 25b8 b3bc 74a3 513b ef9e 0d3d f76a e43e
00000050: a589 893d 499c d0be fc59 063e 9c2c fc3e
00000060: 142d 193e eb72 5bbe 61c2 9f3e ede2 02bf
00000070: 0409 d23e 01bc 1f3e 9b03 123e bad4 223e
00000080: 2ccc eabc 5477 a93e 345a a03b 5e94 fc3d
00000090: f1d1 32be 393a 22bd 7369 db3e 9558 42be
000000a0: 9af6 e6be 44c0 fbbd bb86 83be 8620 84be
000000b0: 9e64 21be a41b 06bf 5d0c 433d 7025 013e
000000c0: 8e43 b43d ffbc 1f3d c417 4e3e 675b b53d
000000d0: c19d f7be 407b 87bd 3d96 aa3b a31b ec3e
000000e0: 27ce e7be 83a0 953d 60ae 40be e000 8abe
000000f0: a7ca 033d 637f 7d3e 75aa 9bbe 1de9 32bd
00000100: 9050 143e d12d 8ebe 62ad 123f 32f8 823e
00000110: 3d4e 9fbe ffe9 cd3e 1c52 8fbe fb92 593d
00000120: 32a0 c83d 4be5 863e 6dd8 29be ab48 68be
00000130: c642 bf3d a88d 28be 4b4b 51bd efde 4abe
00000140: de8c 0cbf a68f 993e b82c 253e e42c 83bd
00000150: 9503 2abe 6805 c53c 3042 1fbe 5271 083e
00000160: 6aec 903e 0491 be3d 0b67 df3e 33a4 30be
00000170: 1e1e fabe a9f5 9ebc 59f3 11be 04f3 003e
00000180: f742 943e 76f9 74bd b8fd d637 5ddb 1cbe
00000190: 83fa d0bb 29bf eb3e d3f6 0d3d a656 23bd
000001a0: a37a 653d fcf9 213e 0256 b9be 0284 893e
000001b0: c6b0 8d3b 383f c63e abe6 f6be 1cd6 743d
000001c0: d72b 51bd dfbe ce3d 33dc 8c3e 91c2 853d
000001d0: 78d8 7d3e d62c e2bc 278e 6e3e cd19 31be
000001e0: 6609 bdbd c73c 20bf 6a96 063f f941 84be
000001f0: 6108 a0bc bca8 813c 35b5 103f ca1b 33bc
00000200: ee1d b8be eddb 64be 52ef c23e 2e74 acbe
00000210: 3c1c 75bc 64bf eb3d f4b8 9c3c 7f53 0cbf
00000220: 3622 00bf 5b08 23be 944a 29bf f0d1 4b3f
00000230: b5ed 2e3c bf49 77bf 3915 5c3e 766f 043f
00000240: 5a4d 7dbd a855 c63e 75db 953c 46cb debd
00000250: bd4b 4b3f f893 d43e 76db d23d b1f4 33bf
00000260: a7af c03d 6745 893f 1312 dbbe b745 c43c
00000270: e584 79be b5fc 5abe d022 9fbe 3dfb e1be
00000280: 1c74 ec3e 4089 d5be 7fb1 68bf 1e11 0ebf
00000290: e336 f53e 1660 2abf 849c df3d 90bf 0b3e
000002a0: a074 3fbd 9103 0e3f b8f9 383e 18d8 063f
000002b0: f442 ef3d 7fd0 813e 539d 1d3f be0a e3bd
000002c0: 05ef c63e 667b 0cbf c12a 99be 0688 743e
000002d0: 8f9a bb3d b8af 06bf c0b5 51be ba4d 11bf
000002e0: 6645 cf3e c151 263e 2db0 51be 39d6 513d
000002f0: 6f97 5c3f b9d6 a63e 9360 14bb 862b 1bbf
00000300: da56 1fbf 0dde 8a3f a07a 8c3e e4d4 54be
00000310: e2bf aa3e 42a7 21be 6ae7 333d 6cd0 243e
00000320: 1cf7 4dbf 0496 dfbd f34d fb3e a3f8 573f
00000330: a8d3 a83e 7497 16be f6b3 7ebb b1d9 3a3f
00000340: 3db9 d73e 1f3e 57bf 6de3 82be 1ab9 d0be
00000350: 8d7d dcbe 6ebe 9a3a d09a 3d3e 3caa 4b3e
00000360: f73b 25bf 0177 a6be d6ad 4cbe 41ec 4fbe
00000370: 9085 813e c639 a53e 68fb 403e fdcc e4bd
00000380: 5abc 4bbd eef1 15bc a04a 2bbe 754e 493f
00000390: d966 03bd cdc4 ddbd c1ed 223d 704d 153f
000003a0: 96dd 19bf ac8a 2d3f 87f6 953e 427c b53d
000003b0: 32ed 16be 0b10 0dbf 999b 8fbe a338 61bf
000003c0: 2273 4b3e c6ec 10be 959e 73bf d00d cebe
000003d0: e0d2 2ebe 08ef 5bbf 2075 403f 611e b5bc
000003e0: e95f 313d bebb 133f 16f8 ecbe a269 3b3d
000003f0: 9206 d83b 7890 b83e a2a8 8bbe b9d8 de3e

params,Dense_1,bias f4 [5]
-0.48903894 -0.48232454 -0.487539 -0.64330536 -0.67542857
00000000: 5063 fabe 3ef3 f6be b69e f9be a9af 24bf
00000010: e3e8 2cbf

params,Dense_1,kernel f4 [64, 5]
-0.30229625 -0.4375554 -0.2936475 -0.39070043 -0.49692208 0.47583348 0.4420078 0.14891097
0.41890013 0.5161285 -1.0686617 -0.41975874 -0.46773103 -0.7184953 -0.78765666 0.61286795
0.7432478 0.5855977 0.95736104 0.48108912 -0.51438177 -0.6503098 -0.6840642 -0.36195728
-0.515043 -0.39030674 -0.45644006 -0.41110015 -0.5657169 -0.53556746 0.504076 0.5540957
0.9742988 0.23154514 0.66655004 -0.47567582 -0.46007288 -0.50420827 -0.34458292 -0.6208106
-0.2974113 -0.49256176 -0.37904194 -0.6160449 -0.0204551 -0.45084226 -0.3915517 -0.40795663
-0.290974 -0.23987713 0.3218435 0.39376667 0.22478463 0.21054134 0.6441677 0.5247887
0.45927635 0.40146565 0.801381 0.42809397 -0.41323912 -0.3753486 -0.36068317 -1.0403669
-0.5115675 0.39671087 0.3294818 0.21319109 0.584489 0.03549843 0.43557507 0.3487361
0.54123014 0.53605634 0.5013369 -0.4972829 -0.6593346 -0.45412594 -0.4184165 -0.6802344
-0.5013289 -0.521807 -0.38453984 -0.58681625 -0.48339373 -0.21357091 -0.9105294 -0.5637554
-0.45231515 -0.65102434 -0.48349378 -0.44208664 -0.40347275 -0.6773906 -0.13962418 -0.6600628
-0.3665714 -0.51858103 -0.45749274 -0.44625652 -0.7389229 -0.6968098 -0.31950077 -0.21490969
-0.7000485 -0.4881984 -0.4218929 -0.23787916 -0.8238963 -0.16795379 0.42740652 0.2581457
0.5015191 0.60858774 0.121687375 0.4411927 0.31493 0.31546628 0.61971295 0.4534922
-0.4471832 -0.66555154 -0.69475025 -0.6295503 -0.6158576 -0.43427268 -0.5217038 -0.4630776
-0.5123962 -0.72992516 -0.50301516 -0.37611362 -0.5258246 -0.34021074 -0.2916578 0.3646769
0.51735204 0.37976453 0.19135346 0.53615355 -0.6368437 -0.45459807 -0.6214514 -0.47852647
-0.42586684 0.41930306 0.40687394 0.3566144 0.38099068 0.7704033 0.41235945 0.28341338
0.21323201 0.5461938 0.7313885 0.4446712 0.5032591 0.32404083 0.112434015 0.3556773
0.50415295 0.5820538 0.49224445 0.40294662 0.6616656 0.31472567 0.18986197 0.4129685
-0.12407089 0.8602279 -0.48107657 -0.79789627 -0.6149356 -0.7193852 -0.12440382 0.37585402
0.2115388 0.40780115 0.11418679 0.5443553 -0.1365806 -0.33974963 -0.0717323 0.110652134
-0.32928863 -0.5695991 -0.5890389 -0.52365994 -0.32495564 -0.13658947 0.47310522 0.46358532
0.44537172 0.65313536 0.4202473 0.5584628 0.1869081 0.6987311 0.5924596 0.488865
-0.48525095 -0.40186548 -0.44013625 -0.32919222 -0.43519282 -0.77611387 -0.4802178 -0.8528644
-0.8457083 -0.54882276 -0.33243746 -0.14011279 -0.42929137 -0.46451715 -0.34212357 -0.50232214
-0.4857075 -0.39158484 -0.62103915 -0.5159405 -0.40037107 -0.5091234 -0.5512747 -0.54571676
-0.48667154 -0.32800648 -0.37087366 -0.12899418 -0.6829959 -0.011556935 0.7073534 0.5285616
0.47983503 0.7649452 0.47630745 -0.5139049 -0.5800672 -0.592051 -0.2141987 0.007631025
0.40383393 0.3935659 0.26876554 0.46296027 0.47851506 0.36798078 0.2704001 1.0757154
0.93783504 0.24266675 0.5133379 0.35912958 0.537887 0.23591621 0.337921 -0.50693667
00000000: 93c6 9abe 4307 e0be f758 96be e309 c8be
00000010: 926c febe 72a0 f33e d94e e23e 1e7c 183e
00000020: 147a d63e ff20 043f e8c9 88bf 9eea d6be
00000030: 717a efbe 4fef 37bf dea3 49bf eae4 1c3f
00000040: 7d45 3e3f bbe9 153f 9d15 753f 5051 f63e
00000050: 86ae 03bf b47a 26bf d51e 2fbf 7752 b9be
00000060: dcd9 03bf 49d6 c7be 83b2 e9be b87b d2be
00000070: d3d2 10bf f31a 09bf 200b 013f 37d9 0d3f
00000080: a56b 793f 2b1a 6d3e 06a3 2a3f c88b f3be
00000090: ac8e ebbe cb13 01bf 2c6d b0be 72ed 1ebf
000000a0: 4b46 98be 0e31 fcbe c911 c2be 1eb5 1dbf
000000b0: 7491 a7bc ccd4 e6be 7779 c8be b1df d0be
000000c0: 8bfa 94be 5aa2 75be acc8 a43e c99b c93e
000000d0: f12d 663e 2698 573e 2de8 243f 8d58 063f
000000e0: 4526 eb3e e88c cd3e 4e27 4d3f 222f db3e
000000f0: 1494 d3be b12d c0be 77ab b8be be2a 85bf
00000100: 16f6 02bf b01d cb3e d7b1 a83e c44e 5a3e
00000110: 12a1 153f cd66 113d b203 df3e 8a8d b23e
00000120: 0f8e 0a3f fd3a 093f 9d57 003f dd9b febe
00000130: 27ca 28bf 3283 e8be b03a d6be d723 2ebf
00000140: 1757 00bf 2595 05bf 68e2 c4be 9739 16bf
00000150: 627f f7be 55b2 5abe 7418 69bf 4652 10bf
00000160: da95 e7be 88a9 26bf 7f8c f7be 2e59 e2be
00000170: fb93 cebe 7869 2dbf a4f9 0ebe e0f9 28bf
00000180: 3faf bbbe bac1 04bf 7d3c eabe bc7b e4be
00000190: 0d2a 3dbf 2162 32bf 9b95 a3be 4911 5cbe
000001a0: 6136 33bf 24f5 f9be 5902 d8be 9896 73be
000001b0: deea 52bf 14fc 2bbe 07d5 da3e ac2b 843e
000001c0: 8e63 003f 68cc 1b3f 3b37 f93d 02e4 e13e
000001d0: 813e a13e cc84 a13e 82a5 1e3f 2130 e83e
000001e0: 32f5 e4be 9661 2abf 27db 31bf 352a 21bf
000001f0: d8a8 1dbf fd58 debe 618e 05bf 8218 edbe
00000200: 662c 03bf 60dc 3abf 9ac5 00bf f791 c0be
00000210: 719c 06bf 1a30 aebe 2c54 95be eeb6 ba3e
00000220: 2f71 043f 7f70 c23e 29f2 433e 5c41 093f
00000230: 3008 23bf 14c1 e8be 7017 1fbf 6c01 f5be
00000240: 380b dabe e4ae d63e c851 d03e 2a96 b63e
00000250: 3611 c33e 2739 453f c720 d33e 8f1b 913e
00000260: 7e59 5a3e 5bd3 0b3f 473c 3b3f f2ab e33e
00000270: 97d5 003f aee8 a53e ce43 e63d 561b b63e
00000280: 2b10 013f 7a01 153f 7707 fc3e 054f ce3e
00000290: eb62 293f b923 a13e 2d6b 423e 9b70 d33e
000002a0: e118 febd e537 5c3f ab4f f6be ee42 4cbf
000002b0: 6b6c 1dbf a129 38bf 6ec7 febd f06f c03e
000002c0: a19d 583e 50cb d03e c4da e93d de5a 0b3f
000002d0: c9db 0bbe aaf3 adbe 62e8 92bd 969d e23d
000002e0: 8598 a8be 3fd1 11bf 41cb 16bf 940e 06bf
000002f0: 9660 a6be 1cde 0bbe d93a f23e 0e5b ed3e
00000300: c307 e43e e133 273f a72a d73e 6bf7 0e3f
00000310: d664 3f3e 0be0 323f 6fab 173f 834c fa3e
00000320: d072 f8be 50c1 cdbe 8a59 e1be e28b a8be
00000330: 98d1 debe 66af 46bf 1cdf f5be 5255 5abf
00000340: 5780 58bf a67f 0cbf 3e35 aabe ba79 0fbe
00000350: 14cc dbbe 31d5 edbe d22a afbe 2f98 00bf
00000360: a7ae f8be cf7d c8be 6cfc 1ebf ad14 04bf
00000370: 70fd ccbe e955 02bf 5720 0dbf 18b4 0bbf
00000380: 032d f9be 77f0 a7be 27e3 bdbe 0d17 04be
00000390: d2d8 2ebf 4c59 3dbc 1d15 353f d04f 073f
000003a0: f0ac f53e 73d3 433f 92de f33e 468f 03bf
000003b0: 497f 14bf a890 17bf e756 5bbe ad0d fa3b
000003c0: 52c3 ce3e 7881 c93e a39b 893e 2109 ed3e
000003d0: edff f43e fa67 bc3e e271 8a3e 0bb1 893f
000003e0: f515 703f a27d 783e 1d6a 033f d5df b73e
000003f0: f6b2 093f 0594 713e fb03 ad3e 9ac6 01bf

params,ScannedRNN_0,GRUCell_0,hn,bias f4 [64]
0.17837447 -0.007791126 0.29532942 -0.015207743 0.20826223 0.20201123 -0.3059956 -0.1401415
0.013326195 0.12554069 -0.09042341 -0.26613605 0.19482927 0.14432146 -0.008969646 0.09935053
0.17622337 0.3299333 -0.38883588 0.29619762 0.13564056 0.085745245 -0.20805548 -0.018729575
0.1307712 -0.35013676 0.19563004 0.32295272 0.11392584 0.06073261 -0.07297213 -0.18632028
-0.22146122 -0.15935959 0.39688393 -0.08506812 -0.23981346 0.17104907 0.35679743 0.0150479805
0.18390524 0.25627768 0.12239455 0.2678009 -0.23395413 0.0040642633 -0.11469569 0.20510344
-0.1982444 -0.31166568 -0.020388547 0.17348431 -0.018904405 -0.009484771 -0.00517153 -0.24545504
-0.2880644 0.15870516 -0.20703918 -0.1491933 -0.2527681 0.111602366 0.24220558 0.31194612
00000000: cca7 363e b44c ffbb 6b35 973e e629 79bc
00000010: b242 553e 08dc 4e3e 75ab 9cbe 4181 0fbe
00000020: 1d56 5a3c bd8d 003e e92f b9bd fc42 88be
00000030: 5381 473e 01c9 133e 6cf5 12bc 4a78 cb3d
00000040: e673 343e 04ed a83e 7f15 c7be 37a7 973e
00000050: 5ce5 0a3e 349b af3d 7f0c 55be c46e 99bc
00000060: e3e8 053e 2045 b3be 3e53 483e 0f5a a53e
00000070: f351 e93d c2c2 783d 6972 95bd beca 3ebe
00000080: bbc6 62be 292f 23be 5f34 cb3e 3238 aebd
00000090: a991 75be 7d27 2f3e 27ae b63e ce8b 763c
000000a0: a851 3c3e d436 833e fea9 fa3d 331d 893e
000000b0: ac91 6fbe 832d 853b 93e5 eabd a306 523e
000000c0: 9400 4bbe a592 9fbe e205 a7bc dfa5 313e
000000d0: 69dd 9abc 0366 1bbc f075 a9bb 9158 7bbe
000000e0: 2d7d 93be 9b83 223e 1402 54be 21c6 18be
000000f0: d26a 81be c88f e43d bd04 783e 67b7 9f3e

params,ScannedRNN_0,GRUCell_0,hn,kernel f4 [64, 64]
-0.54736066 -0.049572397 -0.15725744 -0.0159143 -0.14402588 -0.15813673 0.120042734 0.07143054
0.0726509 -0.08483626 -0.1455977 0.024951495 -0.19618277 -0.107611224 -0.06720795 -0.09618697
0.0073321695 -0.1299283 -0.28707588 -0.0985438 0.095542975 -0.027941389 -0.17413095 0.03359502
0.060403362 -0.19935554 -0.13618888 0.13611974 -0.09779152 0.16239582 0.2536994 0.1989688
0.22544053 -0.040829632 -0.20821221 -0.051423874 -0.1757988 -0.34322283 -0.016246684 0.10806746
0.0012986275 0.042827334 -0.29906833 -0.109289646 -0.0533466 -0.16391227 0.10741797 -0.57760996
0.08915205 -0.021961777 -0.09391871 -0.13945888 0.09222121 0.023420108 -0.014331521 0.24879058
0.15225379 0.016855022 0.17872371 -0.0037706417 0.088406034 -0.20734653 0.2158801 0.09484187
0.24744016 -0.27018362 0.44622132 -0.13013001 0.13266155 0.14853066 -0.19044244 -0.1204165
-0.0047154534 0.13283715 -0.13466755 0.0062909215 0.30667493 -0.12985586 -0.12095338 -0.16885951
0.085488245 0.17131533 0.19910306 -0.023121985 0.44457105 0.42889914 -0.07981637 0.015767945
-0.16621423 -0.041473012 0.31598526 -0.14078802 0.18429346 0.015901946 -0.21257983 -0.41003588
-0.46438676 0.07839203 0.19852406 0.08131713 -0.085518 0.21861258 0.05793241 0.06633095
0.010886357 0.18124698 0.039704833 0.22888575 -0.08126682 0.3349635 -0.30553827 0.012547988
-0.19381747 0.12630646 -0.13813917 0.091290265 -0.15853816 -0.11092816 0.12381971 0.119729556
-0.13480832 0.06633228 -0.08164595 0.11991321 0.021778757 -0.04344927 -0.061454516 -0.20658603
0.16942999 -0.024080008 -0.2527277 -0.33427536 0.008254049 0.081849456 0.090404965 0.035308
0.2423647 -0.10487136 0.13312595 0.14250526 0.06653396 0.016333768 -0.10457228 -0.18081465
-0.18015775 0.046999592 0.05102132 0.16215385 0.03836402 -0.103946954 0.027557615 0.11873697
0.17376588 0.07696894 0.034043334 -0.020983953 -0.0026237993 0.026396293 -0.26717967 0.006267832
0.23304507 0.053134665 -0.07328541 -0.027891515 0.06104641 0.11769184 0.07109736 0.10954986
-0.06594245 -0.15204108 -0.022319226 -0.07752127 0.08456325 -0.10081542 -0.22201413 0.06291402
-0.16675195 -0.16173173 -0.078791834 0.056794308 0.0010720058 0.18508294 -0.05836791 0.20482413
0.15938264 0.03811758 -0.13990392 0.02459167 0.054314066 0.100367844 -0.030218488 0.070071466
0.44165352 0.007101348 0.50782526 -0.3557187 0.15539066 0.18392652 -0.14428577 -0.133443
-0.32631207 0.22479025 -0.2666305 -0.043614883 0.2024137 -0.17854272 -0.161629 0.2655973
0.09189416 0.14636447 0.13602187 -0.0519738 0.5034082 0.23583749 0.065649 -0.18709783
0.2878728 0.10056965 0.33450726 -0.059616845 0.46091715 0.11374382 -0.11775124 -0.15420528
-0.6567553 -0.09179276 0.28876242 -0.0066089886 -0.052029967 0.6993952 -0.095066875 -0.22926608
0.27610365 0.10790114 0.03406683 0.40817675 -0.010581865 0.22437601 -0.3507511 0.28646535
-0.1179883 -0.33001897 0.17215239 0.03598267 -0.06858053 0.016234161 -0.039218243 -0.084290415
-0.10169745 0.18362416 -0.22272284 -0.146851 -0.09501716 0.33521095 -0.008875074 0.0062103355
00000000: d41f 0cbf 6d0c 4bbd 1808 21be b55e 82bc
00000010: 857b 13be 98ee 21be f7d8 f53d 2d4a 923d
00000020: ffc9 943d a2be adbd 9017 15be 1467 cc3c
00000030: 23e4 48be 4663 dcbd 52a4 89bd adfd c4bd
00000040: b242 f03b ed0b 05be 9cfb 92be 55d1 c9bd
00000050: 09ac c33d 57e5 e4bc 624f 32be ef9a 093d
00000060: 8469 773d dc23 4cbe 1975 0bbe f962 0b3e
00000070: ec46 c8bd 174b 263e e3e4 813e 7abe 4b3e
00000080: e2d9 663e f93c 27bd 9535 55be d7a1 52bd
00000090: 9a04 34be e7ba afbe c417 85bc 7952 dd3d
000000a0: b536 aa3a b76b 2f3d 7c1f 99be 40d3 dfbd
000000b0: f781 5abd 9ed8 27be f4fd db3d 3fde 13bf
000000c0: 5a95 b63d 2fe9 b3bc 7458 c0bd 4fce 0ebe
000000d0: 79de bc3d 87db bf3c c1ce 6abc f5c2 7e3e
000000e0: 6be8 1b3e 8b13 8a3c 5903 373e df1c 77bb
000000f0: 390e b53d a652 54be ac0f 5d3e 743c c23d
00000100: f460 7d3e 8255 8abe 1f77 e43e cd40 05be
00000110: 6ed8 073e 6c18 183e 5803 43be ed9c f6bd
00000120: 1784 9abb 7606 083e 4ae6 09be 1324 ce3b
00000130: 7f04 9d3e eff8 04be 68b6 f7bd 82e9 2cbe
00000140: 7614 af3d 496d 2f3e ace1 4b3e 516a bdbc
00000150: d19e e33e ab98 db3e c476 a3bd c72b 813c
00000160: 1034 2abe 9bdf 29bd d2c8 a13e bc2a 10be
00000170: 6db7 3c3e cc44 823c 87ae 59be 39f0 d1be
00000180: 1ac4 edbe 008c a03d e449 4b3e 9889 a63d
00000190: 1024 afbd fadb 5f3e 894a 6d3d 85d8 873d
000001a0: b15c 323c cf98 393e 89a1 223d 0761 6a3e
000001b0: 386f a6bd 5680 ab3e 836f 9cbe 1496 4d3c
000001c0: 1678 46be 7b56 013e 5b74 0dbe 64f6 ba3d
000001d0: d457 22be 4e2e e3bd 3095 fd3d c534 f53d
000001e0: 310b 0abe 38d9 873d fe35 a7bd 0f95 f53d
000001f0: 5d69 b23c ddf7 31bd bbb7 7bbd 4a8b 53be
00000200: 0e7f 2d3e 7043 c5bc 8665 81be 2426 abbe
00000210: fe3b 073c b0a0 a73d 3d26 b93d 1f9f 103d
00000220: 742e 783e ccc6 d6bd 2b52 083e e6ec 113e
00000230: f542 883d 65ce 853c fe29 d6bd 7a27 39be
00000240: 467b 38be a582 403d bbfb 503d a90b 263e
00000250: 9723 1d3d 24e2 d4bd 82c0 e13c 5e2c f33d
00000260: afef 313e e4a1 9d3d 0671 0b3d 8ae6 abbc
00000270: 0cf4 2bbb 0a3d d83c c6cb 88be 6362 cd3b
00000280: 5ea3 6e3e bca3 593d a916 96bd bf7c e4bc
00000290: cd0b 7a3d 6b08 f13d 7e9b 913d ad5b e03d
000002a0: d60c 87bd a8b0 1bbe cfd6 b6bc 79c3 9ebd
000002b0: 7f2f ad3d 5178 cebd ac57 63be 11d9 803d
000002c0: 06c1 2abe 019d 25be 9d5d a1bd 26a1 683d
000002d0: 8c82 8c3a 6286 3d3e 3113 6fbd 6bbd 513e
000002e0: 3435 233e 2e21 1c3d f942 0fbe 7874 c93c
000002f0: 6d78 5e3d a88d cd3d c38c f7bc a181 8f3d
00000300: 6920 e23e 6db2 e83b d600 023f c320 b6be
00000310: bb1e 1f3e 3c57 3c3e a6bf 13be 48a5 08be
00000320: 6012 a7be 6a2f 663e cb83 88be 85a5 32bd
00000330: 8945 4f3e e7d3 36be 1382 25be 5ffc 873e
00000340: 0133 bc3d 91e0 153e 5149 0b3e 7be2 54bd
00000350: 5cdf 003f 627f 713e fc72 863d 9396 3fbe
00000360: 1064 933e 76f7 cd3d 8944 ab3e cb30 74bd
00000370: 55fd eb3e 85f2 e83d 9027 f1bd fde7 1dbe
00000380: 1e21 28bf d8fd bbbd abd8 933e 3790 d8bb
00000390: 601d 55bd 900b 333f 6cb2 c2bd bac4 6abe
000003a0: 755d 8d3e 46fb dc3d a989 0b3d 8bfc d03e
000003b0: 8f5f 2dbc d3c2 653e a695 b3be 96ab 923e
000003c0: daa3 f1bd 3ff8 a8be b748 303e 9062 133d
000003d0: f373 8cbd 81fd 843c 4fa3 20bd 74a0 acbd
000003e0: c146 d0bd f907 3c3e 7511 64be 1c60 16be
000003f0: 5b98 c2bd c5a0 ab3e c268 11bc 1280 cb3b

params,ScannedRNN_0,GRUCell_0,hr,kernel f4 [64, 64]
-0.0063819885 -0.008450671 0.07801795 0.04913409 -0.38731238 -0.1918064 0.025534218 0.09268036
-0.011378258 0.20121928 -0.15697238 0.105913326 -0.09222693 0.0465831 0.01058408 0.16767547
0.051345862 -0.02834932 0.07682518 -0.09306445 -0.02472268 -0.07997943 -0.288553 0.016263535
-0.20050798 -0.20783389 -0.13497524 0.26057953 -0.120448165 0.00859766 0.056043137 0.11443223
0.14430332 -0.07321993 -0.23599789 -0.19697425 0.03776792 -0.16308491 -0.015828125 -0.02601627
-0.010118792 -0.14764154 -0.16140564 -0.011093309 -0.08078815 -0.05696342 -0.17356515 -0.25922602
-0.0523088 -0.00547496 -0.010820458 0.04718313 0.121378064 0.037401553 0.010770602 0.21137974
-0.022862518 0.057719015 -0.21427472 0.05264026 0.1841715 -0.117975384 0.042171016 0.029000835
0.0462522 -0.21820898 -0.20903803 0.017984476 -0.13389173 -0.33229557 0.21920967 -0.09812777
0.002409579 -0.037887443 0.004077165 -0.07044749 -0.07473441 0.061493043 0.1817127 -0.13719532
-0.11359177 0.18073574 -0.07620851 0.07066173 0.12847899 0.121119864 -0.05263193 -0.2558858
-0.1154035 -2.7447924e-05 0.029850427 -0.15729605 -0.03745834 0.05294772 0.071541205 0.083563454
-0.19892915 0.046983458 0.067666896 0.2015492 -0.07329593 0.11743316 -0.1139944 0.02336163
0.051354997 0.26806498 0.0022981542 -0.11026273 -0.17624208 0.16114941 -0.12474157 0.036185537
0.07521056 0.0053394367 -0.057418447 -0.015132944 0.08665988 0.22638364 0.061611712 0.047779683
0.16111654 -0.019133769 0.044891533 -0.07145375 0.092496656 0.2382888 -0.19902414 0.11508012
-0.20013575 -0.18886422 0.080835596 0.068528846 -0.11270665 -0.091050625 -0.15189259 0.022331782
-0.11332184 0.21795915 -0.04871158 -0.1415342 -0.088618845 -0.049722694 0.0490269 0.042637113
-0.10865349 -0.19208355 -0.06788242 -0.1122647 0.1672062 0.20194754 -0.04959787 -0.031066388
0.23183167 -0.15479352 0.038662553 -0.064785 0.2735329 -0.17140138 0.023803165 -0.12055385
-0.114767194 -0.06337136 0.16414563 -0.007595621 0.013647071 0.14506201 0.09857159 -0.043156814
-0.08610192 -0.118145235 -0.29203013 0.07935084 -0.29359925 -0.0102575 0.12398455 -0.4504602
-0.00095346593 -0.03582512 -0.098384045 -0.28364092 -0.15110789 -0.15249492 -0.054986693 -0.07508953
0.04509791 0.14195997 -0.006010246 -0.11184946 -0.038353797 -0.038883027 0.0607132 0.06532457
0.07750567 0.15613039 -0.01453804 -0.0017770311 -0.18300004 0.11968364 -0.036331553 0.22433385
-0.028063115 0.122138 -0.11016275 0.11180037 -0.15624326 -0.034148008 -0.23617797 -0.09806033
-0.032312114 -0.0041421396 -0.017810898 0.18593006 0.24657959 -0.22092362 0.031852655 -0.2935761
0.068136744 -0.15246658 0.22801982 -0.2902925 -0.0072593987 -0.20836687 -0.025550896 0.18888392
0.016986402 -0.057868015 -0.12640606 0.12287531 -0.14926673 0.08882077 0.25694743 -0.012497961
0.008356463 -0.11207113 0.1632193 0.07403796 0.08629566 0.05319154 0.06513502 -0.047465965
0.112427816 0.016334279 -0.20082916 -0.068789385 0.0027261293 0.08137879 0.03547354 0.05240907
-0.20817243 -0.11906307 0.18801151 0.05282138 0.03207403 -0.0016122799 -0.18817587 -0.13549966
00000000: 0020 d1bb af74 0abc e0c7 9f3d d440 493d
00000010: cf4d c6be e668 44be 232d d13c 33cf bd3d
00000020: df6b 3abc 6d0c 4e3e 5ebd 20be 16e9 d83d
00000030: 79e1 bcbd eccd 3e3d d968 2d3c 1eb3 2b3e
00000040: 0a50 523d d53c e8bc 8556 9d3d 9398 bebd
00000050: 3887 cabc 41cc a3bd 38bd 93be 1b3b 853c
00000060: f751 4dbe 68d2 54be f336 0abe ae6a 853e
00000070: 87ad f6bd 33dd 0c3c 7d8d 653d 725b ea3d
00000080: 40c4 133e 55f4 95bd 6ea9 71be 9eb3 49be
00000090: 89b2 1a3d bbff 26be fca9 81bc 1320 d5bc
000000a0: 4ac9 25bc 582f 17be 8547 25be b6c0 35bc
000000b0: 4274 a5bd 7a52 69bd 10bb 31be 46b9 84be
000000c0: c141 56bd 4b67 b3bb 4a48 31bc 1943 413d
000000d0: 1095 f83d 5f32 193d 2e77 303c ee73 583e
000000e0: 2d4a bbbc c66a 6c3d d56a 5bbe 509d 573d
000000f0: 7497 3c3e 149d f1bd 84bb 2c3d 2993 ed3c
00000100: f272 3d3d 2d72 5fbe 110e 56be 2e54 933c
00000110: ea1a 09be a522 aabe 8078 603e 36f7 c8bd
00000120: 07ea 1d3b dd2f 1bbd bd99 853b c646 90bd
00000130: 5b0e 99bd 21e0 7b3d e512 3a3e ee7c 0cbe
00000140: cda2 e8bd ca12 393e 3513 9cbd 19b7 903d
00000150: ff8f 033e b10d f83d 9494 57bd 7703 83be
00000160: ac58 ecbd f83f e6b7 e288 f43c 3712 21be
00000170: eb6d 19bd b5df 583d 3284 923d 5123 ab3d
00000180: 15b4 4bbe ba71 403d f194 8a3d ea62 4e3e
00000190: 2d1c 96bd cc80 f03d e575 e9bd e460 bf3c
000001a0: 9e59 523d d03f 893e a19c 163b 6dd1 e1bd
000001b0: ce78 34be 5a04 253e 8278 ffbd 4937 143d
000001c0: fe07 9a3d 71f6 ae3b 9b2f 6bbd 2bf0 77bc
000001d0: bc7a b13d 1dd1 673e 905c 7c3d a1b4 433d
000001e0: bcfb 243e 6cbe 9cbc 2fe0 373d 5856 92bd
000001f0: e36e bd3d fb01 743e fccc 4bbe 20af eb3d
00000200: 63f0 4cbe 9f65 41be 228d a53d da58 8c3d
00000210: bed2 e6bd c078 babd bb89 1bbe 24f1 b63c
00000220: 4815 e8bd af30 5f3e cb85 47bd 57ee 10be
00000230: cc7d b5bd 06aa 4bbd 6ed0 483d 41a4 2e3d
00000240: b985 debd 8db1 44be f005 8bbd 09eb e5bd
00000250: 1a38 2b3e 56cb 4e3e 2327 4bbd f07e febc
00000260: 4865 6d3e 3182 1ebe a05c 1e3d 00ae 84bd
00000270: 810c 8c3e d883 2fbe dbfe c23c f0e4 f6bd
00000280: 100b ebbd d8c8 81bd cb15 283e b0e4 f8bb
00000290: f797 5f3c 238b 143e e7df c93d 33c5 30bd
000002a0: 3456 b0bd 21f6 f1bd f984 95be b182 a23d
000002b0: a452 96be 130f 28bc 9deb fd3d b8a2 e6be
000002c0: 04f2 79ba 5cbd 12bd 937d c9bd 6239 91be
000002d0: 07bc 1abe a127 1cbe ba39 61bd 8ac8 99bd
000002e0: 96b8 383d f45d 113e 99f1 c4bb 5411 e5bd
000002f0: df18 1dbd cf43 1fbd 68ae 783d e3c8 853d
00000300: 4bbb 9e3d a5e0 1f3e f630 6ebc 45eb e8ba
00000310: 5d64 3bbe b21c f53d 65d0 14bd c6b7 653e
00000320: 9ee4 e5bc 7d23 fa3d 029d e1bd 98f7 e43d
00000330: 3cfe 1fbe c8de 0bbd a3d8 71be dbd3 c8bd
00000340: b559 04bd c9ba 87bb 29e8 91bc 7364 3e3e
00000350: 5c7f 7c3e cd39 62be ee77 023d 9b4f 96be
00000360: 478b 8b3d 3320 1cbe 077e 693e 38a1 94be
00000370: 40e0 edbb 205e 55be 1d50 d1bc c96a 413e
00000380: 1127 8b3c 0307 6dbd 9770 01be 0da6 fb3d
00000390: 61d9 18be aae7 b53d 9d8e 833e 3fc4 4cbc
000003a0: 8ce9 083c 8c85 e5bd f622 273e 37a1 973d
000003b0: c7bb b03d 5fdf 593d 8265 853d ac6b 42bd
000003c0: 8e40 e63d 77cf 853c 29a6 4dbe 73e1 8cbd
000003d0: dca8 323b eca9 a63d b44c 113d e5aa 563d
000003e0: 272b 55be 57d7 f3bd 1786 403e 3b5b 583d
000003f0: 0f60 033d 2353 d3ba 2db1 40be 6cc0 0abe

params,ScannedRNN_0,GRUCell_0,hz,kernel f4 [64, 64]
-0.08823649 0.012979463 0.2922626 -0.12217885 0.2266226 0.07546589 0.07507456 0.0031325233
-0.01569227 0.11222452 0.09986843 -0.15323071 -0.20376723 0.082659096 -0.11000632 0.26279655
-0.008971774 0.098332055 -0.075963825 0.2382096 0.14745723 0.07473931 0.025949651 0.29295114
0.17741005 -0.015078753 0.03260787 -0.11692445 0.28809032 -0.025494363 0.08201272 -0.055659708
0.11842628 0.057360385 0.04823404 -0.10631487 -0.12872572 -0.13620166 0.24455741 0.09850711
0.022754196 -0.050956644 0.013133298 0.19625753 -0.048343338 -0.04143788 -0.0636443 -0.029426735
0.12064122 0.18220708 0.09690929 -0.1486661 0.089305356 0.082597196 0.039500322 0.0877801
0.05129557 -0.19633983 0.2612869 0.14592278 -0.1327819 -0.1852761 -0.16218778 -0.17913993
0.05456182 -0.20536983 -0.13563901 -0.12716791 -0.20996124 0.015179458 -0.08329596 0.07686137
-0.20501377 -0.10516335 -0.17470722 -0.21581176 0.059744507 -0.11285893 0.0033954864 -0.067616396
0.04975218 -0.07377194 -0.30806983 0.03341866 -0.084679544 0.11678567 0.016816327 -0.12690964
-0.05327245 0.13181803 -0.04113679 0.012011198 -0.20339587 0.11071742 -0.23469183 -0.16485883
-0.13916513 0.027818322 -0.15685152 0.04555176 -0.0035289715 0.2485826 0.24390505 0.02083047
0.14079486 0.1848153 -0.08984302 0.026624808 0.123503074 0.05908159 -0.005009734 0.18598132
-0.08427433 0.113789745 -0.04760063 -0.051239748 0.10259632 -0.022557901 -0.17780222 -0.07324473
-0.16613013 -0.14598733 0.14190511 -0.102588944 -0.07519468 -0.08347581 -0.17377415 0.15227956
0.07563148 0.050251227 -0.025740998 0.24711195 -0.059990954 -0.053511273 0.43406546 -0.04251331
0.06579386 0.076700635 0.12334934 0.023502167 -0.043203395 0.120043196 0.17295787 -0.24503283
-0.065999925 0.015820162 -0.027747758 0.08386391 -0.1557076 0.10711534 0.19801702 0.017054524
-0.056042396 0.049098592 -0.010926729 -0.07313366 0.096725136 0.09074071 0.2899883 0.017268699
0.28273806 0.33871174 0.024436384 -0.032491017 -0.10944211 0.13881986 0.13691539 -0.09624396
0.096830554 -0.050680254 0.0053660874 0.10560624 0.17875873 0.07733614 -0.16465747 0.11542376
-0.117967606 -0.089625604 0.010686608 -0.1391482 0.086190484 -0.07006172 0.112896666 -0.14157648
0.15112996 0.23022106 0.17552094 -0.19198865 0.07734585 -0.17765363 0.03798424 0.018330008
-0.045376483 0.006769303 -0.07451087 -0.052053172 -0.062453043 -0.14259845 -0.100925274 0.08094654
0.12309268 0.10259523 0.017199608 -0.026547182 -0.04403123 0.057321236 0.2586842 0.23449431
0.15426683 0.03845321 0.091021016 0.12981501 -0.09650049 0.15114206 0.12729213 0.022529984
0.19852118 0.05260947 -0.1493567 0.11186177 0.19119887 -0.10100404 0.0025864053 0.18797275
0.14341915 -0.08759723 0.07116382 -0.081919864 0.13006759 0.27317882 0.020334434 0.0097254105
0.03459161 0.091173284 0.24817361 0.0042087063 0.27204502 -0.03972178 -0.16297239 -0.09936781
-0.06702401 -0.028517175 0.038471792 0.037466124 -0.044970166 0.28614265 -0.14765733 -0.18376744
-0.108017914 0.15419115 0.2078751 -0.15291823 -0.07386998 0.14326487 0.17607889 0.13216655
00000000: 55b5 b4bd d0a7 543c 72a3 953e e838 fabd
00000010: c10f 683e dc8d 9a3d b1c0 993d 054b 4d3b
00000020: 138d 80bc f8d5 e53d d287 cc3d 83e8 1cbe
00000030: 5ba8 50be 2c49 a93d fe4a e1bd 458d 863e
00000040: 59fe 12bc 5162 c93d ec92 9bbd 38ed 733e
00000050: 07ff 163e ec10 993d 5d94 d43c b1fd 953e
00000060: fbaa 353e e00c 77bc d48f 053d 1676 efbd
00000070: 9380 933e 8ed9 d0bc 49f6 a73d 6ffb 63bd
00000080: 7a89 f23d b9f2 6a3d 0f91 453d 9cbb d9bd
00000090: add0 03be 7378 0bbe 426d 7a3e 18be c93d
000000a0: 0267 ba3c eab7 50bd 0b2d 573c bcf7 483e
000000b0: aa03 46bd c4ba 29bd f157 82bd 5610 f1bc
000000c0: be12 f73d 7e94 3a3e 6178 c63d ed3b 18be
000000d0: bae5 b63d b828 a93d 17cb 213d 0ec6 b33d
000000e0: 4e1b 523d 4f0d 49be 66c7 853e c86c 153e
000000f0: faf7 07be 05b9 3dbe 8e14 26be 7570 37be
00000100: 377c 5f3d 784c 52be f4e4 0abe 4e38 02be
00000110: 1400 57be 43b3 783c 1397 aabd 7e69 9d3d
00000120: 21ef 51be e25f d7bd 73e6 32be c2fd 5cbe
00000130: a8b6 743d 9522 e7bd cf86 5e3b 777a 8abd
00000140: f1c8 4b3d be15 97bd 54bb 9dbe 01e2 083d
00000150: 786c adbd 532d ef3d 65c2 893c 9af4 01be
00000160: 3634 5abd 4efb 063e 0d7f 28bd 9eca 443c
00000170: 0247 50be d1bf e23d 0e53 70be c1d0 28be
00000180: 4e81 0ebe 40e3 e33c af9d 20be 7b94 3a3d
00000190: 5146 67bb 708c 7e3e 3fc2 793e a9a4 aa3c
000001a0: 872c 103e 3940 3d3e 9eff b7bd 451c da3c
000001b0: 2eef fc3d 8aff 713d b228 a4bb e371 3e3e
000001c0: 0598 acbd 990a e93d e1f8 42bd c5e0 51bd
000001d0: 051e d23d 59cb b8bc c911 36be 5501 96bd
000001e0: 041e 2abe b47d 15be 934f 113e 271a d2bd
000001f0: abff 99bd 5ef5 aabd daf1 31be 2cef 1b3e
00000200: ade4 9a3d 3bd4 4d3d c9de d2bc ea0a 7d3e
00000210: 13b9 75bd a32e 5bbd d43d de3e 7022 2ebd
00000220: eebe 863d 3915 9d3d 949e fc3d 9e87 c03c
00000230: 0bf6 30bd 35d9 f53d de1b 313e e3e9 7abe
00000240: f82a 87bd 4999 813c 444f e3bc d7c0 ab3d
00000250: d071 1fbe 4a5f db3d f9c4 4a3e eeb5 8b3c
00000260: b68c 65bd 9b1b 493d 0606 33bc 1ac7 95bd
00000270: d417 c63d 44d6 b93d 5979 943e 1677 8d3c
00000280: 0bc3 903e a06b ad3e d02e c83c 4d15 05bd
00000290: 2f23 e0bd cb26 0e3e 8c33 0c3e 8e1b c5bd
000002a0: 194f c63d 1996 4fbd 01d6 af3b 1648 d83d
000002b0: 870c 373e 6962 9e3d f89b 28be 4b63 ec3d
000002c0: 0099 f1bd a18d b7bd e216 2f3c de7c 0ebe
000002d0: a384 b03d 857c 8fbd 5e36 e73d 6df9 10be
000002e0: d0c1 1a3e 12bf 6b3e c3bb 333e ac98 44be
000002f0: 8067 9e3d d5ea 35be 5d95 1b3d d028 963c
00000300: b1dc 39bd 08d1 dd3b 2899 98bd b535 55bd
00000310: c3ce 7fbd 5405 12be e9b1 cebd 4dc7 a53d
00000320: 0418 fc3d 731d d23d 31e6 8c3c 7a79 d9bc
00000330: 175a 34bd acc9 6a3d 4172 843e 471f 703e
00000340: 20f8 1d3e 1d81 1d3d 3a69 ba3d 3aee 043e
00000350: 0da2 c5bd fcc4 1a3e de58 023e cd90 b83c
00000360: 2349 4b3e 077d 573d f6f0 18be c917 e53d
00000370: a3c9 433e 35db cebd ae80 293b ee7b 403e
00000380: 78dc 123e 2d66 b3bd 56be 913d 9ac5 a7bd
00000390: 7030 053e 18de 8b3e 6694 a63c 5457 1f3c
000003a0: efaf 0d3d 0fb9 ba3d 3921 7e3e 30e9 893b
000003b0: 7c49 8b3e 4eb3 22bd 3ce2 26be 5a81 cbbd
000003c0: e243 89bd da9c e9bc 9994 1d3d 1476 193d
000003d0: a332 38bd 4a81 923e 7c33 17be 882d 3cbe
000003e0: 7f38 ddbd 49e4 1d3e 36dd 543e 9996 1cbe
000003f0: 2549 97bd 07b4 123e 064e 343e ab56 073e

params,ScannedRNN_0,GRUCell_0,in,bias f4 [64]
0.043233056 0.030826049 0.1376722 0.07215449 -0.057566173 0.009309442 -0.08123246 -0.0914739
-0.016238842 -0.056021195 0.011817789 -0.20710409 0.08404129 0.17237946 0.11192221 -0.13923694
0.14861752 0.14595547 -0.52995974 0.16446158 -0.10466356 -0.0061044875 -0.03941037 0.01764675
-0.047856946 -0.42734545 0.109066024 0.40184343 -0.07439756 0.15002497 0.097546645 -0.04795638
-0.088457294 -0.016890615 0.2716338 0.082566835 -0.25606278 0.023747668 0.47725514 0.16438851
-0.08007009 0.20952277 -0.053741638 0.095394224 -0.31295896 -0.12751134 0.112004325 0.14523503
-0.06569077 -0.13098249 0.06384696 0.08123813 0.10268835 0.09168984 0.054602165 -0.12573843
-0.22525327 0.07683259 0.019103648 0.07076228 -0.07882928 -0.088956006 0.33301938 0.43503445
00000000: 2515 313d e986 fc3c f1f9 0c3e bcc5 933d
00000010: 82ca 6bbd a186 183c 345d a6bd ab56 bbbd
00000020: 5207 85bc 7b76 65bd 669f 413c 1813 54be
00000030: d71d ac3d 3e84 303e 7937 e53d 2194 0ebe
00000040: 312f 183e 5a75 153e 71ab 07bf 9e68 283e
00000050: d959 d6bd 2708 c8bb c56c 21bd eb8f 903c
00000060: a505 44bd 06cd dabe 025e df3d 6cbe cd3e
00000070: bf5d 98bd 25a0 193e 89c6 c73d e96d 44bd
00000080: 1929 b5bd 305e 8abc 9613 8b3e cd18 a93d
00000090: a91a 83be 788a c23c c95a f43e 7655 283e
000000a0: cafb a3bd 238d 563e 3120 5cbd 0c5e c33d
000000b0: 283c a0be 5592 02be 8662 e53d 7eb8 143e
000000c0: e288 86bd 4620 06be 32c2 823d 2d60 a63d
000000d0: 454e d23d e2c7 bb3d 85a6 5f3d 93c1 00be
000000e0: cba8 66be 685a 9d3d 417f 9c3c d0eb 903d
000000f0: 3f71 a1bd 912e b6bd 8481 aa3e d6bc de3e

params,ScannedRNN_0,GRUCell_0,in,kernel f4 [64, 64]
0.38712466 -0.18520233 0.16591771 -0.2620212 0.37741363 0.1578576 -0.17598937 0.43851763
0.4389884 -0.015987892 -0.010652026 -0.04016572 0.26200828 -0.07115509 0.07459086 0.09183708
0.37909597 0.0049501457 0.2232194 0.16756316 -0.10319118 0.3976069 -0.08174968 -0.026116323
0.2712792 0.042358514 0.17341395 -0.21873604 0.1513781 0.03394351 -0.13959792 0.00621734
-0.15063892 -0.23506777 0.10143965 -0.041576874 0.03130285 0.0021190408 -0.2594163 -0.25164112
0.24622391 0.083334394 0.07940629 0.28048855 0.15974928 0.016446859 -0.3050961 0.27457476
-0.06037109 -0.02433995 -0.31873366 0.042126663 0.007191756 -0.32146037 -0.01301841 -0.20121168
-0.17412251 0.27616528 -0.005509531 -0.26075062 -0.16233006 0.20719717 0.33144513 0.1491289
0.2553741 0.032813173 0.04693552 0.060027458 -0.0089634005 0.30803683 -0.21177185 0.07093116
0.11483172 0.10462911 0.03741302 -0.25578812 0.30132884 -0.27839175 -0.27759925 -0.06876473
0.25130257 0.09289664 0.14721939 0.16886811 0.45358968 0.03966059 -0.059472047 -0.07363513
0.19448872 -0.03452969 -0.10388082 -0.15255782 0.1819466 -0.10810223 0.033470243 -0.07209605
-0.0901115 -0.20138393 0.37488765 -0.021847041 -0.0321068 0.320887 -0.008318965 -0.14508171
0.06668809 0.18426582 0.08218803 0.037170578 0.09942755 0.3103298 -0.1625239 -0.086126246
-0.18889198 -0.1314145 0.033565074 0.042841375 -0.22184548 -0.07717609 -0.18370321 -0.13434638
-0.24715975 0.13452783 -0.08197631 0.044884983 -0.30424312 0.39706495 0.10255689 0.27599877
0.037910424 0.032418255 0.09325912 -0.14296453 -0.023185777 0.30412978 -0.06235754 0.22369266
-0.03827926 0.056592625 -0.05695274 -0.1256534 0.12095506 -0.0070071984 -0.08835977 0.03631339
0.047501147 0.12026227 -0.115867004 0.058826417 0.021040715 -0.07747819 -0.09844505 -0.13319345
-0.05057114 0.08634132 0.23319529 0.06594355 0.11105217 -0.16318084 -0.03353653 -0.26304495
-0.29049817 -0.1350324 -0.13478193 -0.1211702 -0.05626018 0.23326518 -0.04259598 0.06707166
-0.16182654 0.03282935 -0.07084929 0.29592466 -0.01706792 -0.065738894 0.031833336 0.21330655
-0.18758391 0.057994835 -0.22767578 0.03232545 -0.23190531 -0.032131728 -0.15031458 -0.07889646
-0.31626493 0.13622731 0.01873946 0.18724254 -0.18712999 -0.08898831 0.2126728 0.29526967
0.024642024 -0.07089673 0.19344719 -0.15213208 0.05705504 0.121846065 -0.18839684 0.051138174
-0.01338395 -0.07079304 0.017278071 -0.18098405 0.06948338 0.09702283 -0.051620685 -0.18250309
-0.1105953 0.0017891846 0.25345325 0.10367161 0.15215835 0.07730944 -0.05043282 -0.24512342
0.296103 0.01026828 -0.027379634 0.13667351 0.052471418 -0.18753894 -0.0922941 -0.11928377
-0.2437409 -0.06344946 0.053902894 -0.01682003 -0.031382356 0.11145326 0.059276942 -0.12451341
0.12709506 0.058295663 0.25378922 0.28732637 -0.007567724 0.09027275 -0.067333624 0.06516131
-0.19993496 -0.06072175 -0.17380562 0.121372476 -0.15454017 0.058851488 -0.30671757 -0.06762689
-0.0769946 0.1237476 -0.10581038 0.092765674 -0.18304777 0.137915 -0.061190166 0.1786276
00000000: 3435 c63e aea5 3dbe 55e6 293e a527 86be
00000010: 5c3c c13e 6ca5 213e 8f36 34be 6285 e03e
00000020: 16c3 e03e 0af9 82bc d685 2ebc cf84 24bd
00000030: f325 863e c3b9 91bd 18c3 983d 1415 bc3d
00000040: de18 c23e d534 a23b a093 643e ad95 2b3e
00000050: e655 d3bd 2293 cb3e 606c a7bd e6f1 d5bc
00000060: 1be5 8a3e 1f80 2d3d 6d93 313e 57fc 5fbe
00000070: dc02 1b3e 5a08 0b3d c2f2 0ebe d4ba cb3b
00000080: 1741 1abe 9bb5 70be 97bf cf3d 834c 2abd
00000090: 6b37 003d 9bdf 0a3b 37d2 84be 1bd7 80be
000000a0: 1f22 7c3e 39ab aa3d c49f a23d 329c 8f3e
000000b0: 5195 233e 90bb 863c 8e35 9cbe 1095 8c3e
000000c0: ad47 77bd 9364 c7bc 0f31 a3be 028d 2c3d
000000d0: d2a8 eb3b 7496 a4be 2b4b 55bc 6f0a 4ebe
000000e0: 2c4d 32be 8965 8d3e 4c89 b4bb 1b81 85be
000000f0: da39 26be 7f2b 543e 2db3 a93e 3fb5 183e
00000100: 65c0 823e 1b67 063d 763f 403d 5adf 753d
00000110: 3adb 12bc 01b7 9d3e b8da 58be 5b44 913d
00000120: e52c eb3d c947 d63d 653e 193d a9f6 82be
00000130: c647 9a3e 5d89 8ebe 7d21 8ebe 86d4 8cbd
00000140: bbaa 803e 9840 be3d aec0 163e c3eb 2c3e
00000150: e83c e83e 2573 223d f698 73bd 04ce 96bd
00000160: 0d28 473e 016f 0dbd 78bf d4bd 1e38 1cbe
00000170: 3650 3a3e b464 ddbd 1818 093d 18a7 93bd
00000180: 618c b8bd 9737 4ebe 46f1 bf3e 91f8 b2bc
00000190: 6b82 03bd 4d4b a43e 454c 08bc 4d90 14be
000001a0: c493 883d 2eb0 3c3e 3352 a83d 2d40 183d
000001b0: aca0 cb3d 8ce3 9e3e aa6c 26be f562 b0bd
000001c0: e66c 41be 8691 06be 887b 093d 707a 2f3d
000001d0: 762b 63be 7f0e 9ebd b21c 3cbe 1992 09be
000001e0: 7217 7dbe aac1 093e 32e3 a7bd 51d9 373d
000001f0: c1c5 9bbe 194c cb3e 5909 d23d b64f 8d3e
00000200: f647 1b3d 01c9 043d a3fe be3d 4b65 12be
00000210: 19f0 bdbc e6b6 9b3e 9f6a 7fbd b00f 653e
00000220: b7ca 1cbd abcd 673d 4747 69bd 49ab 00be
00000230: 49b7 f73d a49c e5bb f8f5 b4bd 59bd 143d
00000240: 9090 423d 114c f63d ae4b edbd f8f3 703d
00000250: 945d ac3c e3ac 9ebd 8f9d c9bd dd63 08be
00000260: af23 4fbd b8d3 b03d bfca 6e3e 690d 873d
00000270: 526f e33d e118 27be 9a5d 09bd d4ad 86be
00000280: 2dbc 94be ef45 0abe 4604 0abe 1528 f8bd
00000290: 1371 66bd 11dd 6e3e 1f79 2ebd de5c 893d
000002a0: dbb5 25be 1278 063d 6f19 91bd 7083 973e
000002b0: 06d2 8bbc 1da2 86bd ac63 023d 086d 5a3e
000002c0: ff15 40be fe8b 6d3d d723 69be b167 043d
000002d0: 9678 6dbe 8f9c 03bd 11ec 19be 7894 a1bd
000002e0: 7aed a1be 2c7f 0b3e 7f83 993c 82bc 3f3e
000002f0: 019f 3fbe 813f b6bd e6c6 593e 962d 973e
00000300: 12de c93c 4e32 91bd 0517 463e 83c8 1bbe
00000310: 8cb2 693d 6e8a f93d 1aeb 40be 4376 513d
00000320: 5b48 5bbc f1fb 90bd be8a 8d3c e253 39be
00000330: 4d4d 8e3d e8b3 c63d 3670 53bd 17e2 3abe
00000340: ca7f e2bd 1383 ea3a a0c4 813e c851 d43d
00000350: 66cf 1b3e 6954 9e3d a592 4ebd a201 7bbe
00000360: d09a 973e 4a3c 283c 414b e0bc 24f4 0b3e
00000370: 45ec 563d 350a 40be b004 bdbd 0d4b f4bd
00000380: 3797 79be caf1 81bd 48c9 5c3d 29ca 89bc
00000390: c98a 00bd 9b41 e43d 61cc 723d e300 ffbd
000003a0: 3525 023e 6fc7 6e3d a9f0 813e 711c 933e
000003b0: acfa f7bb ebe0 b83d 36e6 89bd 4b73 853d
000003c0: c0bb 4cbe 5fb7 78bd 1afa 31be 2292 f83d
000003d0: c73f 1ebe 420e 713d 160a 9dbe f87f 8abd
000003e0: 58af 9dbd 626f fd3d 1db3 d8bd eefb bd3d
000003f0: e070 3bbe 9739 0d3e 8aa2 7abd 27ea 363e

params,ScannedRNN_0,GRUCell_0,ir,bias f4 [64]
0.012803564 -0.13045509 -0.05292724 -0.06591684 -0.1402678 0.016125938 0.0016828552 -0.06820561
-0.121228576 0.1344559 -0.08177771 -0.09629895 -0.10904977 -0.06840371 -0.024872258 0.021639252
-0.1488277 -0.12803356 -0.07589198 -0.2029108 -0.112145066 -0.22815989 0.026885696 -0.11051068
-0.12655339 -0.03380096 0.026933772 -0.06498055 0.08335105 -0.11667944 0.04842225 0.034939367
0.06742845 -0.15762185 -0.022953343 -0.08041881 -0.11680762 -0.023242524 0.074892566 -0.03985725
0.02523904 -0.11487713 -0.1360399 0.066200666 -0.07000624 -0.13303266 -0.09904017 -0.022258902
-0.09119935 -0.109157614 -0.12014958 -0.21264553 -0.041461766 -0.12380379 -0.12415437 -0.21016446
-0.07643595 -0.109928586 0.065936215 0.07828298 -0.03983787 -0.07083324 -0.0101056 0.009435453
00000000: 0ac6 513c 0596 05be 3cca 58bd 69ff 86bd
00000010: 5da2 0fbe 8b1a 843c 4093 dc3a 62af 8bbd
00000020: b046 f8bd cfae 093e 127b a7bd 6238 c5bd
00000030: 7c55 dfbd 3f17 8cbd e8c0 cbbc cd44 b13c
00000040: 4a66 18be 3b1b 03be 416d 9bbd d9c7 4fbe
00000050: 50ac e5bd bfa2 69be 643f dc3c 6c53 e2bd
00000060: 3697 01be e072 0abd 37a4 dc3c 8614 85bd
00000070: f5b3 aa3d a1f5 eebd 6956 463d 951c 0f3d
00000080: ed17 8a3d 9f67 21be a608 bcbc 9eb2 a4bd
00000090: d538 efbd 1b67 bebc 4661 993d 5b41 23bd
000000a0: 1ac2 ce3c b344 ebbd 0b4e 0bbe 3794 873d
000000b0: 6e5f 8fbd b739 08be 93d5 cabd 4d58 b6bc
000000c0: bac6 babd 078e dfbd fc10 f6bd c0bf 59be
000000d0: d0d3 29bd d78c fdbd a544 febd 5a35 57be
000000e0: 748a 9cbd 3d22 e1bd 9109 873d d452 a03d
000000f0: 092d 23bd 0511 91bd f591 25bc 2997 1a3c

params,ScannedRNN_0,GRUCell_0,ir,kernel f4 [64, 64]
-0.18040228 -0.0040926416 -0.13414891 -0.25881618 -0.22149765 0.040058937 0.18191473 -0.112237364
0.13206893 -0.021519775 -0.05246511 0.03965433 -0.2980745 -0.19884998 -0.09644941 0.010749251
0.05131827 0.00094820623 0.0083027845 -0.13658938 0.08748797 0.0130263725 -0.009465172 0.207448
0.15461294 0.016817816 0.014683228 0.27235147 -0.111757584 -0.044550158 -0.08882414 0.24806342
-0.25585282 -0.058094926 -0.027438125 0.022916982 -0.060092036 -0.186234 -0.098926574 0.003947699
0.14050981 -0.20258074 0.0848904 -0.20974964 -0.135577 0.011237076 -0.2543322 0.0966313
-0.010935899 -0.15032662 0.20279115 0.025862776 0.03615477 -0.010670644 0.1739961 -0.0972393
-0.0134647945 -0.117499664 0.19066542 0.057380073 0.06533161 -0.05588308 0.0707721 -0.23181285
0.17346135 -0.21151556 -0.12237609 0.026630968 -0.00810629 0.017656917 0.07731378 -0.01554458
0.043337625 -0.034875438 0.01954474 -0.1827582 0.082332276 -0.043917734 0.26801264 0.19655764
0.0444747 -0.13933723 -0.10700662 -0.08391369 -0.16995177 0.09470137 -0.06595798 0.16412532
0.16330783 0.07446341 -0.05645756 -0.22108236 -0.25290656 0.18154106 -0.18424596 0.11817222
-0.3534541 -0.14041057 -0.19438435 0.20670098 0.05771885 -0.11137841 0.15111674 -0.2248164
0.072388634 -0.030740984 0.029971668 -0.045148425 0.06479638 0.09232237 -0.046930373 0.04797115
-0.09594632 -0.037388638 0.11847765 -0.06627825 0.17754085 0.03568539 0.009036959 0.08657879
-0.020494139 0.07129896 0.13555147 -0.060334772 -0.12582964 -0.2501605 -0.26069298 0.15078284
-0.32026204 0.23623616 -0.028931502 -0.021558981 -0.19962905 -0.10782279 -0.0865707 0.0031903367
-0.14401476 -0.15293993 -0.1262686 -0.0112947235 -0.020138036 0.038019054 0.1274365 -0.16530173
-0.17739488 -0.014402049 -0.034285378 0.09169989 -0.031619135 -0.19213139 -0.21550138 -0.25847214
0.005529368 -0.14567092 -0.23222923 0.07071177 -0.10526384 0.20671222 -0.19939236 -0.049838148
-0.3380866 0.14428344 -0.22072776 -0.023024864 -0.029241709 -0.24365936 0.20183885 -0.116100036
-0.14667825 -0.19821161 -0.03729789 -0.047440674 -0.17755528 -0.21727714 -0.28953534 0.0137182465
-0.24084133 0.007408844 -0.06794649 0.04172559 -0.27927616 0.19287756 0.11258806 -0.13541424
-0.33117157 -0.19050494 -0.1888447 -0.12800798 -0.1055308 0.1881084 -0.07117923 0.0136516895
0.07223869 0.026703078 -0.17756 -0.050870728 -0.14392626 0.017570226 -0.05370308 0.065982655
0.010443227 -0.25420004 -0.05032875 -0.117544055 0.0016713489 0.09123942 0.037651483 0.02932223
0.036317207 0.055336412 -0.2757355 0.13344592 -0.059886456 -0.070105895 -0.11861499 -0.0013651621
0.0629186 0.06591954 0.018218901 -0.10129214 0.054473553 0.19379404 -0.09233392 0.038466915
0.08443971 0.1655525 0.033433925 0.020729503 0.097065374 -0.12545417 0.019497424 0.0045535476
-0.047083627 -0.20395626 -0.08542193 0.08768748 0.0072083375 0.012217099 -0.16375524 -0.049683083
0.084373556 -0.061758686 -0.004856944 0.07163066 0.13318342 -0.04345349 0.067459196 0.018660795
0.043277938 -0.098428376 0.070567735 -0.24635547 0.07172801 -0.0329522 -0.10530001 0.021385029
00000000: 60bb 38be 911b 86bb 555e 09be 8e83 84be
00000010: 48d0 62be d714 243d db47 3a3e b4dc e5bd
00000020: 143d 073e 3d4a b0bc a8e5 56bd 946c 223d
00000030: 399d 98be 549f 4bbe 4587 c5bd a01d 303c
00000040: 1b33 523d 0b91 783a 6708 083c 16de 0bbe
00000050: e52c b33d 916c 553c cf13 1bbc 406d 543e
00000060: db52 1e3e 84c5 893c ec91 703c a771 8b3e
00000070: 29e1 e4bd 3a7a 36bd 6ee9 b5bd 5604 7e3e
00000080: 24ff 82be f2f4 6dbd ebc5 e0bc 65bc bb3c
00000090: 1123 76bd 20b4 3ebe 049a cabd b35b 813b
000000a0: cee1 0f3e 5371 4fbe 05db ad3d 9cc8 56be
000000b0: b2d4 0abe b61b 383c d537 82be a2e6 c53d
000000c0: 7c2c 33bc 39ef 19be 7ca8 4f3e 2cde d33c
000000d0: 0617 143d edd3 2ebc 092c 323e 6625 c7bd
000000e0: 719b 5cbc aaa3 f0bd cc3d 433e 5e07 6b3d
000000f0: 94cc 853d a8e5 64bd f6f0 903d 5960 6dbe
00000100: da9f 313e 8997 58be 51a0 fabd 3029 da3c
00000110: 3fd0 04bc 3da5 903c b056 9e3d b2ae 7ebc
00000120: cb82 313d 8cd9 0ebd 4a1c a03c f724 3bbe
00000130: d39d a83d 15e3 33bd f438 893e 6846 493e
00000140: 1a2b 363d 6bae 0ebe 4926 dbbd f1da abbd
00000150: d607 2ebe cbf2 c13d fa14 87bd 7810 283e
00000160: 2b3a 273e 4680 983d 0b40 67bd 6a63 62be
00000170: f87c 81be e6e5 393e f9aa 3cbe 4704 f23d
00000180: f0f7 b4be cac7 0fbe b10c 47be 6ca9 533e
00000190: 9a6a 6c3d 5d1a e4bd 59be 1a3e 4536 66be
000001a0: 7e40 943d 84d4 fbbc 2587 f53c 8eed 38bd
000001b0: f7b3 843d 8313 bd3d 103a 40bd 667d 443d
000001c0: 817f c4bd d424 19bd 69a4 f23d e4bc 87bd
000001d0: 45cd 353e d82a 123d c10f 143c 3850 b13d
000001e0: 53e3 a7bc 3005 923d 01ce 0a3e 9821 77bd
000001f0: 7cd9 00be 0915 80be 8d79 85be d166 1a3e
00000200: 63f9 a3be e4e7 713e c201 edbc 769c b0bc
00000210: 8f6b 4cbe 32d2 dcbd fb4b b1bd f814 513b
00000220: 9b78 13be 499c 1cbe 8e4c 01be 810d 39bc
00000230: 86f8 a4bc deb9 1b3d b77e 023e db44 29be
00000240: 01a7 35be 92f6 6bbc d36e 0cbd 27cd bb3d
00000250: 1183 01bd 17be 44be 65ac 5cbe 7656 84be
00000260: b32f b53b c22a 15be 80cd 6dbe 55d1 903d
00000270: 9194 d7bd 5eac 533e 832d 4cbe 1623 4cbd
00000280: b019 adbe 0abf 133e 7506 62be a49e bcbc
00000290: 4f8c efbc d781 79be d8ae 4e3e dbc5 edbd
000002a0: d332 16be fcf7 4abe acc5 18bd 2751 42bd
000002b0: 0dd1 35be e67d 5ebe fa3d 94be 7fc2 603c
000002c0: 1c9f 76be e3c5 f23b 8827 8bbd 74e8 2a3d
000002d0: 49fd 8ebe b281 453e 9294 e63d 08aa 0abe
000002e0: 528f a9be ba13 43be 8160 41be 8614 03be
000002f0: 8820 d8bd 7d9f 403e 6bc6 91bd 56ab 5f3c
00000300: e1f1 933d 6ac0 da3c 4ad2 35be d35d 50bd
00000310: 6861 13be 6fef 8f3c c3f7 5bbd ea21 873d
00000320: 121a 2b3c 8226 82be 8525 4ebd f0ba f0bd
00000330: 2a11 db3a bcdb ba3d 7138 1a3d 2c35 f03c
00000340: 5ac1 143d 6fa8 623d 342d 8dbe 0ca6 083e
00000350: 804b 75bd ae93 8fbd 6aec f2bd 3def b2ba
00000360: 78db 803d d300 873d ce3f 953c 4172 cfbd
00000370: a91f 5f3d f271 463e 9119 bdbd 7c8f 1d3d
00000380: baee ac3d 9886 293e 03f2 083d ebd0 a93c
00000390: 36ca c63d 0f77 00be 10b9 9f3c ed35 953b
000003a0: c3da 40bd e9d9 50be b1f1 aebd 7e95 b33d
000003b0: eb33 ec3b 3a2a 483c 74af 27be 7d80 4bbd
000003c0: 0bcc ac3d adf6 7cbd 0027 9fbb 18b3 923d
000003d0: 3c61 083e 49fc 31bd 0c28 8a3d 86de 983c
000003e0: 3544 313d d194 c9bd d185 903d 9c44 7cbe
000003f0: 23e6 923d e3f8 06bd 88a7 d7bd a82f af3c
