baselines/QLearning/checkpoints/MPE_simple_speaker_listener_v4/shaq_ps.safetensors (safetensors, 105548 bytes, 14 tensors)

params,Dense_0,bias f4 [64]
0	0xbed6aea4	-0.41930115
1	0xbdb3b5ec	-0.08774933
2	0x3e611a80	0.21982765
3	0xbea2270a	-0.3167041
4	0xbecb9e56	-0.39769238
5	0xbe173eff	-0.14770125
6	0x3e33a0ae	0.17541763
7	0xbedba6f4	-0.42900813
8	0xbeb1800a	-0.34668
9	0xbdaafc52	-0.083489075
10	0xbeb21289	-0.34779766
11	0xbe98cdce	-0.29844517
12	0xbeb1a6e2	-0.34697634
13	0xbe897782	-0.2684899
14	0xbd945f7d	-0.072447754
15	0xbe757590	-0.23970628
16	0xbeab89c1	-0.33503535
17	0x3da699bc	0.08134791
18	0xbdadf8c2	-0.084947124
19	0xbe4fc2f6	-0.20289215
20	0xbeda389b	-0.42621312
21	0xbeac4ed0	-0.3365388
22	0xbe668210	-0.22510552
23	0xbe95bbd2	-0.29244858
24	0xbe6ebd83	-0.2331448
25	0xbe51a6db	-0.20473807
26	0xbd3d17d9	-0.04616532
27	0xbea1fab2	-0.31636578
28	0xbc9b5014	-0.018959083
29	0xbd915ca5	-0.07097749
30	0xbebf44f1	-0.37357286
31	0xbe5022c4	-0.20325762
32	0xbe2ec2ba	-0.1706647
33	0xbd8c8546	-0.068613574
34	0xbe7604f1	-0.24025322
35	0xbe83297b	-0.25617585
36	0xbe3d9895	-0.18515237
37	0xbd809a2f	-0.06279408
38	0x3d3854ee	0.04500287
39	0xbe6a9ff9	-0.22912587
40	0xbdc6c167	-0.09704857
41	0xbe96217d	-0.29322425
42	0xbdd3a8c2	-0.103349224
43	0xbee616da	-0.4493931
44	0xbe52d2eb	-0.20588271
45	0xbea8081d	-0.3281869
46	0xbe90fba4	-0.28316987
47	0xbe379c41	-0.179307
48	0xbe85c78f	-0.26128814
49	0xbee000b5	-0.4375054
50	0xbee22fac	-0.44176996
51	0xbeb12685	-0.345997
52	0xbed9839c	-0.42483222
53	0x3e6bc7cb	0.23025434
54	0xbed725d1	-0.4202104
55	0xbe01a0f8	-0.12659061
56	0xbe8d7eba	-0.27635747
57	0xbe7cc029	-0.24682678
58	0xbebd9594	-0.37028182
59	0xbe86e24d	-0.2634453
60	0x3e1ef2a1	0.15522243
61	0xbe50d21d	-0.20392652
62	0xbe971ac9	-0.29512623
63	0xbe499f74	-0.19689733

params,Dense_0,kernel f4 [13, 64]
0	0xbde771f7	-0.11301034
1	0x3daac815	0.08338944
2	0x3e09928f	0.13434814
3	0xbe8480e6	-0.25879592
4	0x3e7dbc83	0.24778943
5	0x3d910a78	0.07082075
6	0x3e8ada41	0.2711964
7	0xbd2c1608	-0.042013198
8	0xbcd6ab82	-0.026204828
9	0x3d78e627	0.060766365
10	0x3e8f40e2	0.2797919
11	0x3e85a77d	0.26104346
12	0xbf264820	-0.64953804
13	0xbcb7b482	-0.02242494
14	0xbd0cf8d5	-0.034416992
15	0xbd5a90a0	-0.05336058
16	0xbdfeb184	-0.12436202
17	0x3e70f5db	0.23531286
18	0x3ed26a25	0.41096607
19	0xbd528abc	-0.05140184
20	0x3d65cb41	0.05610204
21	0xbeba6d00	-0.36411285
22	0xbe686538	-0.22694862
23	0xbe8bc5ca	-0.2729934
24	0x3dc510e8	0.09622365
25	0xbe616ff1	-0.22015359
26	0xba6da7c1	-0.000906583
27	0xbd7f4dfb	-0.062330227
28	0xbe3030e5	-0.17206152
29	0x3ee72343	0.4514409
30	0xbda50331	-0.08057249
31	0x3ca03324	0.019555636
32	0xbeb2c71f	-0.34917542
33	0x3e6d6e71	0.23186661
34	0xbe0daa61	-0.13834526
35	0x3d93b68b	0.07212552
36	0x3ec3b9fe	0.38227838
37	0xbd557c28	-0.052120358
38	0xbe94bc89	-0.2905009
39	0x3bad2b98	0.005284738
40	0x3f1743bd	0.59087735
41	0xbeb70362	-0.35744768
42	0xbd2c4849	-0.042061124
43	0xbde5df15	-0.1122419
44	0xbc0578ee	-0.008146508
45	0x3bfabe71	0.007652097
46	0x3dc012de	0.09378599
47	0x3defabe2	0.11702706
48	0xbe9814db	-0.2970341
49	0x3ee1a88f	0.44073913
50	0x3e807f5e	0.25097173
51	0xbddf6f96	-0.10909955
52	0xbd897ab6	-0.067128584
53	0xbed82243	-0.4221364
54	0xbd6564c4	-0.0560043
55	0x3eac4bb2	0.336515
56	0x3f1f8ca8	0.62324
57	0x3e8e9244	0.27845967
58	0xbd51875c	-0.05115448
59	0x3e9982c4	0.2998258
60	0x3e6216d5	0.22079022
61	0x3c30def5	0.010795345
62	0x3e292918	0.16519582
63	0x3d8a1049	0.067413874
64	0x3e3c3e89	0.1838323
65	0xbe0976b5	-0.1342419
66	0x3e4bd824	0.1990667
67	0x3d431ce7	0.047634985
68	0x3e17cb34	0.1482361
69	0x3e542d35	0.2072037
70	0x3e7da0b4	0.24768335
71	0xbe579643	-0.21053414
72	0x3e9762e8	0.29567647
73	0xbda5ae81	-0.080899246
74	0xbd8a0ee3	-0.06741121
75	0x3d3fd261	0.046831492
76	0x3e57f590	0.21089768
77	0xbef71253	-0.48256168
78	0x3e92afa3	0.28649625
79	0x3e41a1c0	0.18909359
80	0xbdbdd41a	-0.09268971
81	0xbe3bba9e	-0.18332908
82	0x3e0f380e	0.13986227
83	0xbdb8afd5	-0.09017912
84	0x3e15358d	0.14571209
85	0xbe8333ce	-0.2562546
86	0x3e1f9ffb	0.15588371
87	0x3d32133d	0.04347538
88	0x3ea39753	0.3195139
89	0x3d4f3038	0.050583094
90	0x3f02d14f	0.5110063
91	0x3c700498	0.014649533
92	0x3e6bc707	0.23025142
93	0xbe228de2	-0.15874436
94	0xbe4dc24c	-0.2009365
95	0x3e8d39f5	0.2758328
96	0xbc65cf60	-0.014026493
97	0xbe7f3dea	-0.24925962
98	0xbe96d087	-0.2945597
99	0xbd9612c9	-0.07327802
100	0xbd180822	-0.03711713
101	0x3e3f9ad4	0.18711406
102	0x3f533d26	0.8251518
103	0xbe1bd075	-0.15216239
104	0x3c976a71	0.018483372
105	0xbe05b5e0	-0.13057661
106	0x3e4dc52e	0.2009475
107	0xbf017b42	-0.505787
108	0xbe960c85	-0.29306427
109	0xbeca6e08	-0.39537072
110	0xbd46a509	-0.048497234
111	0x3e98edd8	0.2986896
112	0xbf1dbe9d	-0.6161898
113	0xbee26e16	-0.44224614
114	0xbe947696	-0.28996724
115	0xbe4faedf	-0.20281552
116	0xbcf8a98e	-0.030354287
117	0xbeb430b2	-0.35193402
118	0xbe6dc33e	-0.2321901
119	0x3d8f7d1c	0.070062846
120	0x3c9a6f1c	0.01885181
121	0xbec65cb6	-0.38742608
122	0x3da1f037	0.079071455
123	0xbd99da55	-0.07512347
124	0xbe2c8e7a	-0.16851225
125	0x3ca8b350	0.020593315
126	0x3e5f2fb0	0.21795535
127	0x3ee49c1e	0.44650358
128	0xbd1e1612	-0.038595267
129	0x3e2d6008	0.16931164
130	0xbe066818	-0.13125646
131	0x3f1782db	0.59184045
132	0xbe14b89b	-0.14523546
133	0x3eed7931	0.46381524
134	0xbd8bad30	-0.06820142
135	0xbf0e1fd5	-0.5551732
136	0x3dbd738f	0.09250557
137	0xbf6cd721	-0.9251576
138	0x3cc7e1e8	0.024399713
139	0xbf23b9e1	-0.63955504
140	0x3f2e18ad	0.680064
141	0xbedabcb2	-0.42722088
142	0x3e8ca0bc	0.2746638
143	0xbdfd8ee3	-0.12380769
144	0xb9aca112	-0.00032926403
145	0xbe632a33	-0.22184066
146	0xbea9cc0f	-0.33163497
147	0xbd2e8159	-0.042603824
148	0x3f07803a	0.52930033
149	0x3f10e6c1	0.566021
150	0x3c0f262f	0.008737131
151	0x3f5ab16c	0.85426974
152	0xbf5a9a7b	-0.8539197
153	0xbd792425	-0.060825486
154	0x3deda0ae	0.11602913
155	0x3f1d1f23	0.61375636
156	0xbec6ebe5	-0.38851848
157	0xbe4443e0	-0.19166517
158	0xbe99fe33	-0.3007675
159	0xbc3792af	-0.011204406
160	0x3ba29547	0.004961643
161	0x3f611094	0.8791592
162	0x3d48f7c8	0.049064428
163	0x3d4a8e96	0.049452387
164	0xbf0d7e07	-0.5527043
165	0xbecd475f	-0.40093514
166	0xbe11c29f	-0.14234398
167	0xbd020f8e	-0.031753115
168	0xbdd806e8	-0.10548192
169	0x3d5db180	0.054124355
170	0x3d0790a7	0.033096936
171	0xbcaa10f6	-0.02076004
172	0x3e4576ad	0.19283552
173	0xbcca8b4a	-0.024724621
174	0x3dfee6e4	0.12446383
175	0xbececa06	-0.40388507
176	0x3e3bfeb3	0.18358879
177	0xbea6df44	-0.32592213
178	0xbe9c8c1d	-0.30575648
179	0x3de85f81	0.11346341
180	0xbdd1b5bb	-0.102397405
181	0x3c00a5c6	0.0078520235
182	0x3e68b00a	0.22723404
183	0xbd0331b0	-0.032029808
184	0xbec8bc8a	-0.39206344
185	0xbf1028f7	-0.5631251
186	0xbf0c1231	-0.5471526
187	0xbd9e03b5	-0.07715551
188	0x3d2dc1bf	0.0424211
189	0x3e827c81	0.25485614
190	0xbed08f4f	-0.40734336
191	0x3e645f26	0.22301921
192	0x3d7fad7e	0.062421314
193	0x3e857663	0.26066884
194	0xbd17108f	-0.036881026
195	0x3e1b3a85	0.15159042
196	0xbeada12e	-0.33912033
197	0xbf7e4459	-0.9932304
198	0xbb458f3e	-0.0030145193
199	0xbf402633	-0.7505829
200	0xbe3cbbd1	-0.18431021
201	0x3d9789b9	0.073993154
202	0xbcc73190	-0.024315625
203	0x3ec1456f	0.37748286
204	0x3df7cdbe	0.12099789
205	0x3f0debd1	0.5543795
206	0xbf4fb5bc	-0.8113668
207	0x3d2c0d8d	0.04200511
208	0xbe1f8a1c	-0.15580028
209	0x3d3b1efd	0.04568385
210	0xbdd551f5	-0.10416023
211	0x3c1bedff	0.009517192
212	0x3ef5e549	0.48026493
213	0x3efe5286	0.49672335
214	0x3ca810c9	0.020515816
215	0xbe5c5a4b	-0.21518819
216	0xbe9f7b8d	-0.3114895
217	0x3cb79f43	0.02241481
218	0x3b6df7ea	0.0036311098
219	0x3f2aece3	0.6676771
220	0x3cfdeeda	0.030997682
221	0x3e9b575f	0.30340096
222	0x3f38a760	0.72130394
223	0xbad19bde	-0.0015991887
224	0xbd9c3ec7	-0.07629161
225	0x3e294fa2	0.16534284
226	0x3dbf555d	0.09342454
227	0xbb04a03d	-0.002023711
228	0x3ced5d42	0.028975133
229	0x3e4fb18c	0.20282573
230	0xbe1f9bad	-0.1558673
231	0x3f59c78e	0.8507012
232	0x3e07b6ad	0.13253279
233	0x3db9c803	0.09071352
234	0xbd2f4dbf	-0.042798754
235	0x3e3884ec	0.18019456
236	0x3ec48337	0.3838136
237	0x3dd2e6e8	0.10297948
238	0xb90dd7f6	-0.0001352726
239	0x3eaef050	0.3416772
240	0x3e21c5e2	0.15798143
241	0x3ec0e360	0.37673473
242	0xbd172066	-0.036896132
243	0x3c7bd973	0.015371668
244	0xbd96ad8e	-0.07357322
245	0x3d6f340e	0.058399253
246	0xbe3e071d	-0.18557401
247	0xbd60e0c6	-0.05490186
248	0xbd76f503	-0.060292255
249	0x3e9f4ba7	0.31112406
250	0xbecdf7ca	-0.4022811
251	0xbeb0fe1d	-0.34568873
252	0xbd60bec6	-0.054869436
253	0x3ea8642f	0.32888934
254	0xbf18e0e1	-0.5971814
255	0xbedfbb0a	-0.43697387

params,Dense_1,bias f4 [5]
0	0xbe64b26c	-0.22333688
1	0xbe8f21cb	-0.2795547
2	0xbe70474d	-0.23464699
3	0xbe933ffc	-0.28759754
4	0xbe2281ed	-0.15869875

params,Dense_1,kernel f4 [64, 5]
0	0xbea8e1ae	-0.3298468
1	0xbed857f2	-0.42254597
2	0xbf1ddea0	-0.61667824
3	0xbf00bbe8	-0.5028672
4	0x3e0c56b0	0.13704944
5	0xbf1906ae	-0.5977582
6	0xbf40654b	-0.7515456
7	0xbeec3251	-0.46132138
8	0xbf7d01bd	-0.9883078
9	0xbee1018c	-0.43946493
10	0xbecd2567	-0.40067598
11	0xbf40b961	-0.75282866
12	0xbefe397a	-0.49653226
13	0xbdaee106	-0.085390136
14	0xbecb7d20	-0.397439
15	0xbececcc2	-0.40390593
16	0xbf8c261c	-1.094913
17	0xbe8a9200	-0.27064514
18	0xbea6093c	-0.3242892
19	0xbf458864	-0.7716124
20	0x3e8f4747	0.27984068
21	0xbc8cf524	-0.017206736
22	0x3f7fd9a0	0.99941444
23	0x3f642415	0.89117557
24	0x3f2867ac	0.6578319
25	0x3f4f302a	0.8093287
26	0x3f2d50ac	0.6770122
27	0x3f2481ee	0.64260757
28	0x3f448685	0.7676776
29	0x3f4e9953	0.80702704
30	0xbe3ae5c3	-0.1825171
31	0xbf1962d7	-0.5991644
32	0xbf2eba3b	-0.68252915
33	0xbf177a42	-0.59170926
34	0xbeae5ae3	-0.34053716
35	0x3f180796	0.59386575
36	0x3eef1f63	0.46703634
37	0x3f040abb	0.51578873
38	0x3f57c477	0.84284157
39	0x3f335c56	0.7006277
40	0x3eb05f7c	0.3444785
41	0x3eac6156	0.3366801
42	0x3f19dc60	0.6010189
43	0x3f42aaae	0.76041687
44	0x3ed657a7	0.41863748
45	0xbf381b70	-0.71916866
46	0xbf01f4ac	-0.50763965
47	0xbf53b311	-0.8269511
48	0xbd4eddfc	-0.05050467
49	0xbeeb7156	-0.45984906
50	0xbf0c0323	-0.54692286
51	0xbecbbdb1	-0.3979316
52	0xbf310f6f	-0.69164175
53	0xbf6615ef	-0.8987722
54	0xbf56d2ad	-0.83915216
55	0x3f460fd8	0.77367926
56	0x3f323088	0.696053
57	0x3f382d4f	0.71944135
58	0x3f16d4e2	0.58918583
59	0x3f478a97	0.77945846
60	0xbf0fb8cc	-0.5614135
61	0xbf40aac2	-0.75260556
62	0xbd340949	-0.043954168
63	0xbde788cc	-0.11305389
64	0xbe68c7a6	-0.2273241
65	0x3ed61191	0.41810277
66	0x3f6570fb	0.8962552
67	0x3f42b8da	0.7606331
68	0x3f0547dc	0.52062774
69	0x3f4efd5c	0.80855346
70	0xbf630509	-0.8867956
71	0xbf24c6a7	-0.6436562
72	0xbf84e80b	-1.0383314
73	0xbf461cdc	-0.77387786
74	0xbf8a78a4	-1.0818067
75	0x3f134243	0.5752298
76	0x3f71e28a	0.94486296
77	0x3f3fcb42	0.7491952
78	0x3f50764e	0.8143052
79	0x3f4a618a	0.7905508
80	0x3f734606	0.9502872
81	0x3f48d5ae	0.7845105
82	0x3f339280	0.70145416
83	0x3f615ed6	0.88035333
84	0x3e8b7d43	0.27244005
85	0x3f09d411	0.5383921
86	0x3f07c0ee	0.5302876
87	0x3f4a2d43	0.78975314
88	0x3f206ec5	0.6266902
89	0x3e96e6ca	0.29472953
90	0xbef0a0f6	-0.46997803
91	0xbe4e8522	-0.20167974
92	0xbec3ec04	-0.38266003
93	0x3dfec175	0.12439243
94	0x3e086a14	0.13321716
95	0x3f9345e3	1.1505703
96	0x3f881ac4	1.0633168
97	0x3e7ceb0a	0.24699035
98	0x3f80ddd0	1.0067692
99	0x3f137e2e	0.5761441
100	0xbf34fd74	-0.7069924
101	0xbf42c880	-0.7608719
102	0xbf40ba69	-0.7528444
103	0xbf7eb0a5	-0.9948829
104	0xbf66c000	-0.9013672
105	0xbf32a09b	-0.69776314
106	0xbe9629f7	-0.29328892
107	0xbe1a63a9	-0.1507708
108	0xbf295f79	-0.66161305
109	0xbe745cf7	-0.23863588
110	0x3e982c5b	0.2972134
111	0x3e46f5e0	0.19429731
112	0x3ea2e4cb	0.3181518
113	0x3d5ba822	0.05362714
114	0x3efb3483	0.490635
115	0x3f697e5d	0.9120844
116	0x3f52d4b7	0.8235583
117	0x3f7c258b	0.98494786
118	0x3f518c0c	0.8185432
119	0x3f4c38d0	0.7977419
120	0xbf521e86	-0.82077825
121	0xbef2e45a	-0.47439843
122	0xbf4502a3	-0.7695715
123	0xbf8e118f	-1.1099108
124	0xbf57a2f4	-0.8423302
125	0x3f34ef39	0.70677525
126	0x3f26197a	0.64882624
127	0x3f5c7555	0.86116534
128	0x3f4311eb	0.76199216
129	0x3f8e9e9f	1.1142157
130	0x3f4429b5	0.7662614
131	0x3e978951	0.29596952
132	0x3f3b91a1	0.7326909
133	0x3f015b0c	0.5052955
134	0x3f23047b	0.6367871
135	0x3f41a306	0.7563938
136	0x3f11946d	0.56867105
137	0x3f1fcb21	0.62419325
138	0x3f2ea02e	0.68213165
139	0x3f679918	0.9046798
140	0xbf0dc0d1	-0.5537234
141	0xbf72811f	-0.94728273
142	0xbf5e9e01	-0.86959845
143	0xbf6c4f7a	-0.9230877
144	0xbe99b85d	-0.3002347
145	0xbf57d90b	-0.84315556
146	0xbedd5826	-0.43231314
147	0xbf3059ab	-0.6888682
148	0xbf21f409	-0.63262993
149	0xbee476c5	-0.44621864
150	0xbdfd431d	-0.123663165
151	0xbf4acb1f	-0.7921619
152	0xbe8803fc	-0.2656554
153	0xbf0c2811	-0.54748636
154	0xbf0244d3	-0.5088627
155	0xbf562b2b	-0.8365962
156	0xbf2f119f	-0.6838626
157	0xbf30c9d3	-0.6905796
158	0xbf58d57b	-0.84700745
159	0xbf816d61	-1.0111505
160	0x3efc7495	0.49307695
161	0x3f0ebd00	0.5575714
162	0x3f634e15	0.8879102
163	0x3f472a13	0.77798575
164	0x3f6af3f2	0.9177848
165	0xbeffcc1c	-0.4996041
166	0xbef7241f	-0.48269746
167	0xbf293b14	-0.6610577
168	0x3ec854a8	0.39127088
169	0xbf80a366	-1.0049865
170	0x3ec13631	0.37736657
171	0x3f33476c	0.70030856
172	0x3ebf3edd	0.37352648
173	0x3efe299d	0.49641123
174	0x3ed32516	0.41239232
175	0xbde581cc	-0.112063974
176	0x3df8ff22	0.12158038
177	0xbeb99faa	-0.36254627
178	0xbd971983	-0.07377913
179	0xbec83713	-0.39104518
180	0x3f3ec7ca	0.74523604
181	0x3f5c12bc	0.85966086
182	0x3f348c4e	0.7052659
183	0x3f2f22b2	0.68412316
184	0x3f803bdd	1.0018269
185	0xbf234796	-0.63781106
186	0xbedc6b7a	-0.43050748
187	0xbe53840c	-0.2065584
188	0xbf09f37a	-0.5388714
189	0xbeff67a1	-0.4988375
190	0xbf33dd78	-0.7025981
191	0xbf53c338	-0.82719755
192	0xbf84bbdf	-1.0369834
193	0xbf485927	-0.78261036
194	0xbf104558	-0.5635581
195	0x3f43fb68	0.7655549
196	0x3f3561b5	0.70852214
197	0x3f848968	1.0354433
198	0x3f845b55	1.0340372
199	0x3f565b60	0.8373318
200	0xbebce433	-0.36892852
201	0xbd68a645	-0.056799192
202	0xbef20322	-0.47268015
203	0xbf84bc1f	-1.036991
204	0x3ea580c4	0.32324803
205	0x3f4fe87b	0.8121411
206	0x3f4cb557	0.799642
207	0x3f2d7bdd	0.67767125
208	0x3f40f8ad	0.7537945
209	0x3f5a14a0	0.8518772
210	0xbf10a29e	-0.56498134
211	0xbf3b9fdd	-0.73290807
212	0xbf698577	-0.91219276
213	0xbf0be9c5	-0.5465358
214	0xbf9a8b8e	-1.2073839
215	0x3f6f0687	0.93369335
216	0x3f7ee11f	0.9956226
217	0x3e80331d	0.25038996
218	0x3f739cb3	0.9516098
219	0x3f2e7c76	0.6815866
220	0xbf52f59a	-0.8240601
221	0xbf4a0078	-0.78906965
222	0xbeacba97	-0.33736107
223	0xbf3885f1	-0.7207938
224	0xbf5f5f9a	-0.8725525
225	0x3f681bc3	0.9066736
226	0x3f9133f6	1.1343982
227	0x3f552e67	0.8327393
228	0x3f3a042e	0.7266263
229	0x3f50bd85	0.81539184
230	0xbdd8fdda	-0.10595293
231	0xbf01df55	-0.507314
232	0xbf065b20	-0.52482796
233	0xbf2c0f92	-0.6721126
234	0x3ea0a278	0.31373954
235	0xbf4d03d9	-0.80083996
236	0xbf882ba0	-1.0638313
237	0xbf4c664e	-0.79843605
238	0xbf436a80	-0.7633438
239	0xbf80d494	-1.0064874
240	0x3f3a3991	0.7274409
241	0x3f3e93d6	0.7444433
242	0x3f48d60b	0.78451604
243	0x3f5544e3	0.8330824
244	0x3f7fb2d9	0.99882275
245	0xbe3965e4	-0.18105274
246	0x3dbfcdbd	0.09365413
247	0x3e65de82	0.22448161
248	0xbd2e7214	-0.042589262
249	0xbf022f32	-0.50853264
250	0x3f429b6a	0.76018393
251	0x3f246b20	0.6422596
252	0x3f2aca36	0.667148
253	0x3f807eb6	1.0038669
254	0x3f82c6ec	1.0216956
255	0xbf5db376	-0.8660196

params,ScannedRNN_0,GRUCell_0,hn,bias f4 [64]
0	0x3d89aec8	0.0672279
1	0xbc880e8d	-0.0166085
2	0x3c884e6a	0.016638953
3	0xbcf0ec22	-0.029409472
4	0x3e9bf400	0.30459595
5	0x3e0faf3c	0.1403169
6	0xbe51f579	-0.20503797
7	0x3d8f22b0	0.06989038
8	0x3d55ba62	0.0521797
9	0xbda974f1	-0.08274258
10	0xbe0a6ce5	-0.13518102
11	0x3e83bd3c	0.25730312
12	0x3df378ac	0.11888251
13	0x3e36e62f	0.17861246
14	0xbea10bf7	-0.3145444
15	0x3eb6b6b1	0.35686257
16	0x3df155c1	0.117839344
17	0x3def0f63	0.11672857
18	0xbcb594fd	-0.02216577
19	0x3e188d1e	0.14897582
20	0xbdf6a3bc	-0.120429486
21	0xbd48a721	-0.04898751
22	0x3e01574c	0.12630957
23	0x3c6a4c59	0.014300429
24	0xbdec2d1f	-0.11532044
25	0x3ddce338	0.10785526
26	0x3e04bbdd	0.12962289
27	0x3eb380c6	0.35059184
28	0xbd7bcc7f	-0.06147432
29	0xbe5183f6	-0.20460495
30	0xbe3e7435	-0.18599017
31	0xbe10ddc6	-0.141471
32	0x3ed82cda	0.4222172
33	0xbe68fead	-0.22753401
34	0x3d75eb0c	0.06003861
35	0xbd1fb179	-0.03898761
36	0x3dd6d066	0.104889676
37	0xbe463c9c	-0.19359058
38	0x3d3f5f9b	0.046722036
39	0x3e31b05f	0.17352436
40	0xbe8059a8	-0.25068402
41	0x3e85bfd2	0.2612291
42	0xbeee536e	-0.46548027
43	0x3dc0193f	0.09379815
44	0xbe3ef16a	-0.1864678
45	0x3da596e5	0.080854215
46	0x3e3e0cbb	0.18559544
47	0xbd447835	-0.0479662
48	0x3e175bb5	0.14781077
49	0x3d7cf3d8	0.061755985
50	0x3de55a75	0.11198894
51	0xbe16c830	-0.14724803
52	0x3cf7f672	0.030268881
53	0x3d85a927	0.06526404
54	0x3dbd6def	0.09249484
55	0x3e1ddbad	0.15415831
56	0x3eca246f	0.39480922
57	0xbe1cf320	-0.1532712
58	0xbe6f18c1	-0.23349287
59	0x3bb5c409	0.005547051
60	0x3dfc1265	0.12308196
61	0xbec918fd	-0.39276877
62	0x3c724426	0.014786756
63	0xbe0f21e6	-0.13977775

params,ScannedRNN_0,GRUCell_0,hn,kernel f4 [64, 64]
0	0xbee5ce79	-0.4488409
1	0xbeb4a5b2	-0.35282665
2	0x3dea48bb	0.114396535
3	0xbeab93ee	-0.335113
4	0x3e24812d	0.16064902
5	0x3dc51292	0.09622683
6	0xbeb13ff7	-0.34619114
7	0x3e913818	0.2836311
8	0x3d894bc8	0.06703907
9	0xbf087093	-0.53296775
10	0xbe783ff0	-0.2424314
11	0x3c8c7a16	0.017148059
12	0xbe6af627	-0.22945462
13	0x3e759187	0.23981296
14	0xbcf6bb4d	-0.030118609
15	0x3ea227df	0.31671044
16	0xbe6f319c	-0.23358768
17	0x3e7ee8de	0.2489352
18	0xbf47087f	-0.7774734
19	0x3ec94e34	0.39317477
20	0xbed084bc	-0.40726268
21	0x3dfa64c8	0.12226254
22	0x3eb83455	0.35977426
23	0x3e9c505d	0.30530062
24	0xbe09082b	-0.13382022
25	0x3d3e7785	0.0465007
26	0x3dfacae8	0.122457325
27	0x3e71481d	0.23562665
28	0xbcc22393	-0.023698604
29	0xbf05f180	-0.52321625
30	0x3d929489	0.07157237
31	0xbdec3ca4	-0.11535004
32	0x3e9911dd	0.2989644
33	0xbd968754	-0.073500305
34	0x3efc1c78	0.4924047
35	0xbea9828e	-0.33107418
36	0x3f006c77	0.50165504
37	0xbea81b74	-0.32833445
38	0xbd0192c7	-0.03163412
39	0x3e9650db	0.29358563
40	0xbe67d09b	-0.2263817
41	0x3ec64f6e	0.38732475
42	0xbc5faaea	-0.013651589
43	0x3e8d7481	0.27627948
44	0xbdb7b402	-0.08969881
45	0x3e9b4d21	0.30332282
46	0xbe549d5f	-0.20763157
47	0xbdf04b01	-0.11733056
48	0x3dd0c9c9	0.101947375
49	0x3e690e09	0.2275926
50	0x3f0b0673	0.54306716
51	0xbe119cb7	-0.14219938
52	0x3e211ab6	0.15732846
53	0x3e723720	0.23653841
54	0x3ebabb27	0.3647091
55	0x3d6442fe	0.05572795
56	0x3ede9622	0.43473917
57	0xbe335d75	-0.1751612
58	0xbe56104d	-0.20904656
59	0x3e79ba99	0.24387588
60	0xbd39b42b	-0.045337837
61	0xbed44e84	-0.41466153
62	0x3daac968	0.083391964
63	0xbebddd82	-0.3708306
64	0xbd593b56	-0.053035103
65	0xbe52e5f6	-0.20595536
66	0x3e394f24	0.18096596
67	0xbd6a4a64	-0.05719985
68	0xbeb16843	-0.34649858
69	0xbdd3caa1	-0.10341383
70	0x3cebf488	0.028803125
71	0x3cd5de1b	0.026106885
72	0xbeca4e79	-0.39512995
73	0x3e26b286	0.16279039
74	0xbe0fd514	-0.14046127
75	0xbe08676d	-0.13320704
76	0x3e5c4495	0.21510537
77	0xbd5ecc85	-0.054394264
78	0xbe035886	-0.12826738
79	0xbd005d0d	-0.03133874
80	0xbe6594b3	-0.22420006
81	0xbe01f60f	-0.1269152
82	0xbe9acfc6	-0.30236644
83	0xbe1ff486	-0.15620622
84	0x3dbf74ec	0.09348473
85	0x3e753fe8	0.2395016
86	0xbd4598e4	-0.04824151
87	0xbe3d522c	-0.18488377
88	0x3e758022	0.2397466
89	0xbe318b35	-0.1733826
90	0xbd09723b	-0.033556204
91	0xbe942fae	-0.28942627
92	0x3ef22f4c	0.4730171
93	0xbd71e94f	-0.05906039
94	0xbd425b22	-0.047450192
95	0xbe569835	-0.209565
96	0xbe66b172	-0.22528628
97	0x3cf2c109	0.029633062
98	0xbce618d2	-0.028088007
99	0x3e4dd63e	0.20101258
100	0xbe56145d	-0.20906205
101	0x3d10a3b6	0.035312377
102	0xbe485833	-0.19564895
103	0x3e8e7ba1	0.27828696
104	0x3e275f9d	0.16345067
105	0x3e44b1d5	0.19208463
106	0x3da71460	0.08158183
107	0x3ce86d17	0.02837233
108	0x3d6ea16a	0.058259405
109	0xbde19156	-0.11014049
110	0x3d229807	0.039695766
111	0xbe68b16e	-0.22723934
112	0x3d7d37ea	0.061820902
113	0xbdeb0e08	-0.114772856
114	0xbd265ee4	-0.04061784
115	0x3df7e86d	0.121048786
116	0xbcdf0f30	-0.027228922
117	0x3d976d57	0.07393902
118	0xbdfffd9b	-0.12499543
119	0xbea85312	-0.32875878
120	0xbd96aa72	-0.073567286
121	0x3de46f90	0.11154091
122	0x3ec5c012	0.386231
123	0xbe661b7d	-0.22471423
124	0xbeacf61c	-0.33781517
125	0x3e14fd4b	0.14549749
126	0xbd4cddf0	-0.050016344
127	0xbe476132	-0.19470671
128	0xbee22cb8	-0.44174743
129	0xbe60aa1c	-0.21939892
130	0xbeabea77	-0.3357732
131	0xbe621583	-0.22078519
132	0xbc06b0fb	-0.008220906
133	0x3eb96f1c	0.36217582
134	0xbd141ff8	-0.0361633
135	0x3e0aa9b7	0.13541304
136	0xbc8bbbcb	-0.01705732
137	0xbed6388c	-0.41840017
138	0xbe2a18df	-0.1661105
139	0x3ef4c789	0.47808483
140	0xbe7691f9	-0.24079122
141	0xbdc7e76d	-0.09760938
142	0xbc3f87f8	-0.011690132
143	0xbdda3d14	-0.10656181
144	0x3d534125	0.0515758
145	0x3ee0b321	0.43886665
146	0xbdfbdffe	-0.122985825
147	0x3e8bb655	0.27287546
148	0xbf0fe416	-0.56207407
149	0x3c889403	0.01667214
150	0x3e8b4e3f	0.27208135
151	0x3e70e4bd	0.23524757
152	0xbdb1213a	-0.086489156
153	0x3e8b9ec2	0.2726956
154	0x3e94546f	0.28970668
155	0x3ddd60bd	0.10809467
156	0xbdd38108	-0.10327345
157	0xbea4866a	-0.321338
158	0x3be1f5e3	0.006895767
159	0xbe17cfc5	-0.14825352
160	0x3eae5909	0.34052303
161	0x3d322e33	0.04350109
162	0x3d8b54f5	0.06803314
163	0xbc50e924	-0.012750898
164	0x3e2ab707	0.16671382
165	0xbdd46cca	-0.10372312
166	0x3d7c2401	0.061557774
167	0x3e09794f	0.13425182
168	0xbe169cc3	-0.14708237
169	0xbd2bc200	-0.04193306
170	0xbe2cd810	-0.16879296
171	0x3e6de72b	0.23232715
172	0xbe05f28f	-0.1308081
173	0x3eaa2bf8	0.3323667
174	0xbbd850dd	-0.0066014365
175	0x3d307e68	0.0430893
176	0x3e775026	0.24151668
177	0x3e937fad	0.28808346
178	0x3d6a59c2	0.057214506
179	0xbd1fd213	-0.0390187
180	0xbe28cf01	-0.16485216
181	0x3ec83d6f	0.3910937
182	0xbd195b8c	-0.03744082
183	0x3e501dad	0.2032382
184	0x3dd519f5	0.104053415
185	0xbeef1a3c	-0.46699703
186	0xbe07bc5e	-0.1325545
187	0x3e83b727	0.25725672
188	0x3d871b14	0.065969616
189	0xbe8fd0fd	-0.28089133
190	0x3dd72107	0.10504346
191	0xbeacb2e7	-0.33730242
192	0x3df21ee7	0.118223004
193	0x3e1ab36b	0.15107505
194	0xbd52f8dc	-0.051506862
195	0x3d02cb25	0.031932015
196	0xbe66934c	-0.22517127
197	0xbc805fe0	-0.015670717
198	0x3b4f7337	0.0031654367
199	0xbe2fa793	-0.17153768
200	0xbd8de32c	-0.06928095
201	0x3de8637b	0.113470994
202	0x3d13bb14	0.036067083
203	0xbdab2219	-0.08356113
204	0x3e803ffd	0.2504882
205	0xbe51e2e9	-0.20496716
206	0xbe1821bc	-0.14856619
207	0xbe4d8ef7	-0.20074068
208	0x3c253299	0.010082864
209	0xbd833483	-0.064065
210	0x3db93752	0.09043755
211	0xbdf605ed	-0.12012849
212	0x3e43c347	0.19117461
213	0x3e920746	0.28521174
214	0xbe81aada	-0.25325662
215	0x3d807579	0.06272406
216	0x3e420016	0.18945345
217	0xbca847ff	-0.020542143
218	0xbdbf262d	-0.09333453
219	0xbe2c4e77	-0.16826807
220	0x3df744fc	0.120737046
221	0x3e150ca7	0.14555608
222	0xbdf57af5	-0.11986343
223	0x3db887f4	0.09010306
224	0xbeb0fd89	-0.34568432
225	0x3e05fed2	0.13085487
226	0xbe7de128	-0.24792922
227	0x3e3dd2e8	0.18537486
228	0xbe64fff5	-0.22363265
229	0x3b785ebb	0.003789826
230	0xbe5e81d0	-0.21729207
231	0x3c97fa10	0.018551856
232	0xbb10ea35	-0.0022112255
233	0xbe365dbc	-0.17809194
234	0x3df9d076	0.12197964
235	0xbe8069d0	-0.2508073
236	0xbd45cdf4	-0.048292115
237	0xbe037fe1	-0.1284175
238	0x3dd38e5f	0.103298895
239	0xbe8677bf	-0.26263234
240	0x3e1ce031	0.15319897
241	0x3e2ce106	0.16882715
242	0xbe146b96	-0.14494166
243	0x3e746339	0.23865975
244	0x3c8bab53	0.017049467
245	0xbd2e5c62	-0.042568572
246	0x3e10dad8	0.14145982
247	0xbe464b79	-0.19364728
248	0x3e7f5790	0.24935746
249	0x3e8091bc	0.25111187
250	0x3dfd5772	0.123701945
251	0xbe50fd8d	-0.20409222
252	0x3cea7433	0.028619861
253	0xbdc42fe0	-0.09579444
254	0xbed723ac	-0.42019403
255	0x3e905ce4	0.2819587

params,ScannedRNN_0,GRUCell_0,hr,kernel f4 [64, 64]
0	0x3e27c9e4	0.16385609
1	0xbe4fadfd	-0.20281215
2	0x3cfcdcec	0.030867063
3	0x3e2b744b	0.16743581
4	0x3dfd08a7	0.12355166
5	0xbe967e7b	-0.29393372
6	0xbd469472	-0.048481412
7	0xbbb7588f	-0.005595274
8	0x3e255713	0.16146497
9	0xbc00a117	-0.007850907
10	0xbea3fba8	-0.32027936
11	0xbdcde850	-0.10054076
12	0xbde9ede7	-0.114223294
13	0xbc63ec7b	-0.013911362
14	0x3b68d971	0.0035529996
15	0x3de05acb	0.109548174
16	0x3cb03dab	0.02151378
17	0x3dc76fec	0.09738144
18	0x3c75dd1a	0.015006328
19	0xbe0497c4	-0.12948519
20	0x3d1d6241	0.03842378
21	0xbe02e198	-0.1278137
22	0x3e8668e4	0.262519
23	0x3decdb60	0.1156528
24	0xbddb379d	-0.10703967
25	0xbea68039	-0.325197
26	0xbea346af	-0.31889865
27	0x3edd14d0	0.4317994
28	0x3e8e9da0	0.27854633
29	0x3d40287e	0.046913616
30	0xbe3ce1d8	-0.18445528
31	0x3e2efae9	0.17087902
32	0xbeec4ff3	-0.46154746
33	0x3d4e12d6	0.050310932
34	0xbeaa1da1	-0.3322573
35	0x3e29021c	0.16504711
36	0xbec32290	-0.38112307
37	0x3e82e487	0.25564978
38	0xbea9abc0	-0.33138847
39	0x3d6f4d86	0.05842354
40	0xbe2cbe93	-0.16869573
41	0xbcd57520	-0.026056826
42	0xbe53f5cf	-0.20699237
43	0xbe2c2d5e	-0.16814181
44	0xbe752b25	-0.2394224
45	0xbd853c13	-0.06505599
46	0xbda39b4d	-0.07988606
47	0xbdc19730	-0.09452665
48	0xbdc3d265	-0.09561614
49	0x3e8e751b	0.2782372
50	0xbe111fc0	-0.14172268
51	0x3dded8ba	0.10881181
52	0xbcbe56ab	-0.023234686
53	0x3d4ede5d	0.05050503
54	0xbe96b794	-0.29436934
55	0x3d53971d	0.051657785
56	0xbd229cf3	-0.03970046
57	0xbc323612	-0.010877149
58	0xbe7ea7b9	-0.24868669
59	0xbdee9a8c	-0.11650571
60	0xbd2966d1	-0.04135782
61	0x3e0e1e7f	0.13878821
62	0x3dfb12ae	0.12259422
63	0x3e645ae3	0.22300296
64	0xbdb9aece	-0.090665445
65	0x3e2c3296	0.16816172
66	0xbef23eda	-0.47313577
67	0xbe1ca0b0	-0.15295672
68	0xbd319d52	-0.043362923
69	0xbd4e1006	-0.05030825
70	0x3dba44cd	0.09095154
71	0xbdf5a0f9	-0.11993594
72	0xbd9ce949	-0.07661683
73	0xbda15d64	-0.07879141
74	0x3d9510b8	0.072785795
75	0xbe0a5ca2	-0.13511899
76	0xbdef24e0	-0.11676955
77	0xbcaf48ba	-0.021396983
78	0x3e3f1989	0.18662085
79	0xbe28bc4e	-0.16478083
80	0xbd422465	-0.04739799
81	0xbe40502a	-0.1878058
82	0x3e0751b7	0.13214765
83	0x3bb8483c	0.0056238454
84	0x3e656dae	0.2240512
85	0xbdab3809	-0.08360297
86	0xbe116281	-0.14197733
87	0xbe32b1f5	-0.17450698
88	0xbd30aaa8	-0.0431315
89	0xbe0a04a4	-0.13478333
90	0xbdf98bfa	-0.121849015
91	0x3ea3aac2	0.31966215
92	0xbe8b17a0	-0.27166462
93	0x3de7bc65	0.1131523
94	0x3c59132f	0.013249203
95	0x3cd94b02	0.026525024
96	0xbe1f93f0	-0.15583777
97	0xbe6156f8	-0.22005832
98	0xbe5741ea	-0.21021238
99	0xbe75f8b4	-0.24020654
100	0x3e323724	0.17403847
101	0xbe92f336	-0.2870118
102	0x3e56f319	0.20991172
103	0x3db1f3a6	0.086890504
104	0xbe82290c	-0.2542194
105	0xbe284116	-0.16431078
106	0xbd656d2d	-0.05601232
107	0x3d8bbbf1	0.06822956
108	0x3d09debc	0.03365968
109	0xbe87e775	-0.26543775
110	0x3deecd79	0.116602845
111	0x3d463191	0.048387114
112	0x3c9808b3	0.018558836
113	0x3db2de5b	0.08733817
114	0x3e1357ec	0.14389008
115	0x3e5a1ee1	0.21300842
116	0xbe92d630	-0.28679037
117	0xbb02b0f5	-0.00199419
118	0xbbf7d8f3	-0.007563704
119	0xbc4159d0	-0.011801198
120	0xb99492c9	-0.00028338123
121	0xbd7cb85b	-0.061699253
122	0xbe68b281	-0.22724344
123	0x3debe6c5	0.11518625
124	0xbda9036a	-0.08252604
125	0xbdb0d9f2	-0.0863532
126	0x3c108d2d	0.008822721
127	0x3dfe9563	0.12430837
128	0xbd02e8bf	-0.031960245
129	0xbd31f285	-0.043444175
130	0xbd3a2e80	-0.045454502
131	0xbe6a9d2d	-0.2291152
132	0xbe5fb623	-0.21846823
133	0x3e243b7e	0.1603832
134	0xbe4169db	-0.18888037
135	0xbde4cd0c	-0.11171922
136	0x3e3437d5	0.17599423
137	0x3e220afb	0.15824501
138	0xbe119550	-0.14217114
139	0xbe198ede	-0.14995906
140	0x3c29dc7a	0.010367507
141	0x3c9feb95	0.019521514
142	0xbebb4be5	-0.3658134
143	0x3d035493	0.032063078
144	0xbd51e0ce	-0.05123978
145	0x3ddaabaf	0.10677277
146	0x3dbff34d	0.09372578
147	0xbd0d8657	-0.034551945
148	0xbd38ea30	-0.045145214
149	0xbe764c7c	-0.24052614
150	0x3d218b65	0.039439578
151	0xbe142b6b	-0.14469688
152	0xbe867d71	-0.2626758
153	0xbc32997e	-0.010900853
154	0xbe7b5f05	-0.24547966
155	0x3dd241da	0.102664664
156	0x3ea70ad9	0.32625464
157	0xbe511507	-0.20418178
158	0xbeccf444	-0.4003011
159	0x3d0b382a	0.03398911
160	0xbde5ec57	-0.11226719
161	0x3d01132f	0.031512436
162	0xbed7913b	-0.4210299
163	0xbee9b2fb	-0.45644364
164	0xbbf8eeb2	-0.007596814
165	0x3d01a5f8	0.03165242
166	0x3ea957d9	0.33074835
167	0x3e271491	0.16316439
168	0xbef68738	-0.4815004
169	0xbe20c89d	-0.15701528
170	0xbdf5d163	-0.12002828
171	0x3df9e947	0.12202697
172	0xbe9bb2d0	-0.3040986
173	0x3e2f3343	0.17109399
174	0xbde8698a	-0.11348255
175	0xbe514b98	-0.20438993
176	0xbe52bfb5	-0.20580943
177	0x3e2d346a	0.16914526
178	0xbc6c19bc	-0.014410432
179	0xbd0c27c0	-0.034217596
180	0xbe542e4a	-0.20720783
181	0x3dfdac93	0.123864315
182	0xbd1aa92a	-0.037758984
183	0x3e008957	0.12552391
184	0xbbbf1b38	-0.005832102
185	0xbd165d51	-0.036710087
186	0xbd40425c	-0.046938285
187	0xbe7df653	-0.24800996
188	0x3e03808e	0.12842008
189	0x3e1a8d6d	0.15093012
190	0x3e461f47	0.19347869
191	0xbe458c5b	-0.19291823
192	0xbe5b8b81	-0.21439935
193	0x3d8c41d7	0.068484955
194	0xbe6daff9	-0.2321166
195	0x3d43cacd	0.047800828
196	0xbac2e00d	-0.0014867798
197	0xbe8145d8	-0.252486
198	0xbd2098db	-0.039208274
199	0x3e333476	0.17500481
200	0xbe65a8d6	-0.22427687
201	0xbc34710c	-0.011013281
202	0x3e967974	0.29389536
203	0xbcbbd7b7	-0.02293001
204	0xbe1fb50e	-0.1559641
205	0x3e8b818b	0.2724727
206	0x3e771fb0	0.24133182
207	0x3ec9a16c	0.39380968
208	0x3db31640	0.08744478
209	0xbd7bcff1	-0.061477605
210	0x3e967107	0.29383108
211	0x3d13b3c1	0.0360601
212	0x3d14428e	0.036196284
213	0xbcc8118f	-0.024422435
214	0xbdbe4db1	-0.09292162
215	0xbdba33ec	-0.090919346
216	0x3d1f3764	0.038871184
217	0x3e7b9e6e	0.24572155
218	0x3e6a2aac	0.2286784
219	0x3def258b	0.11677083
220	0x3cd5836a	0.02606364
221	0x3dbdcd03	0.092676185
222	0x3e2b9ff2	0.16760233
223	0xbeabbd99	-0.3354309
224	0x3db2bddd	0.0872762
225	0xbe8a938c	-0.27065694
226	0x3d7ba6e4	0.061438456
227	0xbddd4398	-0.10803908
228	0xbd83e45c	-0.064400405
229	0x3db55711	0.08854497
230	0x3e20f4dc	0.15718406
231	0xbd7c38a0	-0.06157744
232	0xbe81ec93	-0.25375804
233	0xbeb33f76	-0.35009354
234	0x3d0a3789	0.03374437
235	0x3e00ea05	0.12589271
236	0xbe7357f6	-0.23764023
237	0xbe275772	-0.16341951
238	0xbc19d9ab	-0.009390275
239	0x3eaf9953	0.34296665
240	0x3aa269f0	0.0012391191
241	0x3c394cf7	0.011309854
242	0x3d576d09	0.05259422
243	0x3db49586	0.08817582
244	0xbd8cdf3d	-0.06878517
245	0xbde1c2ef	-0.11023509
246	0xbdbd6719	-0.0924818
247	0xbddb6875	-0.10713283
248	0xbe472c9d	-0.19450612
249	0xbc9a5f9f	-0.018844424
250	0xbe04dadc	-0.12974113
251	0xbe05c5b3	-0.13063698
252	0xbf0fe4ac	-0.562083
253	0x3d12fd38	0.03588602
254	0x3e16fe0b	0.14745347
255	0x3da52109	0.080629416

params,ScannedRNN_0,GRUCell_0,hz,kernel f4 [64, 64]
0	0x3d60c5fe	0.05487632
1	0xbe196279	-0.1497897
2	0xbbe18171	-0.0068818857
3	0xbd943d84	-0.07238296
4	0x3d69ed09	0.05711082
5	0xbcb19d1e	-0.021681365
6	0xbe5e73df	-0.21723889
7	0xbd31bed5	-0.043394882
8	0xbd10d565	-0.03535976
9	0xbe253c8e	-0.16136381
10	0x3dce664b	0.100781046
11	0xbd92ecec	-0.071740955
12	0xbdd43d82	-0.10363294
13	0x3e3c4662	0.18386224
14	0x3c1c2ba0	0.009531885
15	0xbea2ac34	-0.31772006
16	0xbe4fa548	-0.20277894
17	0x3d8cd518	0.06876582
18	0x3e1306ce	0.14358065
19	0x3ddb3154	0.10702768
20	0xbd20ddf8	-0.039274186
21	0x3f0a60ac	0.5405376
22	0x3dd3bc92	0.10338701
23	0x3d04c479	0.032413933
24	0xbeb920e5	-0.3615791
25	0x3e5be2ad	0.21473189
26	0x3cb31851	0.02186218
27	0xbe41a41b	-0.18910258
28	0x3dfffbf1	0.12499226
29	0x3e7e4beb	0.24833648
30	0x3c6ce8fa	0.014459843
31	0x3ce61ebe	0.02809083
32	0x3c486fad	0.012233657
33	0xbde2be3c	-0.110714406
34	0x3e860836	0.2617814
35	0xbeda99c0	-0.42695427
36	0x3ca0eac4	0.019643195
37	0x3e170442	0.14747718
38	0x3e504abf	0.20341013
39	0x3e9f6faf	0.31139895
40	0x3dd7a62c	0.10529742
41	0xbbf7184d	-0.0075407387
42	0x3e31d9ae	0.17368194
43	0x3df18841	0.117935665
44	0xbdc6c2e3	-0.097051404
45	0x3d92d902	0.07170297
46	0x3dd40b63	0.10353734
47	0x3efac29a	0.48976594
48	0x3e4f32c1	0.20234205
49	0xbe0da34e	-0.13831827
50	0x3dc924fa	0.09821506
51	0x3e2da291	0.16956545
52	0x3e6de613	0.23232298
53	0x3e3ab1fe	0.18231961
54	0xbeecc194	-0.46241438
55	0xbd31172b	-0.043234985
56	0x3df8fe6a	0.12157901
57	0xbe03fb3b	-0.12888806
58	0xbdfddb05	-0.1239529
59	0x3dedceb9	0.11611695
60	0xbea39d21	-0.31955817
61	0x3e7065cc	0.23476332
62	0xbd3217b5	-0.04347964
63	0xbe3bfe40	-0.18358707
64	0xbbf14608	-0.0073630847
65	0xbe9dc196	-0.30811757
66	0xbe3290e2	-0.17438081
67	0xbf1b1a37	-0.60586876
68	0xbeb1b9fc	-0.34712207
69	0xbd92687b	-0.07148834
70	0x3d6d329d	0.057909597
71	0xbe58c285	-0.21167953
72	0xbe8225e8	-0.25419545
73	0xbe24bdcb	-0.16088025
74	0x3e833bba	0.25631505
75	0x3d80c762	0.06288029
76	0x3dd4461b	0.10364934
77	0x3e64c3fe	0.2234039
78	0x3e9f53cc	0.3111862
79	0xbdf30543	-0.11866238
80	0x3cda3897	0.026638312
81	0x3ebfcb3b	0.3745974
82	0x3c81ef05	0.015861044
83	0xbb97233e	-0.0046123555
84	0xbdf6b8b6	-0.120469496
85	0xbe8a9ddf	-0.2707357
86	0xbe2b3828	-0.1672064
87	0x3bbfae34	0.005849624
88	0xbd0d9d32	-0.03457374
89	0xbe5e93c5	-0.21736057
90	0x3dcec4c3	0.10096123
91	0xbdffa9e6	-0.124835774
92	0x3ecb8c83	0.3975564
93	0x3c8941dc	0.016755037
94	0xbe68f429	-0.2274939
95	0xbebda8c4	-0.3704282
96	0x3e2500f4	0.16113645
97	0x3ea68c28	0.32528806
98	0x3d0ca3c1	0.034335855
99	0x3e0052ae	0.1253154
100	0xbe8f42a2	-0.27980524
101	0xbdb8ab28	-0.090170205
102	0x3e89c2d1	0.26906446
103	0xbe5b008e	-0.2138693
104	0x3e0b9a97	0.1363319
105	0xbe45f727	-0.19332562
106	0xbe515af2	-0.20444849
107	0xbe8051a0	-0.25062275
108	0x3c68888a	0.01419271
109	0xbeaace19	-0.33360365
110	0xbe8c7b0c	-0.27437627
111	0x3e0c2908	0.13687527
112	0x3e0be96e	0.13663265
113	0x3e2a4bc3	0.16630463
114	0xbc35c79b	-0.011094953
115	0xbec4f4b7	-0.38467953
116	0xbe2c169c	-0.168055
117	0x3eccfb30	0.4003539
118	0xbd939865	-0.07206801
119	0xbdd37a70	-0.103260875
120	0x3d56ff45	0.052489538
121	0x3e6f7b2b	0.23386829
122	0x3e8b6371	0.27224305
123	0x3eaeae86	0.34117526
124	0xbd8303f4	-0.063972384
125	0x3d46dbe4	0.048549548
126	0xbe9013fe	-0.28140253
127	0x3e01040c	0.125992
128	0xbe99ad92	-0.30015236
129	0x3e219a7c	0.15781587
130	0x3e4e13d9	0.20124759
131	0xbdc58f86	-0.096465155
132	0x3d8591f7	0.06521981
133	0x3e5beb28	0.21476424
134	0xbedec26e	-0.43507713
135	0xbe8cbf6c	-0.27489793
136	0x3f20d1b0	0.6281996
137	0xbe2f7184	-0.17133147
138	0x3e6dc74e	0.2322056
139	0xbe5742ed	-0.21021624
140	0xbda9477c	-0.08265588
141	0x3f003192	0.5007564
142	0x3ed164bc	0.40897167
143	0xbeb2e571	-0.34940675
144	0xbebff7a5	-0.37493625
145	0xbed18672	-0.40922886
146	0x3e709945	0.23495968
147	0xbea160b6	-0.31519097
148	0xbecdeb04	-0.40218365
149	0x3ec497b8	0.38397002
150	0x3d040fd0	0.032241642
151	0x3bcb41be	0.0062029054
152	0xbf3368db	-0.7008187
153	0x3e3c2aee	0.18375751
154	0xbe4ad6bf	-0.19808482
155	0xbd997e28	-0.074947655
156	0x3e55716a	0.20844045
157	0xbe02fc4f	-0.1279156
158	0x3e4d903e	0.20074555
159	0x3e600c5a	0.21879712
160	0xbcd0817b	-0.025452366
161	0xbe86dbb4	-0.26339495
162	0xbd4803ca	-0.04883174
163	0x3d8d2550	0.068918824
164	0xbe13cd9a	-0.144339
165	0x3e205009	0.15655531
166	0xbba86e17	-0.005140077
167	0xbeabe3c7	-0.33572218
168	0x3d5c2d67	0.053754237
169	0xbe8e09da	-0.2774189
170	0xbea2d721	-0.31804755
171	0x3de56537	0.11200946
172	0x3da77a6a	0.081776455
173	0x3e19e09a	0.15027085
174	0x3eb8bd93	0.36082134
175	0x3d9e9bb8	0.07744545
176	0xbb838929	-0.0040141535
177	0xbee21094	-0.44153273
178	0xbbaf66df	-0.0053528394
179	0x3deaf48e	0.11472426
180	0x3f04b984	0.51845574
181	0xbf26c498	-0.6514373
182	0xbe267591	-0.16255786
183	0xbd8acb6f	-0.06777083
184	0x3e16497b	0.14676468
185	0xbe557e4c	-0.2084896
186	0xbe0ff469	-0.14058079
187	0xbd946f35	-0.072477736
188	0xbe798082	-0.24365428
189	0x3e87ed19	0.2654808
190	0x3e2cfd1e	0.16893432
191	0xbe160525	-0.146504
192	0x3d8d33e4	0.06894663
193	0x3d409693	0.0470186
194	0xbd7c79e2	-0.061639674
195	0x3df516d6	0.11967246
196	0xbd35df62	-0.044402488
197	0xbd330738	-0.043708056
198	0xbedb3e00	-0.4282074
199	0xbd084488	-0.03326848
200	0x3e05049d	0.12990041
201	0xbec769c9	-0.38947895
202	0x3da01b0a	0.07817657
203	0x3d560dce	0.05225926
204	0xbd7c7175	-0.06163164
205	0x3d35cf36	0.044387065
206	0x3ecbf72b	0.39837012
207	0xbe93593a	-0.28779012
208	0x3e1ea405	0.15492256
209	0x3e0a5471	0.13508774
210	0x3c28dcd8	0.0103065595
211	0x3e9303da	0.28713876
212	0xbe7368c3	-0.23770432
213	0x3e84b321	0.25917915
214	0xbe165665	-0.14681394
215	0xbe2dfe0e	-0.16991445
216	0x3ec6a5ac	0.38798273
217	0x3e5ba9da	0.21451512
218	0x3eda5081	0.42639545
219	0xbc903aac	-0.017606102
220	0x3e2ac42f	0.166764
221	0x3d764c9b	0.06013165
222	0x3e43e2df	0.19129513
223	0x3b328827	0.0027241798
224	0x3e2c6ef6	0.16839203
225	0x3de090dc	0.1096513
226	0xbde03c9a	-0.10949059
227	0x3e20f523	0.15718512
228	0x3dc3780b	0.09544381
229	0x3d98fe52	0.07470383
230	0x3e301b5f	0.17197941
231	0x3e714768	0.23562396
232	0x3e2f8e69	0.17144169
233	0x3e03f9bd	0.12888236
234	0x3df0af2b	0.11752161
235	0x3ec3ac8f	0.3821759
236	0x3ea1e468	0.31619573
237	0x3e165ee3	0.14684634
238	0x3dbb9a8a	0.09160335
239	0x3f2e68fe	0.68128955
240	0x3ed14bc1	0.40878108
241	0xbd0ee5d8	-0.034887165
242	0x3e848f55	0.25890604
243	0x3d2e007e	0.042480938
244	0x3e20262b	0.1563956
245	0x3e8f811e	0.28028196
246	0x3e341b70	0.17588592
247	0xbde2b416	-0.11069505
248	0x3f2aa059	0.6665092
249	0x3f32cf0f	0.69847196
250	0x3e3fbfca	0.18725505
251	0x3d9ced70	0.07662475
252	0x3eba9096	0.36438435
253	0xbdfb2a4f	-0.12263929
254	0xbdb841cd	-0.089969255
255	0x3e5cfd73	0.21581058

params,ScannedRNN_0,GRUCell_0,in,bias f4 [64]
0	0xbe2b63d5	-0.16737302
1	0xbe1f0709	-0.15530027
2	0x3d8749fa	0.06605907
3	0xbe1c1872	-0.152437
4	0x3e1b22fe	0.15150067
5	0x3e12ef60	0.14349127
6	0xbe94c4f2	-0.29056507
7	0x3e2b7139	0.1674241
8	0xbb9dfa5f	-0.0048211063
9	0x3bab4025	0.0052261525
10	0xbe6360c4	-0.22204882
11	0x3ec96059	0.3933132
12	0x3ec69331	0.38784173
13	0x3e295f6a	0.16540304
14	0xbe599beb	-0.21250884
15	0x3e569113	0.20953779
16	0x3ca7f50f	0.020502595
17	0x3e29aebb	0.1657056
18	0x387515c3	5.843282e-05
19	0x3e57e667	0.21083985
20	0xbe4a03b6	-0.19727978
21	0x3e41f658	0.18941629
22	0x3d888c14	0.06667343
23	0x3e0a50d5	0.13507397
24	0xbec8d895	-0.3922774
25	0x3e1e045d	0.15431352
26	0x3e518847	0.20462142
27	0x3eac7f3f	0.3369083
28	0xbe13907d	-0.14410587
29	0xbe1a8255	-0.1508878
30	0xbe5df550	-0.2167561
31	0xbe5c612e	-0.21521446
32	0x3ef1f85e	0.47259802
33	0x3bd3fee1	0.006469593
34	0x3de958af	0.11393868
35	0x3da63288	0.08115107
36	0x3ea58a98	0.323323
37	0xbe0ccf9f	-0.13751076
38	0x3da4ceb2	0.080472365
39	0x3da92293	0.08258548
40	0xbd9edbf5	-0.07756797
41	0x3e8e5de3	0.27806005
42	0xbea9b0f9	-0.33142832
43	0x3e2b0667	0.16701661
44	0xbe7feaed	-0.24991961
45	0x3e93a5ed	0.2883753
46	0x3dc0f1b8	0.09421104
47	0xbe128758	-0.14309442
48	0x3e3c0b1e	0.18363616
49	0x3d39b7ba	0.04534123
50	0x3e777a40	0.24167728
51	0xbe29aa83	-0.16568951
52	0xbc711f6a	-0.014716962
53	0x3de70666	0.11280517
54	0x3e0f1a8c	0.1397497
55	0x3e8438af	0.25824496
56	0x3ec9ecba	0.3943842
57	0xbe91f36e	-0.28506035
58	0xbe93d4f2	-0.28873402
59	0x3d1e3db2	0.038633056
60	0xbbdd9ced	-0.006763092
61	0xbe2dfce9	-0.16991009
62	0x3d772a4e	0.06034308
63	0xbdf10049	-0.117676325

params,ScannedRNN_0,GRUCell_0,in,kernel f4 [64, 64]
0	0x3dc3b7a7	0.09556513
1	0x3e0cd6dd	0.13753839
2	0x3e0a12da	0.13483754
3	0x3de76899	0.11299247
4	0xbe76f098	-0.24115217
5	0xbe47cb73	-0.19511203
6	0x3d14e7e8	0.036353976
7	0x3d884bfa	0.066551164
8	0xbeb56109	-0.35425594
9	0x3dcde721	0.1005385
10	0x3c347cc2	0.011016073
11	0xbe8ed1ff	-0.2789459
12	0x3d0f2135	0.034943778
13	0x3e2a8eb7	0.16656004
14	0xbd34410b	-0.044007342
15	0xbdf83e5e	-0.121212706
16	0xbd4277a7	-0.04747739
17	0xbed73c67	-0.4203827
18	0xbc8a6ee1	-0.016898574
19	0xbebb0c78	-0.3653295
20	0x3e6ae74d	0.22939797
21	0x3d9d79b1	0.076892264
22	0x3e4513ae	0.19245788
23	0xbd70d3bd	-0.05879568
24	0x3e0caa98	0.13736951
25	0x3d61de17	0.055143442
26	0xbdfcd064	-0.12344435
27	0xbe52f781	-0.20602228
28	0xbe0f7ec3	-0.140132
29	0x3e08c3ec	0.13355988
30	0x3e90623f	0.28199956
31	0x3dcd24b4	0.10016766
32	0xbe886edd	-0.26647082
33	0x3eba6111	0.3640218
34	0xbeb8cd02	-0.3609391
35	0xbdd48b2c	-0.103781074
36	0xbec97d8a	-0.3935359
37	0x3c8abfa5	0.016937086
38	0x3e585107	0.2112466
39	0xbe72f716	-0.23727068
40	0x3ce5a677	0.028033478
41	0xbeda5202	-0.42640692
42	0xbd234d7b	-0.039868813
43	0xbd04ac83	-0.032391082
44	0x3e9f5b6f	0.31124446
45	0xbf1ce67c	-0.6128919
46	0x3e2459dd	0.16049905
47	0x3ea69cd3	0.32541522
48	0xbf0ccc4c	-0.5499923
49	0x3d20b730	0.0392372
50	0xbe243c5c	-0.1603865
51	0x3e569a8e	0.20957395
52	0x3cf80331	0.03027496
53	0xbe808851	-0.25104
54	0xbe61c80d	-0.2204897
55	0xbe4b7bb5	-0.19871409
56	0x3c61c9e7	0.013781047
57	0x3e1b1c9e	0.15147635
58	0x3e791177	0.24323069
59	0xbb170bf0	-0.0023047887
60	0xbd949260	-0.07254481
61	0xbd5dba33	-0.05413265
62	0x3e45cd4e	0.19316599
63	0xbe21aaa8	-0.15787756
64	0x3e08d6b4	0.13363153
65	0xbc0e7cff	-0.008696794
66	0xbd91bc49	-0.07115991
67	0x3d9b76e2	0.075910345
68	0xbea2f4ba	-0.31827337
69	0xbe2a2ffe	-0.1661987
70	0x3eea5061	0.4576445
71	0xbe35c8a2	-0.17752317
72	0xbda6bd83	-0.08141615
73	0x3ce78ba0	0.02826482
74	0x3efd3a43	0.49458513
75	0xbe30b4d1	-0.17256476
76	0x3e5fbea7	0.21850072
77	0xbec09bc9	-0.37618855
78	0x3df765a5	0.12079934
79	0xbe749cf6	-0.23888001
80	0xbdacefce	-0.084441766
81	0xbe974b83	-0.29549798
82	0xbcb694ca	-0.022287745
83	0xbe01768d	-0.1264288
84	0x3e260391	0.16212298
85	0x3e9b9d2e	0.30393356
86	0xbe66572b	-0.2249419
87	0xbe29334f	-0.16523479
88	0x3dbbc890	0.09169114
89	0x3e911aec	0.28340852
90	0x3d55d501	0.05220509
91	0xbe0a4173	-0.1350153
92	0x3e551cfd	0.2081184
93	0x3ec87a4d	0.39155808
94	0xbe920aeb	-0.28523955
95	0x3de67b96	0.11254041
96	0xbcea3f40	-0.028594613
97	0x3e820cbf	0.2540035
98	0xbe03bd56	-0.12865195
99	0x3d4e82ba	0.05041764
100	0x3dde22c8	0.10846478
101	0x3d72efce	0.059310727
102	0x3d255bef	0.040370878
103	0xbe69742f	-0.22798227
104	0x3ec8d89b	0.39227757
105	0xbd9c8e48	-0.076443255
106	0x3e087300	0.13325119
107	0xbe65753e	-0.22408006
108	0xbe1c5476	-0.15266594
109	0x3d8bcf00	0.068265915
110	0x3e1109cd	0.14163895
111	0x3e419ad1	0.18906714
112	0xbe181a52	-0.1485379
113	0xbdf35054	-0.11880556
114	0xbe2c03b2	-0.16798285
115	0x3ef8f96f	0.48627803
116	0x3da411b1	0.08011187
117	0xbe43932b	-0.19099109
118	0xbe875f3c	-0.26439846
119	0xbec9e7b4	-0.39434588
120	0x3deeee0a	0.11666496
121	0x3ed880ef	0.4228587
122	0x3e5a9d00	0.21348953
123	0xbeb8b431	-0.36074975
124	0xbe4fc13f	-0.20288561
125	0x3df175a1	0.11790014
126	0xbeb49071	-0.3526645
127	0x3e5bb851	0.2145703
128	0xbd3af292	-0.04564149
129	0xbeb62007	-0.3557131
130	0xbc7b4053	-0.01533516
131	0xbe7118cb	-0.23544614
132	0xbdd2f614	-0.10300842
133	0x3e333b62	0.17503121
134	0xbeb2e91d	-0.34943476
135	0x3de5cd67	0.11220818
136	0xbe05ff82	-0.1308575
137	0xbe914518	-0.28373027
138	0xbeb62c1a	-0.35580522
139	0xbd54db1e	-0.05196678
140	0xbe37c6f8	-0.17946994
141	0x3efb45fe	0.49076837
142	0x3e4add8b	0.19811074
143	0x3ef1f5e7	0.4725792
144	0x3ef42aac	0.47688806
145	0x3da4d690	0.08048737
146	0xbf772153	-0.96535224
147	0xbadf1e95	-0.0017022664
148	0xbe20f0b6	-0.15716824
149	0xbea6eff0	-0.32604933
150	0x3f0e6678	0.55625105
151	0xbe08c11a	-0.13354912
152	0xbdb2e1c2	-0.08734466
153	0x3c91a549	0.01777901
154	0x3db76d63	0.08956411
155	0x3f0799fd	0.5296934
156	0xbeb0fba5	-0.3456699
157	0xbe40b6be	-0.1881971
158	0xbce8da37	-0.028424365
159	0xbe4e5930	-0.2015121
160	0xbd20bb2c	-0.039241
161	0xbe80da20	-0.25166416
162	0x3dafbe35	0.08581201
163	0xbdab02d1	-0.083501466
164	0xbd0ae2b4	-0.033907607
165	0xbd75dcd1	-0.06002504
166	0x3d0a0609	0.03369716
167	0x3d3142a4	0.043276444
168	0xbd0f8602	-0.03503991
169	0xbd7ac2ea	-0.06122104
170	0xbe646d83	-0.223074
171	0x3ecd02b5	0.40041128
172	0xbdb93e2a	-0.0904506
173	0x3c8f64b4	0.017504074
174	0xbe0d8f45	-0.13824184
175	0xbe8017ff	-0.25018308
176	0xbd948c61	-0.07253338
177	0x3f8c174b	1.0944608
178	0x3eb8ea51	0.3611627
179	0xbea0b57e	-0.31388468
180	0x3c09fdea	0.008422354
181	0x3e4cbe30	0.19994426
182	0x3e06ca15	0.13163026
183	0x3da822e3	0.08209779
184	0x3e7d1443	0.2471476
185	0xbe00e9cb	-0.12589185
186	0xbe7872ca	-0.24262539
187	0xbdc1f20d	-0.09469996
188	0xbea7a511	-0.32743123
189	0xbeeddd7a	-0.46458036
190	0x3d86134e	0.06546651
191	0xbeac54cb	-0.33658442
192	0xbcd92e81	-0.026511433
193	0x3e9fd7de	0.3121938
194	0xbd375d1a	-0.044766523
195	0x3e295566	0.16536483
196	0xbddcdf56	-0.107847854
197	0xbe0e7cf4	-0.13914853
198	0x3d89a2ac	0.0672048
199	0xbd82cf50	-0.06387198
200	0x3e87b33e	0.26503938
201	0xbd6d9695	-0.058004934
202	0x3e3c65bf	0.18398188
203	0xbe2ca959	-0.16861476
204	0x3ea77d8e	0.32712978
205	0xbeb6253c	-0.35575283
206	0x3eb132fb	0.34609208
207	0xbd2c266e	-0.042028837
208	0xbea7115c	-0.32630432
209	0xbd7602be	-0.06006121
210	0x3e82c16c	0.25538194
211	0xbe0d8c9f	-0.13823174
212	0xbdaf1f1e	-0.08550857
213	0xbcb43bbc	-0.02200114
214	0x3da0b518	0.07847041
215	0xbe7a9c60	-0.24473715
216	0x3e841ac3	0.25801668
217	0xbe0077b1	-0.12545659
218	0xbe778390	-0.24171281
219	0xbe4d890f	-0.20071815
220	0x3e7a1dac	0.24425381
221	0x3e84aaf6	0.25911683
222	0x3f18a65b	0.5962884
223	0x3e60ee75	0.21965964
224	0xbcf439dc	-0.029812746
225	0x3ee329be	0.44367784
226	0xbddcfa61	-0.107899435
227	0xbd0fa7f6	-0.03507229
228	0xbeb2917c	-0.3487662
229	0x3eae5c6b	0.34054884
230	0xbe546816	-0.2074283
231	0xbea2b79c	-0.31780708
232	0xbe1bb577	-0.15205942
233	0xbe1ce42f	-0.1532142
234	0x3e9d4801	0.30718997
235	0xbdeda8d4	-0.11604467
236	0x3d93b397	0.072119884
237	0xbefb90cf	-0.49133918
238	0x3defa770	0.11701858
239	0x3e2609dc	0.16214699
240	0xbe157fbb	-0.14599507
241	0x3d7706c5	0.06030919
242	0xbd1006aa	-0.035162605
243	0x3eb248fb	0.34821305
244	0xbf0c0aac	-0.54703784
245	0x3cd3d905	0.025860319
246	0xbf0dfb25	-0.5546134
247	0x3eb424e9	0.3518441
248	0xbd02d099	-0.031937215
249	0xbe756236	-0.23963246
250	0x3d80837e	0.0627508
251	0xbd246efa	-0.040144898
252	0x3eb2ad19	0.34897688
253	0xbd04c551	-0.032414738
254	0xbe5a95b8	-0.21346176
255	0x3e4b5571	0.19856812

params,ScannedRNN_0,GRUCell_0,ir,bias f4 [64]
0	0xbe51f620	-0.20504045
1	0x3d35dedd	0.044401992
2	0xbe201683	-0.15633588
3	0x3e2fb51c	0.17158931
4	0xbe0243be	-0.12721154
5	0x3e8d93d2	0.2765184
6	0x3e6a58a4	0.22885376
7	0x3e1358ed	0.14389391
8	0xbdac36a8	-0.08408862
9	0x3d12f9f1	0.035882894
10	0x3e7238a0	0.23654413
11	0xbeb85213	-0.36000118
12	0x3dded644	0.10880712
13	0x3e87bd5d	0.2651166
14	0x3e2e240d	0.1700594
15	0x3e9ce215	0.30641237
16	0x3d08fb9b	0.033443075
17	0x3e23170a	0.15926757
18	0x3e437a64	0.19089657
19	0xbdd394b1	-0.10331095
20	0x3d90ac7e	0.0706415
21	0xbdcf2b25	-0.10115651
22	0x3e9c6346	0.3054449
23	0x3d5acc7f	0.05341768
24	0xbee40cd9	-0.44541052
25	0xbe191883	-0.14950757
26	0xbe9f8143	-0.31153306
27	0x3f063341	0.5242196
28	0x3e82636c	0.25466478
29	0x3e8aa1d7	0.270766
30	0xbe2e3000	-0.17010498
31	0x3e7273d0	0.23676991
32	0xbda377c5	-0.079818286
33	0xbeb15c74	-0.3464085
34	0x3c0c5428	0.008564986
35	0x3c17436b	0.009232382
36	0xbcf567f9	-0.029956805
37	0x3e62d614	0.22151977
38	0x3d2b541c	0.04182826
39	0x3d825b93	0.06365123
40	0xbeccf04c	-0.40027082
41	0x3d1e7120	0.038682103
42	0xbe9a747d	-0.30166999
43	0x3dd61232	0.10452689
44	0xbe940c28	-0.28915524
45	0xbdf9901a	-0.12185688
46	0x3adb3c6c	0.0016726381
47	0xbdb2bd7b	-0.08727547
48	0x3df973c0	0.12180281
49	0x3e876ab5	0.26448599
50	0x3d63b461	0.055591945
51	0x3ea0eefb	0.31432328
52	0xbe5a9c50	-0.21348691
53	0x3e73b34a	0.23798862
54	0xbea8ad4a	-0.3294471
55	0x3df219e3	0.11821344
56	0x3dbb907c	0.091584176
57	0x3dfcfbf4	0.12352744
58	0xbdd70a50	-0.10500014
59	0x3e95cc93	0.2925764
60	0xbe039c35	-0.12852557
61	0x3c0b12a6	0.008488333
62	0x3e8a1294	0.269673
63	0x3e5512ac	0.20807904
