baselines/QLearning/checkpoints/MPE_simple_speaker_listener_v4/vdn_ps.safetensors (safetensors, 105548 bytes, 14 tensors)

params,Dense_0,bias f4 [64]
0	0xbf16eb67	-0.58952945
1	0xbeb4b3e1	-0.35293487
2	0xbea780ae	-0.32715362
3	0xbf188e25	-0.59591895
4	0xbec1beab	-0.3784078
5	0xbd5ece20	-0.054395795
6	0xbf035654	-0.513036
7	0xbeca3cd4	-0.39499533
8	0xbea72f8b	-0.3265346
9	0xbe44d286	-0.19220933
10	0xbed19a25	-0.40937915
11	0xbed5b28a	-0.41737777
12	0xbea67f00	-0.32518768
13	0xbe830220	-0.2558756
14	0x3ea8a11d	0.3293542
15	0xbeeb6cac	-0.45981348
16	0xbd46898c	-0.04847102
17	0xbea7d992	-0.3278318
18	0xbd7932be	-0.060839407
19	0xbeb1c62f	-0.34721515
20	0xbf0abce8	-0.541945
21	0xbe1f4675	-0.15554221
22	0xbed16bcf	-0.40902564
23	0xbecfa628	-0.40556455
24	0xbe3a0316	-0.1816524
25	0xbe6fa481	-0.23402597
26	0xbe2e96f5	-0.17049773
27	0xbe22a219	-0.15882148
28	0xbe5a4abb	-0.2131757
29	0xbe87cd34	-0.26523745
30	0xbe9aec56	-0.30258435
31	0xbe643822	-0.22287038
32	0xbe3200b5	-0.17383082
33	0xbecbcf96	-0.39806813
34	0x3e57d740	0.21078205
35	0xbe4ace4f	-0.19805263
36	0xbeec66ef	-0.46172282
37	0xbf09eff6	-0.53881776
38	0xbe369fee	-0.17834446
39	0xbe13857c	-0.14406389
40	0xbeb710d7	-0.35755035
41	0xbe9ddffc	-0.3083495
42	0xbeabcbea	-0.33554012
43	0xbef50632	-0.4785629
44	0xbf03e74f	-0.51524824
45	0xbe840fc8	-0.2579329
46	0xbe09271d	-0.13393827
47	0xbe9aeb39	-0.30257586
48	0x3dc0b83d	0.09410141
49	0xbeb775f8	-0.3583219
50	0xbe89663f	-0.2683582
51	0xbece1f96	-0.40258473
52	0xbf0a31bc	-0.5398214
53	0x3dea8ec6	0.11453013
54	0xbe874e09	-0.26426724
55	0xbe800d07	-0.2500994
56	0xbe9fb6ba	-0.31194097
57	0xbea68e10	-0.3253026
58	0xbde222d1	-0.11041797
59	0x3f17f579	0.59358937
60	0xbe1e8723	-0.15481238
61	0xbe8a6f48	-0.27038026
62	0x3ea4067b	0.32036194
63	0xbeaa7d25	-0.33298603

params,Dense_0,kernel f4 [13, 64]
0	0x3e2a2384	0.1661511
1	0x3cb8cf6a	0.02255984
2	0xbe82df3d	-0.25560942
3	0x3e724c6a	0.23661962
4	0x3e16db11	0.14732005
5	0xbd679093	-0.05653436
6	0xbd2ccc45	-0.042186994
7	0x3e1485bb	0.14504139
8	0x3c91513b	0.017738929
9	0x3e870112	0.26368004
10	0x3e853ba0	0.26022053
11	0x3e5aea62	0.21378472
12	0xbdf3579f	-0.11881947
13	0x3f1dc9ce	0.61636055
14	0xbe3dffcc	-0.1855461
15	0xbebd15da	-0.36930734
16	0x3c77ad49	0.015116998
17	0x3b510d7b	0.0031898904
18	0x3e10fd16	0.14159045
19	0xbb0bacd9	-0.0021312742
20	0x3e488581	0.19582178
21	0xbf0089d8	-0.5021033
22	0x3e753497	0.23945843
23	0x3efb8c65	0.4913055
24	0x3f8b0815	1.0861841
25	0xbeae21d4	-0.34010184
26	0x3ec62a9e	0.3870439
27	0xbf0a6fa2	-0.5407659
28	0x3c9a8559	0.018862413
29	0x3ed78a62	0.42097765
30	0x3f01480f	0.5050058
31	0xbd9b60b0	-0.07586801
32	0x3c9350b3	0.017982816
33	0x3ed13f80	0.4086876
34	0xbf29e9b3	-0.6637222
35	0x3ea31070	0.31848478
36	0xbea6b252	-0.32557923
37	0xbdf5c452	-0.12000336
38	0x3ee59351	0.44838956
39	0xbe50dbd3	-0.20396356
40	0xbf07a8e7	-0.529921
41	0xbea528ff	-0.3225784
42	0xbeb0d11f	-0.34534547
43	0xbe28dcf7	-0.16490541
44	0xbe848533	-0.25882873
45	0xbea0b9fc	-0.31391895
46	0x3de969ad	0.11397109
47	0x3efdb941	0.495554
48	0x3d204580	0.03912878
49	0x3ebaefcc	0.36511075
50	0x3d90db2f	0.07073056
51	0x3e0a5059	0.13507213
52	0xbf383190	-0.71950626
53	0x3ed6213b	0.41822228
54	0x3c860fb3	0.016364908
55	0x3ed03ec8	0.40672898
56	0xbf1f0067	-0.6210999
57	0x3c4b90ac	0.012424629
58	0x3e0a289e	0.13492057
59	0x3e106140	0.14099598
60	0xbc9cd39c	-0.019143872
61	0x3e1b2d12	0.15153912
62	0xbdf84335	-0.12122194
63	0xbdb5b1c8	-0.088718
64	0x3e50beb7	0.20385252
65	0xbe894fbf	-0.26818654
66	0x3eb774d8	0.35831332
67	0x3cda8971	0.026676865
68	0xbeec4717	-0.46147987
69	0x3e91004d	0.28320542
70	0xbcf54aee	-0.029942956
71	0x3eb56261	0.3542662
72	0xbe8c3dbe	-0.27390856
73	0x3e1eb543	0.15498833
74	0xbe757015	-0.23968537
75	0xbe9c174e	-0.3048653
76	0x3d423e25	0.047422547
77	0xbdaca99e	-0.084307894
78	0x3e18f7ad	0.14938231
79	0xbecc6c38	-0.39926314
80	0xbf0b3e80	-0.5439224
81	0x3f08a07d	0.53369886
82	0x3de58659	0.112072654
83	0x3c9b6ebc	0.0189737
84	0xbea3f1a6	-0.320203
85	0xbd2fee7c	-0.042952046
86	0x3d002945	0.031289358
87	0x3dbeb71c	0.09312269
88	0x3eea11e2	0.45716769
89	0x3de8c57f	0.113657944
90	0x3e4cfe7c	0.20018953
91	0xb94dc910	-0.00019625225
92	0xbdc3d620	-0.095623255
93	0x3deeeb8e	0.11666022
94	0x3e020aae	0.12699386
95	0x3eb4e716	0.35332555
96	0x3f3056e6	0.68882596
97	0x3d2d6b93	0.04233892
98	0xbf00349e	-0.5008029
99	0x3d0073bb	0.03136037
100	0xbd85dc49	-0.06536157
101	0x3e90d49e	0.28287214
102	0x3e4d7b28	0.20066512
103	0x3d878344	0.06616834
104	0xbcdfb7c3	-0.027309304
105	0x3d7a8891	0.061165396
106	0xbdf1a9dd	-0.11799977
107	0x3e45d149	0.19318117
108	0x3e0713d9	0.13191165
109	0x3e5805b0	0.2109592
110	0xbf2e6dab	-0.6813609
111	0x3e67c2f6	0.22632965
112	0x3d5d4825	0.05402388
113	0xbd374a36	-0.044748507
114	0x3ee6bfa7	0.45068094
115	0x3d2fe94c	0.0429471
116	0x3e94911c	0.2901696
117	0xbe7a8ee6	-0.24468574
118	0x3cd86558	0.026415512
119	0xbe16f3df	-0.14741467
120	0xbb947d88	-0.004531566
121	0xbf498268	-0.7871461
122	0x3f1c1eb5	0.60984355
123	0x3de9e971	0.114214785
124	0xbea157f8	-0.31512427
125	0x3e8be350	0.27321863
126	0x3e6822cf	0.22669528
127	0xbe91c5ac	-0.28471124
128	0xbf4602cc	-0.7734802
129	0xbf00509c	-0.50123
130	0x3e95d56b	0.29264387
131	0xbdd063ca	-0.10175283
132	0xbe3f4c1f	-0.18681382
133	0x3e123dee	0.14281437
134	0xbf284d41	-0.6574288
135	0xbf8050d7	-1.002467
136	0xbe2d435a	-0.16920224
137	0xbc9b7a11	-0.018979104
138	0xbf93b26c	-1.1538825
139	0x3efedf72	0.4977985
140	0x3f9a9609	1.2077037
141	0xbf7ecd4d	-0.99532014
142	0x3dfb022d	0.12256274
143	0x3e52056d	0.20509882
144	0x3d552600	0.052038193
145	0x3eabbebd	0.3354396
146	0x3e0b07a7	0.13577138
147	0x3e5f05c3	0.21779542
148	0x3ded61dc	0.11590931
149	0x3e70d029	0.23516907
150	0x3ea29548	0.31754518
151	0xbf25fdf0	-0.648406
152	0xbf5b8515	-0.8574994
153	0x3fa8bdb0	1.3182888
154	0xbeb55cd7	-0.35422394
155	0x3dbde427	0.09272032
156	0x3e168d36	0.14702305
157	0xbef4fa98	-0.47847438
158	0xbecf1454	-0.40445197
159	0xbbcce725	-0.0062531405
160	0x3dd583ce	0.104255304
161	0x3e4afcad	0.1982295
162	0x3d9b1038	0.07571453
163	0xbeaca409	-0.337189
164	0x3f5966df	0.84922594
165	0xbf86b86d	-1.0525032
166	0x3f442c1b	0.766298
167	0x3e41f33a	0.1894044
168	0x3ebdf28c	0.3709911
169	0x3f528a0d	0.822419
170	0xbe355089	-0.17706503
171	0x3f08e6ac	0.5347698
172	0xbe428e78	-0.1899966
173	0x3ca64caa	0.020300228
174	0x3f0df5b8	0.5545306
175	0x3e250bbc	0.16117758
176	0x3e318f0d	0.17339726
177	0xbf6b50c3	-0.9192011
178	0xbb23e7ef	-0.002501007
179	0x3ea68103	0.32520303
180	0x3ea9beeb	0.3315347
181	0x3c914b4e	0.017736103
182	0xbc5d6dda	-0.01351496
183	0xbeb50310	-0.353539
184	0x3e99ff83	0.30077752
185	0x3e983f3c	0.29735744
186	0xbe3d5777	-0.18490396
187	0xbe2251a6	-0.15851459
188	0x3d0435d4	0.032277897
189	0xbbb12fca	-0.005407308
190	0x3dbceb80	0.092246056
191	0xbeed5cf1	-0.4635997
192	0xbf54cc1c	-0.83123946
193	0x3f7b628c	0.98197246
194	0x3e4cd7e8	0.20004237
195	0xbee80446	-0.4531576
196	0xbede6bdb	-0.43441662
197	0xbdf40980	-0.119158745
198	0xbf3706c9	-0.7149473
199	0xbe34970b	-0.17635743
200	0xbd77a969	-0.060464296
201	0xbd845bc2	-0.06462814
202	0x3f07133f	0.5276374
203	0x3f81ec79	1.0150291
204	0x3c8bee4b	0.0170814
205	0xbe0d7a72	-0.1381624
206	0xbddbf472	-0.107399836
207	0x3f84a636	1.0363224
208	0x3efb37e2	0.49066073
209	0xbf1443ad	-0.57915765
210	0xbf19d5e2	-0.60091984
211	0xbf5977db	-0.8494851
212	0xbea5f6df	-0.3241491
213	0x3eb40a45	0.35164085
214	0x3dda35b1	0.10654772
215	0xbf119fff	-0.5688476
216	0xbe4ab129	-0.19794144
217	0xbeafaca8	-0.34311414
218	0x3d9a3d22	0.075311914
219	0xbed59af0	-0.4171977
220	0xbf481ca0	-0.7816868
221	0x3e79c7f4	0.24392682
222	0x3ec45e55	0.3835322
223	0xbe9fed40	-0.31235695
224	0xbf283668	-0.6570802
225	0xbcfac994	-0.030613698
226	0x3d37a7e0	0.044837832
227	0x3f1f1bd4	0.6215184
228	0xbeb10cb7	-0.34580013
229	0xbeee6dfe	-0.46568292
230	0x3e272c5d	0.16325517
231	0x3eee8ee5	0.46593395
232	0xbe05f3fc	-0.13081354
233	0x3f29eb5d	0.6637476
234	0xbe083dd1	-0.13304831
235	0x3ed68bc9	0.41903523
236	0xbf72071d	-0.94542104
237	0xbecc16eb	-0.39861235
238	0x3dcba0ae	0.099427566
239	0xbf58ce84	-0.8469012
240	0x3b953b96	0.0045542223
241	0x3e95b7fc	0.2924193
242	0xbf9e39e5	-1.2361418
243	0xbf03992d	-0.514056
244	0xbeb6de10	-0.35716295
245	0xbcbe7368	-0.02324839
246	0x3f818b60	1.0120659
247	0x3da3a855	0.07991091
248	0x3e1e98f8	0.1548804
249	0x3f583b40	0.8446541
250	0xbe758247	-0.23975478
251	0xbe88a91a	-0.26691514
252	0xbe0c934d	-0.13728066
253	0x3e44d763	0.19222789
254	0xbdbe4fc1	-0.092925556
255	0x3e5912f6	0.2119864

params,Dense_1,bias f4 [5]
0	0xbea86f12	-0.3289724
1	0xbe98d71e	-0.2985162
2	0xbe57671e	-0.2103543
3	0xbe492597	-0.19643246
4	0xbde7244c	-0.1128622

params,Dense_1,kernel f4 [64, 5]
0	0xbee83ba8	-0.45358014
1	0xbf19bf01	-0.60057074
2	0xbeb0c8b3	-0.3452812
3	0xbee98f5a	-0.4561718
4	0xbee901df	-0.4550924
5	0x3f683c75	0.9071725
6	0x3f275041	0.6535683
7	0x3e3b4b43	0.18290429
8	0x3f1e91ca	0.61941206
9	0x3f4872e0	0.78300285
10	0xbf8193c8	-1.0123224
11	0xbf0c60a3	-0.54834956
12	0xbf0d2d13	-0.551469
13	0xbf142385	-0.578667
14	0xbf46c40d	-0.776429
15	0x3f341214	0.70340085
16	0x3f5bc52c	0.85847735
17	0x3f06cdf3	0.52658004
18	0x3f9535de	1.1657064
19	0x3f2b4827	0.6690697
20	0xbf45c751	-0.7725726
21	0xbf3e7e01	-0.74411017
22	0xbf5bb3ba	-0.85821116
23	0xbf0f2b28	-0.55925226
24	0xbf2788a7	-0.6544289
25	0xbe9a93fa	-0.30191022
26	0xbf1be25b	-0.60892266
27	0xbf083a96	-0.53214395
28	0xbf26ed37	-0.6520571
29	0xbedf3f2c	-0.43602884
30	0x3f1cd9df	0.61269945
31	0x3f19a2b9	0.6001392
32	0x3f941ecb	1.1571897
33	0x3ed8b235	0.4232346
34	0x3f3e1456	0.7424978
35	0xbf214165	-0.6299041
36	0xbf240e2b	-0.6408412
37	0xbf134264	-0.5752318
38	0xbeb4031b	-0.3515862
39	0xbf2d104b	-0.67602986
40	0x3e5fa52b	0.2184035
41	0x3e768906	0.24075708
42	0x3e8398f9	0.25702646
43	0xbdf28fb3	-0.11843815
44	0x3df89a78	0.121388376
45	0xbf4d8989	-0.80287987
46	0xbf53ccdf	-0.82734483
47	0xbed8c320	-0.4233637
48	0xbec39640	-0.3820057
49	0xbee3e021	-0.44506934
50	0x3f000b8a	0.5001761
51	0x3f2c629e	0.6733798
52	0x3e866a50	0.26252985
53	0x3df8d998	0.12150878
54	0x3f3a543c	0.7278478
55	0x3e936009	0.28784207
56	0xbd0ea641	-0.03482652
57	0x3d9694c6	0.07352595
58	0x3f1f3e33	0.62204283
59	0x3e3b7b10	0.18308663
60	0xbef537a4	-0.47894013
61	0xbf271a3b	-0.652744
62	0xbf4fafe3	-0.81127757
63	0xbf796f1a	-0.9743515
64	0xbf2cba20	-0.67471504
65	0xbe2550b6	-0.1614407
66	0xbf095966	-0.53652036
67	0xbf2ab88c	-0.66687846
68	0xbe83c4cb	-0.2573608
69	0xbefcb071	-0.49353364
70	0x3f30fc2c	0.69134784
71	0x3e660f2b	0.22466724
72	0x3f48f53c	0.784992
73	0x3f5e1a47	0.86758846
74	0x3f2b63c4	0.66949105
75	0xbeec51af	-0.4615607
76	0xbfa08b8f	-1.254259
77	0xbf43a06b	-0.76416653
78	0xbf5156c1	-0.81773
79	0xbf608790	-0.8770685
80	0xbe1abd36	-0.1511124
81	0xbdc93024	-0.09823635
82	0xbdef3fd1	-0.11682094
83	0xbe6033f1	-0.21894814
84	0xbe9ad3b2	-0.30239636
85	0xbea581c5	-0.3232557
86	0xbf709b3b	-0.9398686
87	0xbf359a0f	-0.709382
88	0xbf501810	-0.81286716
89	0xbf3bde87	-0.73386425
90	0xbf4ceb7a	-0.8004681
91	0xbf22cdf3	-0.63595504
92	0xbeffe0b8	-0.49976134
93	0xbf8b6001	-1.0888673
94	0xbecdd045	-0.4019796
95	0xbf1e6857	-0.6187796
96	0xbeeca11d	-0.4621667
97	0xbf2b5155	-0.6692098
98	0xbeba9edd	-0.36449328
99	0xbf0749ad	-0.52846795
100	0xbf75e8ff	-0.9605865
101	0xbf569cb8	-0.83832884
102	0xbeffb28b	-0.49940905
103	0xbefdf006	-0.49597186
104	0xbf5bd1fa	-0.85867274
105	0xbf3fd024	-0.7492697
106	0xbefda307	-0.49538442
107	0xbe457cf9	-0.19285955
108	0xbf8a9baf	-1.0828761
109	0x3c149db1	0.0090708
110	0x3ef091cc	0.46986234
111	0x3ec73157	0.3890483
112	0x3f63e5f2	0.89022744
113	0x3f50e7a9	0.81603485
114	0x3eacd13a	0.33753377
115	0x3e109276	0.1411837
116	0x3e9a04da	0.30081826
117	0x3e4ad414	0.19807464
118	0x3ea18626	0.3154766
119	0x3e73baa7	0.23801671
120	0xbf25844f	-0.6465501
121	0xbf6178bd	-0.88074857
122	0xbf81be2c	-1.0136161
123	0xbf5e7b13	-0.86906546
124	0xbf71b035	-0.94409496
125	0xbf2243a2	-0.6338445
126	0xbf0e2d19	-0.55537564
127	0xbf11f56a	-0.570151
128	0xbf407664	-0.7518065
129	0xbf762c9e	-0.9616183
130	0xbf181bb4	-0.5941727
131	0xbe8edfe3	-0.27905187
132	0xbf412550	-0.7544756
133	0xbea14d61	-0.31504348
134	0xbf057a7a	-0.5214001
135	0x3f11560a	0.5677191
136	0x3f3db00b	0.74096745
137	0x3f055110	0.52076817
138	0x3de78d4a	0.113062456
139	0x3f5c7134	0.86110234
140	0xbf571d03	-0.84028643
141	0xbeb6e66f	-0.35722682
142	0xbf6b1a78	-0.91837263
143	0xbf218036	-0.6308626
144	0xbf27baaa	-0.655192
145	0x3f0f4c87	0.55976146
146	0x3f3406e0	0.7032299
147	0x3e5282e7	0.20557748
148	0x3ef795c2	0.48356444
149	0x3f988ad7	1.191737
150	0x3f4d1bd8	0.8012061
151	0x3f2439ff	0.64150995
152	0x3f1936f4	0.59849477
153	0x3f4664b0	0.77497387
154	0x3f8c1b1e	1.0945776
155	0x3f1d7c97	0.61518234
156	0x3f45565a	0.7708489
157	0x3e8293af	0.255033
158	0x3e9bb43a	0.3041094
159	0x3e99305d	0.2991971
160	0x3f2ca893	0.67444724
161	0x3f1468a4	0.5797217
162	0x3f11bcb6	0.56928575
163	0x3f18d59f	0.5970096
164	0x3f28bab9	0.65909916
165	0xbf297c37	-0.6620516
166	0xbf6890f6	-0.9084619
167	0xbe943368	-0.2894547
168	0xbf6d804a	-0.9277388
169	0x3e1bb6f8	0.15206516
170	0xbf156b64	-0.5836699
171	0xbf5b4c35	-0.8566316
172	0xbf514737	-0.8174929
173	0xbf82efbe	-1.0229414
174	0xbeb7dff5	-0.35913053
175	0x3f0ad285	0.5422748
176	0x3ed8ccbe	0.42343706
177	0x3f4237c3	0.75866336
178	0x3ea9a9cf	0.33137366
179	0x3f1cbbda	0.6122414
180	0xbf0ac52c	-0.5420711
181	0xbf860262	-1.0469477
182	0xbeff0a9e	-0.49812788
183	0xbe98890b	-0.29792055
184	0xbf11e4a0	-0.5698948
185	0xbf678317	-0.904344
186	0xbf2fd21d	-0.6867998
187	0xbf4d11ff	-0.80105585
188	0xbef6b29d	-0.48183146
189	0xbea76437	-0.32693645
190	0x3ef4fd29	0.47849396
191	0x3ec48395	0.3838164
192	0x3ed15c2c	0.40890634
193	0x3f6d24dc	0.9263437
194	0x3f2bf838	0.67175627
195	0x3f7e768e	0.9939965
196	0x3def20d3	0.116761826
197	0x3fab3245	1.3374716
198	0x3f2db5be	0.6785544
199	0x3f204e78	0.62619734
200	0xbef90e8a	-0.48643905
201	0xbed28703	-0.4111863
202	0xbf3d6cf6	-0.73994386
203	0xbf05629f	-0.5210361
204	0xbf1af2c9	-0.6052671
205	0xbe7a25b2	-0.24428442
206	0xbe4a1b81	-0.19737054
207	0xbddf41e6	-0.10901241
208	0xbec9184b	-0.39276347
209	0xbebb65ca	-0.36601096
210	0xbda9772d	-0.08274684
211	0x3da2c48c	0.079476446
212	0xbe85a362	-0.26101214
213	0x3d02f995	0.0319763
214	0xbccfa0c0	-0.025345206
215	0xbf2ba6de	-0.67051494
216	0xbf41f385	-0.75762206
217	0xbf165aed	-0.5873249
218	0xbf2b7126	-0.66969526
219	0xbf422cba	-0.758495
220	0xbe750385	-0.23927124
221	0xbebebad6	-0.3725192
222	0xbf18fe2e	-0.5976285
223	0xbed223b1	-0.41042855
224	0xbf1e4f50	-0.6183977
225	0xbf19c260	-0.6006222
226	0xbf4b1de7	-0.793425
227	0xbe67d1b5	-0.2263859
228	0xbf7665cf	-0.962491
229	0xbe8c2448	-0.2737143
230	0x3f7f16ce	0.9964417
231	0x3f5bbbdf	0.85833544
232	0x3f6d868a	0.92783415
233	0x3f5ff921	0.87489516
234	0x3f433b8e	0.7626275
235	0xbed75a4a	-0.42061073
236	0xbf04fc65	-0.51947623
237	0xbf81ae9e	-1.0131414
238	0xbd6f9e2b	-0.05850045
239	0xbe38680a	-0.18008438
240	0x3e83e45a	0.25760156
241	0x3ddc290b	0.10750016
242	0x3de79eed	0.113096096
243	0x3e63364e	0.22188684
244	0x3ec58847	0.38580534
245	0x3f16e23b	0.5893895
246	0x3f0bf3cf	0.546689
247	0x3f78b093	0.9714443
248	0x3f480147	0.7812695
249	0x3f0403f6	0.51568544
250	0x3f1e758f	0.6189813
251	0x3e65e67d	0.22451206
252	0x3f501a51	0.81290156
253	0x3eaee541	0.34159282
254	0x3ebd5884	0.36981595
255	0xbf21b9e9	-0.631743

params,ScannedRNN_0,GRUCell_0,hn,bias f4 [64]
0	0xbdc44d97	-0.095851116
1	0x3ed015ff	0.40641782
2	0xbe106d87	-0.14104281
3	0x3e91d152	0.2848001
4	0xbf0280fa	-0.5097805
5	0x3e71abff	0.23600768
6	0x3e5d208a	0.21594444
7	0xbd6f7cc5	-0.0584686
8	0xbe0b17e6	-0.13583335
9	0xbe573bca	-0.21018901
10	0x3e97320b	0.29530367
11	0x3cc5fdb8	0.024168834
12	0xbec3b34e	-0.38222736
13	0xbea4b4cf	-0.32169196
14	0x3f11f161	0.5700894
15	0xbf01d432	-0.5071441
16	0xbe9845a2	-0.29740626
17	0xbf032bf2	-0.5123893
18	0xbe5aa56c	-0.21352166
19	0xbe8ff85f	-0.2811918
20	0xbeb5478b	-0.35406145
21	0xbd38a83d	-0.04508232
22	0x3e05ff33	0.13085632
23	0x3e34f006	0.17669687
24	0xbeda02dc	-0.42580307
25	0xbe113a2e	-0.1418235
26	0x3d998c08	0.07497412
27	0x3ec50749	0.3848212
28	0xbd357aab	-0.04430644
29	0x3ed52c47	0.41635343
30	0x3f513b05	0.8173068
31	0xbd0191c6	-0.03163316
32	0x3e6fce24	0.2341848
33	0xbeb8ad56	-0.36069745
34	0xbd8bfb09	-0.068349905
35	0xbe3a9a23	-0.18222861
36	0xbeec912f	-0.46204516
37	0xbed6cab0	-0.41951513
38	0x3ea3c705	0.31987777
39	0x3efcf954	0.49408972
40	0xbdb97a31	-0.09056509
41	0xbeffaa88	-0.49934793
42	0xbe7b46da	-0.24538746
43	0xbd79f797	-0.061027136
44	0xbf04d1d6	-0.51882684
45	0xbe49bc09	-0.19700636
46	0x3f043877	0.5164866
47	0xbd1ad5c3	-0.037801515
48	0x3e774c15	0.24150117
49	0x3e97345c	0.29532135
50	0xbd81538f	-0.06314766
51	0xbdb0d442	-0.08634235
52	0x3f3220ab	0.695811
53	0x3d2261a7	0.03964391
54	0x3e27a372	0.16370943
55	0x3e4eb072	0.20184496
56	0x3e36b3ef	0.17842077
57	0xbeb1a4f5	-0.34696165
58	0x3d02f716	0.03197392
59	0x3ecfcae4	0.4058448
60	0x3e33b0f0	0.17547965
61	0xbe8e0760	-0.27740002
62	0x3e6860c7	0.22693168
63	0x3d2f5867	0.042808916

params,ScannedRNN_0,GRUCell_0,hn,kernel f4 [64, 64]
0	0xbf28ff34	-0.6601441
1	0xbde6a465	-0.112618245
2	0xbd421efb	-0.047392827
3	0xbdd835c9	-0.10557134
4	0xbc9ebae1	-0.01937622
5	0x3d7530fb	0.059861165
6	0x3e4c57e2	0.199554
7	0x3c96f676	0.018428069
8	0x3b964808	0.0045862235
9	0xbdb3ea10	-0.08784878
10	0xbe8060b0	-0.25073767
11	0xbcc13829	-0.02358635
12	0xbe44f876	-0.19235405
13	0xbe31da3e	-0.17368409
14	0xbe019b35	-0.12656863
15	0xbe28aa79	-0.1647128
16	0xbe1e9c05	-0.15489204
17	0x3c60a23a	0.013710553
18	0xbe9d4377	-0.30715534
19	0xbe5972f3	-0.21235256
20	0x3e018624	0.12648827
21	0xbd331b2a	-0.043727078
22	0xbe7a97f7	-0.24472032
23	0x3df75130	0.12076032
24	0x3d4f2929	0.050576363
25	0xbeb784f7	-0.35843632
26	0xbdf6cbb3	-0.12050571
27	0x3e406710	0.18789315
28	0xbe687b8f	-0.22703384
29	0x3d87c0c5	0.06628565
30	0x3e9b3ee8	0.3032143
31	0x3e6822f5	0.22669585
32	0x3e526c52	0.20549133
33	0xbdd08413	-0.10181441
34	0xbebd759e	-0.37003797
35	0xbe4fbc0e	-0.20286581
36	0x3d9766eb	0.07392677
37	0x3d9035eb	0.07041534
38	0x3e7fb1f0	0.24970222
39	0x3d82ae8a	0.06380947
40	0x3d15570f	0.03645998
41	0x3e09d3c3	0.13459687
42	0xbe8425d1	-0.25810102
43	0xbdafc05a	-0.0858161
44	0x3db76b44	0.08956006
45	0xbcd1befd	-0.025603766
46	0x3dc49031	0.09597815
47	0xbef74b8c	-0.48299825
48	0x3daff0fe	0.085908875
49	0xbd936b65	-0.07198218
50	0x3dd57371	0.10422409
51	0xbe2e2e2e	-0.17009804
52	0x3db307f8	0.08741754
53	0x3bc8220a	0.0061075734
54	0xbdfb6706	-0.122755095
55	0x3e933fa7	0.287595
56	0x3e10fef4	0.14159757
57	0xbc4b856d	-0.012421948
58	0x3f04ec36	0.5192293
59	0x3e0ca7e1	0.13735916
60	0x3e76638d	0.24061413
61	0xbe41f3b4	-0.18940622
62	0x3e435893	0.19076757
63	0xbe917455	-0.28409067
64	0x3cc99515	0.02460722
65	0xbc23704d	-0.009975505
66	0x3ea74a49	0.32673863
67	0x3da9b6c0	0.0828681
68	0xbe3ad77e	-0.18246266
69	0xbed3b1a7	-0.41346475
70	0xbd8e00ad	-0.06933723
71	0xbe787b9b	-0.24265902
72	0x3d297ec8	0.041380674
73	0xbddba12d	-0.10724101
74	0xbc5ee999	-0.013605499
75	0x3d958732	0.07301177
76	0x3e66872f	0.22512506
77	0xbe193c08	-0.14964306
78	0x3d4e9203	0.050432216
79	0xbebd0916	-0.36920995
80	0x3e2f3fea	0.17114225
81	0x3c0188ca	0.007906148
82	0x3d3af782	0.045646198
83	0xbe08ae40	-0.13347721
84	0x3df96afe	0.1217861
85	0x3e251718	0.16122091
86	0xbb00b9eb	-0.0019642066
87	0x3dc85e9c	0.0978367
88	0xbeb8ea4f	-0.36116263
89	0xbe0361a6	-0.12830219
90	0xbd653e7f	-0.055967804
91	0xbdfcca29	-0.123432465
92	0x3cdb72aa	0.026788075
93	0x3e72f785	0.23727234
94	0x3cdf2236	0.027237993
95	0xbe565a38	-0.20932853
96	0x3d8b0289	0.06787593
97	0xbd8fbab8	-0.07018036
98	0xbd800671	-0.062512286
99	0x3f07f69c	0.5311067
100	0xbe9be94e	-0.30451435
101	0xbea03fb6	-0.31298608
102	0x3e28545d	0.16438432
103	0x3e449d6f	0.19200681
104	0xbc62f229	-0.013851681
105	0x3ddf9c69	0.10918505
106	0x3daa0d7f	0.083033554
107	0x3dae887d	0.08522127
108	0xbdc958ec	-0.098314136
109	0x3ccd8090	0.025085717
110	0xbcd15c29	-0.02555664
111	0xbe9859f6	-0.29756135
112	0xbca26fef	-0.019828765
113	0x3e7ac58b	0.24489419
114	0x3e95c355	0.2925059
115	0xbdc9ff55	-0.09863154
116	0xbdf8500e	-0.12124644
117	0xbcaa1a05	-0.02076436
118	0x3dddf674	0.10838023
119	0x3ea39bdb	0.31954846
120	0xbe5b334f	-0.21406291
121	0x3ca6f664	0.02038116
122	0xbe046925	-0.12930734
123	0x3e7aaf20	0.24480867
124	0xbd166a68	-0.03672257
125	0xbe8f7750	-0.28020716
126	0xbd68a52d	-0.05679815
127	0xbe8e3cd7	-0.27780792
128	0x3e06b8ef	0.13156484
129	0xbdcda05a	-0.1004035
130	0xbe9fb6c4	-0.31194127
131	0xbee7d043	-0.4527608
132	0xbd1c392c	-0.03814046
133	0x3e04f575	0.1298426
134	0x3e0b1679	0.13582791
135	0xbe23350a	-0.15938202
136	0x3e690917	0.22757374
137	0xbd92bfd2	-0.07165493
138	0x3caf871d	0.021426732
139	0x3e30deef	0.17272542
140	0xbb2d6c00	-0.0026462078
141	0x3d7866ca	0.060644902
142	0xbe713a98	-0.23557508
143	0xbe887f19	-0.26659468
144	0xbdefabbc	-0.117026776
145	0xbd8783bb	-0.066169225
146	0xbc090518	-0.008363031
147	0x3dc7ec9c	0.097619265
148	0xbb29d0e2	-0.0025911857
149	0xbcc71de5	-0.024306247
150	0xbc92b865	-0.017910192
151	0x3e9b44f1	0.30326036
152	0x3c5617ca	0.013067195
153	0xbc5abfd9	-0.013351404
154	0xbc8ef591	-0.01745108
155	0xbc98afb7	-0.018638475
156	0x3c245682	0.010030391
157	0x3d14b99d	0.036309827
158	0xbed0137e	-0.4063987
159	0x3d3d7ba3	0.046260487
160	0x3e889ad6	0.2668063
161	0x3ca26916	0.0198255
162	0xbe3caf11	-0.18426158
163	0x3e6b9df1	0.23009469
164	0x3e53f8c9	0.20700373
165	0x3e68647b	0.2269458
166	0x3e9860bf	0.2976131
167	0xbde90e30	-0.11379659
168	0xbd931b06	-0.07182889
169	0xbd4a8851	-0.049446408
170	0x3cb2f21a	0.021843959
171	0xbc3ab9b3	-0.011396813
172	0x3d2db040	0.042404413
173	0xbdcb7570	-0.09934509
174	0xbe12110f	-0.1426432
175	0x3d730ba6	0.05933728
176	0xbe23d2c5	-0.15998371
177	0xbe3638dc	-0.17795128
178	0x3d6d065f	0.057867404
179	0x3d0c7b40	0.034297228
180	0xbd868998	-0.06569213
181	0x3e1c6192	0.15271595
182	0xbd0d3003	-0.034469616
183	0x3e961ca5	0.2931873
184	0x3d20dd86	0.03927376
185	0xbe10d9c5	-0.14145572
186	0xbdcb90d5	-0.09939734
187	0xbd263be8	-0.040584475
188	0x3b351f13	0.002763693
189	0x3c4060c8	0.011741824
190	0xbcd18041	-0.025573852
191	0x3dab56b7	0.08366149
192	0x3f077028	0.5290551
193	0x3e2b4594	0.1672576
194	0x3f250879	0.64466053
195	0xbe7ea08c	-0.24865931
196	0xbdea8af4	-0.114522845
197	0xbe28b681	-0.1647587
198	0xbe569d43	-0.20958428
199	0xbe808259	-0.25099447
200	0xbe2898a1	-0.16464473
201	0x3d72a4be	0.05923914
202	0xbe7ea8d4	-0.2486909
203	0xbdb8a263	-0.09015348
204	0x3e8510e2	0.25989443
205	0xbe71cfa0	-0.23614359
206	0xbe059645	-0.13045605
207	0x3e87c2d6	0.26515836
208	0x3e3dfbc3	0.1855307
209	0x3dae0294	0.084965855
210	0x3e3dcf46	0.185361
211	0xbcf7e852	-0.030262146
212	0x3eb2253d	0.34794036
213	0x3e2b87b9	0.16750993
214	0x3e0017ac	0.1250903
215	0xbdebf02a	-0.11520417
216	0x3e318552	0.17336014
217	0x3e92bd2f	0.2865996
218	0x3e7c194d	0.24619026
219	0xbdcd7261	-0.10031582
220	0x3f1b9439	0.60773045
221	0x3e633e3f	0.22191714
222	0x3c79069b	0.015199329
223	0xbea1855a	-0.31547052
224	0xbee8bc73	-0.45456275
225	0xbe19a3d8	-0.15003908
226	0x3de66cf9	0.11251254
227	0x3d8bba26	0.06822614
228	0xbe28f081	-0.16497995
229	0x3e78485d	0.24246354
230	0xbe4f79dc	-0.2026133
231	0xbd7997df	-0.06093585
232	0x3eaaa9df	0.33332726
233	0xbd617215	-0.055040438
234	0x3e44cbe7	0.19218408
235	0x3f0921ef	0.53567404
236	0xbbac4fcc	-0.005258536
237	0x3e089595	0.13338311
238	0xbe800d84	-0.25010312
239	0x3d11dabf	0.035609003
240	0xbdd4205f	-0.10357737
241	0xbe4db4b4	-0.20088464
242	0x3e83c630	0.25737143
243	0x3b910656	0.004425804
244	0xbd8e9473	-0.06961908
245	0xbe083649	-0.13301958
246	0xbe213151	-0.15741469
247	0xbe1af1a2	-0.15131238
248	0xbe95b27b	-0.29237732
249	0x3d9f547f	0.07779788
250	0xbf0ef1bb	-0.558376
251	0xbe474d7a	-0.19463149
252	0xbed74a0e	-0.42048687
253	0x3e359912	0.17734173
254	0xbcd8e519	-0.02647643
255	0xbc1b42cb	-0.009476374

params,ScannedRNN_0,GRUCell_0,hr,kernel f4 [64, 64]
0	0x3de8e786	0.113722846
1	0x3cdca7b8	0.026935443
2	0xbe6d94da	-0.23201314
3	0x3e319540	0.1734209
4	0xbeb64a23	-0.35603437
5	0x3ccffbd7	0.025388641
6	0x3ddc4d2b	0.10756906
7	0x3db09ccf	0.08623659
8	0x3e6aff83	0.22949032
9	0x3e01f66f	0.12691663
10	0xbe566e64	-0.20940548
11	0x3dbc6b6a	0.09200175
12	0xbdce5df6	-0.100765154
13	0xbb9c46f4	-0.0047692005
14	0xbe261aff	-0.16221236
15	0x3e3e3353	0.18574266
16	0x3de8e18d	0.113711454
17	0xbde6b078	-0.112641275
18	0xbbae59ea	-0.005320777
19	0x3e1a4384	0.15064818
20	0x3da00631	0.07813681
21	0xbdfac160	-0.122439146
22	0xbec2fadd	-0.38082018
23	0x3e54154a	0.20711246
24	0xbd41a2d5	-0.04727443
25	0xbded5b4a	-0.11589678
26	0xbc7161ae	-0.014732761
27	0x3e9fea94	0.31233656
28	0xbcee6a4f	-0.029103426
29	0xbd0bdd49	-0.03414658
30	0x3d80e121	0.0629294
31	0xbccd488d	-0.025059009
32	0x3e51de20	0.2049489
33	0xbceb4d34	-0.028723337
34	0xbd829e19	-0.06377811
35	0xbe70829d	-0.23487325
36	0x3c9a3a2c	0.018826567
37	0xbe501c87	-0.20323382
38	0xbd099024	-0.03358473
39	0x3d2048ed	0.039132047
40	0xbd473659	-0.048635814
41	0xbdd7e825	-0.10542325
42	0xbe8b09d5	-0.2715594
43	0xbe075a37	-0.13218008
44	0xbe64ad5b	-0.22331755
45	0xbc8159f6	-0.015789967
46	0xbceaded4	-0.028670706
47	0xbee553c6	-0.44790477
48	0xbddfab03	-0.1092129
49	0x3c9d69f4	0.019215561
50	0x3dab53c7	0.08365589
51	0x3e5cf566	0.21577987
52	0xbb07a3a3	-0.00206969
53	0xbdaf4d20	-0.08559632
54	0xbcc740db	-0.024322918
55	0x3eac54e8	0.33658528
56	0xbdab5ce3	-0.08367326
57	0x3d2c40b6	0.0420539
58	0x3e26878c	0.16262645
59	0x3d8308ce	0.06398164
60	0x3ead4bcc	0.3384689
61	0xbdd7fb05	-0.10545925
62	0x3d8d2ecf	0.06893694
63	0x3e6abfb8	0.22924697
64	0x3d0feb3d	0.03513645
65	0xbe7476f9	-0.2387351
66	0xbed004b1	-0.4062858
67	0xbe034a90	-0.12821412
68	0xbd8cf977	-0.06883519
69	0xbe4f7183	-0.20258145
70	0x3d9e94aa	0.07743199
71	0xbd7ac4cc	-0.061222836
72	0xbe206e82	-0.15667155
73	0xbcbcf2e2	-0.023065034
74	0xbe0e1ff5	-0.13879378
75	0xbdd235bb	-0.102641545
76	0xbeb6e99f	-0.35725114
77	0x3e0be289	0.13660635
78	0x3e86397c	0.26215732
79	0x3c8feb7f	0.017568348
80	0xbe926579	-0.28593042
81	0xbc01882b	-0.007906
82	0xbdc7897d	-0.09743021
83	0xbdef907e	-0.116974816
84	0x3dd3d718	0.1034376
85	0xbd6e5923	-0.058190476
86	0xbd94e6f4	-0.07270613
87	0xbea13c9a	-0.31491548
88	0xb9e832c3	-0.0004428831
89	0xbba5f730	-0.0050648674
90	0x3bb7f28a	0.0056136297
91	0xbe8f8b8b	-0.2803615
92	0xbda28dec	-0.07937226
93	0xbd3d22f7	-0.046175923
94	0x3e21a1b4	0.15784341
95	0x3cb0116e	0.021492686
96	0xbdb9c7f5	-0.09071342
97	0xbb6b8e56	-0.0035942993
98	0x3e2b8b38	0.16752326
99	0x3eaa0911	0.33210042
100	0xbdd84d5f	-0.10561632
101	0x3dfb7bf5	0.12279502
102	0xbdd6681d	-0.10469077
103	0x3cc9332d	0.024560535
104	0xbc5aebb3	-0.013361859
105	0x3e64dbd8	0.22349489
106	0x3b86a55f	0.0041090692
107	0xbe3fc987	-0.1872922
108	0xbe5c9866	-0.2154251
109	0x3dc30e01	0.095241554
110	0xbe4e43fe	-0.20143124
111	0x3e2f873b	0.1714143
112	0x3d40bd1d	0.047055352
113	0xbe319e30	-0.173455
114	0xbe2ca791	-0.16860797
115	0xbd783b17	-0.060603227
116	0xbdd38d53	-0.1032969
117	0x3da2c953	0.07948556
118	0x3d38e26a	0.0451378
119	0x3d976ae9	0.07393438
120	0xbec2e0d2	-0.3806215
121	0xbd4c2f44	-0.049849764
122	0x3de21c8b	0.110406004
123	0x3d3155dc	0.043294773
124	0x3eb1e5b6	0.34745568
125	0x3e60e980	0.21964073
126	0xbe6145b8	-0.21999252
127	0x3e327587	0.17427646
128	0x3c08ec2f	0.008357092
129	0xbd08f9ad	-0.033441234
130	0x3ea290e5	0.3175117
131	0x3e30b1c3	0.1725531
132	0x3df02a1a	0.1172678
133	0x3e368a83	0.17826276
134	0xbd8fdc5c	-0.07024452
135	0x3da7edc5	0.08199648
136	0xbdb49ab3	-0.08818569
137	0x3e8cde46	0.2751333
138	0x3d0e5d4d	0.034756947
139	0xbe4f1104	-0.20221335
140	0xbdc4364e	-0.0958067
141	0xbcd9391a	-0.026516486
142	0x3dfd3ebc	0.12365481
143	0x3e591256	0.21198401
144	0xbe95b222	-0.29237467
145	0xbe132cff	-0.14372633
146	0x3d8adddb	0.06780597
147	0x3df04732	0.117323294
148	0x3ebba587	0.36649725
149	0x3ea38aaf	0.31941745
150	0x3c2fe272	0.010735141
151	0x3d2d183f	0.04225945
152	0x3f009892	0.50232804
153	0x3e049121	0.12945987
154	0x3e112416	0.14173922
155	0x3bdec040	0.0067978203
156	0x3ea20c6e	0.31650108
157	0xbd121494	-0.035664156
158	0x3dc8e235	0.098087706
159	0xbb654dd6	-0.003498902
160	0xbcb47efc	-0.022033207
161	0x3bb14646	0.0054099886
162	0x3e6ee6f5	0.2333029
163	0x3db2aa8d	0.08723936
164	0x3ce516c3	0.027964955
165	0x3e3acbd5	0.18241818
166	0x3e515d3d	0.20445724
167	0xbd3fe738	-0.046851367
168	0x3d0f141f	0.0349313
169	0xbe437868	-0.190889
170	0xbe41cbeb	-0.18925445
171	0xbd316c8f	-0.04331642
172	0xbebf4f14	-0.3736502
173	0x3dd1e289	0.10248286
174	0x3e7ff827	0.24997006
175	0xbefcfbfd	-0.49411002
176	0xbd9cb1b8	-0.07651085
177	0x3d1139f2	0.03545565
178	0x3cd31560	0.025767028
179	0x3cd010fa	0.02539872
180	0xbbaeffab	-0.0053405366
181	0xbe345e94	-0.17614204
182	0xbd34a76d	-0.044104982
183	0x3e20feca	0.15722194
184	0xbe21068f	-0.15725158
185	0x3e8f3dd4	0.2797686
186	0xbe06a6e6	-0.13149604
187	0xbd2b42ad	-0.041811634
188	0x3a8d3981	0.0010774584
189	0x3e451d03	0.19249348
190	0x3d98e4c3	0.07465508
191	0xbe28493d	-0.16434188
192	0xbd0ef339	-0.034899924
193	0x3e5341e5	0.20630606
194	0xbe8c8da6	-0.2745182
195	0xbe35a3a8	-0.17738211
196	0xbdef538b	-0.116858564
197	0x3e84c779	0.25933436
198	0xbe49550c	-0.19661349
199	0x3e9a70bb	0.30164132
200	0xbe4e9c6b	-0.20176856
201	0x3e48e103	0.19617085
202	0xbe2b2f7b	-0.16717331
203	0x3cccb76f	0.024989812
204	0xbef38491	-0.47562078
205	0x3ddac4a9	0.10682041
206	0xbe09019d	-0.13379522
207	0x3d4ce3c2	0.050021894
208	0xbdb8c75f	-0.09022402
209	0xbdd25406	-0.102699324
210	0x3bafe88d	0.0053682984
211	0x3d8d4e54	0.068997055
212	0x3ec170e5	0.37781444
213	0xbee7b0ae	-0.45251983
214	0xbde3b83c	-0.11119124
215	0xbe7a117f	-0.24420737
216	0x3e22f7b9	0.15914811
217	0xbe88b957	-0.26703903
218	0x3d65a0ea	0.056061663
219	0xbe1fef42	-0.15618613
220	0xbdd3ab40	-0.10335398
221	0xbe4f61c7	-0.20252143
222	0x3e0c9b6e	0.13731167
223	0x3e0e721c	0.13910717
224	0x3e10887d	0.14114566
225	0xbc0623b4	-0.008187223
226	0xbcd7943b	-0.026315799
227	0x3d8efc00	0.06981659
228	0xbd08cc6e	-0.033398084
229	0x3eb6de85	0.35716644
230	0x3e8459c4	0.25849736
231	0x3d4e9095	0.050430853
232	0xbe0f41fd	-0.13990016
233	0xbcc9fd71	-0.024656983
234	0x3ee3e779	0.44512537
235	0xbde10a7d	-0.109883286
236	0xbc2e539a	-0.010640049
237	0xbd8340ff	-0.064088814
238	0x3d013456	0.031544052
239	0x394e55b8	0.00019677624
240	0x3e3d2a54	0.18473178
241	0xbdc92316	-0.09821145
242	0xbe908eca	-0.2823394
243	0xbe22e0b2	-0.15906027
244	0x3c9c7c3a	0.019102205
245	0xbdaa13f2	-0.083045855
246	0x3cebddc6	0.028792273
247	0xbd0f6db0	-0.035016716
248	0xbf53a221	-0.82669264
249	0xbdfc06ef	-0.1230601
250	0x3e1e054c	0.15431708
251	0x3e8e43e4	0.2778617
252	0x3d483727	0.048880722
253	0x3e224eba	0.15850344
254	0xbe1670df	-0.14691494
255	0xbe2c6279	-0.1683444

params,ScannedRNN_0,GRUCell_0,hz,kernel f4 [64, 64]
0	0x3d45722c	0.048204586
1	0xbdd0f2b4	-0.10202542
2	0x3eb40e09	0.35166958
3	0xbe95c597	-0.29252312
4	0x3e1acf07	0.15118037
5	0x3e0c5539	0.13704385
6	0x3e3be26d	0.18348093
7	0xbdb97748	-0.09055954
8	0x3d80d7c4	0.06291154
9	0x3e3cc9a0	0.18436289
10	0x3e3d90f4	0.18512326
11	0xbdbdffe8	-0.09277326
12	0xbee5e163	-0.4489852
13	0x3b3f65df	0.0029205007
14	0xbe637671	-0.2221315
15	0x3dcf556b	0.10123714
16	0x3dc290e8	0.09500295
17	0x3e2e5896	0.1702598
18	0xbd35b5fe	-0.044363014
19	0x3e4c0450	0.1992352
20	0x3e4f22e9	0.20228161
21	0x3c3c6932	0.01149969
22	0xbe26e100	-0.16296768
23	0x3e974c34	0.29550326
24	0x3da66298	0.08124274
25	0x3d377aa3	0.04479469
26	0xbe0c0ad1	-0.13676001
27	0xbd8ea8b7	-0.069657736
28	0x3e830dd5	0.2559649
29	0xbdc9a3a6	-0.098456666
30	0xbded53e2	-0.11588265
31	0xbdbb4123	-0.09143283
32	0x3e25a1ce	0.16175005
33	0xbd9256d3	-0.07145467
34	0x3dd44f54	0.10366693
35	0xbdad54fc	-0.08463475
36	0xbd4aecd7	-0.049542274
37	0xbe0ca5a0	-0.13735056
38	0x3d05eb79	0.032695267
39	0xbdfe995a	-0.12431593
40	0xbe1a67bc	-0.15078634
41	0x3e4f6760	0.20254278
42	0x3e37fed5	0.17968304
43	0x3c17976f	0.009252413
44	0xbe46e633	-0.19423752
45	0xbe39c45c	-0.18141311
46	0xbe8138ad	-0.25238553
47	0xbda7008f	-0.081544034
48	0x3e704aa9	0.2346598
49	0x3e9adb06	0.30245227
50	0x3de5e69b	0.11225625
51	0xbda4c87c	-0.08046052
52	0x3e4f4a4a	0.20243183
53	0xbd34c44d	-0.04413252
54	0x3ccb45f4	0.02481363
55	0x3d01a94e	0.031655602
56	0xbd2a3d4d	-0.041562367
57	0xbe87cf8e	-0.2652554
58	0x3ea719d0	0.3263688
59	0x3e6ea4e8	0.23305094
60	0x3ba8d4a3	0.0051523014
61	0xbe6079fb	-0.21921532
62	0xbe3962d1	-0.18104102
63	0xbaac236c	-0.0013133115
64	0xbd7fc0d6	-0.062439762
65	0xbe657a50	-0.2240994
66	0xbd379c74	-0.04482694
67	0xbe2f3eff	-0.17113875
68	0x3d4f982a	0.050682224
69	0x3d860002	0.0654297
70	0x3b92ea52	0.0044834996
71	0x3d9c5a91	0.07634462
72	0xbd980d55	-0.07424418
73	0xbe0e496d	-0.13895197
74	0xbe06159d	-0.13094182
75	0xbe9f310f	-0.31092116
76	0x3e1f155b	0.1553549
77	0xbe34e6d3	-0.17666177
78	0xbd1db5fa	-0.038503624
79	0xbe7fe1b7	-0.24988447
80	0x3dee05d2	0.11622204
81	0x3ce01c13	0.027357137
82	0xbdea39ed	-0.1143683
83	0x3dce95b7	0.100871496
84	0x3c1a8410	0.0094309
85	0x3da3c8af	0.07997262
86	0xbc47bfc6	-0.012191718
87	0x3d665e31	0.05624217
88	0x3c9c956d	0.01911422
89	0x3e8dbb4d	0.27681962
90	0xbd7ce398	-0.061740488
91	0x3df1edab	0.1181291
92	0xbe7699f7	-0.2408217
93	0x3e13a467	0.14418183
94	0xbe8e011f	-0.2773523
95	0xbe040003	-0.1289063
96	0xbe2cc663	-0.16872554
97	0xbd900e84	-0.07034019
98	0xbe8b76b1	-0.27238992
99	0x3e03d057	0.12872444
100	0xbda8f1af	-0.082492225
101	0x3dc4aba4	0.0960305
102	0x3e52283c	0.2052316
103	0xbe37075b	-0.178739
104	0x3e758433	0.23976211
105	0x3ec9513e	0.39319795
106	0xbd9cda6c	-0.07658848
107	0xbcb75b65	-0.022382447
108	0x3d10825d	0.035280574
109	0x3d448463	0.047977816
110	0x3d543ea7	0.051817562
111	0x3e5dd27b	0.21662323
112	0x3dc93384	0.09824279
113	0x3ebd1d67	0.36936495
114	0x3d56baff	0.052424427
115	0xbda3d7d3	-0.080001496
116	0x3e8e1933	0.277536
117	0xbda446cf	-0.08021318
118	0x3de6b50f	0.11265003
119	0xbd6282fd	-0.0553007
120	0x3e4ac75d	0.19802614
121	0xbd22c66a	-0.039740004
122	0x3e6be1f9	0.2303542
123	0xbf07d167	-0.530539
124	0x3e0a141f	0.13484238
125	0xbba6c804	-0.0050897617
126	0xbe644085	-0.22290237
127	0x3e06cdab	0.13164394
128	0x3e348559	0.17628993
129	0x3d7ab3cd	0.061206628
130	0xbeb8fb12	-0.3612905
131	0x3def3113	0.11679282
132	0xbd31049d	-0.04321729
133	0xbe473c9a	-0.19456711
134	0x3eddcc0e	0.43319744
135	0xbe00a40e	-0.12562582
136	0x3e80fc51	0.25192502
137	0x3d9c7e87	0.07641321
138	0x3ea574e9	0.32315758
139	0x3c3d2c0d	0.011546147
140	0xbe669d67	-0.22520982
141	0x3d6196f4	0.0550756
142	0x3beb766e	0.007185749
143	0xbebfc440	-0.37454414
144	0xbd985800	-0.0743866
145	0x3da7b01e	0.081878886
146	0x3d85f132	0.06540145
147	0x3d23d1ab	0.039994877
148	0xbe35a905	-0.17740257
149	0x3dc2db53	0.09514489
150	0x3e12c2a8	0.14332068
151	0x3c87bf3c	0.01657068
152	0xbda8ed7f	-0.08248424
153	0xbc0978f2	-0.008390652
154	0xbd85ea6d	-0.06538854
155	0xbe1cbd0f	-0.15306495
156	0xbdf95904	-0.121751815
157	0x3cdd5fae	0.027023163
158	0x3e3d6f91	0.1849959
159	0x3d8d78f4	0.069078356
160	0x3e929741	0.28631023
161	0x3e278231	0.16358258
162	0x3d8dee8d	0.069302656
163	0x3cde0a0f	0.027104406
164	0xbe11e47b	-0.14247315
165	0xbd886606	-0.066600844
166	0x3d900b0a	0.070333555
167	0xbea4de30	-0.32200766
168	0x3d8b8b8b	0.06813725
169	0xbd865bab	-0.06560453
170	0x3e7d1115	0.24713548
171	0xbcea63cc	-0.02861204
172	0x3e6410f9	0.222721
173	0x3d4066b9	0.046972964
174	0xbe9bb107	-0.304085
175	0x3db7f8e2	0.089830175
176	0xbe3ee44a	-0.18641773
177	0x3d57c24c	0.05267553
178	0x3c6af9ca	0.014341781
179	0xbd26bb32	-0.040705867
180	0x3ce9d2ac	0.028542839
181	0xbe26a98c	-0.16275615
182	0x3dec9d4a	0.11553438
183	0xbdaf72ac	-0.08566794
184	0x3dc745c7	0.09730106
185	0x3e122390	0.14271379
186	0x3dc7f7d2	0.09764065
187	0xbdf99d5c	-0.12188217
188	0x3ed92110	0.42408037
189	0xbe79f88f	-0.24411224
190	0xbd8d6bc1	-0.06905318
191	0x3e587cb4	0.2114132
192	0xbe026f8c	-0.12737864
193	0x3b84cdd9	0.0040528593
194	0xbd9b4c94	-0.075829655
195	0x3de8fec2	0.11376716
196	0x3d3e3cfe	0.046444885
197	0xbd6e723e	-0.05821442
198	0x3e28653c	0.16444868
199	0x3d868110	0.065675855
200	0x3e8c398d	0.27387658
201	0x3e1679b8	0.1469487
202	0xbc8a02ad	-0.016846979
203	0x3d9c6b26	0.076376244
204	0x3dee9044	0.1164861
205	0x3c817c2e	0.015806284
206	0x3e8b93c9	0.2726119
207	0x3dc5ef78	0.09664816
208	0x3e87c7b0	0.26519537
209	0xbd98bead	-0.074582435
210	0x3e353354	0.17695361
211	0x3e2957d7	0.16537414
212	0x3d3a6f00	0.045516014
213	0x3e81f807	0.25384542
214	0x3e68c7f4	0.22732526
215	0x3e921207	0.2852938
216	0x3e6446ca	0.22292629
217	0x3db87609	0.090068884
218	0xbd208ec0	-0.039198637
219	0x3e2ed382	0.17072871
220	0x3e931398	0.28725886
221	0xbdef0f86	-0.11672883
222	0xbd695ed8	-0.056975216
223	0x3e9b90d8	0.30383945
224	0x3dce7dd4	0.100825936
225	0xbe307167	-0.1723076
226	0x3e689a62	0.22715142
227	0xbd6400b3	-0.05566473
228	0xbc2b69a8	-0.010462202
229	0x3b3b8e13	0.0028618618
230	0x3e0f4346	0.13990507
231	0xbdcbdeac	-0.09954581
232	0x3d9e4373	0.07727709
233	0x3e0e52fc	0.13898844
234	0x3e717e52	0.23583344
235	0x3d326441	0.04355264
236	0x3eac9781	0.33709338
237	0xbbeab0fa	-0.0071622105
238	0xbe4f13e2	-0.20222428
239	0x3cbbd6f9	0.022929655
240	0x3da3acdc	0.07991955
241	0x3e83ceb5	0.25743642
242	0x3e305689	0.1722051
243	0x3e1aa86b	0.15103309
244	0x3d7aff1b	0.061278444
245	0x3ec308fa	0.38092786
246	0xbc6d5561	-0.014485688
247	0xbd03135c	-0.032000884
248	0xbdfcc3ee	-0.12342058
249	0x3e36c140	0.17847157
250	0x3eca980a	0.39569122
251	0xbedbf4a0	-0.42960072
252	0x3e3ccf61	0.18438484
253	0x3dc09673	0.09403696
254	0x3e7bd449	0.24592699
255	0x3e5784b7	0.2104672

params,ScannedRNN_0,GRUCell_0,in,bias f4 [64]
0	0xbe146bb7	-0.14494215
1	0x3efb6a97	0.4910476
2	0xbe8365d4	-0.25663626
3	0x3f02d36e	0.51103866
4	0xbef0b483	-0.4701272
5	0xbcd15e17	-0.02555756
6	0x3ee241af	0.44190738
7	0xbceebb4d	-0.029142046
8	0xbe5bd5de	-0.21468303
9	0xbee70419	-0.45120314
10	0x3eab51e0	0.33460903
11	0x3e70a49a	0.2350029
12	0xbed2c939	-0.41169146
13	0xbef02162	-0.4690047
14	0x3f0801ac	0.5312755
15	0xbefec45b	-0.49759182
16	0xbf08fad3	-0.5350773
17	0xbeee1914	-0.46503508
18	0xbec22e78	-0.37926078
19	0xbe9cb7b1	-0.30608895
20	0xbf08746c	-0.53302646
21	0xbeaa9335	-0.33315435
22	0x3e96faae	0.29488128
23	0x3e67bf53	0.22631578
24	0xbf1c515f	-0.6106166
25	0xbefa66c0	-0.48906517
26	0xbe3aa932	-0.18228605
27	0x3ee4b775	0.44671217
28	0xbea645fa	-0.32475263
29	0x3f2537e8	0.6453843
30	0x3f22bbdc	0.635679
31	0x3e885bf5	0.26632658
32	0x3e9a7980	0.30170822
33	0xbe98ad15	-0.2981955
34	0xbebb11f9	-0.3653715
35	0xbda8f47b	-0.08249756
36	0xbf0c6835	-0.5484651
37	0xbee1bb46	-0.4408819
38	0x3ed012c5	0.4063932
39	0x3eb66847	0.35626432
40	0xbe9a0bcd	-0.30087128
41	0xbef7bad4	-0.48384726
42	0xbf10634d	-0.5640152
43	0xbee52786	-0.44756716
44	0xbf0b8656	-0.54501855
45	0xbebcde19	-0.36888197
46	0x3f010508	0.503983
47	0x3e0ee793	0.13955526
48	0x3eb57443	0.35440263
49	0x3eb2907c	0.34875858
50	0x3e1b6693	0.15175848
51	0xbecd9994	-0.40156233
52	0x3f12d731	0.57359606
53	0x3e8d42db	0.2759007
54	0x3ea575d0	0.32316446
55	0x3eaaa9a7	0.3333256
56	0x3ead1f1f	0.33812806
57	0xbee98fe1	-0.45617583
58	0x3e1627db	0.14663641
59	0x3f07affb	0.530029
60	0x3eb41d89	0.35178784
61	0xbee6640f	-0.44998214
62	0x3ea44247	0.32081816
63	0xbd5fbeec	-0.054625437

params,ScannedRNN_0,GRUCell_0,in,kernel f4 [64, 64]
0	0x3edffa44	0.43745625
1	0xbec3d6a3	-0.38249692
2	0x3ed89cc4	0.42307103
3	0xbf128214	-0.57229733
4	0x3f3d2c08	0.7389531
5	0xbdcb0539	-0.099131055
6	0xbed96ce0	-0.42465878
7	0x3f05e215	0.522981
8	0x3e9167f8	0.28399634
9	0x3e6756bd	0.22591682
10	0xbe1ad664	-0.15120846
11	0xbe3d24a0	-0.18471003
12	0x3f43d829	0.7650171
13	0x3e2eab41	0.17057516
14	0xbdb52d46	-0.08846526
15	0x3de73b07	0.112905554
16	0x3eeb72b1	0.4598594
17	0x3dedec9e	0.11617397
18	0x3f146965	0.5797332
19	0x3f0f23d3	0.5591404
20	0x3e210840	0.15725803
21	0x3f1f8829	0.6231714
22	0xbee51faa	-0.4475072
23	0xbe58f73f	-0.21188067
24	0x3f19324d	0.5984238
25	0x3dc7d9bf	0.09758329
26	0x3f175ee2	0.59129155
27	0xbee93d0e	-0.45554394
28	0x3ec6ebeb	0.38851866
29	0xbcd60734	-0.026126482
30	0xbe978d4c	-0.29599988
31	0xbe6af1e3	-0.22943835
32	0x3e4310fa	0.19049445
33	0xbe231d64	-0.1592918
34	0x3e7a601e	0.24450728
35	0xbe3e688c	-0.18594569
36	0x3edfdfc6	0.43725413
37	0x3ea17d1f	0.31540772
38	0xbeda9794	-0.4269377
39	0xbec53267	-0.38515016
40	0x3f2b7c6d	0.66986734
41	0x3eaa148d	0.33218804
42	0x3ee5a1cd	0.44850007
43	0x3ed1a1b1	0.40943673
44	0x3ea91cb1	0.33029702
45	0x3ea8098e	0.3281979
46	0xbed3ab7b	-0.41341767
47	0x3e7a4240	0.24439335
48	0xbea1b1a6	-0.31580848
49	0xbe922a8e	-0.28548092
50	0xbf17c69c	-0.5928743
51	0x3ef233dd	0.47305194
52	0xbedab7a9	-0.42718247
53	0xbf143efa	-0.57908595
54	0xbe95bbf9	-0.29244974
55	0xbf2f385c	-0.6844537
56	0xbf168966	-0.58803403
57	0x3f07f606	0.53109777
58	0xbea9d469	-0.3316987
59	0xbe06d58b	-0.13167398
60	0xbf1e9d90	-0.6195917
61	0x3e951642	0.29118544
62	0x3e867f30	0.2626891
63	0x3bc50ac9	0.0060132486
64	0x3ed83084	0.42224514
65	0xbe6c0497	-0.23048626
66	0x3e18ab78	0.1490916
67	0xbe15b9ce	-0.1462166
68	0x3d4eca39	0.050485823
69	0x3e17a776	0.14809975
70	0xbe2caa62	-0.16861871
71	0x3e16f303	0.14741139
72	0x3df5ba8f	0.11998474
73	0x3e45305a	0.19256726
74	0xbdc10f07	-0.09426694
75	0xbf171be7	-0.5902695
76	0x3ef06085	0.4694864
77	0xbe10728d	-0.14106198
78	0xbe6ffa99	-0.23435439
79	0xbc071fed	-0.008247358
80	0x3f00ae94	0.50266385
81	0x3e1ba650	0.15200162
82	0x3e48bd9d	0.19603582
83	0x3f101d18	0.56294394
84	0x3e66d95c	0.22543854
85	0x3eaf69d6	0.34260434
86	0xbeadae73	-0.33922157
87	0xbe0f4554	-0.1399129
88	0x3e1e5610	0.15462518
89	0xbec6a59c	-0.38798225
90	0x3e8a3454	0.26993048
91	0x3d97d929	0.07414467
92	0x3e1ab509	0.15108122
93	0x3d8dcc5a	0.069237426
94	0x3c1100e5	0.008850311
95	0xbf30a916	-0.69008005
96	0xbdcd2db2	-0.10018481
97	0x3e669812	0.22518948
98	0x3f106b8c	0.56414104
99	0x3e109155	0.1411794
100	0x3e5551b8	0.20831954
101	0x3e1e1ac5	0.154399
102	0x3d2b286c	0.041786596
103	0xbe8341b5	-0.25636068
104	0x3e1aebee	0.15129063
105	0x3e306c89	0.17228903
106	0x3e397268	0.18110049
107	0xbdef8740	-0.11695719
108	0x3e52a19b	0.2056946
109	0x3efd924a	0.49525672
110	0xbe1b797d	-0.15183063
111	0x3e4e3ede	0.2014117
112	0xbef5c396	-0.48000783
113	0xbe919aca	-0.28438407
114	0x3d4a26cb	0.049353402
115	0x3e8cab3e	0.27474397
116	0xbeeb2e14	-0.45933592
117	0xbe7c69cf	-0.24649738
118	0xbef3f4d0	-0.47647715
119	0xbe9f346d	-0.31094685
120	0xbeafe4b2	-0.34354168
121	0x3f07e2c6	0.53080404
122	0xbf0b45e1	-0.544035
123	0xbe239914	-0.15976363
124	0xbf3f61bf	-0.74758524
125	0x3ece2239	0.40260485
126	0xbd8265ca	-0.06367071
127	0x3e565d95	0.20934136
128	0x3ece1e42	0.4025746
129	0x3e78bac3	0.24289994
130	0x3e597f8d	0.21240063
131	0xbe9cbcdc	-0.30612838
132	0xbe05fab9	-0.13083924
133	0x3ee09065	0.43860164
134	0x3da18b06	0.07887845
135	0x3e804620	0.250535
136	0x3e1beb3c	0.15226454
137	0xbc9198c3	-0.017773038
138	0xbeaafa59	-0.33394125
139	0xbe01bda6	-0.12670001
140	0x3d2c8c29	0.042125855
141	0x3e75e30d	0.24012394
142	0x3c213166	0.009838438
143	0x3da60546	0.081064746
144	0x3e1348b5	0.14383204
145	0xbd9a2bd7	-0.07527893
146	0xbe422ec2	-0.18963149
147	0x3e69f79e	0.22848365
148	0xbe0a238b	-0.13490121
149	0xbec27d78	-0.3798635
150	0xbe49be2f	-0.19701456
151	0xbefe8049	-0.4970725
152	0xbe69acce	-0.22819826
153	0xbd6d3aea	-0.057917513
154	0x3ed3e207	0.41383383
155	0xbdf4c4d5	-0.11951605
156	0x3c11f7e6	0.008909201
157	0xbed7a65a	-0.42119104
158	0x3d5bbde7	0.053647902
159	0xbec17753	-0.3778635
160	0xbd491f5a	-0.049102165
161	0x3ce79bf0	0.028272599
162	0xbe9abf97	-0.30224296
163	0xbe81a7cb	-0.25323328
164	0xbdb32d4e	-0.087488756
165	0x3d927df9	0.071529336
166	0xbe820d53	-0.2540079
167	0x3d824c96	0.06362264
168	0xbe1367ec	-0.14395112
169	0x3e07fb2f	0.13279413
170	0xbe097f0c	-0.13427371
171	0x3e883712	0.26604515
172	0x3e8d6912	0.27619225
173	0xbe134832	-0.14383009
174	0xbe18b36c	-0.14912194
175	0x3f08b0af	0.533946
176	0xbe0cc3d8	-0.13746583
177	0x3f191927	0.59804004
178	0xbe879a9a	-0.2648514
179	0x3c7951bc	0.015217241
180	0xbe8cc748	-0.2749579
181	0xbe5fd0b6	-0.2185696
182	0xbea3ebe5	-0.3201591
183	0xbd894feb	-0.06704696
184	0xbf16d9cf	-0.589261
185	0x3ea40fd5	0.3204333
186	0xbeef34b2	-0.4671989
187	0x3e28f69e	0.16500327
188	0xbf053899	-0.52039486
189	0xbea33ddd	-0.31883135
190	0x3e12d8f5	0.14340575
191	0x3ebe797b	0.37202057
192	0x3e9373b1	0.28799203
193	0xbf228a46	-0.6349224
194	0x3e82b611	0.2552953
195	0xbf05c5a4	-0.522547
196	0x3ea65822	0.32489115
197	0x3d30f2b3	0.043200206
198	0xbecc6e03	-0.39927682
199	0x3eb652a9	0.3560994
200	0xbe3fc0a4	-0.1872583
201	0x3ea014ec	0.31265962
202	0xbe44dcc2	-0.19224837
203	0xbe9373cc	-0.28799284
204	0x3f08d746	0.5345348
205	0x3f1b4296	0.6064848
206	0xbe8dd733	-0.27703246
207	0x3ee84a1b	0.45369038
208	0x3c8964f0	0.016771764
209	0x3f114337	0.56743187
210	0x3f008e90	0.50217533
211	0x3e63ff3d	0.22265334
212	0x3f076925	0.5289481
213	0x3c9b8b78	0.018987402
214	0xbcc9750f	-0.02459195
215	0xbebf4cb6	-0.37363213
216	0x3f1c5041	0.6105996
217	0x3ed59e9c	0.41722572
218	0xbd7a3cf1	-0.061093275
219	0xbe881ade	-0.26582998
220	0x3e44118b	0.19147317
221	0xbef8f40f	-0.48623702
222	0xbf139dca	-0.5766264
223	0xbece3e2c	-0.40281808
224	0xbeffa0e0	-0.49927425
225	0x3eda724d	0.4266533
226	0x3e1f718e	0.15570661
227	0x3e569395	0.20954736
228	0x3ecb3d83	0.39695367
229	0x3ef7f0ff	0.48426053
230	0xbe73ce69	-0.23809208
231	0xbee876a2	-0.4540301
232	0x3e968584	0.2939874
233	0x3e7b5fff	0.24548338
234	0x3e8b6922	0.27228647
235	0x3efe02ed	0.49611607
236	0x3e87f52d	0.26554242
237	0x3eb7a6ab	0.35869345
238	0xbea2d9e4	-0.31806862
239	0x3e86db84	0.26339352
240	0xbed6786f	-0.4188876
241	0xbe3e821c	-0.1860432
242	0xbe4c7469	-0.19966282
243	0x3ddc8005	0.10766605
244	0xbeea9270	-0.45814848
245	0xbe16171a	-0.1465725
246	0xbeff0586	-0.49808902
247	0xbeb42dc0	-0.35191154
248	0xbecec29c	-0.4038285
249	0x3dbab31c	0.09116194
250	0xbe50b7a2	-0.2038255
251	0xbe5fa165	-0.21838911
252	0xbed9993f	-0.4249973
253	0x3ef3f4ba	0.4764765
254	0xbe000ad0	-0.12504125
255	0x3ddf218c	0.108950704

params,ScannedRNN_0,GRUCell_0,ir,bias f4 [64]
0	0x3e5455ed	0.20735903
1	0x3e50d2a2	0.2039285
2	0x3e1566f7	0.14590059
3	0x3d1e2a9c	0.038614854
4	0x3eac05c4	0.3359815
5	0x3e9a0a30	0.30085897
6	0x3eef9056	0.46789807
7	0xbd926011	-0.071472295
8	0x3d83245e	0.06403421
9	0x3e4d9d8c	0.2007963
10	0xbd7a28e0	-0.061074138
11	0xbe8b4465	-0.27200618
12	0x3ea7ce52	0.32774597
13	0x3e72c782	0.23708919
14	0x3e5bbc4b	0.21458547
15	0x3edc0be5	0.42977825
16	0xbc42a9a5	-0.011881267
17	0x3d8d320b	0.068943106
18	0x3db11289	0.086461134
19	0x3ceee54b	0.02916207
20	0x3ea6682b	0.3250135
21	0xbe2078b8	-0.1567105
22	0x3c1a351f	0.009412079
23	0xbcb953ee	-0.022623029
24	0x3e3f96bf	0.18709849
25	0x3d0ca436	0.03433629
26	0x3d47d455	0.04878648
27	0x3e17e0b1	0.14831807
28	0x3e2bd7cc	0.16781539
29	0xbc5637ae	-0.0130747985
30	0x3f0edd8e	0.55806816
31	0x3dbeca9f	0.09315991
32	0x3f06ad78	0.5260844
33	0x3e20022c	0.15625829
34	0x3e815928	0.25263333
35	0xbdda80b4	-0.106690794
36	0x3df43784	0.11924651
37	0x3f0f901d	0.56079274
38	0x3ca1cae7	0.019750072
39	0x3ed46dd1	0.41490033
40	0x3d5a8b4f	0.05335551
41	0x3ade9d4e	0.0016984136
42	0xbe75438d	-0.2395155
43	0x3de4d232	0.11172904
44	0xbceaec99	-0.028677272
45	0xbc42f315	-0.011898776
46	0x3ef7218f	0.4826779
47	0xbe4913d3	-0.19636469
48	0xbd3af9a4	-0.045648232
49	0xbd352ca2	-0.04423202
50	0xbcb32ac4	-0.021870978
51	0xbdbcd447	-0.09220176
52	0x3e15e570	0.14638305
53	0x3a996756	0.001170377
54	0xbde8a8a3	-0.1136029
55	0x3e918130	0.28418875
56	0x3b8a1316	0.004213701
57	0xbdb328c6	-0.08748011
58	0x3e939a59	0.28828695
59	0x3eb048c4	0.34430516
60	0x3e9ee231	0.31031945
61	0x3eb16842	0.34649855
62	0x3e0f639d	0.14002843
63	0xbe0bc42a	-0.1364905
