baselines/pretrained/MPE_simple_world_comm_v3/iql_ps.safetensors (safetensors, 116368 bytes, 14 tensors)

params,Dense_0,bias f4 [64]
0	0xbec2cbb9	-0.38046053
1	0xbe250ae7	-0.1611744
2	0xbedf7287	-0.43642065
3	0xbde10715	-0.10987679
4	0xbdb03b24	-0.0860503
5	0xbeb31fe7	-0.34985277
6	0xbd68f2ec	-0.056872293
7	0x3e0927a5	0.1339403
8	0xbf07fcc4	-0.53120065
9	0x3e49cc68	0.19706881
10	0x3f23ae0a	0.6393744
11	0x3e52f2ee	0.20600483
12	0x3e4af1c6	0.19818792
13	0x3eccbc59	0.39987448
14	0xbec3d893	-0.3825117
15	0xbeb9244f	-0.36160514
16	0xbea852b7	-0.32875606
17	0xbf847c80	-1.0350494
18	0xbc266d6e	-0.010157926
19	0xbe7994cf	-0.24373172
20	0x3cbede84	0.023299463
21	0xbe356f63	-0.17718272
22	0xbee6f49d	-0.451085
23	0x3c1d45cd	0.009599161
24	0xbf85705b	-1.0424913
25	0x3e8fad96	0.28062123
26	0xbef2829b	-0.4736527
27	0xbec1e1f5	-0.37867704
28	0xbec56d4a	-0.38559943
29	0xbe345116	-0.17609057
30	0xbed85499	-0.42252043
31	0xbe235315	-0.15949662
32	0xbed7c25d	-0.42140475
33	0xbe8f0bcf	-0.27938697
34	0xbf086a5c	-0.5328729
35	0xbef28e38	-0.4737413
36	0xbf15b206	-0.5847477
37	0x3cb2f49c	0.021845154
38	0x3d3c4026	0.045959614
39	0xbea18aea	-0.31551296
40	0xbf07457e	-0.5284041
41	0xbe5f7f67	-0.21825944
42	0x3e96fc16	0.294892
43	0x3e2ee458	0.17079294
44	0xbe816c66	-0.25278014
45	0xbf8e0e42	-1.1098101
46	0xbf7bc5ca	-0.9834868
47	0xbf08b8ce	-0.5340699
48	0xbe2f6ac8	-0.17130578
49	0xbe59d677	-0.21273218
50	0x3e6f066b	0.23342292
51	0xbe9f918a	-0.31165725
52	0xbe55a7fb	-0.2086486
53	0xbda94d82	-0.082667366
54	0xbea7f687	-0.32805273
55	0x3c73b3c2	0.014874401
56	0xbe0f76ea	-0.14010206
57	0xbe571650	-0.21004605
58	0xbed24859	-0.41070822
59	0xbeaf6d4a	-0.34263068
60	0xbd409794	-0.047019556
61	0x3d3e4710	0.04645449
62	0xbf91e060	-1.1396599
63	0xbe1129e0	-0.1417613

params,Dense_0,kernel f4 [40, 64]
0	0x3d6ed233	0.05830593
1	0x3f3471c6	0.70486104
2	0x3f273d6e	0.6532811
3	0xbe08ac53	-0.13346986
4	0xbee9abee	-0.45638984
5	0xbca2587e	-0.019817587
6	0x3cb4a867	0.022052957
7	0x3ea0fc0b	0.31442294
8	0x3f1c09d1	0.6095248
9	0xbe85a558	-0.2610271
10	0xbc8e0119	-0.017334508
11	0x3e447ec3	0.19188981
12	0xbdcec5fb	-0.100963555
13	0xbdccd3c7	-0.10001331
14	0x3f00d41e	0.50323665
15	0xbf10375f	-0.5633449
16	0x3f5eb793	0.8699886
17	0x3f530dcd	0.82442933
18	0xbdee2524	-0.11628178
19	0xbf0b140e	-0.54327476
20	0x3c448aaa	0.011995951
21	0xbcbbf2f3	-0.022942996
22	0xbef8cb6c	-0.485927
23	0x3c6c4d83	0.014422777
24	0xbd515e2d	-0.051115204
25	0x3dafcf3a	0.08584447
26	0xbebd9dba	-0.37034398
27	0xbdda4d44	-0.106592685
28	0x3f14f4af	0.5818586
29	0xbd2759f3	-0.040857267
30	0xbf426026	-0.7592796
31	0xbc9f9352	-0.019479427
32	0xbd509758	-0.050925583
33	0xbd3320b0	-0.043732345
34	0x3f3e1268	0.74246836
35	0xbecdeeb3	-0.40221176
36	0xbf22cd53	-0.6359455
37	0x3c2956b8	0.010335617
38	0x3c97caef	0.018529383
39	0x3eb785b9	0.3584421
40	0xbf2906f8	-0.6602626
41	0x3de521b1	0.11188067
42	0x3e205d1d	0.1566052
43	0xbe460f52	-0.19341782
44	0xbef1ac68	-0.47201848
45	0xbf57d377	-0.84307045
46	0xbd9646be	-0.07337712
47	0x3ed2014c	0.41016614
48	0xbe056d98	-0.13030088
49	0xbe1698d2	-0.14706734
50	0xbb53672d	-0.0032257542
51	0x3e0ed1ab	0.1394717
52	0xbe4a457f	-0.19753073
53	0xbd86c813	-0.0658113
54	0x3e3a4073	0.18188648
55	0xbc568d7e	-0.013095258
56	0xbd4f09ab	-0.05054633
57	0xbdb3ce41	-0.08779574
58	0x3f6a3288	0.91483355
59	0xbf0731ee	-0.5281056
60	0xbd8b2d19	-0.06795711
61	0x3d3ee33f	0.046603438
62	0x3d7b01d0	0.061281025
63	0x3d91263a	0.07087369
64	0x3c9f055f	0.01941174
65	0xbe462d26	-0.1935316
66	0x3f257df8	0.6464534
67	0x3e8ec404	0.27883923
68	0x3e14bab4	0.14524347
69	0x3e2b5760	0.1673255
70	0x3c438bd0	0.011935189
71	0x3ebc7065	0.368045
72	0xbf2e648e	-0.68122184
73	0xbd3d578b	-0.046226066
74	0xbd5b6787	-0.05356553
75	0xbe2b0009	-0.16699232
76	0xbefdc9f8	-0.49568152
77	0xbc8a3d24	-0.016874857
78	0xbf32c874	-0.6983712
79	0x3ee93237	0.45546123
80	0xbec12e9b	-0.3773087
81	0xbd47a9f8	-0.04874608
82	0x3e0ef0a4	0.13958985
83	0xbee5c795	-0.44878832
84	0xbd691c26	-0.05691161
85	0x3e3af182	0.1825619
86	0xbe5d93c2	-0.21638396
87	0xbe37af1f	-0.17937897
88	0xbf3ac567	-0.7295746
89	0x3d106606	0.035253547
90	0xbf005e3e	-0.501438
91	0xbd95ecb4	-0.07320538
92	0x3f2ccdf6	0.6750177
93	0x3e2554e3	0.16145663
94	0x3f9093ab	1.1295065
95	0x3c9caa6c	0.019124232
96	0x3d00173d	0.03127216
97	0x3dd91c7e	0.106011376
98	0x3ebe39d0	0.37153482
99	0x3ee2c4cf	0.44290778
100	0xbf6e9343	-0.93193454
101	0xbdc40413	-0.095710896
102	0xbca6e361	-0.020372095
103	0xbf038b22	-0.51384175
104	0x3f360ebf	0.7111625
105	0x3e2fd8c6	0.17172536
106	0xbd9dc196	-0.07702939
107	0xbd7c8645	-0.061651487
108	0xbef2c6cc	-0.47417295
109	0xbdb1a437	-0.086738996
110	0x3f1826cc	0.594342
111	0x3e0d7928	0.13815749
112	0xbe46f25a	-0.19428387
113	0xbef4b0d5	-0.47791162
114	0x3d08b4b1	0.033375446
115	0x3be2aea2	0.0069177905
116	0xbe6669d0	-0.22501302
117	0x3dde0572	0.10840882
118	0xbdd34581	-0.10315991
119	0xbe812a6e	-0.25227684
120	0xbe4e1652	-0.20125702
121	0xbeaf4124	-0.34229386
122	0x3d9f2491	0.07770646
123	0x3d103a5b	0.035211902
124	0xbe96a557	-0.2942302
125	0x3e88345b	0.26602444
126	0x3f2b1106	0.6682285
127	0x3cd3d4ab	0.025858244
128	0x3d8133b1	0.063086875
129	0xbd67991e	-0.05654251
130	0x3f8440a1	1.0332223
131	0xbeba2fc9	-0.36364582
132	0x3f4926b4	0.7857468
133	0x3ec67f7c	0.38769138
134	0xbef6ec5a	-0.48227197
135	0xbf2ade6d	-0.66745645
136	0x3f770c8b	0.96503514
137	0x3d4c55f3	0.049886655
138	0x3d7add13	0.06124599
139	0x3e84454c	0.2583412
140	0xbe61be7b	-0.22045319
141	0xbe717b8c	-0.23582286
142	0x3fc49bd8	1.536006
143	0xbfd01b76	-1.625838
144	0x3f2d0573	0.6758644
145	0x3fed2b7d	1.8528897
146	0xbe9036ef	-0.2816691
147	0xbf4a81b3	-0.79104155
148	0xbe11d024	-0.14239556
149	0xbe88e2f3	-0.2673565
150	0xbf4e7ca3	-0.8065893
151	0x3de8de40	0.11370516
152	0x3adcad6d	0.0016836353
153	0x3ee69b98	0.45040584
154	0xbefc21b8	-0.49244475
155	0xbedcf60b	-0.43156466
156	0x3eb6aca9	0.35678604
157	0x3df8d8da	0.12150736
158	0xbdca7fe0	-0.098876715
159	0x3cb7c504	0.022432812
160	0x3c2e38be	0.010633646
161	0xbe02c961	-0.12772132
162	0x3f999cce	1.2000978
163	0xbfa3b388	-1.2789164
164	0xbf5f5a4b	-0.8724715
165	0xbe856000	-0.26049805
166	0xbe1c00b2	-0.1523464
167	0x3de6c683	0.11268332
168	0xbf211921	-0.6292897
169	0xbf573974	-0.8407204
170	0x3dd28dc1	0.10280944
171	0xbe93234f	-0.28737876
172	0xbfdd4bc2	-1.7288744
173	0xc00412ee	-2.0636554
174	0x3c93215d	0.017960245
175	0x3f04a058	0.51807165
176	0xbe05ea5d	-0.13077684
177	0x3d596fa5	0.05308499
178	0xbdc52243	-0.096256755
179	0x3ec4ae56	0.38414258
180	0xbebfdc92	-0.3747297
181	0xbe65320d	-0.22382374
182	0x3e5feaa4	0.21866852
183	0xbed5abdf	-0.4173269
184	0xbf80d54d	-1.0065094
185	0x3b8105b4	0.0039374474
186	0x3f7a3b9b	0.977472
187	0xbe87fcb7	-0.26559994
188	0xbde2d079	-0.11074919
189	0x3db8023d	0.08984802
190	0x3d1361fe	0.035982125
191	0x3e96ff67	0.29491732
192	0xbe62b87c	-0.22140688
193	0x3ee63192	0.44959694
194	0x3fb6a4b9	1.4269019
195	0x3ddc95bc	0.10770747
196	0xbf2ea46a	-0.68219626
197	0xbef3af36	-0.47594613
198	0x3e8c8d5d	0.27451602
199	0xbeff35be	-0.4984569
200	0xbf518087	-0.8183674
201	0xbf01807d	-0.5058668
202	0xbd9d0f65	-0.07668952
203	0x3e209e59	0.15685405
204	0x3f265b8d	0.64983445
205	0x3d282ae6	0.041056536
206	0xbfafcef5	-1.3735033
207	0x3f9b81bc	1.2148967
208	0xbf39bd02	-0.7255403
209	0xbc721277	-0.01477491
210	0xbdd86f9e	-0.10568164
211	0xbf815ab1	-1.0105802
212	0xbec74e81	-0.3892708
213	0x3ecbc834	0.3980118
214	0xbef6047c	-0.48050296
215	0xbeb3e7b2	-0.35137707
216	0xc0024571	-2.0354884
217	0xbd984d97	-0.07436674
218	0xbee17c2d	-0.4404005
219	0x3e03e0cd	0.12878723
220	0x3f7321df	0.9497356
221	0x3e865b76	0.26241654
222	0x3f19af39	0.60032994
223	0xbd0bc7c3	-0.034126054
224	0xbcf48421	-0.02984816
225	0x3ef5215c	0.47877014
226	0x3f5b5974	0.8568337
227	0x3f935a2f	1.1511897
228	0xbf3e7dd4	-0.7441075
229	0xbe9e0fd2	-0.30871445
230	0xbeee5157	-0.46546432
231	0xbe9d0921	-0.30671027
232	0x3e8af336	0.2713868
233	0xbe76a441	-0.24086095
234	0xbec72430	-0.38894796
235	0xbeba51c0	-0.36390495
236	0xbfa35b34	-1.2762208
237	0x3d0f1586	0.034932636
238	0x3fcdfdd7	1.6093091
239	0xbe08254a	-0.13295475
240	0xbe17e20a	-0.14832321
241	0x3d84c7fc	0.064834565
242	0x3d906f06	0.07052426
243	0x3e040bd9	0.12895145
244	0xbde3954a	-0.11112459
245	0x3f055429	0.52081543
246	0x3db9992f	0.090624206
247	0xbebf21e2	-0.37330538
248	0xbe15b92e	-0.14621422
249	0x3db286d7	0.08717125
250	0x3e1f91c4	0.15582949
251	0xbe3aac07	-0.18229686
252	0xbdf44ca2	-0.11928679
253	0x3ea7e124	0.32788956
254	0x3ff384e7	1.9024934
255	0x3e38001e	0.17968795

params,Dense_1,bias f4 [20]
0	0xbe58799d	-0.21140142
1	0xbdc88e99	-0.09792823
2	0xbe3256e6	-0.17415962
3	0x3c73408b	0.014846931
4	0xbe135e79	-0.14391507
5	0x3ee95c7a	0.45578367
6	0x3f054ab6	0.52067125
7	0x3f051204	0.51980615
8	0x3f0c9745	0.5491832
9	0x3f1ca279	0.61185414
10	0x3ee6b58d	0.45060387
11	0x3ef8895a	0.4854229
12	0x3ef89e00	0.48558044
13	0x3f073c9e	0.5282687
14	0x3ee6ef4a	0.45104438
15	0x3ef593e3	0.4796439
16	0x3f128f55	0.5724996
17	0x3ec4746d	0.38370076
18	0x3f076dec	0.529021
19	0x3f0112bc	0.5041921

params,Dense_1,kernel f4 [64, 20]
0	0x3f636f51	0.8884173
1	0x3f44c7b8	0.76867247
2	0x3f61a697	0.8814482
3	0x3f546e73	0.8298103
4	0x3f4d9c82	0.80316937
5	0x3e837200	0.25672913
6	0x3ede3a37	0.4340379
7	0x3e815a65	0.25264278
8	0x3dae6b99	0.085166164
9	0x3d402b0b	0.04691605
10	0x3ed1f568	0.41007543
11	0x3e8b6e36	0.27232522
12	0x3e9008cf	0.2813172
13	0xbe4aa5cb	-0.19789807
14	0x3db1ae26	0.08675794
15	0x3ea8a98c	0.32941854
16	0x3ead8c81	0.33896258
17	0x3e98ee2c	0.2986921
18	0x3ea3bfa3	0.31982145
19	0x3c47a563	0.012185427
20	0x3d8d4371	0.06897629
21	0x3e23507c	0.15948671
22	0x3a541847	0.0008090776
23	0x3d66d43c	0.056354746
24	0xbdbb5034	-0.09146157
25	0xbec9d701	-0.39421847
26	0xbe143bd2	-0.14475945
27	0xbe738f90	-0.23785233
28	0xbe9bce95	-0.30431047
29	0xbe8904c3	-0.26761445
30	0xbdd00907	-0.10157972
31	0xbf03fe66	-0.51560056
32	0xbe8393f2	-0.2569881
33	0xbc987007	-0.018608106
34	0xbe599a9d	-0.21250387
35	0xbe9b3365	-0.30312648
36	0xbea1162a	-0.31462222
37	0xbed4f9ea	-0.4159692
38	0xbe7bba6d	-0.24582835
39	0xbede2367	-0.43386385
40	0xbef34290	-0.4751172
41	0xbf032e6f	-0.5124273
42	0xbf021366	-0.5081085
43	0xbf1d69db	-0.6148965
44	0xbeee5f0c	-0.4655689
45	0xbf0378b4	-0.51356053
46	0xbef04c55	-0.46933237
47	0xbe8d9d92	-0.2765928
48	0xbeade5d2	-0.339644
49	0xbf07026c	-0.5273807
50	0xbeb57613	-0.35441646
51	0xbedb7282	-0.428608
52	0xbeb3ec5a	-0.3514126
53	0xbf0f1e96	-0.55906045
54	0xbf0a8bc6	-0.5411953
55	0xbee380f2	-0.44434315
56	0xbf175d69	-0.5912691
57	0xbe9d15fc	-0.30680835
58	0xbee3428b	-0.44386706
59	0xbeac5d04	-0.33664715
60	0xbecf14f4	-0.40445673
61	0xbed1bbb0	-0.40963507
62	0xbf10cab5	-0.56559306
63	0xbe9a1a40	-0.30098152
64	0xbf2592aa	-0.64676917
65	0xbe805ef5	-0.25072446
66	0xbd8faf75	-0.07015888
67	0xbea5c315	-0.32375398
68	0xbe2a1c3e	-0.16612336
69	0xbf0f35bc	-0.5594137
70	0xbe909d32	-0.2824493
71	0xbf18e80b	-0.5972907
72	0xbd81384c	-0.06309566
73	0xbe82247e	-0.25418466
74	0xbedd45c7	-0.43217298
75	0xbca502dd	-0.020142967
76	0xbf2ea8d7	-0.6822638
77	0xbebbf2b0	-0.36708593
78	0xbecde935	-0.40216985
79	0xbe84e398	-0.2595489
80	0xbece4d96	-0.40293568
81	0xbdb17b4e	-0.08666097
82	0xbed25781	-0.41082385
83	0xbdd98afb	-0.106222115
84	0xbe814b00	-0.25252533
85	0xbda16889	-0.078812666
86	0x3e946310	0.2898183
87	0xbe1a089c	-0.15042347
88	0x3e72892d	0.23685141
89	0x3d606831	0.054786865
90	0x3e90f3cb	0.28311
91	0x3e6cc9f6	0.23123917
92	0x3d482406	0.04886248
93	0xbeb1286a	-0.34601146
94	0x3e7eafd7	0.24871765
95	0x3e2f6686	0.17128953
96	0xbe19f136	-0.15033421
97	0x3eba0b21	0.36336616
98	0x3ea5a0a1	0.32349113
99	0x3e8ca0d2	0.27466446
100	0x3f420f2b	0.75804394
101	0x3ef60494	0.48050368
102	0x3f2d2090	0.6762781
103	0x3f43638f	0.7632379
104	0x3ed5031d	0.41603938
105	0x3eaf1734	0.3419739
106	0x3f0c131e	0.5471667
107	0x3e3f7fa6	0.18701038
108	0x3ed98c93	0.42490062
109	0x3f35b056	0.7097219
110	0x3f2ae077	0.66748756
111	0x3f30fd51	0.6913653
112	0xbcfd1d8b	-0.030897876
113	0x3deb41f4	0.11487189
114	0x3ece684d	0.4031395
115	0x3e8a0d2a	0.26963168
116	0x3ebf59e4	0.3737327
117	0xbe06733e	-0.13129899
118	0x3ec01f30	0.37523794
119	0xbe1466cb	-0.14492337
120	0xbf5c8d12	-0.86152756
121	0xbedeaff5	-0.4349362
122	0xbf6cca37	-0.92496055
123	0xbf6403fe	-0.8906859
124	0xbf817e6f	-1.011671
125	0xbefed1bd	-0.49769393
126	0xbf2000f8	-0.6250148
127	0xbef7281c	-0.4827279
128	0xbf613cd2	-0.8798343
129	0xbf3660a4	-0.7124121
130	0xbf05d034	-0.5227082
131	0xbf3a16e7	-0.72691196
132	0xbf65fb89	-0.8983694
133	0xbf2ce080	-0.6753006
134	0xbf620387	-0.8828663
135	0xbf0426a0	-0.5162144
136	0xbefd16d0	-0.49431467
137	0xbf59e06c	-0.85108066
138	0xbf0a16a0	-0.53940773
139	0xbf568456	-0.8379568
140	0x3ede3fa2	0.43407923
141	0x3f367fd6	0.7128881
142	0x3f26bab8	0.6512866
143	0x3ecb3bac	0.39693964
144	0x3f1ac9dc	0.6046426
145	0xbe782aef	-0.24235128
146	0xbe1929ed	-0.149574
147	0xbf13222a	-0.57474005
148	0xbd47537c	-0.0486636
149	0xbe441d10	-0.19151711
150	0xbef1813a	-0.47168905
151	0xbe8bf18e	-0.2733273
152	0xbe395a6e	-0.18100902
153	0xbec637a6	-0.3871433
154	0xbeaf8e31	-0.3428817
155	0x3d7a1754	0.061057404
156	0xbe9934ea	-0.29923183
157	0xbef43931	-0.47699884
158	0xbe256f50	-0.16155744
159	0xbefb22dc	-0.49050033
160	0xbf127f1f	-0.5722522
161	0xbf3b8831	-0.73254687
162	0xbee9311b	-0.45545277
163	0xbf2ae814	-0.66760373
164	0xbf245fc7	-0.64208645
165	0x3e796f42	0.24358848
166	0x3da81168	0.08206445
167	0x3daae4b0	0.083444
168	0x3e77a4e6	0.24183998
169	0x3e96714d	0.29383317
170	0x3eaca502	0.3371964
171	0x3d7c9b1e	0.06167137
172	0x3dc0557a	0.09391303
173	0xbd52e927	-0.051491883
174	0xbccf14a4	-0.025278397
175	0xbd9424e7	-0.07233601
176	0xbe05896f	-0.13040708
177	0x3e468048	0.19384873
178	0x3e15e51c	0.1463818
179	0x3df6ee83	0.12057211
180	0xbf2652fc	-0.64970374
181	0xbf4c6ba1	-0.7985173
182	0xbf471ec9	-0.7778135
183	0xbecd30ab	-0.40076193
184	0xbe9f39d7	-0.31098816
185	0xbeb16e39	-0.34654406
186	0xbec8ac87	-0.39194128
187	0xbe9bc940	-0.3042698
188	0xbf1eb1e8	-0.61990213
189	0xbece7157	-0.40320846
190	0xbe0303b5	-0.12794383
191	0xbec9d382	-0.3941918
192	0xbec1e14b	-0.37867197
193	0xbe9e8a64	-0.3096496
194	0xbf2c779a	-0.6737
195	0xbefd1184	-0.49427426
196	0xbddf3003	-0.108978294
197	0xbf25f6cb	-0.648297
198	0xbeba8c6f	-0.36435267
199	0xbe87dad5	-0.26534143
200	0xbf82590b	-1.0183424
201	0xbf2ad0f3	-0.6672508
202	0xbf88c01e	-1.068363
203	0xbf657181	-0.8962632
204	0xbfa1baf4	-1.2635179
205	0xbd14e880	-0.03635454
206	0xbeecf7d5	-0.4628283
207	0xbf11896f	-0.5685033
208	0xbe900df2	-0.2813564
209	0xbf05eb1e	-0.52311885
210	0xbedaa86c	-0.4270662
211	0xbe065c77	-0.1312121
212	0xbea66307	-0.32497427
213	0xbed81a55	-0.4220759
214	0xbe8a017a	-0.26954252
215	0xbf0c9799	-0.5491882
216	0xbe6f5383	-0.23371701
217	0xbe65f39f	-0.22456215
218	0xbe17677d	-0.14785571
219	0xbdf043e0	-0.11731696
220	0x3f408e9b	0.752176
221	0x3f48ae4d	0.7839096
222	0x3f424b42	0.75896084
223	0x3f7b1e89	0.9809347
224	0x3f127623	0.5721151
225	0x3eac10c0	0.3360653
226	0x3dd175f5	0.10227577
227	0xbd6effc8	-0.0583494
228	0x3e372721	0.1788602
229	0xbd3e5a86	-0.04647305
230	0x3e5e3f14	0.2170375
231	0xbe11bc29	-0.14231934
232	0x3d15de6a	0.036589064
233	0xbdeeb28b	-0.11655148
234	0x3c568380	0.0130928755
235	0x3e7972ec	0.24360245
236	0x3ea2ea4a	0.31819373
237	0xbd3c9583	-0.046041023
238	0x3e1c7216	0.15277895
239	0x3e0ca278	0.13733852
240	0x3f2cb596	0.6746458
241	0x3f0dc5e3	0.55380076
242	0x3f2e921c	0.68191695
243	0x3f27e388	0.6558156
244	0x3f21393e	0.6297797
245	0x3e5e7ac8	0.21726525
246	0x3e16df11	0.1473353
247	0x3ee81b4f	0.45333335
248	0x3ec2cad8	0.38045382
249	0x3e998172	0.2998157
250	0x3ec80368	0.390651
251	0x3e257300	0.1615715
252	0x3e06e32b	0.13172595
253	0x3e9e89ef	0.3096461
254	0x3e651900	0.22372818
255	0x3eb6e429	0.35720947

params,ScannedRNN_0,GRUCell_0,hn,bias f4 [64]
0	0x3ef2bdd5	0.47410455
1	0xbd11bc0b	-0.035579722
2	0xbf00bd93	-0.5028927
3	0xbe124535	-0.14284213
4	0x3e082663	0.13295893
5	0x3de4f982	0.11180402
6	0x3c9b0772	0.018924449
7	0xbe6c4dea	-0.23076597
8	0x3da4d79c	0.08048937
9	0xbef75372	-0.4830585
10	0xbf1b9bf8	-0.60784864
11	0x3d50212f	0.050812896
12	0x3e431463	0.19050746
13	0x3ed5bd64	0.41746056
14	0x3efc2afe	0.4925155
15	0xbb4c27ee	-0.003115173
16	0xbe262825	-0.16226251
17	0x3d909c8d	0.0706111
18	0x3d9d34ca	0.07676084
19	0xbc8c5057	-0.017128153
20	0xbdf66537	-0.12031024
21	0xbd1db651	-0.03850395
22	0xbea14c74	-0.31503642
23	0x3dc23531	0.09482802
24	0x3d924aa5	0.071431436
25	0xbf8e2c92	-1.1107352
26	0xbdf9dabe	-0.12199925
27	0xbe0789fd	-0.13236232
28	0xbdec3d8b	-0.11535176
29	0xbe40ae4d	-0.1881649
30	0x3dc97226	0.09836225
31	0x3cffff22	0.031249586
32	0x3e556508	0.20839322
33	0xbd880d3d	-0.0664315
34	0xbed29b94	-0.41134322
35	0x3f14e201	0.58157355
36	0x3c1f410c	0.009720098
37	0xbddbaa83	-0.10725882
38	0xbaee5460	-0.0018183105
39	0x3dc32ca9	0.095300026
40	0xbe97a380	-0.29616928
41	0x3e2140c9	0.1574737
42	0xbb2b924d	-0.0026179731
43	0xbe4ee9b2	-0.20206335
44	0xbed1b30a	-0.40956908
45	0xbd58d0df	-0.05293357
46	0x3e51eae5	0.20499761
47	0xbf13f156	-0.57790124
48	0xbb008230	-0.0019608848
49	0x3de6b71f	0.11265396
50	0xbd8ef21a	-0.06979771
51	0x3f33c43b	0.702213
52	0xbe33549a	-0.17512742
53	0xbe0bea8b	-0.1366369
54	0xbeabadeb	-0.33531126
55	0xbc475e93	-0.012168544
56	0x3dca8e74	0.09890452
57	0xbed054d8	-0.4068973
58	0xbe5ab87d	-0.21359439
59	0xbd8844c4	-0.06653741
60	0xbed8d7aa	-0.4235204
61	0x3db65802	0.08903505
62	0x3d0aac37	0.033855643
63	0x3ea3c2ef	0.3198466

params,ScannedRNN_0,GRUCell_0,hn,kernel f4 [64, 64]
0	0xbf072218	-0.527864
1	0x3b0e660b	0.0021728303
2	0xbd913e29	-0.07091934
3	0xbe8e05a5	-0.2773868
4	0x3d6a3d03	0.05718709
5	0x3e624f2e	0.22100517
6	0x3e7e1f3e	0.24816605
7	0xbd1bda17	-0.038049784
8	0x3efc4f65	0.49279323
9	0xbd8547b2	-0.065078154
10	0xbd496bf5	-0.04917522
11	0xbe57ecfb	-0.21086495
12	0xbe85f2c6	-0.26161784
13	0x3d92d427	0.07169371
14	0xbe61606f	-0.22009443
15	0xbe08b010	-0.13348413
16	0x3e9bc382	0.30422598
17	0xbe21d514	-0.15803939
18	0xbeb95c1c	-0.36203086
19	0xbe31a36a	-0.17347494
20	0x3eb85f60	0.36010265
21	0x3e881bcf	0.26583716
22	0xbe1088cf	-0.14114688
23	0xbddfcc41	-0.1092763
24	0xbd8550a7	-0.06509524
25	0xbe1ade6f	-0.15123914
26	0x3dbb2b24	0.09139088
27	0x3d5a502d	0.053299118
28	0xbedad9d6	-0.4274432
29	0xbde0784d	-0.109604456
30	0xbd74e085	-0.05978443
31	0xbd749937	-0.05971643
32	0xbe8168db	-0.2527531
33	0xbde45fec	-0.11151108
34	0x3df06b94	0.11739269
35	0x3e94ee57	0.2908809
36	0x3e16aaee	0.14713642
37	0xbd3a3a4a	-0.045465745
38	0x3e2e33dc	0.1701197
39	0x3e4aaf78	0.19793499
40	0xbe10deee	-0.14147541
41	0xbec32cd2	-0.38120133
42	0xbee7558c	-0.45182455
43	0xbe03db75	-0.12876685
44	0xbe938145	-0.28809562
45	0xbe6941ea	-0.2277905
46	0x3e4acf83	0.19805722
47	0xbea3e9b1	-0.3201423
48	0xbd235749	-0.039878163
49	0xbe18358f	-0.14864181
50	0xbdadc766	-0.08485298
51	0xbe30d8eb	-0.17270248
52	0x3e176dfe	0.14788052
53	0xbe6cb2ba	-0.23115054
54	0xbeac4277	-0.3364446
55	0xbe1979cf	-0.14987873
56	0x3e8121e6	0.25221175
57	0xbe05bda9	-0.13060631
58	0x3e912006	0.28344744
59	0xbeb4ad53	-0.35288486
60	0xbda46a28	-0.0802806
61	0x3c705a3c	0.014669951
62	0x3eb17231	0.34657434
63	0x3e119395	0.14216454
64	0xbcd0930c	-0.025460742
65	0xbe9eace9	-0.30991295
66	0x3ddad11d	0.106844164
67	0xbd7e341c	-0.062061414
68	0x3d69787e	0.056999676
69	0x3d4d40e2	0.050110705
70	0x3e109168	0.14117968
71	0xbef03aa6	-0.46919745
72	0x3e718a99	0.23588027
73	0xbd8263f7	-0.06366723
74	0x3e692e68	0.22771609
75	0x3cbf6b6f	0.023366658
76	0xbe627834	-0.22116166
77	0x3da4cdea	0.080470875
78	0x3bf503c9	0.007477258
79	0xbe9e8fcf	-0.30969092
80	0x3e1b1250	0.15143704
81	0x3dded575	0.108805574
82	0x3db4672a	0.088087395
83	0xbe8a7a8a	-0.27046615
84	0x3eb5426a	0.35402232
85	0x3eb2cf0e	0.34923595
86	0x3e6993a9	0.22810234
87	0x3df6f0a0	0.12057614
88	0xbeb8a4f9	-0.36063364
89	0xbc438102	-0.011932613
90	0x3e0ee6bf	0.1395521
91	0xbe4dbb4e	-0.20090982
92	0xbdd0e30f	-0.10199558
93	0x3e50f091	0.20404269
94	0x3cb3adf6	0.021933537
95	0xbe68524c	-0.22687644
96	0xbed76c37	-0.4207475
97	0x3dc149d0	0.09437907
98	0x3e055086	0.13018999
99	0x3e8a5d69	0.2702439
100	0x3ded0402	0.1157303
101	0xbe9249e5	-0.28572002
102	0x3d587265	0.05284347
103	0x3d52ea50	0.05149299
104	0xbea57a71	-0.32319978
105	0xbe1d2bc5	-0.15348728
106	0x3e190a06	0.1494523
107	0xbd992c7b	-0.07479187
108	0xbe3152f9	-0.17316808
109	0xbe4ab12e	-0.19794151
110	0xbbb93dd5	-0.005653123
111	0xbd1e4b09	-0.038645778
112	0x3e4ea5f5	0.20180495
113	0xbb8a810e	-0.0042268103
114	0xbdb34db1	-0.08755053
115	0x3db0bca4	0.0862973
116	0xbdaa8303	-0.0832577
117	0xbe35ea0a	-0.1776506
118	0xbe3bb1e2	-0.18329576
119	0x3e7f8085	0.2495137
120	0xbde4d0b8	-0.111726224
121	0xbe210caf	-0.15727495
122	0x3df52558	0.119700134
123	0x3e3e203a	0.18566981
124	0x3dc427cc	0.09577903
125	0xbe5c2060	-0.21496725
126	0x3d4ec46c	0.05048029
127	0xbe371a93	-0.17881231
128	0x3e895cbf	0.26828572
129	0xbd17856c	-0.036992475
130	0xbecf91e9	-0.40541008
131	0x3c011348	0.007878132
132	0xbcb2bf55	-0.02181975
133	0xbd52f3cc	-0.051502034
134	0x3e03419c	0.12817997
135	0x3e25966a	0.1617066
136	0xbf02088d	-0.507943
137	0xbd6765a0	-0.0564934
138	0xbe245ce9	-0.16051067
139	0x3f443e6a	0.76657736
140	0x3ef0b108	0.47010064
141	0xbd51e6e8	-0.0512456
142	0xbc22c19e	-0.009933857
143	0xbdd98180	-0.10620403
144	0xbe8cd90d	-0.27509347
145	0xbde25e8d	-0.110531904
146	0xbc686398	-0.014183901
147	0x3f0c71ae	0.5486096
148	0xbea0298f	-0.31281707
149	0xbeb41246	-0.35170192
150	0xbe623424	-0.22090203
151	0x3dcdf263	0.10055997
152	0x3d38e1b1	0.04513711
153	0xbdd3c92f	-0.10341107
154	0xbe9b110a	-0.30286437
155	0x3dd79258	0.1052596
156	0x3e757cf0	0.23973441
157	0x3e5fa7bd	0.21841331
158	0xbe86a805	-0.26300064
159	0x3e235678	0.15950954
160	0x3e935700	0.28777313
161	0x3e0df6bb	0.13863651
162	0xbf03593e	-0.5130805
163	0x3c77eeb4	0.015132595
164	0xbe0b2ffb	-0.13592522
165	0x3e4856d6	0.19564375
166	0xbd090270	-0.03344959
167	0xbd9b6f45	-0.07589582
168	0xbe3fc3a9	-0.18726982
169	0x3f33aade	0.701826
170	0x3e0140d1	0.12622382
171	0x3dcadf78	0.099059045
172	0x3e7f8a0d	0.24955006
173	0x3e23b4ff	0.15987013
174	0xbed60a79	-0.41804865
175	0xbda0e488	-0.07856089
176	0xbecaa84c	-0.39581525
177	0x3d207423	0.039173257
178	0xbe50a9a4	-0.20377213
179	0x3eb4a71f	0.35283753
180	0xbe06667e	-0.13125035
181	0x3e3fa757	0.18716179
182	0x3d202f25	0.03910746
183	0x3f0bbe87	0.54587597
184	0xbd6d4be9	-0.05793372
185	0x3e0aa7a7	0.13540517
186	0xbf14d4f6	-0.5813745
187	0x3e82fe62	0.25584704
188	0x3e7df354	0.24799854
189	0x3e1f0402	0.15528873
190	0xbd6371a3	-0.055528294
191	0x3dd9061a	0.10596867
192	0x3e843086	0.2581827
193	0xbdde6942	-0.1085992
194	0x3eb54c68	0.35409856
195	0xbe40c740	-0.18826008
196	0x3d94985e	0.07255624
197	0xbdb0fd7b	-0.086420976
198	0x3e87daec	0.26534212
199	0xbe5314e7	-0.20613442
200	0xbee60e3e	-0.4493274
201	0x3dcc2c1c	0.09969351
202	0xbe2d4d27	-0.16923963
203	0xbc351fa4	-0.011054907
204	0x3bd72ba8	0.0065664835
205	0xbe30ad7c	-0.17253679
206	0xbd3a29ef	-0.045450147
207	0xbd67d0c4	-0.05659558
208	0x3dda8fe2	0.10671975
209	0xbde1a9cb	-0.110187136
210	0xbe02c176	-0.12769112
211	0xbaa11062	-0.0012288208
212	0x3dde99f3	0.10869207
213	0xbd5ce6eb	-0.053931158
214	0x3e643965	0.2228752
215	0xbe3d2457	-0.18470894
216	0x3e1c04b4	0.15236169
217	0x3d8a5128	0.067537606
218	0xbc95a25a	-0.018265892
219	0x3e0e7581	0.13912012
220	0x3deebe14	0.11657348
221	0x3d405323	0.046954285
222	0x3e21a9d4	0.1578744
223	0x3e0f3aa7	0.13987218
224	0xbea46c85	-0.32114044
225	0x3db57726	0.088606164
226	0xbd88b8e3	-0.06675889
227	0xbdc5206f	-0.09625327
228	0xbe8499e8	-0.2589867
229	0x3e6e58c6	0.23276052
230	0xbe3249c8	-0.17410958
231	0xbdfbe7d1	-0.12300075
232	0x3d487f6a	0.048949637
233	0x39ef7ab0	0.00045677042
234	0x3d858f6d	0.06521497
235	0x3da720ca	0.08160551
236	0x3d6e7ecb	0.058226388
237	0xbd12ac56	-0.035808884
238	0x3c7d962f	0.015477701
239	0x3e9d8b94	0.30770552
240	0x3cdde570	0.027086943
241	0xbea3674f	-0.31914756
242	0x3e9b13dc	0.3028859
243	0xbde97fc7	-0.11401325
244	0xbe54a15c	-0.20764679
245	0xbd92f182	-0.0717497
246	0xbe41fa16	-0.18943056
247	0xbd7732d8	-0.060351223
248	0x3e172b5b	0.14762633
249	0x3d91d2dd	0.07120297
250	0x3d314210	0.043275893
251	0xbb0d54b9	-0.0021565391
252	0x3d9e501a	0.07730122
253	0x3e7eec5f	0.24894856
254	0xbe5473ab	-0.20747249
255	0xbe1ca1b7	-0.15296064

params,ScannedRNN_0,GRUCell_0,hr,kernel f4 [64, 64]
0	0xbe727dfe	-0.23680875
1	0xbd773d2e	-0.06036108
2	0x3d13ccd2	0.036084004
3	0x3bc472f4	0.005995149
4	0xbe8a14a1	-0.26968864
5	0xbe9bef7b	-0.30456147
6	0x3e4195c2	0.18904784
7	0x3e39b8b2	0.18136862
8	0x3e063fa9	0.13110222
9	0x3e09afb5	0.13445933
10	0xbe10565f	-0.14095448
11	0x3e869b5e	0.2629041
12	0xbba4848e	-0.0050206846
13	0xbdf99bd6	-0.121879265
14	0x3d67efe2	0.056625254
15	0x3e3dfe24	0.18553978
16	0x3e8346ad	0.2563986
17	0xbdea8475	-0.114510454
18	0x3e2cbcda	0.16868916
19	0x3d862870	0.065506816
20	0xbcd22c47	-0.025655879
21	0xbc67de4a	-0.014152119
22	0xbe51f87f	-0.2050495
23	0xbc1c68d5	-0.009546478
24	0xbda6fa28	-0.08153182
25	0xbe195be8	-0.14976466
26	0x3d1f0890	0.038826525
27	0x3e39ff2d	0.18163748
28	0x3dc29fa3	0.095031045
29	0xbe337dd9	-0.17528476
30	0xbe1d353e	-0.15352342
31	0xbe132668	-0.1437012
32	0x3e7c4786	0.24636659
33	0xba3034b4	-0.00067217206
34	0xbddecdd5	-0.10879103
35	0xbea11df0	-0.31468153
36	0x3dd5eea5	0.104459085
37	0xbd8caf2a	-0.068693474
38	0xbdc7fb47	-0.09764724
39	0xbc45348e	-0.012036456
40	0x3b1f1198	0.0024271961
41	0x3e6a5387	0.22883426
42	0xbe45b273	-0.19306354
43	0x3d51e452	0.051243134
44	0x3b9cedf6	0.0047891093
45	0x3ca23c2b	0.019804081
46	0x3cf9b049	0.030479567
47	0xbe99a26c	-0.3000673
48	0x3daac4bc	0.08338305
49	0x3e04ffdf	0.12988232
50	0xbc128978	-0.008943908
51	0x3e3c6843	0.18399148
52	0x3d86377b	0.06553551
53	0x3def3bb8	0.11681312
54	0x3d155798	0.03646049
55	0x3eb79a5c	0.35859954
56	0x3d18bb81	0.037288193
57	0x3ddb5c42	0.10710956
58	0xbe694d1e	-0.22783324
59	0x3ceb78f8	0.028744206
60	0x3e713e22	0.23558858
61	0xbe02ed26	-0.12785777
62	0xbd5a7da6	-0.053342484
63	0x3ac0c20f	0.0014706271
64	0x3d7a49f4	0.061105683
65	0xbe85dc04	-0.2614442
66	0xbdca3f5c	-0.09875366
67	0xbca819b3	-0.020520067
68	0xbe202d7d	-0.15642352
69	0xbeb9717f	-0.36219403
70	0x3e8c3077	0.27380726
71	0x3c94ed10	0.018179446
72	0x3d088305	0.033328075
73	0xbd8c5ff3	-0.06854238
74	0x3de9edb1	0.11422289
75	0xbd40f3dd	-0.047107566
76	0x3ea686a3	0.32524595
77	0xba0ea4ce	-0.0005441428
78	0x3e81219c	0.25220954
79	0xbe1a551e	-0.15071532
80	0xbd67ea30	-0.056619823
81	0x3e35424f	0.17701076
82	0xbd1bc9dc	-0.038034305
83	0x3d8ab609	0.06773002
84	0x3dcb8266	0.09936981
85	0x3e1e8921	0.15481998
86	0x3e1d0e66	0.15337524
87	0xbeb34a26	-0.35017508
88	0xbdcaa1a0	-0.09894109
89	0x3d6bd9cd	0.057580758
90	0xbd83c23f	-0.06433534
91	0xbe20970a	-0.15682617
92	0xbcb38c75	-0.021917561
93	0xbcb31c7d	-0.02186417
94	0x3dc0a0d8	0.094056785
95	0x3d4089e6	0.04700651
96	0xbe6160c9	-0.22009577
97	0xbd5bd9a1	-0.053674344
98	0x3e0f26d3	0.13979654
99	0x3e580c22	0.21098378
100	0xbdc8fd5b	-0.09813949
101	0x3d93378f	0.07188331
102	0xbe974fec	-0.29553163
103	0xbd72a718	-0.059241384
104	0x3c09db44	0.008414093
105	0x3e611862	0.21981958
106	0xbe0338c3	-0.12814622
107	0xbd96a825	-0.0735629
108	0xbe04a542	-0.12953666
109	0x3eb8b4f8	0.36075568
110	0xbe2476ea	-0.16060987
111	0x3e286240	0.1644373
112	0x3d98813b	0.07446524
113	0xbd63529f	-0.055498715
114	0xbc8360c3	-0.01603735
115	0x3d50a455	0.05093797
116	0x3de5e4ec	0.11225304
117	0x3e63b5ba	0.22237292
118	0xbccb3a2f	-0.024808018
119	0xbd2ebc56	-0.04266008
120	0x3a65adf7	0.00087615795
121	0xbc00e437	-0.007866911
122	0x3eb5a84d	0.35479966
123	0xbd3f7d9b	-0.046750646
124	0x3d89a1fe	0.06720351
125	0x3e5e1964	0.21689373
126	0xbdff13d4	-0.12454954
127	0x3de23bef	0.11046588
128	0xbe801e09	-0.25022915
129	0xbd17ea2b	-0.037088554
130	0x3e86bd4b	0.26316294
131	0x3e391300	0.18073654
132	0xbe1474bf	-0.1449766
133	0x3d7bd8ee	0.061486177
134	0xbe2b7fb2	-0.1674793
135	0xbd77e156	-0.06051763
136	0xbe0e93e8	-0.1392361
137	0x3e33d9f4	0.17563611
138	0xbd80fb63	-0.06297948
139	0xbe8e1898	-0.2775314
140	0xbd8ceb80	-0.068808556
141	0xbbf80f6c	-0.007570198
142	0x3d0baed5	0.03410228
143	0xbd3fc403	-0.04681779
144	0xbe02244e	-0.12709162
145	0xbdbf9dde	-0.09356283
146	0xbde4c9e8	-0.11171323
147	0xbe3c6507	-0.18397914
148	0x3e716110	0.23572183
149	0x3e8107c1	0.25201228
150	0xbd943eb6	-0.07238524
151	0x3de3f9a2	0.11131598
152	0x3dd4dcf6	0.103937075
153	0xbe0d71bc	-0.13812917
154	0xbc10f711	-0.008847968
155	0x3c5b331b	0.013378884
156	0x3dffcef5	0.12490646
157	0xbd67960e	-0.056539588
158	0x3e049ed7	0.12951218
159	0xbda0e300	-0.07855797
160	0xbea9b718	-0.33147502
161	0xbe1318bf	-0.14364909
162	0x3e15a8a6	0.14615116
163	0x3e8b23df	0.27175805
164	0x3d47dfc5	0.048797388
165	0x3d827f40	0.06371927
166	0x3e362034	0.17785722
167	0x3b7dc68a	0.0038723075
168	0xbe2d8865	-0.16946562
169	0xbeaea39a	-0.34109193
170	0xbe334f9b	-0.17510836
171	0x3b036ba7	0.002005318
172	0xbed2dc7a	-0.41183835
173	0xbd270eae	-0.040785484
174	0x3d5bf9cc	0.05370502
175	0xbe9c19a2	-0.30488306
176	0xbcbbe172	-0.02293465
177	0x3e0e8487	0.13917743
178	0xbd8542ae	-0.06506859
179	0xbe49b467	-0.19697724
180	0xbe015e3b	-0.12633602
181	0xbe008bbc	-0.12553304
182	0xbcc31b22	-0.023816649
183	0xbdcc4d91	-0.09975732
184	0x3d0de612	0.03464324
185	0x3e517670	0.20455337
186	0x3e5c455c	0.21510834
187	0xbe0576bb	-0.13033573
188	0xbd97dd84	-0.074152976
189	0xbdbbef3b	-0.09176489
190	0x3daba171	0.08380402
191	0x3d424bd4	0.047435597
192	0x3e0058a3	0.12533812
193	0x3e300be5	0.17192037
194	0x3c7af0c4	0.015316192
195	0x3d8ef8ce	0.069810495
196	0xbe7a21f9	-0.24427022
197	0x3dc12c79	0.094323106
198	0xbd0f075e	-0.034919135
199	0x3e1aad8e	0.15105268
200	0xbded700b	-0.11593636
201	0x3e02142d	0.12703009
202	0xbd924142	-0.07141353
203	0x3e372922	0.17886785
204	0xbdb74063	-0.08947828
205	0xbd04778d	-0.032340575
206	0xbe8f4ee9	-0.2798989
207	0xbdfbc6c6	-0.122937724
208	0x3d051268	0.032488257
209	0x3ccb84c0	0.024843574
210	0xbd8ec1d3	-0.06970563
211	0x3dcd6f47	0.1003099
212	0x3ea7c302	0.32765967
213	0xbe82aacf	-0.25520942
214	0x3dde8ba8	0.10866481
215	0xbe83ce24	-0.2574321
216	0xbc1fe311	-0.009758727
217	0xbdc9ef64	-0.09860113
218	0x3e404b42	0.18778709
219	0xbe556f24	-0.20843178
220	0xbd4e1f1e	-0.050322644
221	0xbe737a8c	-0.23777217
222	0x3da149e5	0.078754224
223	0x3dab9310	0.08377659
224	0x3d95574e	0.07292043
225	0xbe265608	-0.16243756
226	0xbda54f60	-0.0807178
227	0x3e6b6f43	0.22991662
228	0xbe5b0009	-0.21386732
229	0x3da410e7	0.08011036
230	0x3e7cab59	0.24674739
231	0xbd9bd717	-0.076093845
232	0xbd333757	-0.043753948
233	0xbdd1303d	-0.10214279
234	0x3e79bc4c	0.24388236
235	0x3d5a5453	0.053303074
236	0xbd177611	-0.03697783
237	0x3c1d1f3c	0.009589966
238	0xbd8559fc	-0.06511304
239	0x3dc7e3a7	0.09760218
240	0x3e1f756d	0.15572138
241	0xbd504dd5	-0.050855476
242	0xbe0442b7	-0.12916075
243	0xbd36153d	-0.04445385
244	0xbaeb3235	-0.001794404
245	0x3caa9092	0.02082089
246	0xbd2fda13	-0.04293258
247	0xbdcd44a9	-0.100228615
248	0xbd9a69a9	-0.07539684
249	0xbe40fdb9	-0.18846788
250	0x3dde7543	0.1086221
251	0xbc0bd700	-0.008535147
252	0x3db24706	0.08704953
253	0xbde76d5e	-0.11300157
254	0xbb1ca706	-0.0023903265
255	0xbda10667	-0.07862549

params,ScannedRNN_0,GRUCell_0,hz,kernel f4 [64, 64]
0	0x3e187a04	0.14890295
1	0x3cbef406	0.023309719
2	0x3ea9c826	0.33160514
3	0xbe092e6a	-0.13396612
4	0x3d360a5e	0.04444348
5	0x3dcc133f	0.099646084
6	0x3d79e5b4	0.061010078
7	0xbb319649	-0.0027097634
8	0x3d4edfb3	0.050506305
9	0x3e8b64c3	0.27225313
10	0x3e8f77b6	0.2802102
11	0xbd5103b6	-0.05102893
12	0x3da25f4b	0.07928332
13	0x3e316d60	0.1732688
14	0x3e1a7eb3	0.15087394
15	0x3e9b5999	0.30341795
16	0x3de7f9e3	0.11326959
17	0x3d310409	0.04321674
18	0x3d670b9e	0.056407563
19	0x3ecfdae0	0.40596676
20	0x3dbed044	0.09317067
21	0x3e6450f1	0.22296502
22	0x3e27f270	0.16401076
23	0x3e68356b	0.22676627
24	0x3ea2e807	0.31817648
25	0x3d834e74	0.06411448
26	0x3e80230c	0.2502674
27	0xbc85e50a	-0.016344566
28	0x3ea59a28	0.32344174
29	0xbe03c887	-0.12869464
30	0xbd3ae9d7	-0.045633163
31	0xbdbbcf63	-0.09170415
32	0x3e98e254	0.29860175
33	0x3e554d96	0.20830378
34	0x3d3d167c	0.04616402
35	0xbe0ee6a1	-0.13955165
36	0xbe0808f2	-0.13284662
37	0xbda650c5	-0.08120874
38	0x3e5c60ea	0.21521345
39	0x3d69c74e	0.057074837
40	0x3bfba3e6	0.0076794503
41	0xbca3e0d3	-0.020004665
42	0xbd94c82b	-0.072647415
43	0x3e1c56dc	0.15267509
44	0xbe2cdcd2	-0.16881111
45	0x3b531737	0.0032209882
46	0xbe347ebd	-0.17626472
47	0x3e3ee8cf	0.18643497
48	0x3d9d11bc	0.07669398
49	0x3e619cd7	0.22032486
50	0x3e85467d	0.2603034
51	0x3d4128f5	0.0471582
52	0x3e2a4509	0.16627897
53	0x3b736796	0.00371406
54	0x3d547d72	0.051877446
55	0x3dc15a4b	0.0944105
56	0x3d85f4a1	0.065408
57	0xbdf02e28	-0.117275536
58	0x3ec633bf	0.38711354
59	0x3e7b7d2c	0.24559468
60	0x3cbfcde5	0.023413608
61	0xbe7b84fe	-0.24562451
62	0xbd941ca2	-0.07232024
63	0x3d9f4c3a	0.07778211
64	0x3e002df3	0.12517528
65	0xbe199688	-0.1499883
66	0x3de59dab	0.112117134
67	0xbe69a0ab	-0.22815196
68	0xbda35820	-0.07975793
69	0xbc9959a2	-0.018719498
70	0x3e01ae4b	0.12664144
71	0x3e0a6c6e	0.13517925
72	0xbd42c4f2	-0.047551103
73	0xbdc593df	-0.09647345
74	0xbd46a4ba	-0.04849694
75	0xbe439b09	-0.1910211
76	0xbdf506b0	-0.11964166
77	0xbe824b3c	-0.25448024
78	0x3c94a241	0.018143775
79	0x3d2c82bc	0.042116866
80	0xbea7c966	-0.32770842
81	0x3e69b0d6	0.22821364
82	0xbe4b3fda	-0.19848576
83	0x3b7cacd8	0.0038555171
84	0xbd578431	-0.052616302
85	0x3e842d9a	0.2581604
86	0x3e512222	0.20423177
87	0xbe0ddd44	-0.13853937
88	0x3e95ab59	0.2923229
89	0x3e4763e0	0.19471693
90	0x3bb99f9c	0.005664779
91	0xbc252a51	-0.01008089
92	0xbd9f4749	-0.077772684
93	0x3c20462c	0.009782355
94	0xbe213e13	-0.15746336
95	0xbe34cb0a	-0.17655578
96	0xbdec7c34	-0.11547127
97	0x3e536651	0.206445
98	0xbe1ee1e4	-0.15515858
99	0x3d9bc3fd	0.07605741
100	0x3e0bca5b	0.13651411
101	0x3e0158c1	0.12631513
102	0x3eb27feb	0.3486322
103	0xbcf983d8	-0.030458376
104	0x3e658473	0.22413807
105	0x3e37ba64	0.17942196
106	0xbdc818bb	-0.09770342
107	0x3d9b247c	0.07575318
108	0x3e3858ec	0.18002671
109	0x3e5a801f	0.21337937
110	0x3dd473af	0.103736274
111	0x3e82b340	0.25527382
112	0xbd4fccbc	-0.05073236
113	0x3e9c8f3f	0.30578038
114	0xbda6b540	-0.081400394
115	0xbbdceb60	-0.006741926
116	0x3edaff67	0.42772982
117	0x3c89dde5	0.01682944
118	0xbdbda305	-0.09259609
119	0x3d8ba57f	0.06818675
120	0xbe211938	-0.15732276
121	0xbe21dbf4	-0.15806562
122	0x3ec0d486	0.37662143
123	0xbe775b60	-0.2415595
124	0xbe18168a	-0.14852348
125	0x3d58d26b	0.052935045
126	0xbea54854	-0.32281744
127	0x3d7ae37c	0.061252102
128	0xbeaf2a4b	-0.34211954
129	0x3d1dbef6	0.038512193
130	0xbda3cb08	-0.079977095
131	0x3deb2533	0.114817046
132	0xbe12fa1d	-0.14353223
133	0xbe0cba95	-0.1374305
134	0x3ee198a9	0.44061783
135	0xbd420246	-0.04736545
136	0xbd21ba73	-0.039484452
137	0xbd0f9594	-0.03505476
138	0xbd3f0856	-0.04663881
139	0xbd9f9bae	-0.077933654
140	0xbcfe6ad0	-0.031056792
141	0x3e4c1265	0.19928892
142	0xbe0ad53d	-0.13557906
143	0xbebfb2a8	-0.3744099
144	0xbe360c5c	-0.17778152
145	0x3cc74a88	0.024327531
146	0xbe8a95da	-0.27067453
147	0x3d3dde28	0.046354443
148	0xbe89aa3e	-0.26887697
149	0x3b57d48f	0.0032933091
150	0x3e9f09a1	0.31062034
151	0x3d0cb150	0.034348786
152	0x3e8a0b6f	0.26961848
153	0xbdfad70c	-0.12248048
154	0xbeb09d14	-0.3449484
155	0xbe559361	-0.20857002
156	0xbd048157	-0.03234991
157	0x3e0162bc	0.1263532
158	0x3e339cbf	0.17540263
159	0x3d3da3f3	0.046298932
160	0x3dff7d8d	0.12475119
161	0x3e6da791	0.23208453
162	0x3d3469cf	0.04404622
163	0xbd9a6345	-0.075384654
164	0xbd7da19e	-0.06192171
165	0xbdc2e2f2	-0.09515943
166	0xb96b6d46	-0.00022452054
167	0xbe1e249b	-0.15443651
168	0x3e14ba81	0.1452427
169	0xbe167d56	-0.1469625
170	0x3c0a252b	0.008431713
171	0x3c03b7b2	0.008039402
172	0x3dc02583	0.09382155
173	0x3e3cf12a	0.18451372
174	0xbe6bb7e5	-0.23019369
175	0x3e2962d6	0.16541609
176	0xbe1d63d0	-0.15370107
177	0xbe1b8802	-0.15188602
178	0xbdb296f6	-0.087202
179	0x3bf90ba9	0.007600267
180	0xbc834ebf	-0.01602876
181	0xbe084cdf	-0.13310574
182	0x3dfc0938	0.12306446
183	0xbe145c12	-0.14488247
184	0x3da328c8	0.07966763
185	0xbce4f8fb	-0.027950754
186	0x3e95c992	0.29255348
187	0xbed9b643	-0.42521867
188	0xbd23d2f1	-0.03999609
189	0xbe63e14f	-0.22253917
190	0xbc3df6d1	-0.01159449
191	0xbdd0481a	-0.10170002
192	0xbe8ea7b2	-0.27862316
193	0x3d8822ec	0.06647286
194	0x3e238f7d	0.15972705
195	0xbdcea709	-0.10090453
196	0xbd6665a9	-0.056249294
197	0xbe483da2	-0.19554761
198	0x3d13a6e0	0.036047816
199	0x3df541ee	0.11975466
200	0x3e1c0718	0.15237081
201	0x3d43499c	0.04767762
202	0xbcb7a71c	-0.022418551
203	0xbe7c2762	-0.24624398
204	0x3df6131e	0.12015365
205	0x3db7ae79	0.08968825
206	0x3e5826e9	0.21108593
207	0x3e99ce16	0.30040044
208	0x3d4492e8	0.047991663
209	0x3ced0d0d	0.028936887
210	0x3d82220b	0.063541494
211	0x3c0dfca8	0.008666195
212	0xbdd4d671	-0.10392464
213	0x3da9a038	0.082825124
214	0x3e9c5b88	0.30538583
215	0x3dd11ea7	0.102109246
216	0x3e21072d	0.15725394
217	0xbd460f79	-0.0483546
218	0xbe9c196f	-0.30488154
219	0xbd0af8ae	-0.033928566
220	0x3e17d6e4	0.14828068
221	0xbe27a44d	-0.1637127
222	0xbbc56022	-0.006023423
223	0x3e76a9df	0.24088238
224	0x3dfd2a2f	0.123615615
225	0xbb9b3c1c	-0.00473739
226	0x3d633041	0.05546594
227	0xbdd69844	-0.10478261
228	0x3e80223d	0.25026122
229	0x3cf6c3b6	0.03012262
230	0x3d580779	0.0527415
231	0xbd823863	-0.06358411
232	0x3db9462b	0.090465866
233	0xbdbdf1ad	-0.092746116
234	0x3e4eaeaf	0.20183824
235	0xbdd93540	-0.1060586
236	0x3ead0cb5	0.33798757
237	0x3d752b84	0.059855953
238	0xbe19a44f	-0.15004085
239	0xbcd2ee1b	-0.025748303
240	0xbcd9277a	-0.026508082
241	0xbe086d72	-0.13323
242	0xbd4c038f	-0.04980808
243	0x3def68d3	0.116899155
244	0xbd577507	-0.05260184
245	0x3e974702	0.29546362
246	0xbe1920a9	-0.14953865
247	0xbe721043	-0.23639016
248	0xbdcd4494	-0.10022846
249	0x3e15dee4	0.14635807
250	0x3e8c11ab	0.2735723
251	0xbedbb05b	-0.42907986
252	0xbdcc9e73	-0.09991159
253	0x3d7bec42	0.06150461
254	0x3e0d3a7e	0.13791844
255	0xbc723758	-0.014783703

params,ScannedRNN_0,GRUCell_0,in,bias f4 [64]
0	0x3f143bab	0.57903546
1	0x3d040b84	0.032237545
2	0xbf202155	-0.6255086
3	0xbca86220	-0.020554602
4	0x3e45de5d	0.19323106
5	0xbd43081e	-0.047615163
6	0xbd29b4ef	-0.041432317
7	0xbe803450	-0.2503991
8	0x3cf4f00c	0.02989962
9	0xbf19962c	-0.5999477
10	0xbf218a45	-0.6310161
11	0x3dcd11b0	0.10013139
12	0x3da0447a	0.07825561
13	0x3e9fe48e	0.3122906
14	0x3f139ddb	0.57662743
15	0xbdbc8dd7	-0.09206741
16	0xbe938b85	-0.28817382
17	0xbddc9944	-0.107714206
18	0x3c20ce9a	0.009814883
19	0x3d440da4	0.04786457
20	0xbe1047a9	-0.14089836
21	0xbe17ce09	-0.1482469
22	0xbee1e5ef	-0.44120738
23	0x3e80f9bb	0.2519053
24	0x3e340272	0.17579058
25	0xbf75d729	-0.96031433
26	0xbe56c5f2	-0.20973948
27	0xbe05fa23	-0.13083701
28	0xbc56fe84	-0.013122205
29	0x3e13af75	0.144224
30	0x3ea5aaa9	0.32356766
31	0x3ef9e675	0.48808637
32	0x3e8b3748	0.27190614
33	0xbd9e95e4	-0.07743433
34	0xbf0eeef6	-0.55833375
35	0x3e68f47b	0.22749512
36	0x3d8f514d	0.06997929
37	0xbe1a66ef	-0.15078329
38	0xbc9e5e82	-0.019332174
39	0x3d24e6ca	0.04025916
40	0xbed8fba3	-0.42379484
41	0x3e9065dc	0.28202713
42	0x3e9a0a25	0.30085865
43	0xbe9aa6c6	-0.30205363
44	0xbe8181ae	-0.2529425
45	0x3d3672f4	0.04454322
46	0x3e6e209f	0.23254631
47	0xbf23e950	-0.6402788
48	0x3cb00d9c	0.021490864
49	0x3e391c19	0.18077125
50	0xbe329bf6	-0.17442307
51	0x3f6a2de6	0.91476285
52	0xbccb2149	-0.024796145
53	0xbe527a86	-0.20554551
54	0xbee5f29e	-0.44911665
55	0x3ab54d52	0.0013832247
56	0x3e17b6f0	0.14815879
57	0xbf2e56e1	-0.68101317
58	0xbec01d79	-0.37522486
59	0xbb128888	-0.002235921
60	0xbf05590a	-0.5208899
61	0x3d86a70e	0.06574832
62	0x3aa6dcd1	0.0012730603
63	0x3ea0120c	0.3126377

params,ScannedRNN_0,GRUCell_0,in,kernel f4 [64, 64]
0	0x3e870faa	0.26379138
1	0xbde6455a	-0.112436965
2	0xbdb1ec69	-0.0868767
3	0x3d9f1869	0.07768328
4	0x3edcde63	0.43138418
5	0x3d14373d	0.03618549
6	0x3e3d3d23	0.18480353
7	0xbc730f5b	-0.014835204
8	0x3e63d5d3	0.22249536
9	0xbe727af0	-0.2367971
10	0xbc89a87f	-0.016803978
11	0xbe0b8949	-0.13626589
12	0xbdbcf489	-0.09226329
13	0x3d626e98	0.05528125
14	0x3e4458f1	0.19174553
15	0xbd1114cf	-0.035420235
16	0x3dc6fdf2	0.09716405
17	0x3e300d4c	0.17192572
18	0xbdfb03a6	-0.12256555
19	0xbd296fc3	-0.04136635
20	0xbe837d9b	-0.25681767
21	0x3e2e8c90	0.17045808
22	0x3e408de0	0.18804121
23	0x3d2bba61	0.04192579
24	0xbdf4ac9f	-0.11946987
25	0xbe59eb6f	-0.21281217
26	0xbd3595bb	-0.044332247
27	0x3daab269	0.0833481
28	0xbce7ea0d	-0.028309846
29	0x3e6b8f2c	0.23003834
30	0x3e58c1be	0.21167657
31	0x3ec0c8f7	0.37653324
32	0xbcd7180e	-0.026256587
33	0xbdb8e27a	-0.09027572
34	0xbdc2baaf	-0.09508263
35	0x3e04ce61	0.12969352
36	0xbd0b9ee4	-0.034087077
37	0xbe6309f4	-0.22171766
38	0xbc85c19b	-0.01632767
39	0xbcb943c9	-0.02261533
40	0x3d9f378a	0.07774265
41	0x3dc4c82b	0.096084915
42	0xbda4bf92	-0.08044352
43	0x3dc54d29	0.09633858
44	0xbe02d471	-0.12776352
45	0xbe791ee9	-0.24328198
46	0x3d073cb7	0.033016887
47	0x3e9687ef	0.29400584
48	0x3e53a75c	0.20669311
49	0x3e3f7763	0.18697886
50	0xbe2c2ce4	-0.16814
51	0xbd44be66	-0.04803314
52	0xbd10d06e	-0.035355024
53	0xbe46bb09	-0.19407286
54	0x3dc94db9	0.098292775
55	0x3bfedfa4	0.007778125
56	0x3ccb9b7d	0.024854416
57	0xbe0e13a6	-0.13874683
58	0x3ed03ba8	0.40670514
59	0xbe1658b2	-0.14682272
60	0xbdcba74a	-0.09944017
61	0xbce80232	-0.02832136
62	0x3e6647ce	0.22488329
63	0x3dec5fdb	0.115417205
64	0x3d7cc5d9	0.06171212
65	0x3d786a9a	0.06064854
66	0x3baa1df2	0.005191558
67	0x3e59a3b7	0.21253859
68	0xbd399ab5	-0.045313556
69	0x3d13689a	0.035988428
70	0x3e46fdeb	0.194328
71	0xbddd95c3	-0.108195804
72	0x3d485369	0.04890767
73	0x3dc2d1e9	0.095126934
74	0x3d430561	0.04761255
75	0xbe77a81c	-0.24185222
76	0x3d93d262	0.07217862
77	0x3d73e398	0.059543222
78	0xbe56d4e2	-0.20979646
79	0xbe2c62d1	-0.1683457
80	0x3ddb9bc0	0.10723066
81	0x3d2050a9	0.039139424
82	0xbd89b9d1	-0.06724895
83	0xbd7e9b75	-0.062159974
84	0xbc273c47	-0.010207242
85	0xbcde1388	-0.027108923
86	0xbd025ad5	-0.031824905
87	0xbdfa8441	-0.12232257
88	0xbd49ca71	-0.04926533
89	0xbe6c2be7	-0.23063622
90	0xbb70f012	-0.0036764187
91	0x3e113015	0.14178498
92	0xbdf182cb	-0.11792525
93	0x3e43c5ae	0.19118378
94	0x3e21d43c	0.15803617
95	0x3d25439e	0.040347688
96	0x3e43583d	0.19076629
97	0xbe00ffad	-0.12597533
98	0x3d1a7ef3	0.037718724
99	0x3af467ca	0.0018646654
100	0xbe58bfa7	-0.2116686
101	0xbe155c45	-0.1458598
102	0xbdf35deb	-0.11883148
103	0xbd5da726	-0.054114483
104	0xbd801909	-0.06254775
105	0xbe55db5e	-0.20884463
106	0xbe00d4d8	-0.12581193
107	0xbe8ee0ac	-0.27905786
108	0xbc85d2cb	-0.016335865
109	0x3d37f043	0.044906866
110	0x3e6f46e1	0.23366882
111	0xbc82b1d1	-0.01595393
112	0x3d477a89	0.048700843
113	0xbe9215c3	-0.28532228
114	0x3e2367e8	0.15957606
115	0xbd0d7f27	-0.03454509
116	0xbe069a7a	-0.13144866
117	0x3d39b1bc	0.045335516
118	0xbe05c28c	-0.13062495
119	0xbdc5b61d	-0.09653876
120	0x3e1b3a86	0.15159044
121	0xbe009d76	-0.12560067
122	0x3e6f05fd	0.23342128
123	0x3d95d104	0.07315257
124	0xbe28e6fa	-0.1649436
125	0x3da49ae6	0.08037357
126	0xbde99e6b	-0.11407169
127	0xbe59448c	-0.21217555
128	0xbec3ad3a	-0.382181
129	0x3e594e73	0.21221332
130	0xbd8bec98	-0.06832236
131	0xbd8cf1b3	-0.06882038
132	0x3e2aeb7d	0.16691394
133	0xbccf968e	-0.025340345
134	0x3e1c9b2b	0.15293567
135	0xbd0364e5	-0.032078642
136	0xbc913574	-0.017725684
137	0x3e7e9825	0.24862726
138	0x3eb2f526	0.34952658
139	0xbde8ff5d	-0.11376832
140	0x3b5b72c4	0.0033485154
141	0xbe647b57	-0.22312675
142	0xbea1af2d	-0.3157896
143	0xbba2668c	-0.004956072
144	0x3e635136	0.22198948
145	0x3ecd3e0e	0.40086406
146	0xbe55e2c6	-0.20887288
147	0xbe910f93	-0.28332195
148	0x3dde5177	0.10855382
149	0x3e366f98	0.17816007
150	0x3dee54d5	0.11637274
151	0x3de37871	0.11106957
152	0xbd8116fb	-0.06303211
153	0x3ea6ede3	0.32603368
154	0x3edd7da5	0.43259922
155	0x3de59a7f	0.112111084
156	0x3cf69b15	0.030103246
157	0x3b763b64	0.003757202
158	0xbe0afe30	-0.13573527
159	0xbda96246	-0.08270697
160	0xbebd4960	-0.36970043
161	0x3d0b162f	0.033956703
162	0xbe2fb97c	-0.171606
163	0xbc6cb3e6	-0.014447188
164	0xbe807b9f	-0.25094315
165	0xbd1d8a77	-0.03846213
166	0x3d88678b	0.06660374
167	0xbd465203	-0.048418056
168	0xbeacf20c	-0.33778417
169	0x3c5d9c0f	0.013525977
170	0xbc4742a1	-0.012161882
171	0x3d3122d6	0.043246113
172	0x3e2607ad	0.16213866
173	0xbe8676b6	-0.26262444
174	0x3d0f1b3d	0.034938086
175	0x3dfb9d0c	0.12285814
176	0xbeda6ad0	-0.42659616
177	0x3e2ccb46	0.16874418
178	0x3db5ab16	0.08870523
179	0xbe47b449	-0.19502367
180	0xbebb9d45	-0.36643425
181	0x3eaac336	0.3335206
182	0x3de75f7c	0.11297509
183	0xbd22e6ee	-0.039771013
184	0xbb7dd624	-0.0038732374
185	0x3e7ebba0	0.24876261
186	0xbc911333	-0.01770935
187	0xbd1ae73b	-0.037818175
188	0x3e8eaacc	0.27864683
189	0x3d843baa	0.064566925
190	0xbe004b30	-0.12528682
191	0xbdcff423	-0.10153987
192	0xbcd12228	-0.025528982
193	0xbebbdc64	-0.36691582
194	0xbd4949bf	-0.049142595
195	0xbe3e6fe5	-0.18597372
196	0xbdd13bc9	-0.10216481
197	0xbe4e8fca	-0.20172039
198	0xbe7fbef5	-0.24975188
199	0x3e3dae0a	0.18523422
200	0x3d054464	0.032535926
201	0xbdb7d379	-0.08975882
202	0xbe0eb50b	-0.1393625
203	0xbd9a670a	-0.075391844
204	0x3e548932	0.20755461
205	0xbd93189b	-0.071824275
206	0xbd972891	-0.07380784
207	0xbea15318	-0.31508708
208	0xbeee29f9	-0.46516398
209	0x3d751139	0.059830878
210	0x3e8c9ee3	0.2746497
211	0x3cd0abe0	0.025472581
212	0xbd1963e8	-0.037448794
213	0xbdef938e	-0.11698066
214	0xbf28b376	-0.65898836
215	0xbf0fbbce	-0.5614594
216	0x3e88a747	0.26690122
217	0xbe204070	-0.15649581
218	0xbda14930	-0.078752875
219	0x3e0a2dfe	0.13494107
220	0xbcc5d553	-0.024149572
221	0xbca49ee5	-0.020095298
222	0x3e542bd3	0.20719843
223	0xbe3dfb90	-0.18552995
224	0x3e81ec5f	0.2537565
225	0x3dea0aeb	0.11427864
226	0xbe8babb7	-0.27279446
227	0x3d731e4b	0.05935506
228	0x3e0688ba	0.13138095
229	0x3c2b427b	0.010452862
230	0x3b8f1f89	0.004367773
231	0x3da4372c	0.08018336
232	0x3d9e8b80	0.07741451
233	0xbd3967cc	-0.045265004
234	0xbc809db9	-0.015700208
235	0x3e7a2a63	0.24430232
236	0xbe3efc25	-0.18650873
237	0x3ed5df59	0.41771963
238	0x3c5a3315	0.013317843
239	0xbc81eb00	-0.015859127
240	0xbe4dd97b	-0.20102493
241	0xbdcb940e	-0.099403486
242	0xbe2ec55d	-0.17067476
243	0x3db2de0e	0.0873376
244	0xbda9c499	-0.08289451
245	0xbe05d27a	-0.13068572
246	0xbe62f3bf	-0.22163294
247	0xbdfb8d91	-0.12282861
248	0xbcc47abf	-0.023984311
249	0x3d23e77d	0.040015686
250	0xbdfc154e	-0.12308751
251	0x3e48bb6b	0.19602744
252	0xbd7c6549	-0.06162003
253	0x3e77ce22	0.24199727
254	0xbe34bad9	-0.17649402
255	0x3baaa494	0.0052076075

params,ScannedRNN_0,GRUCell_0,ir,bias f4 [64]
0	0x3e77bc3a	0.24192896
1	0xbd3fc944	-0.0468228
2	0x3dd70d38	0.10500568
3	0xbdf9d2df	-0.121984236
4	0xbd4d1e09	-0.050077472
5	0xbd165409	-0.036701236
6	0x3d53c1b6	0.05169841
7	0x3947b842	0.0001904676
8	0x3ee08e73	0.4385868
9	0x3d1f0c67	0.038830187
10	0x3edb655c	0.4285077
11	0x3eafe04f	0.3435082
12	0x3e5c80a5	0.21533449
13	0xbd6837c2	-0.0566938
14	0x3da40639	0.080089994
15	0x3da09cb7	0.07842391
16	0x3e7296bc	0.23690313
17	0xbda58754	-0.080824524
18	0x3d6311ef	0.055437025
19	0x3e42611a	0.18982354
20	0x39b20fb0	0.00033962494
21	0x3daeef9a	0.08541794
22	0x3ca7c3ea	0.020479161
23	0xbd884eff	-0.06655692
24	0xbd72b697	-0.059256162
25	0x3eec40d5	0.46143213
26	0x3e2b9278	0.16755092
27	0xbccdb3b3	-0.025110101
28	0x3ece434e	0.40285724
29	0xbe4f8b77	-0.20268045
30	0xbe5c8dc9	-0.21538462
31	0xbe903504	-0.28165448
32	0x3d942180	0.07232952
33	0x3d35ee4b	0.044416707
34	0x3db4beff	0.08825492
35	0x3b264df2	0.002537605
36	0x3ce6cf96	0.028175157
37	0xbcd7e9af	-0.026356546
38	0xbe23570e	-0.15951177
39	0xbce1eac3	-0.027577763
40	0x3ac90ab4	0.0015338273
41	0x3ed67d6c	0.41892564
42	0xbe53ead1	-0.20695044
43	0x3d5c4f7c	0.05378674
44	0x3e7ac553	0.24489336
45	0x3d648ea9	0.055800114
46	0x3e62203f	0.22082613
47	0x3dca5e9c	0.098813266
48	0x3cb7ab1e	0.022420462
49	0xbde81762	-0.11332585
50	0xbcc9d781	-0.024638893
51	0x3ebb8d0f	0.36631057
52	0x3d137190	0.035996974
53	0x3a723cca	0.00092406257
54	0x3de09276	0.10965435
55	0x3e2d4071	0.16919114
56	0x3d3b20d9	0.045685623
57	0xbdaf64b9	-0.08564133
58	0x3ebd1f62	0.36938006
59	0x3df18dba	0.1179461
60	0x3cc6cbd5	0.024267117
61	0x3ca6328c	0.020287775
62	0xbd354db5	-0.04426356
63	0xbd786129	-0.060639534
