baselines/QLearning/checkpoints/MPE_simple_v3/qmix_ps.safetensors (safetensors, 126400 bytes, 27 tensors)

agent,params,Dense_0,bias f4 [64]
000000 83 70 c7 bd 45 58 1f be 06 6b 98 3d d2 a0 34 be
       -0.09738257 -0.15561016 0.07442288 -0.17639473
000010 c5 92 67 be 6b 1b d3 bd 54 99 1c be 86 0a 5d be
       -0.22614582 -0.10307964 -0.15292865 -0.21586046
000020 9e d0 1a be ed a6 ad 3a ff 0d 6d be 11 36 20 be
       -0.15118644 0.00132486 -0.2314987 -0.15645625
000030 54 e3 60 3d af 94 26 3e 6a 5a d2 3d 12 be b5 3d
       0.054904297 0.16267656 0.10271151 0.08874144
000040 5f 8c 6a be b4 81 74 be 5e 64 3a 3d 9f 64 96 be
       -0.2290511 -0.23877603 0.045505874 -0.29373643
000050 07 72 8e be e1 2a 41 be b1 c7 ca bd f3 1c 6e be
       -0.2782137 -0.18864013 -0.09901369 -0.23253231
000060 a1 e6 a7 bd 17 30 ba bd fc 8f 1a be b8 b4 ad bd
       -0.08198286 -0.09091204 -0.15093988 -0.08481735
000070 33 df 42 3d 2a 6d ca bd f1 ea 89 bc 75 08 05 be
       0.04757614 -0.09884103 -0.016835662 -0.12991507
000080 75 93 2b be 8d 94 44 be 98 7b 66 bd 62 58 80 be
       -0.16755469 -0.19197293 -0.056270212 -0.2506743
000090 6b c8 21 be 0d 23 1c bd 42 8a 7b 3d 19 b3 b3 bd
       -0.1579911 -0.038119365 0.06141115 -0.087743945
0000a0 6f 94 8a bd a6 01 2a be de 18 40 be ad dd 2a be
       -0.06766593 -0.16602191 -0.18759486 -0.16686125
0000b0 87 dc 86 3c 56 96 dd bd d4 02 dd bd 5b 7c 0c bc
       0.016462578 -0.1081969 -0.10791555 -0.0085745705
0000c0 9f 81 2a bd d0 e6 95 bd 4a 4e ae bd cc da 50 bd
       -0.041627523 -0.073194146 -0.08511026 -0.05098991
0000d0 d9 3a 5c 39 42 ee 37 be b9 45 64 be dc 9c da bd
       0.00021002757 -0.17961982 -0.22292222 -0.1067445
0000e0 11 af 37 be d0 14 ee bc 6b 14 ce bc 7f 96 93 be
       -0.17937876 -0.029062659 -0.02515622 -0.28825757
0000f0 6c fb eb bd 7c 30 0a be 35 73 73 3b 44 de 96 3c
       -0.11522564 -0.13495058 0.0037147526 0.018416531

agent,params,Dense_0,kernel f4 [5, 64]
000000 c7 ce 6c bd c3 e2 69 be a5 53 ef bc 98 41 5b bd
       -0.057814386 -0.22840409 -0.02921469 -0.053529352
000010 be cc cd 3d 5d c6 42 be 0b 45 fc 3d 36 91 2d be
       0.10048817 -0.19020982 0.123178564 -0.16949925
000020 9b 36 2f 3e bd 58 8f bd 63 56 c6 bd 62 24 02 3e
       0.17110674 -0.06999347 -0.09684446 0.12709191
000030 15 54 a1 3e 65 54 ce 3b 1d 7c d7 bd 2d 33 33 3d
       0.31509462 0.0062966817 -0.105217196 0.043749977
000040 f0 90 f2 bc 59 d5 53 3e de ab 89 3d a8 86 68 3e
       -0.029610127 0.20686854 0.06722234 0.22707617
000050 71 90 bd be 9f af 13 3d 0e f6 be 3d b8 f1 29 3a
       -0.37024263 0.036056157 0.09324275 0.0006482857
000060 ac f8 cb 3c 42 df 34 be 59 1c 18 3e ab af 6d 3b
       0.02489885 -0.17663291 0.14854564 0.0036268036
000070 bf b1 26 3e 75 ea 2f 3e 6e 09 d8 bd 28 b2 84 bd
       0.16278742 0.17179282 -0.105486736 -0.06479293
000080 06 8e 93 be aa a5 8c bb 0d 66 30 3e 14 98 7c bd
       -0.28819293 -0.0042922096 0.1722643 -0.06166847
000090 c4 a9 89 bd 41 5d 8e bd 4a 00 eb 3d 69 fb 84 3d
       -0.06721833 -0.069513805 0.114746645 0.06493265
0000a0 61 ee 33 3d 28 28 f9 3d b6 ba c6 be be 4e c1 bd
       0.043928508 0.12165862 -0.38814324 -0.09438847
0000b0 a6 2d 1e 3e 74 b0 17 3e cc e8 9d be c2 d2 61 3e
       0.15447101 0.14813405 -0.30841672 0.22053054
0000c0 c5 30 13 bd b1 e2 c8 bd 2b ea f9 bb 4e 26 4d 3e
       -0.035935182 -0.09808863 -0.007626792 0.20034143
0000d0 65 d0 11 3e 66 d5 93 3d 94 2c 1a be 13 a8 40 be
       0.14239652 0.07218437 -0.15056068 -0.18814115
0000e0 75 a3 f5 3c 3a 1a 0f 3d 74 46 09 be e6 17 4e 3e
       0.029985169 0.03493712 -0.13405782 0.20126304
0000f0 bd 5b 11 3e 19 2f 69 3c d3 d6 e4 3d 49 2f dd 3d
       0.14195152 0.01423242 0.11173787 0.108000346
000100 d9 31 1a be de d4 76 3e 0f 10 95 bd 49 24 16 bb
       -0.15058078 0.2410464 -0.072784536 -0.0022909811
000110 f2 4f 98 bb 38 3d 01 bf c6 7e 95 3d aa 0f 18 3e
       -0.004648202 -0.5048404 0.07299571 0.14849725
000120 35 b8 09 be 59 68 f1 bd c4 b2 98 3d c2 49 9e 3d
       -0.13449176 -0.11787481 0.07455972 0.07728912
000130 40 9c 95 3e 28 07 92 be 6d cb 44 be 28 3b a4 bd
       0.29220772 -0.28521085 -0.19218226 -0.08019096
000140 e0 45 48 be 2d 19 35 be 29 ca 95 bd 04 f7 64 3d
       -0.19557905 -0.17685385 -0.073139496 0.055899635
000150 b4 0e 12 3e 1d 1d 64 3e d8 0e a0 3d 58 ee 77 bc
       0.14263421 0.22276731 0.07815331 -0.015132509
000160 cf 83 41 3e fb b2 61 bd 44 8e e1 3d 78 c4 ff 3b
       0.18897937 -0.05510233 0.11013463 0.0078054033
000170 23 a3 b1 bc 6a 04 2d 3e 3d 4c 2e 3d 0a cc cf 3d
       -0.021684235 0.16896215 0.042553175 0.10146339
000180 0f 1e 98 be 46 44 0b bc 33 fb 07 3d 3e a6 cf bc
       -0.29710433 -0.008500164 0.033198547 -0.025347825
000190 3e 7b 9e bd 2c 5b aa bd aa eb 01 3d 06 82 ce 3d
       -0.0773835 -0.08318171 0.031718887 0.10083394
0001a0 05 51 4e bd 49 81 72 bc 70 6e 20 3e a2 7b a0 3c
       -0.050370235 -0.014801332 0.15667129 0.019590203
0001b0 d3 0c ad bd d9 73 ab bd 8b 79 9d 3e 8d 3b 71 3e
       -0.08449712 -0.083717056 0.30756792 0.23557873
0001c0 80 d4 16 3c e0 d4 8d bd 0a 40 db 3b 63 3b c9 3d
       0.009205937 -0.06925368 0.0066909837 0.0982578
0001d0 96 40 53 bd a2 e5 87 3d 9a 5a 7e 3d 79 1f 00 be
       -0.051575266 0.06635596 0.062098123 -0.12512006
0001e0 c5 01 a8 3d 6f ae e7 3c 33 d1 a3 bc 28 f3 98 bd
       0.082034625 0.028281419 -0.019997215 -0.074682534
0001f0 dd 69 1e bd 25 e2 d4 3d 1e db c8 bc 1d 92 55 be
       -0.038675178 0.10394696 -0.024518546 -0.20856519
000200 06 29 ca 3d 97 12 ff 3e d6 08 ba 3e 8d 33 dc 3d
       0.09871106 0.4981887 0.36334866 0.1075202
000210 7a 66 95 be 45 59 d2 3c fb 53 b5 3e a8 25 5b 3e
       -0.29179746 0.025677333 0.35415635 0.21401083
000220 aa 0a ae bd 3a 3e 28 3e cb 6a 99 3e 69 39 7a 3e
       -0.08498128 0.16429988 0.2996429 0.24435963
000230 b1 88 1a bd 53 9b 22 be 47 d4 58 bc 02 55 67 be
       -0.037728015 -0.15879564 -0.013234205 -0.22591022
000240 f8 aa b1 bd f2 2a 6b be 49 ee be bd 29 7b 2b be
       -0.08675188 -0.22965601 -0.09322793 -0.167462
000250 97 1e c4 3e 2e 70 ae bb c6 ea 3c bf 80 1d 81 3e
       0.38304588 -0.0053234315 -0.73795736 0.2521782
000260 6e e2 25 3e d1 e5 b3 bd 18 cd 10 be f1 7c 7f 3e
       0.16199657 -0.087840684 -0.14140737 0.24950005
000270 48 bb bd 3c 29 51 cf be e6 20 67 b9 f5 03 6a 3e
       0.023160592 -0.40491608 -0.00022042132 0.22853072
000280 cf 6e 6d 3e 9c fe bc 3d 7a e5 3d be 01 8f 16 be
       0.23186801 0.092282504 -0.1854457 -0.14702989
000290 2b 53 12 3f 1f e3 9a 3c 47 7b 3e bf be cf 83 be
       0.57158154 0.018907128 -0.74406856 -0.25744432
0002a0 1a 22 7c bd ba d8 bd be 6d e9 10 3d c1 7e fc 3e
       -0.06155596 -0.37079412 0.035378862 0.49315456
0002b0 59 a1 2e 3a 2d 1a 17 bf 1d 31 70 bd 41 79 42 3c
       0.0006661616 -0.59024316 -0.058640588 0.0118697295
0002c0 8d 8b 2b 3e ee 6f 45 3f 0c db d8 be 46 1e 64 3c
       0.16752453 0.77123916 -0.4235462 0.013923233
0002d0 44 6e 4a bf 28 f5 1b 3d d2 8b 10 3f 10 9d 1b 3f
       -0.790745 0.038075596 0.5646335 0.60786533
0002e0 ce f9 be be 17 df 81 bc d3 25 9f 3e 1b a0 ec 3b
       -0.3729996 -0.015853448 0.31083545 0.0072212345
0002f0 0d 81 ff be 7d 77 93 3e df d5 07 3e cb 4e c1 3d
       -0.49903145 0.288021 0.13265179 0.09438857
000300 24 be 30 3f 3d e1 c8 be 73 2c ce 3e d8 a0 be bd
       0.6904013 -0.39234343 0.40268287 -0.09308022
000310 92 24 6b 3c a1 f9 c1 3c d5 97 a4 bc 28 79 c8 be
       0.014351981 0.023678603 -0.02009193 -0.39154935
000320 71 a1 9f 3e ca 0a 19 3f ac 06 cd 3b 5a ce 2c 3d
       0.31177858 0.5978209 0.006256899 0.04218898
000330 5a 0e eb bb 3e 6c 08 3d d6 34 9a 3d 41 08 0a 3f
       -0.0071733417 0.033306353 0.07529609 0.53918844
000340 41 ac 1f be 7e db 14 3e 4b ab b8 3e 54 2f 10 be
       -0.15593053 0.14536855 0.36068186 -0.14080554
000350 35 e6 dc bd ce d9 cc be aa 95 d3 bc 26 f2 24 3e
       -0.10786096 -0.40009922 -0.025828201 0.16107997
000360 48 0e d2 be 16 a5 2b bb f1 08 36 bf 57 40 ef 3e
       -0.4102652 -0.0026190928 -0.71107394 0.46728775
000370 3c cc 2a 3e 98 a2 a1 be 77 13 97 bd 06 3c 1b bf
       0.16679472 -0.31569362 -0.073767595 -0.60638463
000380 74 28 9c 3e e4 b3 d6 be 22 10 68 3e da 18 63 be
       0.30499613 -0.4193412 0.22662404 -0.22177449
000390 f0 fa 9a be 6c 33 40 3f a2 f4 6e be 77 c6 2d bf
       -0.30269575 0.75078464 -0.23335508 -0.6788096
0003a0 62 e3 df 3e cc 71 c5 3e 7a 89 3f 3d 77 2a 7a bd
       0.43728167 0.38563383 0.046761967 -0.061075654
0003b0 f6 5f 24 bd 97 a2 4c 3d 3f 32 c1 3d ff 12 1d bc
       -0.040130578 0.049959745 0.09433412 -0.009587049
0003c0 8e be 85 3c 4b fc 7c 3e f6 ed 87 3e 7d cf 01 3c
       0.016326215 0.24705617 0.26548737 0.007923004
0003d0 e9 fb a5 3e 33 d5 cc bb 1e ef 18 3e 70 95 8b bc
       0.32418755 -0.0062510013 0.14934966 -0.01703903
0003e0 f3 6a 1d be a8 97 dd 3d f4 99 85 3e 39 0d 03 bf
       -0.15372829 0.10819942 0.2609402 -0.5119205
0003f0 de 51 c3 3d 1d d7 10 bf 2e 98 66 3d fb 4f 03 3d
       0.09537099 -0.56578237 0.056297474 0.032058697

agent,params,Dense_1,bias f4 [5]
000000 83 ab 0d bd 2b a3 47 bd ed 3b ea bc 75 6a 55 3c
       -0.034587394 -0.048739593 -0.028593028 0.01302587
000010 7c 7c a7 bd
       -0.081780404

agent,params,Dense_1,kernel f4 [64, 5]
000000 b1 29 9c 3d 92 21 c4 be 4a 4b 9e bd 6d 85 29 be
       0.076251395 -0.38306862 -0.07729204 -0.16554804
000010 39 f1 66 be 5c 8f ca 3e a3 05 23 3e 1d 18 7b be
       -0.22552957 0.395625 0.15920119 -0.24520917
000020 9b 10 01 3e 2b cc 77 3e 40 6a 57 bf 0c 3d 1f be
       0.1260399 0.24198978 -0.841465 -0.15550631
000030 db 3e 50 be 4a db 87 be de 82 00 bf 14 05 be 3e
       -0.20336477 -0.26534492 -0.5019969 0.3711325
000040 4c 0e 13 3f 14 07 63 3e 39 ca 43 3f 69 b6 78 3e
       0.5744369 0.22170669 0.7648044 0.24288334
000050 2c 87 40 be e0 47 a5 be ef ba af be 69 f2 0a bd
       -0.18801564 -0.322814 -0.34322307 -0.033922587
000060 04 21 33 bc c8 23 3c 3e 28 2c ed be 81 c5 c8 be
       -0.0109331645 0.18373024 -0.4632275 -0.39213184
000070 8d 66 c8 be 96 8e 5f be d6 15 54 3e 1b 21 6b 3e
       -0.3914074 -0.21831736 0.20711455 0.22961847
000080 6e fb 2e 3f 64 64 75 bd fb 41 77 3e 25 68 47 be
       0.683524 -0.059910193 0.24146263 -0.19473322
000090 04 b4 6c be 4a ca be be 97 6a 76 bc 0b ca 62 be
       -0.23115546 -0.3726371 -0.015040061 -0.22147386
0000a0 8a 7d 84 3d b0 34 9c be e6 c1 9a be 07 d4 98 be
       0.06469257 -0.30508947 -0.30226058 -0.29849264
0000b0 99 6c 6c 3e 6e a1 9d bd 4d 16 09 bd 14 5f b6 3d
       0.23088302 -0.07696806 -0.033468533 0.089048535
0000c0 03 36 26 3e 64 10 22 3e 33 1c b7 3d 37 9c 49 3e
       0.16231541 0.15826565 0.089409254 0.19688497
0000d0 c6 03 86 bd b4 c5 0b be e8 83 9a 3e 35 ea cc 3e
       -0.065436885 -0.13649637 0.3017876 0.40022436
0000e0 67 38 eb 3d 21 b7 e4 3d 95 f8 d2 3e 8c f7 9a 3d
       0.11485367 0.111677416 0.41205278 0.07566747
0000f0 8d 80 1e be 08 1f b7 be 33 1c 04 bf 03 1d 69 bf
       -0.15478726 -0.35765862 -0.5160553 -0.91059893
000100 fe 35 d4 be e8 71 b4 3e f0 ff b1 bd 0b 36 c1 bd
       -0.41447443 0.35243154 -0.08691394 -0.09434136
000110 9c 48 99 3d ba a0 c1 bd 4d f5 95 3d 18 8e 15 be
       0.07484552 -0.09454484 0.07322178 -0.14604986
000120 c8 e3 62 3e 82 9d 99 3e d6 96 8d 3e 9f 9c ab 3e
       0.22157204 0.3000298 0.2765414 0.3351793
000130 50 ae 98 be 48 1b 7f 3d 6e af 8a 3d 9b 88 5b be
       -0.2982049 0.062281877 0.06771742 -0.2143883
000140 5f 36 20 be ca d4 0b be 00 b3 d0 bc e2 3e 8f be
       -0.15645741 -0.13655391 -0.025475979 -0.27977663
000150 a0 40 28 be 1f e2 29 3d f4 2c 00 bf 30 a0 d1 be
       -0.16430902 0.04147541 -0.50068593 -0.40942526
000160 27 1f 21 be 69 97 ac be 70 fd b1 be 21 26 36 be
       -0.1573454 -0.33709267 -0.3476367 -0.17787983
000170 4e a6 ec bc f5 6a e4 be e3 25 88 3d 4a 7a a8 be
       -0.028887894 -0.44612852 0.06647851 -0.329058
000180 85 fb e5 bd 19 5e 87 be a0 0d cf bd 2c 9a 6e bd
       -0.11229614 -0.26438978 -0.10110021 -0.0582525
000190 cc 90 0b bf 62 17 e6 be e3 b0 37 be cd 86 23 be
       -0.5451782 -0.44939715 -0.1793857 -0.15969391
0001a0 44 23 9a be 20 d0 1f bf ae 4d ab be 1f 97 ad bd
       -0.3010503 -0.6242695 -0.33457702 -0.0847609
0001b0 8b bd 13 bf ce 61 8d bd 4c 16 ec 3c 5e c6 34 be
       -0.57711095 -0.069034204 0.028819226 -0.17653796
0001c0 d8 c2 cf 3e df 1a aa 3c 4f 70 03 be 74 e2 26 3e
       0.4057834 0.020764766 -0.12835811 0.16297323
0001d0 bd 59 29 3d 76 61 72 3d ec d9 9b 3e 8a 2f 66 3e
       0.041345347 0.059174977 0.304397 0.22479072
0001e0 f8 17 51 be ca ce a1 be 50 b1 f7 be 4d 8e 99 be
       -0.204193 -0.3160308 -0.48377466 -0.2999138
0001f0 fd 78 8e be 2c c8 02 bd 9b df e6 bd 1a 97 b3 bd
       -0.27826682 -0.03192918 -0.11273118 -0.08769055
000200 92 96 6c be 7c af f0 be 62 b1 b1 be cd 59 a1 bd
       -0.23104313 -0.47008884 -0.34705645 -0.07878456
000210 73 bb b7 be 49 e3 44 bc a1 b2 50 3d 13 53 24 3e
       -0.358852 -0.01201708 0.050951604 0.16047315
000220 92 c1 a3 3e d5 5e 41 3e 54 09 9b bd 81 4f 22 3e
       0.3198362 0.18883832 -0.075701386 0.15850641
000230 cd 23 98 be 70 56 01 3e 43 23 ab be 23 14 08 bd
       -0.29714814 0.1263063 -0.3342534 -0.03322233
000240 12 f9 d8 bd 7f 00 89 bc 47 0f c8 3c b6 58 7d be
       -0.105943814 -0.01672387 0.024421347 -0.24740872
000250 8d 9b f2 3c 68 0b ba 3e 33 ab 8c 3e ce ab e4 bc
       0.029615188 0.36336827 0.27474365 -0.027913954
000260 93 81 45 bd 63 c7 87 3e 17 0d 07 3f 85 36 89 3e
       -0.048219275 0.26519307 0.5275435 0.26799408
000270 72 d5 93 3e 20 01 dd bc 62 08 96 bd ce 61 80 bd
       0.28873783 -0.026978076 -0.07325818 -0.06268655
000280 98 7f 2c 3d 10 09 06 3d 06 32 c1 3d e3 ef ab 3d
       0.04211387 0.032723486 0.09433369 0.08395364
000290 e1 60 4d 3e 37 ba 0a 3d 85 9a 6b 3c 61 4f c0 3e
       0.20056488 0.033868995 0.014380102 0.3756056
0002a0 e7 d0 7b be 34 51 1b 3f c5 ce af bd 11 8a b8 be
       -0.24591409 0.6067078 -0.0858436 -0.36042836
0002b0 46 1a 91 be e9 86 93 be 8e 55 38 3e 5e f0 31 3e
       -0.28340358 -0.28813866 0.18001387 0.17376849
0002c0 9c 8e 58 be e1 63 16 3e 8f 29 99 be 8d 05 32 3e
       -0.21148151 0.14686538 -0.2991452 0.1738493
0002d0 2f b4 e6 bd f3 34 e3 be ef f9 6a bd b1 6c 6f 3d
       -0.11264836 -0.44376335 -0.05736726 0.058453266
0002e0 2d 06 d2 bd f5 be 9b be 77 66 03 be ca 47 92 bd
       -0.10255084 -0.30419126 -0.12832056 -0.07142599
0002f0 bd fa 11 3d e5 dd 52 3c a0 58 ff bc 64 37 af 3c
       0.035639513 0.012870287 -0.03117019 0.021388717
000300 8d 8a 0f 3e a2 12 99 3e 99 77 ad 3d ee d8 a5 3e
       0.14017697 0.29897028 0.08470077 0.32392067
000310 88 10 03 bf f6 d4 e9 3e ff 01 1f 3e 72 e0 94 3d
       -0.511971 0.4567029 0.15528105 0.07269372
000320 4c 53 ef bd 59 98 6a be d3 ce 9a be 83 e1 14 be
       -0.116858095 -0.22909679 -0.3023592 -0.14539151
000330 0a 3d 8a be 70 f1 f9 bd 60 72 3c bd 3f f3 6e be
       -0.26999694 -0.12204254 -0.046007514 -0.23334979
000340 2b 51 bd be f4 57 2c be 13 c4 e5 bd 57 56 a4 3d
       -0.3697599 -0.16830426 -0.11219039 0.080242805
000350 84 f8 b6 be 72 a7 c8 be b7 c6 87 be e6 45 ee bd
       -0.35736477 -0.3919025 -0.26518795 -0.11634426
000360 a7 55 51 be 78 39 83 3b 42 47 2a be 36 36 38 be
       -0.2044283 0.0040046535 -0.16628745 -0.1798943
000370 19 90 31 3e 68 31 a6 3c 02 45 30 be 66 f0 7b be
       0.17340125 0.02028723 -0.17213824 -0.24603423
000380 bd 9d 84 be 5c 0c 7c be 70 5d aa be e3 42 11 3e
       -0.25901595 -0.2461409 -0.33274412 0.14185672
000390 54 54 3f be 87 f7 ab 3d b3 11 f9 3e da 4f 82 3e
       -0.18684512 0.083968215 0.48646316 0.25451547
0003a0 5f 18 42 3e 64 86 05 3f f9 31 3a 3e 7e 03 80 be
       0.1895461 0.5215819 0.18183126 -0.25002664
0003b0 c6 ad 8f be 42 b2 99 be f8 4c 10 3d 26 96 86 3e
       -0.28062266 -0.30018812 0.035229653 0.2628643
0003c0 dd 77 a7 3e 4e 61 33 3e 0d 08 2d bd 69 0b 2f 3e
       0.32708636 0.17517588 -0.042244006 0.17094196
0003d0 ff f4 77 3e 6c 59 35 3c ae 6b 72 3d 23 ff 2d 3f
       0.24214552 0.011068683 0.059184723 0.6796743
0003e0 07 4c 0f 3f 10 8b 08 be b7 c9 87 3e 4c a2 d1 bc
       0.55975384 -0.13334298 0.26521084 -0.025590084
0003f0 7b 3e 9b 3e 0f 8c 5a be 7a d0 c2 bc a3 c1 ae be
       0.30321106 -0.2134249 -0.02378105 -0.34132108

agent,params,ScannedRNN_0,GRUCell_0,hn,bias f4 [64]
000000 03 d0 98 bd db 8d cc 3c dc 42 a7 bd d7 b9 7e 3e
       -0.0746155 0.024969986 -0.08167049 0.2487558
000010 1c bb 80 bd 56 14 65 bd fb c3 b0 3d 88 63 a1 bd
       -0.06285688 -0.055927597 0.0863113 -0.07880312
000020 eb 93 18 bd f0 1a 96 3d b7 8b 85 3d 24 1d 36 3e
       -0.03725044 0.07329357 0.06520789 0.17784554
000030 fa 9b b4 be 50 ab 9b bc 2f ae ff 3d 2c 5a b9 3d
       -0.3527525 -0.019002587 0.12484395 0.09050402
000040 82 b2 e9 bd 3c 19 ee bd bf be ae bd 77 de 9b bd
       -0.11411001 -0.11625907 -0.08532476 -0.07610791
000050 e1 68 b6 bd 6e fe 03 be 76 14 a8 3d 81 06 bd 3d
       -0.08906723 -0.12890026 0.082070276 0.09229756
000060 81 ad 53 be 38 dd 67 bd 89 62 d5 bc 38 2b 5a 3d
       -0.20671655 -0.056607455 -0.026047962 0.053263873
000070 23 74 c5 bd 51 56 d0 bc a3 fa a3 3d d8 27 51 3b
       -0.09641292 -0.025431784 0.080067895 0.0031914618
000080 a7 dd 9e 3d 0d 5f 77 3c c0 d6 36 bd c6 80 69 3d
       0.077571206 0.0150983455 -0.044638395 0.057007574
000090 48 ae 02 be c5 2a 2f bd ef 17 44 3c 03 ab e5 3c
       -0.12761796 -0.042765398 0.011968597 0.028035646
0000a0 d0 f4 cc bd ab c8 d4 bd ce ab cf bd 25 6a 42 bd
       -0.10007632 -0.10389837 -0.10140191 -0.04746451
0000b0 2d 6d aa bd 96 69 53 bd e3 86 aa 3d 25 33 68 bd
       -0.08321605 -0.051614366 0.08326509 -0.0566894
0000c0 13 ed e9 3d 55 c5 e4 3c c4 3d b5 3d 39 32 99 bd
       0.114221714 0.027926126 0.088496715 -0.07480282
0000d0 5a 7d 6c 3d 76 ac 58 3e b2 0f c2 3d e3 35 52 3e
       0.057736732 0.21159539 0.0947565 0.20528369
0000e0 2f fb b0 3b 8d 9e b5 bd 59 8b fa 3c e6 72 3c 3d
       0.005401037 -0.08868132 0.030584024 0.046008013
0000f0 16 9a e9 3d 1d bf c3 bd 5b d9 85 3d e1 c4 42 bd
       0.11406343 -0.09557936 0.06535598 -0.04755104

agent,params,ScannedRNN_0,GRUCell_0,hn,kernel f4 [64, 64]
000000 4d 42 c8 be ab 26 34 bd 8e e0 9b bd cd fa d9 bd
       -0.39113083 -0.04398219 -0.0761119 -0.106435396
000010 2c 9d 97 bd cc 5a 0d bc 88 bd 81 3d 1e 61 07 3e
       -0.07403025 -0.008627605 0.06334978 0.13220641
000020 57 be eb 3d c0 7d 75 3d 84 36 5e be 69 76 b0 3c
       0.11510914 0.059934378 -0.21700484 0.021540837
000030 7d 17 d8 bc 68 13 11 be 90 06 b1 bd a8 0e f6 b9
       -0.026378388 -0.14167559 -0.0864383 -0.00046931696
000040 80 19 87 bd 67 0e 6d bd 31 13 9d be fe 41 36 bd
       -0.065966606 -0.057875063 -0.30678704 -0.04449653
000050 2c 0c f9 3d 84 2d ed bb d4 3e 3d be 7f 49 91 3a
       0.12160525 -0.007238092 -0.18480998 0.0011084526
000060 ef 79 ff 3d e3 b3 6d be e3 db cf 3c 28 2e af 3d
       0.12474429 -0.23213153 0.025373405 0.085537255
000070 92 23 d6 3c 87 18 40 3e e5 83 2a 3e 88 6e b9 3d
       0.026140008 0.18759356 0.16651876 0.09054285
000080 73 0e fa bc 73 5b c6 bd be 35 cd bd a7 b6 e7 bd
       -0.030524468 -0.09685411 -0.10020016 -0.11314135
000090 e0 5d 04 be 07 cc 1b 3c 24 ca 04 3c 3c f0 91 3c
       -0.12926435 0.009509093 0.008104835 0.017814748
0000a0 05 32 b7 3c 2d 92 37 3d 2f b2 a8 be ba 91 78 3d
       0.022362718 0.04481714 -0.32948443 0.06068585
0000b0 cf 8a 38 bd ff 57 73 bd c8 6c a6 3d 22 08 e3 be
       -0.045054253 -0.05941009 0.08126217 -0.44342142
0000c0 55 6a 37 3a 54 c8 9a bd ee bf fc bd 99 8b d3 bd
       0.00069967407 -0.07557741 -0.12341295 -0.103293605
0000d0 a9 32 85 3d 9b 72 a4 bc dd c3 be bd 70 c9 47 3e
       0.06503803 -0.02007418 -0.09314702 0.19510436
0000e0 0c b2 4d 3d 7e 34 86 3d ec f1 38 3d 9b 18 0c bd
       0.050218627 0.06552981 0.04515259 -0.034203153
0000f0 3d 12 c9 3d 25 12 2c be d8 53 1e 3e 4d 01 47 bd
       0.09817932 -0.16803797 0.15461671 -0.048585225
000100 00 80 b0 3d ab aa 2b be 64 b9 3d 3e 66 1d 92 bd
       0.08618164 -0.16764323 0.18527752 -0.071345136
000110 fa e7 c4 bc 65 a0 c0 3c 7b de 84 bd 40 36 36 be
       -0.024036396 0.023513982 -0.06487747 -0.17794132
000120 69 46 dc bc 4e df 29 bd 51 27 1b bc cf ec af 3d
       -0.026889043 -0.041472726 -0.009469823 0.085900895
000130 56 fe 2b 3e 13 01 05 bd 9b b5 ab 3b bb 41 95 be
       0.1679624 -0.032471728 0.005240155 -0.2915171
000140 65 ed 8f 3d c3 bb f3 3d af ea 0f 3e 18 74 ab bd
       0.07027701 0.11901047 0.14054368 -0.083717525
000150 f8 e2 97 3e 58 c6 9d 3e 1e a0 db bc 8a 57 90 3d
       0.2966535 0.30815387 -0.026809748 0.07047947
000160 d8 20 30 be bc 1f be bc 4d 36 d0 3d 1a ab 00 be
       -0.17200029 -0.023208492 0.10166607 -0.1256527
000170 0f 88 cb 3c d2 a1 0f 3c 9d e0 17 bd 85 0f 8c be
       0.024845151 0.008766608 -0.037079442 -0.2735559
000180 22 7c ce bd 66 8d f2 3d 7f 0f 31 3d 67 8d 1a 3e
       -0.1008227 0.11843376 0.04322767 0.15093003
000190 5b a6 0e be 58 77 6d be 40 57 5b 3d 1b 39 20 3e
       -0.13930647 -0.23190057 0.053550005 0.15646784
0001a0 64 ee 05 bc ce b3 c9 3d 58 8c 2a 3d bf 04 1f 3d
       -0.008174513 0.09848748 0.04163775 0.038822886
0001b0 ad 90 8e bd 2e a5 0e 3e 03 bd 32 be b1 0f 90 bd
       -0.069611885 0.13930199 -0.17454915 -0.07034243
0001c0 e6 f3 d1 3a f6 38 61 3e 19 22 06 be 4c ce 86 3d
       0.0016018122 0.21994385 -0.13098945 0.06582317
0001d0 fd 8e cd bd 9b 9d 69 bd da 11 0f 3e fa dd 3e 3e
       -0.100370385 -0.05703507 0.13971654 0.18639365
0001e0 9d c0 05 bd 72 0b 5e bd 6e 2c d8 bc dc 42 46 3e
       -0.032654393 -0.054210134 -0.026388373 0.19361442
0001f0 34 6a da 3d 93 bf db bd f7 ea 2a bd 2f 6a 24 be
       0.10664788 -0.10729899 -0.041727986 -0.16056131
000200 0f de 16 3e b7 dc 8b bc 69 40 83 be 6d 15 6b be
       0.14733146 -0.017073018 -0.2563508 -0.22957392
000210 0e 74 fc bd 76 b2 07 3d cd ee 1a 3e 43 58 b3 3c
       -0.12326823 0.033129178 0.15130158 0.021892672
000220 a2 63 26 3e 20 e6 b2 bd ca 63 b7 3d f7 d0 0c 3e
       0.16248944 -0.08735299 0.0895458 0.13751589
000230 8d bb 7a bd 81 17 8b 3c 41 2b 15 be 2f 6b 81 be
       -0.06121402 0.016978981 -0.14567281 -0.25277087
000240 19 90 f6 bd 12 66 b8 bd b1 80 52 bd af 51 a9 3d
       -0.12039203 -0.09003843 -0.05139226 0.08267533
000250 ae b9 8a bc 16 0c eb bd 4b 13 af 3d 13 bb 14 3e
       -0.016934242 -0.114769146 0.08548602 0.14524488
000260 fd b5 a1 3c a5 6e 89 3c c9 8f 58 3d c1 84 30 bb
       0.0197401 0.016776392 0.0528715 -0.0026934596
000270 71 48 06 bc b3 27 dc 3d 9f 39 a0 be b6 ca d1 3c
       -0.008195982 0.107497595 -0.3129396 0.025609355
000280 28 82 43 3e f1 2d 5a 3d cf ea 47 be 90 ad 5e bd
       0.1909262 0.05326647 -0.19523166 -0.05436474
000290 87 cb e1 bc 87 75 62 3e 3f fa 34 3e b3 6f c7 3d
       -0.02756287 0.22115146 0.17673586 0.09738102
0002a0 30 85 fd bd b5 14 1d 3d 66 41 99 3c f7 27 07 be
       -0.12378919 0.038349826 0.018707942 -0.13198839
0002b0 2a f5 6d 3b 69 10 91 bd 98 2e 31 be 1f 72 1e 3c
       0.003630946 -0.07083208 -0.1730293 0.009670763
0002c0 b0 3f 21 be a4 77 f7 bd 51 76 75 bd 71 5d 0d 3d
       -0.15746951 -0.120833665 -0.05992729 0.03451294
0002d0 f1 36 26 bd 85 46 96 3e 9a 65 3b bd e0 ac b6 3e
       -0.04057974 0.29350677 -0.04575119 0.35678768
0002e0 95 8a fb 3d d6 db dd 3c b2 89 f5 bc cc 2d 5d 3d
       0.12282292 0.027082365 -0.029972885 0.053998753
0002f0 15 89 41 3d 13 ec 8b bc 4f 56 9e 3c 1a 01 14 3e
       0.047249872 -0.017080342 0.019328265 0.14453545
000300 0e 4b 8c 3e 43 81 c0 3c ce 97 48 3e 37 f8 59 be
       0.27401012 0.023499137 0.19589159 -0.21286093
000310 5c 8b e4 bc 83 b8 98 3c 15 ff ae 3d f5 c0 f7 bd
       -0.027898483 0.01864267 0.08544747 -0.120973505
000320 17 76 63 be fa 3e 91 bc 00 1f 57 be a9 1b c8 3d
       -0.22213016 -0.017730225 -0.2100792 0.09770901
000330 90 7e 6e bd 3f 64 69 be 69 a8 ca bd bc 84 e0 3d
       -0.05822617 -0.22792147 -0.09895403 0.10962817
000340 13 46 a7 3d b6 84 3f 3d e6 e8 40 3e fc e3 b2 bd
       0.081676625 0.046757422 0.18838844 -0.08734891
000350 a2 fc d0 3e c4 e7 fd 3d a9 19 a9 3e d3 bc 36 be
       0.40817744 0.123977214 0.3302739 -0.17845468
000360 1e ff c0 3d 5b 12 c4 3d 7e ed 07 3d 95 67 0f 3d
       0.0942366 0.095738135 0.033185475 0.035010893
000370 cc 35 7c 3e fe 47 fe 3d 1b 08 a4 3d b8 1a 1d bc
       0.24629897 0.12416075 0.080093585 -0.00958889
000380 2a 4d 3c be d2 90 26 be 6b ac 48 3d a0 44 b1 3d
       -0.18388811 -0.16266182 0.048992556 0.08655667
000390 f4 ce ab bd a0 d8 37 3e ec fa 6f bd 18 1e 13 bd
       -0.083890826 0.1795373 -0.058588907 -0.03591737
0003a0 d0 77 48 3e b2 65 8d 3d ac 6a cf 3d 13 e9 cd 3d
       0.19576955 0.069041625 0.10127768 0.10054221
0003b0 83 bb 19 ba d6 df 16 3d a7 27 7c be fa ce d9 3d
       -0.0005864428 0.03683456 -0.24624501 0.10635181
0003c0 0a 6f 5e 3d 50 49 7e be a1 02 87 3e 22 70 7d bb
       0.054305114 -0.24832654 0.26369193 -0.0038671573
0003d0 d6 98 29 3c 39 d6 31 3e 12 63 53 3c ac 95 03 3d
       0.01035138 0.17366876 0.012902038 0.03212516
0003e0 80 e7 a0 3d 53 32 0b 3e bb 8d cc bd 60 cc 7d bd
       0.07856655 0.13593416 -0.099879704 -0.061962485
0003f0 61 31 a8 bd 00 f1 5f 3e bf 35 b6 3a 07 65 a7 bd
       -0.08212543 0.21869278 0.0013901516 -0.08173566

agent,params,ScannedRNN_0,GRUCell_0,hr,kernel f4 [64, 64]
000000 40 5e 10 bd 36 b0 15 3b e1 fc ec 3d f1 43 da 3d
       -0.035246134 0.0022840626 0.1157167 0.1065749
000010 92 d4 a2 be b8 13 6c be 0c 4c be 3d cc bd f8 3d
       -0.31802803 -0.23054397 0.092918485 0.12145576
000020 14 14 9d bc 17 41 52 3e a3 c2 1a be 4e fc 19 3e
       -0.019174613 0.20532642 -0.1511331 0.15037653
000030 f4 8e d6 3c 61 ba 9b 3c 5b 2e 8b bb 98 61 d3 3d
       0.026191212 0.01900977 -0.0042474694 0.10321349
000040 33 26 32 3e 66 d4 33 3d b1 dd ab 3d 33 89 d9 3b
       0.17397384 0.04390373 0.08391894 0.00663867
000050 c4 aa 61 bd 66 70 15 bd 34 a6 86 be 2e 42 6f 3d
       -0.055094495 -0.036484145 -0.26298678 0.058412723
000060 b7 0c 90 bd ee ef 50 be 0a 69 80 bd 47 7e 5e 3e
       -0.07033675 -0.20404026 -0.062700346 0.21727858
000070 69 44 bb bd d1 f0 ff 3c 1b 0e 61 3d 66 d5 ff 3d
       -0.091439076 0.03124276 0.054945093 0.124918744
000080 e7 3f 2e 3e b7 16 95 bc 79 15 58 be 64 31 2c be
       0.17016564 -0.018199308 -0.21101941 -0.16815716
000090 ed a8 8c 3d 0d e4 6c bd 86 39 25 bc 8f cd d9 bc
       0.068681575 -0.057834674 -0.010084515 -0.026587276
0000a0 4f fa e5 bc e0 cb 6a 3c ae be c1 bd 89 11 73 bd
       -0.028073458 0.014330834 -0.094601974 -0.059342895
0000b0 86 80 c7 bd 67 dd ce bc 41 ed fb bd 43 b9 91 be
       -0.09741311 -0.025252057 -0.12301112 -0.28461656
0000c0 47 08 06 3d d6 86 04 3e 75 e5 52 39 59 b6 07 3e
       0.032722738 0.12942061 0.0002011264 0.13253154
0000d0 4d 6d 04 3e 7d ac ec 3d 91 cc 1b 3d 1f 4b bb 3e
       0.1293232 0.11556337 0.038036887 0.3658075
0000e0 05 a5 58 3d 63 79 88 3d 43 20 66 be 60 ef f5 3c
       0.05289175 0.06663778 -0.22473244 0.03002137
0000f0 b0 6b 59 3e 30 af 97 bd 5e 54 43 3d 71 7e 4b 3d
       0.21232486 -0.07406461 0.04768788 0.04968113
000100 63 46 a0 3d 58 ed 4e be 80 3b 27 be 23 34 e3 3c
       0.07825925 -0.20207727 -0.16331291 0.027734822
000110 f2 1a db bd c9 e7 90 be b0 0f 5d 3e 11 98 e9 bd
       -0.10698499 -0.28301838 0.21588016 -0.114059575
000120 4c db 02 3c c4 9b bf bc 07 28 c1 3c a5 3a ad bd
       0.007986855 -0.023389705 0.023578657 -0.08458451
000130 1c b5 03 be 85 bc 95 3d a9 a4 79 3e 5c 6e 03 be
       -0.12862056 0.07311348 0.24379219 -0.12835068
000140 3f f5 10 be 54 53 2a 3e a8 f6 87 bd f1 51 76 3b
       -0.14156054 0.1663335 -0.06638843 0.0037585462
000150 8c f8 12 3e 7b c8 15 3e 93 20 80 bd a4 00 93 be
       0.14352626 0.14627258 -0.06256213 -0.28711426
000160 cc 9b 44 be 2b ea a2 3a 0a 2e e0 3a 77 3f fa bd
       -0.19200057 0.0012429407 0.0017103564 -0.12219136
000170 de d3 9e bc c2 5c eb 3c 60 bc bf 3d 4a bb 90 3d
       -0.019388136 0.028730754 0.093621016 0.070669726
000180 12 72 3e be 33 51 11 bc 09 50 85 3d a8 44 52 3e
       -0.18598202 -0.008869457 0.06509406 0.20534003
000190 83 f8 67 bd 36 29 89 3d c8 21 05 be bc ad b5 3d
       -0.056633484 0.066973135 -0.13001168 0.08871028
0001a0 4e 40 82 3d b0 9c 44 3e ec 17 46 bd 1c 56 92 bd
       0.063599214 0.19200397 -0.048362657 -0.0714533
0001b0 35 e3 1a be f6 ae 08 3e d7 e4 ec bd 75 10 c7 3c
       -0.15125735 0.13347992 -0.11567085 0.02429984
0001c0 22 f3 d8 3d e7 9a af bd 87 25 2d bd 05 ed 1d bd
       0.10593249 -0.08574467 -0.042272117 -0.038556118
0001d0 3f e2 fe 3d b4 5c 3e 3e 89 61 d9 3c 07 72 3f bc
       0.12445497 0.18590051 0.026535766 -0.011684901
0001e0 f0 26 06 3e 95 47 d5 3c a7 38 12 3d b5 20 6d bd
       0.13100791 0.02603511 0.03569856 -0.05789252
0001f0 e0 12 00 3e da 5e 4f 3e 95 d8 25 be 7d 44 0e 3e
       0.125072 0.20251027 -0.161959 0.13893314
000200 0b 7b 57 be 72 d9 df bd fa 19 c2 3c 59 9c 08 3e
       -0.21043031 -0.10930146 0.023694027 0.13340892
000210 6f 03 fd bd e1 ef 90 bd 2e 8f 3d be 8e ae 8e 3d
       -0.123541705 -0.07077003 -0.1851165 0.069668874
000220 98 af a0 bd 77 fd 25 3e 9c 19 8c bb 96 5a a8 bd
       -0.07845992 0.1620997 -0.004275514 -0.08220403
000230 1e 26 9b bb d0 b6 12 bd 1c eb 05 3d 8c fd 89 3d
       -0.0047347685 -0.035818875 0.03269492 0.06737813
000240 96 bc dd bd 44 ee 3f be f8 dd 57 bd c2 6c b6 bd
       -0.108269855 -0.18743235 -0.05270192 -0.08907463
000250 ef 44 33 3e 08 e3 91 3e 73 5f f6 bc 20 63 9e 3c
       0.17506765 0.28493524 -0.03007481 0.019334376
000260 f6 28 8c 3e e9 bd c3 bd 68 f9 1d 3d 68 a3 6b bd
       0.27375 -0.09557707 0.03856793 -0.057528883
000270 69 b2 5f 3e 4f 4d 18 be ac 3b ec 3c fe f6 0f be
       0.21845402 -0.14873241 0.028837048 -0.14059064
000280 24 67 38 be 27 5a a6 bb 7c 62 58 3e 15 38 8b 3b
       -0.18008095 -0.005076665 0.21131319 0.004248629
000290 a2 99 a8 bc 26 87 21 3d 19 cf 00 3e 0b 0e bb bd
       -0.02058107 0.03943553 0.12579001 -0.09133538
0002a0 f3 61 9d bd c5 d4 27 be ac 5c 66 be a1 df 80 3d
       -0.07684698 -0.16389759 -0.22496289 0.06292654
0002b0 45 04 78 be cf e1 70 3d ff c6 d0 3d 75 b7 c3 be
       -0.24220379 0.058809098 0.101942055 -0.38225904
0002c0 c8 76 13 3d 39 23 94 bc 0f 21 0f bd 7d ef 4f be
       0.03600195 -0.018083202 -0.034943637 -0.20306201
0002d0 b8 1d 15 be 67 7a 69 bd 25 03 5a 3c 70 ee 89 bc
       -0.14562118 -0.057001498 0.013306414 -0.016837329
0002e0 08 72 be 3c 93 30 25 3e 55 63 58 bb 3b 91 c3 bd
       0.023247734 0.16131811 -0.003301819 -0.09549185
0002f0 e8 af 71 bc 84 66 e4 bd ce 2f e5 3c 4d 3d c6 bc
       -0.014751412 -0.11152366 0.027976897 -0.024199152
000300 36 ef 94 3d fa c0 03 3e 5c 3c 0d be b3 54 54 be
       0.07272188 0.12866583 -0.13792557 -0.20735435
000310 d1 1e 95 be 19 90 df 3d ef 62 20 be f9 96 e9 3d
       -0.29125074 0.10916156 -0.1566274 0.11405749
000320 74 b5 43 bd ef 2a 99 3d 94 bd f9 bd 96 84 50 3b
       -0.04778047 0.07478892 -0.12194362 0.0031817309
000330 35 6f c4 be 74 20 6f 3b 59 41 75 be 7c 11 a6 bd
       -0.38366094 0.003648785 -0.2395071 -0.08108804
000340 28 d1 e5 bd c0 bf 01 be 20 39 05 bd c8 11 05 3e
       -0.11221534 -0.12670803 -0.03252518 0.12995064
000350 da a9 aa 3e cd 10 a8 be 4d a1 6a 3d 07 b6 ae be
       0.3333271 -0.32825318 0.057282735 -0.3412325
000360 25 39 60 be 69 37 2e be 50 c8 0c 3e d0 e5 8b be
       -0.21896799 -0.17013325 0.13748288 -0.2732377
000370 8b 04 5b bb ee 00 55 be d2 28 33 bc 9b e1 1c 3e
       -0.0033419456 -0.20801136 -0.010935025 0.15320437
000380 38 b0 83 3d 43 67 78 bd 7f ad 25 bd 52 6d 93 3d
       0.064300954 -0.060645353 -0.040448662 0.071985856
000390 92 e9 7c be 8a ea 7a 3c ea 59 59 3e f7 0e 56 bd
       -0.24698475 0.0153147075 0.21225706 -0.052260365
0003a0 45 d4 6e bd 03 7b 18 be cb e1 cb 3d 8a 42 97 3d
       -0.058307905 -0.14890675 0.09955176 0.07385738
0003b0 8a 7a c5 3d ce 23 52 bd ae c3 35 bd cd 60 99 bd
       0.09642513 -0.051303677 -0.044376068 -0.074891664
0003c0 ab 85 f6 bb 1a 9f 42 be 69 ab 4d be cb 40 50 be
       -0.0075232587 -0.19006005 -0.20084919 -0.20337217
0003d0 07 0f e9 bc 6e 9c 20 be bb 10 31 bd 72 45 83 be
       -0.028449548 -0.15684673 -0.043228846 -0.2563892
0003e0 2c 62 34 be 1d b8 14 be c3 c3 b8 3d 2b 31 5c 3b
       -0.17615575 -0.14523359 0.090217136 0.0033598642
0003f0 1b 40 24 bd 46 42 b7 bd 0e 36 f7 bd 18 9b bb bd
       -0.0401002 -0.089481875 -0.12070857 -0.09160441

agent,params,ScannedRNN_0,GRUCell_0,hz,kernel f4 [64, 64]
000000 b3 7e bc bd 56 d7 3c bc 76 3e 18 3e 7b 5c 3a be
       -0.092038535 -0.011525949 0.14867577 -0.18199341
000010 d3 ff 50 3d 30 c5 68 3d ff a1 c0 bb 70 2e ac bc
       0.051025223 0.056828678 -0.0058786864 -0.021018237
000020 0b 72 5b bd ce 59 fa 3d ec 49 a3 3d 8f a2 32 be
       -0.053575557 0.1222416 0.07973084 -0.17444824
000030 7c 39 86 be 62 fa a0 3d 53 aa 24 be 06 e1 58 3e
       -0.26215732 0.07860257 -0.16080599 0.2117959
000040 fe 20 0c 3d 57 27 05 3c 15 84 15 be 57 f8 49 3e
       0.03421115 0.008127055 -0.14601167 0.1972364
000050 b8 b5 4a 3d 3c f5 6f 3d 15 e7 17 bb d7 be 81 3e
       0.049489707 0.058583483 -0.0023178507 0.25340912
000060 08 f3 c0 3d 73 f7 7e bd 37 09 ac bc ec 73 25 be
       0.094213545 -0.062247705 -0.021000488 -0.16157502
000070 66 de 8f 3e 01 fc 7a bd b4 9f b4 bc 95 14 65 bd
       0.28099364 -0.061275486 -0.022048809 -0.05592783
000080 0c c5 96 3d 18 ac 69 3d b5 6e 0f bb d4 99 0c be
       0.073618025 0.057048887 -0.0021886055 -0.13730556
000090 8e 1d e2 bd 49 f2 2a be f6 1d 3a 3e e0 b5 90 3d
       -0.11040793 -0.16693987 0.18175492 0.0706594
0000a0 81 34 b5 3c 65 c4 2c bd c6 13 c6 bb ac 52 1f 3e
       0.022119762 -0.042179484 -0.0060448376 0.1555888
0000b0 64 ab d9 bd e3 6b 76 bd 03 de 38 be bc 85 26 bd
       -0.10628393 -0.060161483 -0.18053441 -0.040654883
0000c0 4c fd 92 3d 01 02 14 3e 93 99 91 3d 8e 22 f5 bd
       0.07177219 0.1445389 0.0710937 -0.119694814
0000d0 d0 b2 33 3d 30 7b b4 3b c0 89 7c 3c 08 ff ec 3c
       0.0438717 0.005507849 0.0154137015 0.028930202
0000e0 5c be 47 3d 55 07 62 be cb 9d 5c 3e 33 34 13 3e
       0.048765525 -0.2207311 0.21544568 0.14375381
0000f0 f5 45 1c be 5f d3 83 be 3b 43 f6 bd a5 17 af bd
       -0.15261061 -0.257472 -0.12024542 -0.08549432
000100 79 0a 32 3d a5 6c 45 be 0d 2d 8e bc f8 5a e0 bd
       0.04346702 -0.19279726 -0.017355466 -0.10954851
000110 81 c1 e5 bd 41 5b 11 3c b8 d1 46 bd 32 dc c3 3d
       -0.112185486 0.008871854 -0.048539847 0.09563483
000120 11 ae 3d be cc 0e f2 bd 6c 54 32 be 11 e4 5d be
       -0.18523432 -0.118192285 -0.17415017 -0.21669032
000130 08 99 d5 3d 0a 2a 00 be 2c d1 1a 3d dc cc d1 bc
       0.10429579 -0.12516037 0.037797138 -0.02561038
000140 be 88 2e bd ad 68 28 bd 37 8c 80 be f9 1f 07 3d
       -0.042610876 -0.04111545 -0.25106975 0.032989476
000150 4a cc 3c bd f6 cc ee 3d 8a d8 72 3c e2 38 de bd
       -0.046093263 0.11660187 0.014822135 -0.10850693
000160 9e 69 d0 3a 31 bc 1e 3e c7 01 be bc 2c ef 4d 3d
       0.0015900617 0.15501477 -0.023194207 0.05027692
000170 0b 5f 59 be 70 29 0a 3e cd 47 28 be bc f0 23 be
       -0.21227662 0.1349237 -0.1643364 -0.16009802
000180 1e ac 1f be 53 fc fb 3c eb 5c 29 be 95 b4 88 3d
       -0.15593001 0.030759966 -0.16539352 0.06675068
000190 0d 97 a8 bc be 85 28 3e 4e 21 91 3e 75 ed 81 3c
       -0.02057984 0.16457269 0.28345722 0.015860299
0001a0 fc 27 09 3e a8 19 ce 3d 28 5b a9 bd b3 76 01 3d
       0.13394159 0.10063487 -0.0826934 0.03160734
0001b0 c0 6e 1f 3e 37 aa 2e 3d 4a 8b 87 3d 60 2f 41 3e
       0.15569592 0.0426428 0.06618364 0.18865728
0001c0 5e 11 75 bd 5a ef 0e 3e 80 2b 15 bd 89 bc a8 bd
       -0.059831016 0.13958493 -0.036418438 -0.08239085
0001d0 e7 ba 0b 3e 8e d9 d6 3c 40 6c 27 be e4 1f 46 bd
       0.13645516 0.026226785 -0.16349888 -0.048370257
0001e0 20 3a 37 be 16 bb 11 be a9 d4 2d 3e 21 f6 08 be
       -0.17893267 -0.14231524 0.16975655 -0.1337514
0001f0 34 c2 a6 bd 79 fc 1e bd 7c 21 72 be 28 3e cb bb
       -0.0814251 -0.038814995 -0.23645586 -0.006202478
000200 7b f1 82 3b 5b c8 00 3d dd 34 1b be 2f bb 4c 3e
       0.003996072 0.031441074 -0.15156884 0.1999328
000210 fe b1 ee bd f7 4d 02 be 87 aa dd 3e 70 66 50 bd
       -0.11655043 -0.12725054 0.43294165 -0.050878942
000220 9c 00 79 3c 77 28 83 3d 5a 5e da 3d 33 43 e7 ba
       0.015197899 0.064042024 0.106625274 -0.0017643928
000230 e5 de e9 bd ce ad 0e 3e 9b 61 b6 3d da 6b a5 be
       -0.11419467 0.13933489 0.089053355 -0.32308847
000240 2a 08 b9 bd 4d e2 28 3d 1e 46 bc bd f9 2f ec 3d
       -0.0903476 0.041231442 -0.09193061 0.115325876
000250 a8 dd 84 be 3e 0b d0 3d 50 9e 19 3e f6 a5 e3 bc
       -0.2595036 0.10158394 0.15001798 -0.027789097
000260 3c 7b 80 bd 60 c3 2a bc 1d 78 1b be 49 d1 e6 bd
       -0.06273505 -0.010422558 -0.15182538 -0.11270387
000270 87 9b c7 bc 27 42 49 3d 1d 59 4e 3e 7e 7a 26 bc
       -0.024366153 0.049135353 0.20151182 -0.01016104
000280 0b 6b 02 3e 84 84 8a 3e 56 ff ed 3c 08 e9 90 bd
       0.12736146 0.27054226 0.029052418 -0.07075697
000290 c8 3f 17 be 85 a4 97 b9 0b 88 9e 3d 28 23 16 be
       -0.14770424 -0.0002892354 0.07740792 -0.14661849
0002a0 f9 b9 b0 3d 3f 7e f0 bd a8 ac 27 bd 42 5a e6 3c
       0.086292215 -0.117428295 -0.040936142 0.02811921
0002b0 16 a6 d8 3d 9f 0f a9 3d f8 e0 65 be fa cb 6d 3d
       0.105785534 0.082549326 -0.224491 0.058055855
0002c0 9e 4c 0d be 91 54 b8 bd 4c 54 57 3c a8 0e 09 bd
       -0.13798758 -0.09000505 0.013142657 -0.033461243
0002d0 77 de 12 3d 44 14 1e be fb f8 9c 3d 32 e9 04 be
       0.03585669 -0.15437418 0.07664677 -0.12979582
0002e0 ec 16 26 3d 0f 98 e3 3d 23 5a aa 3d d4 fb 47 be
       0.040549204 0.11112987 0.083179735 -0.19529659
0002f0 56 2f a6 3d 69 d2 4d be 90 ff 25 bd fa 6a cb 3c
       0.08114497 -0.20099796 -0.040526927 0.024831284
000300 e6 6a b7 bd bb 06 ed 3c 76 1c 0e bd 23 6d 99 bd
       -0.08955936 0.028933873 -0.03469511 -0.07491519
000310 e0 cc 70 bd c9 3f 74 be 75 5e a9 bd 01 27 b8 3d
       -0.058789134 -0.23852457 -0.082699694 0.089918144
000320 37 90 f2 3d 1a 12 b6 3d 1c 99 ba 3c ad fb 9a 3c
       0.11843913 0.08890171 0.022778086 0.018918836
000330 8b fc 27 3d c2 ab 62 3d 0c 05 81 3e 8c 5e 76 3e
       0.041012328 0.055339582 0.25199163 0.24059504
000340 20 14 a7 3d e3 a4 80 3d 36 d4 9e 3d dd bb 58 3d
       0.081581354 0.0628145 0.0775532 0.052913535
000350 39 69 dd bd 1a 13 c5 3d 4e 36 06 3e 16 9d 58 bb
       -0.10811085 0.09622784 0.13106653 -0.0033052615
000360 da 56 84 3e c4 41 2a 3c 87 5f 38 be 8c 5e db 3d
       0.25847512 0.010391656 -0.18005191 0.10711393
000370 59 d9 29 3e d1 b3 f7 bd b3 01 55 bc 69 20 33 3e
       0.16586818 -0.12094844 -0.013000893 0.17492832
000380 b8 bd 51 3d 41 8c 87 bd 8b ea 3c 3d 1e e8 ac bd
       0.05120632 -0.06618548 0.046122115 -0.0844271
000390 63 ba 10 3e 50 31 07 3e b2 d8 c9 38 b1 b1 0a bd
       0.14133601 0.13202405 9.6247895e-05 -0.033860866
0003a0 dd 77 88 3c d9 28 02 bd a6 61 87 3e 74 4c 3a bd
       0.016658718 -0.031777237 0.26441687 -0.045483068
0003b0 e3 3a 89 3e 9c 40 85 bd c7 64 1a be 07 f1 e6 bd
       0.2680274 -0.06506464 -0.15077506 -0.11276441
0003c0 8d b8 e6 bc c0 55 93 bd 65 10 16 3d ef cd a5 3b
       -0.028164173 -0.0719409 0.03663673 0.0050599496
0003d0 55 65 44 bd cb 9b bb 3e 78 9c 04 be 2d b0 08 be
       -0.0479482 0.36642298 -0.12950313 -0.13348456
0003e0 96 a3 50 be b0 e7 ae 3d 20 0a 3f 3e 97 dc 5e be
       -0.20374903 0.08540285 0.18656206 -0.21763836
0003f0 9d 43 b8 bd c8 75 e3 3d d4 62 fc 3d 21 7a 84 bc
       -0.08997271 0.11106449 0.123235375 -0.016171517

agent,params,ScannedRNN_0,GRUCell_0,in,bias f4 [64]
000000 11 c2 c0 bd a3 ba 7d 3d c9 a0 eb bd c7 12 79 3e
       -0.09412015 0.06194557 -0.11505277 0.24323569
000010 c1 76 b3 bd e0 c8 e2 bc fb 5e c7 3d 6a 04 dc bd
       -0.08762885 -0.027683675 0.09734913 -0.107430294
000020 81 2c 84 bd 5c 87 d7 3d a7 90 96 3d cb 43 79 3e
       -0.06453801 0.105238646 0.07351809 0.24342267
000030 73 b6 d9 be 84 82 9a bc 39 e3 1b 3e 4c 48 a6 3d
       -0.4252201 -0.018861063 0.15223397 0.08119258
000040 38 3f 0a be 35 2b 1b be 9a 2f f0 bd ce b5 d1 bd
       -0.13500679 -0.15153201 -0.11727829 -0.102397546
000050 b2 10 05 be 80 75 fb bd 1c 00 e7 3d 20 f5 ca 3d
       -0.1299465 -0.12278271 0.11279318 0.09910035
000060 ca b5 9a be c4 e1 a0 bd 2e e8 b3 bc 17 ea 82 3d
       -0.3021682 -0.078555614 -0.021961298 0.06392305
000070 20 f1 c1 bd c0 2a d9 bc f7 7c ac 3d 4c 62 58 3c
       -0.09469819 -0.026509643 0.08422273 0.01320703
000080 c9 2f e3 3d 2b 49 40 3d c0 d1 e0 bd 98 d7 16 3d
       0.11093099 0.04694478 -0.10977507 0.0368267
000090 b7 f4 c0 bd 5f c7 a8 bd d9 52 ea 3c 40 b6 14 3c
       -0.09421676 -0.08241152 0.028603958 0.009076655
0000a0 d9 e6 0f be 0d da ba bd e0 21 0d be 17 ab 77 bd
       -0.14052905 -0.09123621 -0.13782454 -0.0604659
0000b0 b1 e2 bc bd 89 11 c2 bd 88 34 ca 3d 91 49 18 bd
       -0.092229255 -0.09476001 0.09873301 -0.037179533
0000c0 70 32 17 3e 25 17 43 3d aa 07 c7 3d 02 45 e3 bd
       0.14765334 0.047629494 0.09718259 -0.110971466
0000d0 7c 87 ba 3d 5b 5f 95 3e 78 9d cc 3d cc ae 4a 3e
       0.09107873 0.29174313 0.09990972 0.19793242
0000e0 49 1f ef 3c 62 72 f3 bd af 64 77 3d 11 ad e4 3c
       0.029189723 -0.11887051 0.060398754 0.027914556
0000f0 18 22 10 3e 3c 17 06 be 02 37 af 3d 5d 10 21 bd
       0.14075506 -0.130948 0.08555414 -0.039322246

agent,params,ScannedRNN_0,GRUCell_0,in,kernel f4 [64, 64]
000000 01 4e a5 3e fa e0 c4 bd ed e8 5a 3c b7 2c b9 bd
       0.32286075 -0.096132234 0.013361198 -0.09041732
000010 f8 c6 91 3e 5a ef 4b 3e 80 24 3b bd 18 21 62 3e
       0.28472114 0.19915524 -0.045689106 0.22082937
000020 49 5f c5 3e ef 89 5c be 83 0a e0 3d 40 87 38 3c
       0.3854926 -0.21536992 0.10939505 0.011262715
000030 a2 46 d0 3d c6 09 df bc 57 1f 39 3e 7e 35 28 be
       0.10169722 -0.02722634 0.18078361 -0.16426656
000040 33 b4 7c 3e d1 d6 c1 bd 7f 53 17 3e 25 b9 48 3e
       0.24678116 -0.09464801 0.14777945 0.19601877
000050 92 25 52 be 9e d2 ca 3e 87 1e ee 3d 80 40 05 3b
       -0.20522144 0.39613813 0.116269164 0.0020332634
000060 20 8f 4c 3e 7c 87 12 be 38 9c 52 3d 86 ba f1 bd
       0.19976473 -0.14309496 0.051418513 -0.11803155
000070 6c 51 aa 3d 87 7f 5d 3e 4b ac c3 bd 4f 2e 0b 3e
       0.08316311 0.21630679 -0.09554347 0.13591884
000080 5b c2 76 bd 6b be 17 be ae db a4 3d 3a 06 13 3e
       -0.060243946 -0.14818732 0.08049713 0.14357844
000090 74 17 26 3d 9e e2 c3 bd bc c8 d4 bd 6d 5c 1c 3d
       0.04054971 -0.09564708 -0.103898495 0.03817408
0000a0 0d cb 2d 3e 1d 56 a3 3d 9b d6 3e 3d 80 8d 06 3e
       0.16971989 0.07975409 0.046591382 0.13139915
0000b0 2d 46 f6 3c 16 98 76 bd e2 2e 4f be ed 08 4a 3e
       0.03006276 -0.060203634 -0.20232728 0.19729967
0000c0 5d 92 65 bc b7 13 27 be af 80 21 be 80 41 ba bc
       -0.0140119465 -0.16316114 -0.15771745 -0.022736311
0000d0 ce 7f eb 3d 6e 30 30 be 14 ce f8 3c db 76 01 be
       0.11498986 -0.17205974 0.030371703 -0.12642996
0000e0 c5 e9 7a bd 12 ee 82 3e 8f d4 1f 3e c5 ab 50 be
       -0.061258096 0.25572258 0.15608428 -0.20378025
0000f0 57 a5 2b be eb e5 e1 3d e0 f9 e6 3d 54 e9 25 3e
       -0.16762291 0.110301815 0.112781286 0.16202289
000100 0a 64 8c 3e de 85 ab bd a6 77 94 3c d5 4b 7f 3d
       0.27420074 -0.083751425 0.01812346 0.06232818
000110 33 4e 2f bd ce c4 49 3e 08 9c 48 be ef 94 1f 3e
       -0.042799186 0.19703981 -0.19590771 0.15584157
000120 1a d7 8d 3d 3a 24 73 bd 0c 97 82 3d 19 21 99 be
       0.06925793 -0.05936072 0.06376466 -0.29908064
000130 3c fd b8 3e e0 4b 07 be d1 c8 3a be 6e db 7d bd
       0.36130702 -0.13212538 -0.18240668 -0.061976843
000140 48 c8 59 3e 28 a1 01 3e bd 83 11 3e f3 9c 77 3d
       0.21267807 0.12659132 0.1421041 0.060452413
000150 b7 c4 95 3e 6e bf 98 bd a2 b3 a0 bd 7b cd 0a 3d
       0.29251644 -0.07458387 -0.07846762 0.033887368
000160 0e d6 95 3e cc d9 83 ba b3 10 33 be 2a 55 37 3a
       0.29264873 -0.0010059415 -0.17486839 0.00069935864
000170 6e 88 f1 3d 20 a6 dd bd 52 6c a3 3c b9 e9 06 be
       0.117936 -0.108227015 0.019949112 -0.13175096
000180 c1 e4 ad bc f3 8f 82 be 49 be 96 3e da 3d a9 3b
       -0.021227242 -0.2550045 0.2944205 0.005164844
000190 be 9d c9 3b 8d d5 03 3e 74 6c d0 3d a0 8d cd 3c
       0.0061528375 0.12874432 0.10176936 0.025091946
0001a0 ef 59 c7 3d a1 29 8e 39 b0 7e 0d 3d 62 58 96 3d
       0.0973395 0.00027115367 0.034544647 0.073410764
0001b0 87 c3 09 3d f1 a2 14 3e 2d 1c 77 3d a6 02 49 be
       0.033633735 0.14515282 0.060329605 -0.19629917
0001c0 7f 1a 5c be b5 f2 8b bd 2b 28 d7 3b 9e 78 4d bd
       -0.21494482 -0.06833402 0.0065660677 -0.050163858
0001d0 fb 09 a3 be 49 23 17 be 4b 46 45 be 5d a8 37 be
       -0.31843552 -0.14759554 -0.19265096 -0.17935319
0001e0 84 bc f7 bd 13 d9 17 3e 39 74 5f be c9 f9 9a bc
       -0.120965034 0.14828901 -0.21821679 -0.018917935
0001f0 11 ca a7 be 1a c2 6d 3e 8a 33 b8 bd 7b 74 6c 3e
       -0.32771352 0.23218575 -0.08994205 0.23091309
000200 6d a7 94 bd ee 05 eb ba ae ff b1 3d 9a f2 b8 be
       -0.072584964 -0.0017930844 0.08691345 -0.3612259
000210 68 65 19 3d 38 ce 80 3e 16 84 81 bc dc 5d 05 3e
       0.037450224 0.25157332 -0.015810054 0.13024086
000220 c5 6d df 3d 60 cf 08 bd 74 a9 04 3d 27 7c 26 be
       0.10909609 -0.033400893 0.032388166 -0.16258298
000230 f1 fc 84 3e 01 b4 4b be 29 be 67 be 16 70 7c bc
       0.2597423 -0.19892885 -0.22631134 -0.015407583
000240 5b 52 87 3d df 58 83 3e da 93 08 3e 5c 48 ab bd
       0.06607505 0.2565374 0.13337651 -0.08363411
000250 87 e6 4f 3e b1 5b e4 3d a7 e9 a1 bc 6d 73 5c be
       0.20302783 0.11150301 -0.019764734 -0.21528406
000260 40 dc 08 3e a4 da fa 3c 1d ac 23 3e b5 ed 0e 3d
       0.13365269 0.030621834 0.15983625 0.034894664
000270 c0 85 24 3e 1b 1c 16 be a8 46 67 bc b4 85 4f be
       0.16066647 -0.14659159 -0.014115967 -0.20265847
000280 95 b0 94 be 0c c3 17 3e 6f 22 6e bb c7 16 15 3e
       -0.2904097 0.14820498 -0.0036336442 0.1455947
000290 c4 9e 59 bd a1 d5 47 3c 86 a3 32 bd a9 bd 16 3e
       -0.053129926 0.012196929 -0.04361298 0.14720787
0002a0 06 62 42 be af 30 15 bd b8 f0 56 bd 88 bc 89 3e
       -0.18982705 -0.03642338 -0.05247566 0.2690165
0002b0 27 66 0f 3e 33 6d 37 3e 59 8c 75 be fb 41 7c 3e
       0.14003812 0.1791275 -0.2397932 0.24634545
0002c0 7b a4 7b be 64 d9 54 bc 3d a0 82 bd c0 7e d2 bd
       -0.24574463 -0.012991283 -0.06378219 -0.10278082
0002d0 29 b8 6c be 3b 2d 14 be 54 dd a1 bd db c3 d3 bd
       -0.23117127 -0.14470379 -0.07903543 -0.10340091
0002e0 d0 4e 78 be 28 a8 7b 3e 67 67 62 3d 14 d5 41 3e
       -0.24248815 0.24575865 0.055274393 0.18928939
0002f0 88 9e 0a be 73 a4 31 3e 1d 3a 00 be e2 7a 54 3e
       -0.13537037 0.17347889 -0.12522168 0.20750001
000300 91 bd 04 3c cb 5e 83 bd e8 b5 97 bb a7 79 e8 bb
       0.008101837 -0.06414565 -0.004629839 -0.00709458
000310 8c 2a bd bd 25 b8 be 3d db 4e c4 3c 44 81 83 3d
       -0.09236631 0.093124665 0.023963382 0.0642114
000320 0e 77 9f bc aa 7e b3 bd ce 7d b3 3d 77 2a bc bd
       -0.01946595 -0.08764394 0.0876423 -0.09187787
000330 38 e1 28 be 59 c7 c2 3d 84 89 8d 3d e2 3e 37 be
       -0.16492164 0.09510679 0.06910995 -0.17895082
000340 dd 9f 2f be 74 1d 55 bd 36 8c 55 3e 2f 50 69 bd
       -0.17150827 -0.05203004 0.20854267 -0.056961235
000350 d5 99 17 bc fa 23 1b 3d 7f f5 0d 3e a4 96 45 be
       -0.009252985 0.037876107 0.1386318 -0.19295746
000360 b8 2a dc 3d 91 84 1f bc 75 93 b6 bd a5 1c e2 3d
       0.107503355 -0.009736196 -0.08914844 0.1104062
000370 79 a7 78 bd 10 a7 69 be 41 01 e4 bb 5a 3c 8f bd
       -0.06070659 -0.22817636 -0.0069581573 -0.06993933
000380 04 cf 00 be 82 09 e9 3c 61 65 24 be 1d 50 b9 3d
       -0.1257897 0.028446916 -0.16054298 0.090484835
000390 b1 ac 06 bd b7 00 63 bd d0 da 8b 3d 5c d2 21 bd
       -0.032879535 -0.055420604 0.068288445 -0.039507255
0003a0 d1 e7 5d 3d e1 9b 91 bd e6 ce 35 3e f7 d7 82 3e
       0.054176155 -0.0710981 0.17754707 0.25555393
0003b0 56 01 e5 bd c0 11 c1 3c 59 fd cb 3d 38 a8 87 3c
       -0.111818954 0.023568034 0.099604316 0.016559705
0003c0 85 57 06 be 32 16 30 3e 50 14 bd bd 98 45 c1 3c
       -0.13119324 0.17195967 -0.0923239 0.023592755
0003d0 7e d2 c5 bd 57 a9 27 3e 4c ec 86 be 70 6a 08 3e
       -0.09659289 0.16373192 -0.26352155 0.13321853
0003e0 82 13 39 bd 3e 06 06 3d 48 98 d9 bd 51 48 31 3e
       -0.04518462 0.032720797 -0.106247485 0.17312743
0003f0 6b 8c 80 bd c8 b4 ac bc 02 48 24 bd b0 65 2b 3e
       -0.062767826 -0.021082297 -0.040107735 0.1673801

agent,params,ScannedRNN_0,GRUCell_0,ir,bias f4 [64]
000000 b7 b2 06 bd d0 33 9f bc 76 86 8f bd 17 db bb bd
       -0.03288528 -0.019433886 -0.07008068 -0.091726474
000010 09 c4 17 bd 77 5c 88 bd 91 8a 8a bd ef c6 82 bd
       -0.037052188 -0.06658261 -0.06764711 -0.063856
000020 89 bc 38 bd c2 65 53 bd 35 2c e7 39 a9 16 85 bd
       -0.045101676 -0.051610716 0.0004409269 -0.06498463
000030 ae 09 4a 3c d5 af 84 bc e8 24 39 bd b3 42 e8 bc
       0.012331409 -0.016197124 -0.045201212 -0.028352117
000040 fc ec 7b bd b5 42 a2 bd 2d 33 40 bd 25 e7 d3 bc
       -0.061505303 -0.079228796 -0.046923805 -0.025867054
000050 6e a3 d6 3d e7 37 c3 bd d9 f8 2b bd da ce df bc
       0.104803905 -0.09532147 -0.041985366 -0.027320314
000060 2b de f8 bc 07 c5 03 bd be ee 94 bc 7b da 18 bd
       -0.030379375 -0.03217032 -0.018180247 -0.037317734
000070 f3 81 94 3c f2 21 c7 bc c2 05 6a bc 41 d0 c5 bc
       0.01812837 -0.024308179 -0.014283599 -0.024147155
000080 b2 43 09 bc 7d 0c c8 bc 48 f1 59 3c cd 75 45 bb
       -0.008377956 -0.024420017 0.013302155 -0.003013003
000090 f5 b5 17 be 81 ab 37 bd 44 c0 bf bc d7 3d b0 bd
       -0.14815505 -0.044841293 -0.02340711 -0.08605545
0000a0 ed ee 4b bd a4 31 28 bd 21 a0 13 bd 3d 3b 5e bc
       -0.049788404 -0.041062966 -0.036041383 -0.013563928
0000b0 28 f9 e4 bc 1c d2 56 bd d5 58 29 bd 1b 0f 46 bc
       -0.027950838 -0.05244647 -0.041344482 -0.012088562
0000c0 9f ce de bd a8 0c a2 bd 11 e9 2f bc f6 ab d3 bd
       -0.108792536 -0.0791257 -0.01073672 -0.10335533
0000d0 a1 d3 96 bd 05 a0 36 bd 76 f3 49 bd 8d a3 9e bd
       -0.07364584 -0.0445862 -0.049304448 -0.077460386
0000e0 ba 1d 64 bd c0 bf 4a bd 0c 2b b4 bc 5f 93 20 bd
       -0.055692412 -0.049499273 -0.021993183 -0.039203044
0000f0 5c a7 37 bd fa f1 9c bc d8 bf 66 bc a3 1e 3b bd
       -0.04483734 -0.019158352 -0.014083825 -0.045683514
