baselines/QLearning/checkpoints/MPE_simple_v3/vdn_ps.safetensors (safetensors, 103500 bytes, 14 tensors)

params,Dense_0,bias f4 [64]
-0.21570651 -0.45689443 -0.28814122 -0.53927153 -0.40298924 -0.20962436 -0.30687052 -0.3913621
-0.2841971 -0.35841107 -0.40286168 -0.32432935 -0.042983457 0.0032820664 0.026970185 -0.35674217
-0.3455673 -0.40937886 -0.14814328 -0.17994802 -0.49663448 -0.42984816 -0.3382401 -0.2470578
-0.33634385 -0.22194369 -0.38704816 -0.28929633 -0.028896397 -0.3348374 -0.029169135 -0.41453654
-0.3559367 -0.33312157 -0.28587344 -0.2567752 -0.36198127 -0.25085947 -0.23629004 -0.2218298
-0.3235814 -0.3887627 -0.17012732 -0.26095828 -0.3834388 -0.22504976 0.019895455 -0.13899237
-0.24819909 -0.4355889 -0.32159302 -0.34412903 -0.5380294 -0.34715214 -0.38317117 -0.2680763
-0.23309267 -0.26531866 -0.30790037 -0.39735723 -0.2936501 -0.12583654 -0.23642714 -0.33959144
00000000: 2be2 5cbe 11ee e9be 3f87 93be b30d 0abf
00000010: 9b54 cebe c5a7 56be 221e 9dbe 9d60 c8be
00000020: 4882 91be a881 b7be e343 cebe 7f0e a6be
00000030: 6c0f 30bd f017 573b 94f0 dc3c e9a6 b6be
00000040: 32ee b0be 1b9a d1be dfb2 17be 4b44 38be
00000050: e046 febe 0f15 dcbe ce2d adbe b8fc 7cbe
00000060: 4335 acbe 3545 63be 2d2b c6be a61e 94be
00000070: 23b8 ecbc cf6f abbe 1cf4 eebc 223e d4be
00000080: 563d b6be e98e aabe 015e 92be 0a78 83be
00000090: 9c55 b9be a770 80be 04f6 71be 5a27 63be
000000a0: 76ac a5be e80b c7be db35 2ebe 539c 85be
000000b0: 1752 c4be 7273 66be cbfb a23c 0454 0ebe
000000c0: e727 7ebe 8205 dfbe d7a7 a4be ae31 b0be
000000d0: 4bbc 09bf edbd b1be 032f c4be 4c41 89be
000000e0: d8af 6ebe d9d7 87be 1ea5 9dbe 6872 cbbe
000000f0: 4e59 96be 4bdb 00be f519 72be eede adbe

params,Dense_0,kernel f4 [5, 64]
0.006328231 -0.17703529 -0.063718684 -0.19678055 0.08350286 -0.06229783 -0.14357705 -0.102253474
0.025948728 -0.013989165 -0.17993188 -0.15683669 0.1841078 0.029725084 -0.008866532 0.0355949
0.08115783 0.22628865 -0.0016725454 0.16642752 -0.31620574 0.2363934 0.25987282 -0.13524865
-0.01509833 0.16804019 0.05683867 -0.20243284 0.010351221 0.15677121 -0.091888025 -0.11580493
-0.26818973 0.007894418 0.19695257 0.09274869 -0.26982722 0.019081878 0.20528814 0.014805179
0.0442501 0.18915536 -0.17488033 -0.25563285 -0.12316409 0.21198964 -0.12357586 0.20379743
-0.20651874 -0.12157406 0.21552084 0.25348473 0.1300715 0.015278856 -0.17041536 -0.15158236
0.16035587 0.050929364 -0.047003094 0.04811495 0.18587422 -0.012975641 -0.24979855 -0.110649504
-0.27346584 0.07209988 -0.15119834 0.18437546 -0.16411391 -0.441514 0.06917384 0.17206821
-0.12747295 -0.14010277 -0.17721517 -0.15319991 0.23620576 -0.21959737 -0.077906616 -0.06328969
0.08412356 -0.2103517 -0.20044002 0.02155768 0.19635831 0.2352322 0.013114993 -0.012788888
0.19749905 0.0191103 0.22181812 -0.1215202 -0.098570414 0.11077404 0.027294677 0.22102332
-0.2570416 0.19660413 0.020823507 0.029277613 0.082933165 -0.21819694 0.045034327 0.25040695
-0.08063576 -0.16249795 -0.11501707 0.0141362855 0.033779312 -0.0008766532 0.23601218 0.20699714
0.0046196533 -0.16167706 -0.18662502 0.21268262 -0.19383782 0.14672741 0.08798575 -0.21034007
0.025842478 -0.11444928 0.034593385 0.19163336 0.08567362 0.20250006 -0.014390962 0.01961864
-0.013460878 0.43800038 0.23003408 0.32863042 -0.21911307 -0.043472666 0.6017142 0.32783508
-0.011561243 -0.04395567 0.21248195 0.37997586 -0.010747411 -0.16572392 0.14417559 -0.27229515
-0.3524562 -0.33039874 -0.03291755 -0.5276481 0.4695496 -0.29007444 -0.8583044 0.67833525
-0.017913809 -0.8039665 -0.012262618 0.41540888 0.07285182 -0.35773382 -0.015329585 0.36636227
0.42107597 0.008221544 -0.24790004 -0.22645657 0.5499398 -0.061005723 -0.7458722 0.019211885
-0.13960168 -0.41870943 -0.03187623 0.7819093 0.36761066 -0.8018247 -0.033664223 0.00118664
0.53248894 0.63370496 -0.41952536 -0.3223389 -0.5487086 0.09613171 0.55778015 0.54505765
-0.6251777 -0.09849357 0.29299504 -0.022936543 -0.59239405 0.023778362 0.7024966 0.6124782
0.9375797 -0.33592445 0.3487455 -0.35699606 0.19689274 0.08532475 0.0074150027 -0.4869467
0.5301478 0.62282825 0.28911132 0.28169766 0.08842911 -0.0059555164 -0.064872004 0.4277402
-0.3386199 0.27744618 0.68169516 -0.036204286 -0.26851335 -0.41460934 -0.038250387 -0.056942392
-0.5696557 -0.035294376 -0.7682238 0.38622972 0.5600281 -0.425738 -0.0693516 -0.4644685
0.30907854 -0.6975905 0.287879 -0.21057653 -0.15160494 0.80149496 -0.031150794 -0.80560935
0.36856702 0.37345392 0.13789831 0.0875244 -0.15346768 0.0010875853 0.025780318 -0.15981562
-0.12564348 0.3072252 0.30452484 -0.24697092 0.3228852 -0.096759886 -0.089169934 0.36667788
-0.05719839 0.22802304 0.29928088 -0.66541 -0.11509143 -0.80184937 0.12476426 -0.058690373
00000000: 0d5d cf3b bd48 35be f17e 82bd d780 49be
00000010: 8c03 ab3d 022c 7fbd dd05 13be 456a d1bd
00000020: 6d92 d43c d032 65bc 1040 38be cc99 20be
00000030: c186 3c3e 0582 f33c ee44 11bc f5cb 113d
00000040: 1436 a63d 36b8 673e 5039 dbba fa6b 2a3e
00000050: b8e5 a1be 1d11 723e 0d0e 853e 9f7e 0abe
00000060: fc5e 77bc ba12 2c3e aacf 683d 8e4a 4fbe
00000070: 2b98 293c a288 203e ca2f bcbd 232b edbd
00000080: 2a50 89be 9757 013c efad 493e 06f3 bd3d
00000090: cb26 8abe 9951 9c3c 0e37 523e 6c91 723c
000000a0: 983f 353d f1b1 413e d413 33be 4fe2 82be
000000b0: 743d fcbd d013 593e 5715 fdbd 46b0 503e
000000c0: a679 53be d2fb f8bd 7fb1 5c3e c0c8 813e
000000d0: 7731 053e 2b54 7a3c 5d81 2ebe 6838 1bbe
000000e0: 5434 243e 4f9b 503d 5186 40bd 2f14 453d
000000f0: d055 3e3e c897 54bc 31cb 7fbe 359c e2bd
00000100: b703 8cbe 1aa9 933d bdd3 1abe eccc 3c3e
00000110: 7a0d 28be 1f0e e2be 04ab 8d3d a632 303e
00000120: 4588 02be 1a77 0fbe e577 35be 70e0 1cbe
00000130: ecdf 713e 22de 60be 818d 9fbd 069e 81bd
00000140: f948 ac3d 7066 57be 2640 4dbe bb99 b03c
00000150: 2712 493e b6e0 703e 45e0 563c 7c88 51bc
00000160: 313d 4a3e 348d 9c3c 4a24 633e 95df f8bd
00000170: 49df c9bd 80dd e23d 1699 df3c f053 623e
00000180: f59a 83be 9852 493e 0f96 aa3c 9bd7 ef3c
00000190: ddd8 a93d 056f 5fbe ea75 383d 5735 803e
000001a0: 5d24 a5bd dd65 26be 128e ebbd e19b 673c
000001b0: 2d5c 0a3d 33cf 65ba 2dad 713e 0ff7 533e
000001c0: 7660 973b ac8e 25be a11a 3fbe 79c9 593e
000001d0: 6c7d 46be b63f 163e df31 b43d 6363 57be
000001e0: 9bb3 d33c 6264 eabd cbb1 0d3d 893b 443e
000001f0: a775 af3d 2d5c 4f3e 12c8 6bbc 45b7 a03c
00000200: 048b 5cbc 9641 e03e 0e8e 6b3e 3f42 a83e
00000210: 2d5f 60be 6510 32bd f109 1a3f 00da a73e
00000220: 5e6b 3dbc dc0a 34bd de94 593e 328c c23e
00000230: e915 30bc 88b3 29be c4a2 133e 456a 8bbe
00000240: 2475 b4be 062a a9be 8ed4 06bd f213 07bf
00000250: ce68 f03e a384 94be d6b9 5bbf 61a7 2d3f
00000260: fbbf 92bc c0d0 4dbf 26e9 48bc 79b0 d43e
00000270: 5633 953d e328 b7be f128 7bbc d693 bb3e
00000280: 4597 d73e a8b3 063c 82d9 7dbe 3be4 67be
00000290: dbc8 0c3f 23e1 79bd 7bf1 3ebf 3e62 9d3c
000002a0: bef3 0ebe 1561 d6be a690 02bd 352b 483f
000002b0: 7737 bc3e 6244 4dbf 7fe3 09bd 0889 9b3a
000002c0: 3251 083f 7d3a 223f 07cc d6be 9b09 a5be
000002d0: 2b78 0cbf b4e0 c43d aeca 0e3f e688 0b3f
000002e0: a50b 20bf ffb6 c9bd 7203 963e 6be5 bbbc
000002f0: 23a7 17bf d7ca c23c d1d6 333f 5fcb 1c3f
00000300: 3905 703f 4afe abbe c58e b23e 30c8 b6be
00000310: 409e 493e bebe ae3d 8df9 f23b 1451 f9be
00000320: c4b7 073f ac71 1f3f 6606 943e ad3a 903e
00000330: 521a b53d 7e26 c3bb 9ddb 84bd c300 db3e
00000340: 965f adbe 6d0d 8e3e 9383 2e3f f24a 14bd
00000350: 957a 89be ad47 d4be 70ac 1cbd 6d3c 69bd
00000360: f5d4 11bf d690 10bd 51aa 44bf e7bf c53e
00000370: 005e 0f3f 55fa d9be 3608 8ebd d1ce edbe
00000380: 8b3f 9e3e 4a95 32bf e064 933e 60a1 57be
00000390: 533e 1bbe c62e 4d3f f32f ffbc 6a3c 4ebf
000003a0: d1b4 bc3e 5a35 bf3e 3735 0d3e fe3f b33d
000003b0: a226 1dbe 4f8d 8e3a 3f31 d33c b5a6 23be
000003c0: afa8 00be 9f4c 9d3e aeea 9b3e f2e5 7cbe
000003d0: 3551 a53e 0c2a c6bd ba9e b6bd 34bd bb3e
000003e0: dc48 6abd df7e 693e 583b 993e 4f58 2abf
000003f0: 0eb5 ebbd 0046 4dbf 6884 ff3d 5165 70bd

params,Dense_1,bias f4 [5]
-0.48334438 -0.49393916 -0.5328058 -0.48584214 -0.5106109
00000000: ea78 f7be 98e5 fcbe f665 08bf 4dc0 f8be
00000010: 65b7 02bf

params,Dense_1,kernel f4 [64, 5]
-0.62316626 -1.2325302 -0.5671401 -0.9514732 -0.8142743 0.92025214 0.76883084 0.12205499
0.54332936 0.861627 -1.422416 -0.6667044 -0.6572595 -0.77231157 -0.9442567 1.1174647
1.5153599 0.87003803 1.7032759 0.68125683 -0.81138563 -0.971263 -0.91012824 -0.54766893
-0.47465408 -0.34017804 -0.9185478 -0.9435837 -1.0148665 -0.673443 0.98117083 0.8631421
1.5911124 0.4781218 0.911501 -0.81650245 -0.9028625 -0.984251 -0.5146165 -0.90907264
-0.59229374 -1.0369552 -0.80472726 -1.1337814 -0.23837335 0.49661636 0.4905124 0.7209349
0.8515494 0.74525845 0.5848931 0.77663237 0.3813358 0.26166266 1.0711046 1.044932
0.75031936 0.7665513 1.2880095 0.4074192 -0.47601557 -0.80899656 -0.80409145 -1.4255259
-0.6884402 -0.35250312 -1.111587 -0.87347466 -0.65215755 -0.9808662 0.83701164 0.5019021
0.9430445 1.0316405 0.8785957 -0.32588148 -1.1930962 -0.5661607 -0.6225917 -0.89070237
-0.8454639 -0.93184566 -0.59025455 -1.2173816 -0.607418 -0.38260734 -1.1130939 -0.86948276
-0.6290806 -0.963726 -0.8011826 -0.7418339 -0.44100368 -1.1087693 -0.20259914 -0.9645796
-0.6001354 -1.0517493 -0.8220468 -0.74908835 -1.240764 -1.3516295 -0.5945529 -0.68384963
-0.8507367 -1.0898178 -0.7931826 -0.5014636 -1.1567426 -0.41757843 -0.5051532 -1.2373228
0.3136638 -0.4417558 -0.7598064 0.6713291 0.46928474 0.6624818 0.811302 0.80970216
-0.5783215 -0.8034527 -0.928429 -0.88559103 -0.74250454 -0.7962866 -0.99567103 -0.7464893
-0.850643 -1.2222501 -0.9766435 -0.5372755 -1.0825466 -0.6051731 -0.496504 0.56100804
0.86357594 0.61390775 0.41371283 0.69133765 -1.0856903 -0.40626258 -1.2550662 -0.6388269
-0.7810003 -0.5610624 -0.19894078 -1.0945231 -0.7678142 0.15168175 0.7975461 0.39732
0.5203656 0.76296794 1.1563036 -0.4106933 -0.20031315 -0.9717249 -1.0012668 -0.7750319
0.8536464 0.81497985 0.8754645 0.7260241 0.994286 0.749787 0.39065543 1.2215675
0.039959937 1.7404481 -0.78437823 -1.1560762 -0.9445974 -1.0054605 -0.2705247 1.0461186
0.56355405 0.9764752 0.5338681 0.9955943 -0.4589266 -1.0937177 -0.28565 -0.25376818
-0.61781156 -0.8426594 -0.633793 -0.57411337 -0.5602554 -0.36714584 0.64129585 0.6204101
0.85706866 1.0841748 0.61379164 0.9692352 -0.07597582 1.1748343 0.7467652 0.62621033
-0.62757605 -0.6691762 -0.90734947 -0.5418969 -0.7792521 -0.73586893 -0.5460353 -0.8650098
-1.1637387 -0.6840268 -0.89378935 -0.6975454 -1.3046665 -1.3249246 -0.9404128 -0.77387816
-0.84252006 -0.5406806 -0.8072578 -0.7843695 -0.6231789 -0.7737402 -1.0389649 -1.0299685
-0.9571627 -0.6218155 -1.0274736 0.070868246 -0.74644274 -0.119783 1.1904395 1.0537381
0.68710417 1.1336805 0.6135129 0.6001285 0.5314323 0.52126044 0.9532611 1.1901262
0.8476577 0.77886385 0.39660224 0.42728177 1.0296099 0.47537893 0.39096993 1.2359337
1.1308246 0.3344763 0.97413844 0.5162433 1.1341146 0.42791244 0.7198756 -0.8462273
00000000: d387 1fbf 8dc3 9dbf 1830 11bf bf93 73bf
00000010: 4874 50bf a595 6b3f 19d2 443f f7f7 f93d
00000020: a217 0b3f 9693 5c3f ba11 b6bf 24ad 2abf
00000030: 2942 28bf 36b6 45bf cfba 71bf 1509 8f3f
00000040: 50f7 c13f d0ba 5e3f f204 da3f d966 2e3f
00000050: f8b6 4fbf b1a4 78bf 2afe 68bf 0834 0cbf
00000060: dc05 f3be d12b aebe f325 6bbf b48e 71bf
00000070: 25e7 81bf c366 2cbf 032e 7b3f e1f6 5c3f
00000080: 92a9 cb3f 61cc f43e 2158 693f 4e06 51bf
00000090: ff21 67bf e0f7 7bbf e8bd 03bf fcb8 68bf
000000a0: 90a0 17bf f3ba 84bf 9b02 4ebf c01f 91bf
000000b0: 2518 74be 8044 fe3e 7124 fb3e 318f 383f
000000c0: 24ff 593f 42c9 3e3f 8ebb 153f 61d1 463f
000000d0: 723e c33e a6f8 853e f519 893f 55c0 853f
000000e0: ee14 403f b53c 443f 7fdd a43f 4099 d03e
000000f0: 50b8 f3be 661a 4fbf f0d8 4dbf a277 b6bf
00000100: 9e3d 30bf 4a7b b4be 7c48 8ebf 099c 5fbf
00000110: ccf3 26bf 0c1a 7bbf 6546 563f a87c 003f
00000120: 5d6b 713f cc0c 843f a6eb 603f f0d9 a6be
00000130: 60b7 98bf e8ef 10bf 2b62 1fbf 1205 64bf
00000140: 5270 58bf 708d 6ebf ec1a 17bf 29d3 9bbf
00000150: bf7f 1bbf 1ce5 c3be dc79 8ebf 6c96 5ebf
00000160: 6d0b 21bf bfb6 76bf 4e1a 4dbf d4e8 3dbf
00000170: 3ccb e1be 27ec 8dbf 2676 4fbe b0ee 76bf
00000180: 79a2 19bf b99f 86bf a971 52bf 41c4 3fbf
00000190: 5bd1 9ebf 3202 adbf 9e34 18bf c510 2fbf
000001a0: e1c9 59bf 267f 8bbf 040e 4bbf eb5f 00bf
000001b0: 2410 94bf d7cc d5be b851 01bf 9860 9ebf
000001c0: 8b98 a03e d12d e2be ac82 42bf 39dc 2b3f
000001d0: 1746 f03e 6898 293f 7db1 4f3f a448 4f3f
000001e0: e10c 14bf 13af 4dbf 86ad 6dbf 18b6 62bf
000001f0: c714 3ebf 70d9 4bbf 4ce4 7ebf ec19 3fbf
00000200: bdc3 59bf b172 9cbf 4f05 7abf e38a 09bf
00000210: e390 8abf a0ec 1abf c635 febe 399e 0f3f
00000220: 5013 5d3f 0f29 1d3f 2bd2 d33e 81fb 303f
00000230: e6f7 8abf a601 d0be 02a6 a0bf 298a 23bf
00000240: a3ef 47bf c9a1 0fbf 22b7 4bbe 5519 8cbf
00000250: 798f 44bf 7652 1b3e fb2b 4c3f 876d cb3e
00000260: ae36 053f de51 433f c201 943f 6446 d2be
00000270: e41e 4dbe f7c2 78bf 8329 80bf 7e68 46bf
00000280: 9288 5a3f 85a2 503f 711e 603f b7dc 393f
00000290: 8789 7e3f 0af2 3f3f fd03 c83e 535c 9c3f
000002a0: 08ad 233d 01c7 de3f 03cd 48bf 4efa 93bf
000002b0: 23d1 71bf eeb2 80bf 3782 8abe 37e7 853f
000002c0: 1445 103f 47fa 793f 94ab 083f 45df 7e3f
000002d0: 6df8 eabe f1fe 8bbf b840 92be e7ed 81be
000002e0: e628 1ebf 87b8 57bf 4240 22bf 18f9 12bf
000002f0: e66c 0fbf 8afa bbbe f72b 243f 32d3 1e3f
00000300: da68 5b3f 3dc6 8a3f 7321 1d3f cc1f 783f
00000310: 3699 9bbd f860 963f 012c 3f3f 524f 203f
00000320: d3a8 20bf 224f 2bbf 0e48 68bf c1b9 0abf
00000330: 117d 47bf e861 3cbf f8c8 0bbf 4871 5dbf
00000340: 64f5 94bf 611c 2fbf 61cf 64bf 5692 32bf
00000350: 50ff a6bf 2197 a9bf e5be 70bf e11c 46bf
00000360: 65af 57bf 0b6a 0abf 72a8 4ebf 71cc 48bf
00000370: a788 1fbf d613 46bf cdfc 84bf 02d6 83bf
00000380: 9d08 75bf 4d2f 1fbf 4184 83bf 5f23 913d
00000390: df16 3fbf ca50 f5bd 5260 983f e4e0 863f
000003a0: 0fe6 2f3f 711c 913f 2e0f 1d3f 05a2 193f
000003b0: f20b 083f 5371 053f eb08 743f 0e56 983f
000003c0: 1800 593f 9f63 473f 730f cb3e adc4 da3e
000003d0: 42ca 833f de64 f33e 362d c83e 1333 9e3f
000003e0: dcbe 903f 7a40 ab3e 2361 793f 8528 043f
000003f0: ab2a 913f 5717 db3e c449 383f 5aa2 58bf

params,ScannedRNN_0,GRUCell_0,hn,bias f4 [64]
0.013590404 -0.0254961 0.13487524 0.29939023 0.07663456 0.049120653 -0.028277671 -0.087110326
-0.095674425 0.031585004 -0.04080531 0.1558878 -0.011126921 0.07562532 -0.034426864 0.14193237
-0.006009272 -0.04612725 -0.09529672 -0.13704155 0.06413273 0.03691921 -0.14768714 0.023741886
0.114048325 -0.11629219 0.07241645 -0.048578717 -0.031943206 -0.13432933 -0.035337374 0.0037306282
-0.013367001 0.08940351 0.19111446 -0.04583065 -0.054297734 0.058102474 0.002839514 -0.03438014
-0.072050236 0.024592482 -0.14459507 0.16686985 0.0630053 -0.056558672 -0.06605279 -0.031807568
0.052147117 -0.11051955 -0.062492937 0.12938026 -0.08219666 0.05625732 0.09526068 0.010138927
-0.14550461 0.007192155 -0.007276281 -0.34144527 0.09416775 0.039415486 -0.05752455 0.035514884
00000000: 49aa 5e3c 32dd d0bc bc1c 0a3e ad49 993e
00000010: 95f2 9c3d bd32 493d 93a6 e7bc e666 b2bd
00000020: f4f0 c3bd 475f 013d 7823 27bd 0da1 1f3e
00000030: b04d 36bc 73e1 9a3d 2f03 0dbd b856 113e
00000040: 6de9 c4bb edef 3cbd ed2a c3bd 9f54 0cbe
00000050: 0558 833d 9938 173d 4c3b 17be 587e c23c
00000060: 2b92 e93d 9a2a eebd 134f 943d 7afa 46bd
00000070: e1d6 02bd a18d 09be ecbd 10bd 8e7d 743b
00000080: 4401 5bbc 3019 b73d 82b3 433e ebb8 3bbd
00000090: 4d67 5ebd dcfc 6d3d 2417 3a3b 31d2 0cbd
000000a0: 138f 93bd 2c76 c93c bb10 14be eedf 2a3e
000000b0: ec08 813d 11aa 67bd af46 87bd a748 02bd
000000c0: 3798 553d 1358 e2bd 98f8 7fbd 427c 043e
000000d0: b956 a8bd 136e 663d 0818 c33d be1d 263c
000000e0: 29ff 14be 2bac eb3b de6d eebb ead1 aebe
000000f0: 05db c03d 2272 213d dd9e 6bbd 0e78 113d

params,ScannedRNN_0,GRUCell_0,hn,kernel f4 [64, 64]
-0.4314496 -0.030867841 -0.091897085 -0.017051626 -0.075981565 -0.062925555 0.05668589 0.12243927
0.08541413 0.07682796 -0.2918004 0.0010765392 -0.08369904 -0.17146435 -0.0759472 0.011477784
-0.115960546 -0.020495443 -0.23116167 -0.076480426 0.23716272 -0.060121723 -0.22351311 -0.0682801
0.13517858 -0.22733009 0.03492797 0.06594296 -0.013135228 0.19215359 0.17699356 0.115067266
-0.014395063 -0.084478155 -0.092538215 -0.030075397 -0.10278421 -0.069694795 0.023462467 0.042787526
0.029161822 0.06307241 -0.36809975 0.008062903 -0.029541567 -0.029048404 0.030846296 -0.39125162
-0.03300857 -0.068884976 -0.13003714 -0.058964785 0.039917957 0.0008666824 -0.045285005 0.2312286
0.022591736 0.016540457 0.05474465 -0.09046584 0.111358024 -0.1293942 0.19832718 -0.06823062
0.12597735 -0.14123437 0.21871272 -0.13746716 0.022747446 0.105741 -0.060919814 -0.14976798
0.078890614 -0.109026514 0.05749877 0.03505516 0.18437901 -0.0039104824 -0.02821534 -0.27180588
0.1306513 0.08400114 0.19004996 -0.0152392285 0.24283162 0.3722239 0.06426894 0.13043934
-0.25601783 0.001506217 0.08335938 -0.07951554 0.06239531 0.09099644 -0.04678802 -0.24958652
-0.10220467 0.086467996 0.042261813 0.08035475 -0.13967904 -0.17516807 0.0026616973 0.122783855
-0.012136447 0.13661383 0.08451682 0.030714711 -0.10309129 0.17883788 -0.1508947 -0.09155133
-0.012044958 0.20162603 -0.12931351 0.064027205 -0.10289221 -0.08789807 0.113070294 0.21106309
-0.014043258 0.021427011 -0.00732611 0.24472024 0.1136079 -0.11474248 -0.05021141 -0.13949132
0.12508087 -0.0015527892 -0.30055812 -0.17037493 -0.12476954 -0.062723316 0.19101672 0.005887558
0.1413232 -0.022605672 0.09233327 0.16058199 -0.0045809527 -0.055472355 -0.1085056 -0.28340542
-0.119906545 -0.06132849 0.0012145594 0.03946812 -0.011080201 -0.11554531 -0.016067691 0.12668487
0.051699333 -0.008203222 0.03868438 0.0018120513 -0.091165654 0.07885536 -0.30516288 0.0138841225
0.19971359 0.12340159 -0.18621297 0.022770524 0.016230779 0.16754071 0.22552487 0.15012355
-0.1306341 0.025390908 -0.051087152 -0.15357538 0.0048938855 -0.06835948 -0.19151425 0.06950326
-0.14820994 -0.058818296 -0.044051737 0.030949704 -0.015358856 0.24892154 -0.024942493 0.32704145
0.114262 0.02159086 0.01202376 0.0120767085 0.10615629 0.018641392 0.063754536 0.18305564
0.41585255 0.06457671 0.32423568 -0.5702199 0.011522195 0.15479073 -0.03915511 -0.12541826
-0.24119669 -6.51349e-05 -0.071472146 0.083473325 0.15409854 -0.12183164 -0.037972238 0.15676248
0.14679466 0.012509004 -0.053539712 -0.07402761 0.503238 0.0675991 0.040342633 -0.04684175
0.12819895 0.25454906 -0.06772634 0.07030558 0.3741315 -0.08274183 0.12142643 -0.12422852
-0.28780928 -0.14376149 0.14225668 0.045609277 -0.17127982 0.14137484 -0.11585118 0.0703253
0.28416592 -0.076088294 0.2770367 0.089751445 0.12483631 -0.13778035 -0.4140691 0.105252855
0.06372319 -0.18744755 0.23791465 -0.11569746 0.027247969 0.045560084 -0.13208917 0.041330088
-0.13270171 0.15324987 -0.2634796 -0.3630996 -0.2549453 0.08401742 -0.045638867 -0.06269851
00000000: f6e6 dcbe 8ede fcbc 8a34 bcbd daaf 8bbc
00000010: 399c 9bbd 1ddf 80bd 772f 683d 71c1 fa3d
00000020: 9aed ae3d fa57 9d3d dd66 95be a91a 8d3a
00000030: 676a abbd 5a94 2fbe 358a 9bbd 510d 3c3c
00000040: b97c edbd 0fe6 a7bc a5b5 6cbe c5a1 9cbd
00000050: c9da 723e 3242 76bd 9fe0 64be 70d6 8bbd
00000060: 416c 0a3e 38c9 68be a210 0f3d 1a0d 873d
00000070: 2435 57bc e9c3 443e cd3d 353e 63a8 eb3d
00000080: 45d9 6bbc e202 adbd ad84 bdbd ae60 f6bc
00000090: 8780 d2bd 25bc 8ebd 5c34 c03c f941 2f3d
000000a0: c6e4 ee3c 1c2c 813d 9277 bcbe 441a 043c
000000b0: 2801 f2bc ebf6 edbc 5fb1 fc3c 2252 c8be
000000c0: ff33 07bd 9113 8dbd 7528 05be 0f85 71bd
000000d0: 0381 233d 1232 633a c57c 39bd 31c7 6c3e
000000e0: 4e12 b93c da7f 873c ed3b 603d 2846 b9bd
000000f0: ad0f e43d ea7f 04be 4816 4b3e 7fbc 8bbd
00000100: 3500 013e be9f 10be 3af6 5f3e 31c4 0cbe
00000110: da58 ba3c bd8e d83d 0e87 79bd c75c 19be
00000120: 6791 a13d 4b49 dfbd d583 6b3d 0096 0f3d
00000130: dacd 3c3e 8123 80bb db23 e7bc 242a 8bbe
00000140: 74c9 053e ca08 ac3d 759c 423e f5ad 79bc
00000150: daa8 783e 2294 be3e 6f9f 833d e491 053e
00000160: c514 83be 426c c53a 53b8 aa3d 0bd9 a2bd
00000170: 3992 7f3d 575c ba3d cba4 3fbd 9c93 7fbe
00000180: af50 d1bd 2216 b13d b91a 2d3d 0891 a43d
00000190: 0608 0fbe 425f 33be df6f 2e3b 1a76 fb3d
000001a0: f3d7 46bc 7fe4 0b3e 2817 ad3d 6b9d fb3c
000001b0: 8721 d3bd 4721 373e 2484 1abe 447f bbbd
000001c0: 3758 45bc 0e77 4e3e c36a 04be b220 833d
000001d0: 27b9 d2bd e703 b4bd 6691 e73d ec20 583e
000001e0: b115 66bc b387 af3c dd0f f0bb f197 7a3e
000001f0: 42ab e83d 1bfe eabd 7baa 4dbd d0d6 0ebe
00000200: 3315 003e f686 cbba c1e2 99be c476 2ebe
00000210: 2c87 ffbd 1575 80bd e399 433e 6bec c03b
00000220: 07b7 103e 882f b9bc 3a19 bd3d 9b6f 243e
00000230: d11b 96bb fb36 63bd 2f38 debd 841a 91be
00000240: 9091 f5bd 9533 7bbd da31 9f3a 53a9 213d
00000250: bb89 35bc 05a3 ecbd 64a0 83bc aeb9 013e
00000260: aec2 533d cf66 06bc 8373 1e3d 5a82 ed3a
00000270: 0fb5 babd eb7e a13d 4f3e 9cbe 3b7a 633c
00000280: b881 4c3e f9b9 fc3d 9dae 3ebe 4089 ba3c
00000290: 69f6 843c cb8f 2b3e feef 663e fdb9 193e
000002a0: f2c4 05be 9800 d03c c340 51bd dd42 1dbe
000002b0: e35c a03b 0e00 8cbd 501c 44be ba57 8e3d
000002c0: 59c4 17be 74eb 70bd 986f 34bd 3c8a fd3c
000002d0: b6a3 7bbc 4ae5 7e3e 3354 ccbc fa71 a73e
000002e0: 3202 ea3d 51df b03c 4eff 443c 63dd 453c
000002f0: 7868 d93d d5b5 983c bd91 823d f072 3b3e
00000300: a0ea d43e cb40 843d 3802 a63e eef9 11bf
00000310: 97c7 3c3c 7681 1e3e 1c61 20bd a56d 00be
00000320: 44fc 76be 0899 88b8 fd5f 92bd 10f4 aa3d
00000330: 02cc 1d3e de82 f9bd c788 1bbd 5886 203e
00000340: 5751 163e 91f2 4c3c 754c 5bbd ca9b 97bd
00000350: 35d4 003f 6671 8a3d 513e 253d 23dd 3fbd
00000360: 9646 033e 4154 823e 1bb4 8abd 5ffc 8f3d
00000370: 2a8e bf3e 8c74 a9bd 6cae f83d 866b febd
00000380: bd5b 93be 3636 13be bcab 113e cbd0 3a3d
00000390: fa63 2fbe 91c4 103e 6243 edbd b606 903d
000003a0: 327e 913e 2ed4 9bbd c1d7 8d3e 9bcf b73d
000003b0: 2eaa ff3d 4b16 0dbe dd00 d4be cf8e d73d
000003c0: 4e81 823d 40f2 3fbe e69f 733e caf2 ecbd
000003d0: 2237 df3c 369d 3a3d 6242 07be bd49 293d
000003e0: f5e2 07be 89ed 1c3e cce6 86be 31e8 b9be
000003f0: 3188 82be 5311 ac3d d2ef 3abd 1468 80bd

params,ScannedRNN_0,GRUCell_0,hr,kernel f4 [64, 64]
-0.08250543 0.009956848 0.0656404 -0.07018638 -0.32060862 -0.25108895 0.05633347 0.053076096
-0.046605077 0.15782295 -0.109524675 0.1411129 -0.1515588 -0.020907491 -0.015284207 0.086550325
0.1311664 0.06456045 0.12253079 -0.015789041 -0.02736755 -0.04160613 -0.20795512 0.09409208
-0.07510693 -0.24746507 -0.06699654 0.27689564 -0.0963566 0.029926881 0.03024108 0.14810465
0.1188738 -0.040977556 -0.24249367 -0.19423945 0.06640093 -0.09030316 -0.03465335 -0.031068766
-0.06616436 0.017440455 -0.11290828 -0.07752901 -0.100023225 0.05597042 -0.21537903 -0.30413616
0.016196525 0.13665727 0.0007869227 0.13687323 0.084108725 -0.0015048664 -0.026337514 0.24088025
-0.006979044 0.007977041 -0.2528891 0.022601131 0.17426527 -0.025412008 0.056764174 0.062348887
0.06376491 -0.20302698 -0.20109099 0.022603022 -0.14224622 -0.30281895 0.1785322 -0.057235826
0.023482084 0.02786267 -0.01316286 -0.052933197 -0.06396808 0.098000854 0.22836553 -0.12657288
-0.15413444 0.14966471 -0.07229608 0.011284853 0.056376953 0.17858708 -0.10110056 -0.31086558
-0.18061386 0.0080265645 0.010183065 -0.17868915 -0.055042755 0.08172609 0.1387427 0.09603362
-0.16556314 -0.009266522 0.06555263 0.24765599 -0.058181487 0.10313707 -0.14843893 0.096627496
0.06502016 0.2032062 -0.10792413 -0.041589912 -0.19738756 0.09959115 -0.12802683 0.05129648
0.12692317 -0.07345563 -0.028534511 -0.041790377 0.1492427 0.28512245 0.0782175 0.042623755
0.09784864 0.08116324 0.030404681 -0.1467833 0.05726104 0.16234124 -0.14954063 0.13240285
-0.24550728 -0.13386852 0.009322885 0.1775575 -0.16545016 -0.08306891 -0.2086137 -0.002101857
-0.13944323 0.10819043 0.022279782 -0.123594254 -0.15138832 -0.11144408 -0.008468226 -0.005894921
-0.14601538 -0.16466792 -0.05163216 -0.10643913 0.18103652 0.26074165 -0.005732668 0.028647723
0.26028723 -0.109401025 -0.002177986 0.0035941526 0.2161688 -0.19217546 -0.025215218 -0.10969401
-0.2508985 -0.025665732 0.17361006 -0.055476923 -0.013203926 -0.022999167 0.09974649 -0.114748895
-0.10068206 -0.18686946 -0.18193269 0.036871094 -0.23036718 0.04802413 0.08937714 -0.45065776
0.02417889 -0.010550778 -0.03955002 -0.17230342 -0.19940999 -0.15946022 -0.04024705 -0.0644761
-0.021222072 0.11114697 -0.013428872 -0.073263414 -0.0053080446 -0.06503349 0.022097407 -0.015060575
0.123339035 0.09428666 0.015385342 -0.004648803 -0.25960055 0.18940473 -0.041097857 0.17582826
-0.040154338 0.11294086 -0.16058154 -0.034339134 -0.05849332 0.03794797 -0.20280376 -0.081889726
-0.029505318 -0.14301454 -0.08436997 0.1360719 0.31029677 -0.2687475 0.027388044 -0.36596644
-0.09189408 -0.20575508 0.16678856 -0.31306738 0.010667612 -0.3175586 0.061391048 0.06567676
0.1306444 0.07406975 -0.063195355 0.123287275 -0.18879908 0.08068807 0.2378655 -0.012097019
0.0024564313 -0.12985826 0.17294997 0.11702391 0.11057027 -0.1352787 0.061418127 -0.027622422
-0.022176368 -0.14621124 -0.17246312 -0.17696477 0.033756092 0.015505451 0.037263364 0.07816317
-0.07389035 -0.10811904 0.15082301 0.1066588 0.08889182 -0.10914296 -0.1536096 -0.10951557
00000000: 9bf8 a8bd 0c22 233c 796e 863d e0bd 8fbd
00000010: d026 a4be bb8e 80be edbd 663d 5266 593d
00000020: f7e4 3ebd 579c 213e 794e e0bd e67f 103e
00000030: 3b32 1bbe 3046 abbc 9c6a 7abc 4c41 b13d
00000040: 7c50 063e 4538 843d 6cf1 fa3d 0558 81bc
00000050: ea31 e0bc 306b 2abd 30f2 54be 59b3 c03d
00000060: aad1 99bd 7c67 7dbe 7b35 89bd 44c5 8d3e
00000070: 9c56 c5bd 3829 f53c 24bc f73c bfa8 173e
00000080: 1b74 f33d 15d8 27bd 4350 78be b5e6 46be
00000090: 36fd 873d ddf0 b8bd acf0 0dbd ed83 febc
000000a0: 2e81 87bd 49df 8e3c 753c e7bd 88c7 9ebd
000000b0: fad8 ccbd 3d41 653d 528c 5cbe bcb7 9bbe
000000c0: 93ae 843c e2ef 0b3e 7d49 4e3a 7f28 0c3e
000000d0: 3241 ac3d f03e c5ba c5c1 d7bc 50a9 763e
000000e0: 77b0 e4bb 23b2 023c ae7a 81be 0226 b93c
000000f0: 9872 323e d82c d0bc 8d81 683d 8c61 7f3d
00000100: 2d97 823d 4ee6 4fbe ccea 4dbe f929 b93c
00000110: fea8 11be 160b 9bbe 25d1 363e 1d70 6abd
00000120: 805d c03c 4140 e43c 09a9 57bc 7bd0 58bd
00000130: b201 83bd acb4 c83d a7d8 693e 529c 01be
00000140: 6bd5 1dbe b541 193e f80f 94bd 1be4 383c
00000150: 85eb 663d 88df 363e cf0d cfbd c629 9fbe
00000160: d7f2 38be da81 033c dfd6 263c 4afa 36be
00000170: 8374 61bd 0260 a73d 9112 0e3e 46ad c43d
00000180: 6289 29be 9cd2 17bc 7540 863d 8899 7d3e
00000190: b64f 6ebd 8739 d33d 6000 18be a3e4 c53d
000001a0: 4a29 853d 4915 503e 5407 ddbd 2f5a 2abd
000001b0: f71f 4abe 72f6 cb3d 7719 03be 421c 523d
000001c0: 26f8 013e e86f 96bd 35c1 e9bc 632c 2bbd
000001d0: 14d3 183e 92fb 913e 7f30 a03d 3f96 2e3d
000001e0: de64 c83d ea38 a63d 3d13 f93c 5d4e 16be
000001f0: 8d8a 6a3d c83c 263e 2e21 19be 9d94 073e
00000200: 4366 7bbe d414 09be 04bf 183c a2d1 353e
00000210: c46b 29be 0820 aabd d49e 55be 4fbf 09bb
00000220: 35ca 0ebe f292 dd3d 1784 b63c fc1e fdbd
00000230: 8a05 1bbe cb3c e4bd 50be 0abc 2e2a c1bb
00000240: 0e85 15be b59e 28be 3e7c 53bd c2fc d9bd
00000250: a361 393e ee7f 853e 1bd9 bbbb a1ae ea3c
00000260: 5e44 853e a50d e0bd 8bbc 0ebb e08b 6b3b
00000270: 5b5b 5d3e a5c9 44be 2590 cebc 41a7 e0bd
00000280: c575 80be f140 d2bc d6c6 313e c53b 63bd
00000290: 4855 58bc c068 bcbc e347 cc3d 7801 ebbd
000002a0: 6532 cebd b55a 3fbe 904c 3abe 2506 173d
000002b0: 60e5 6bbe f3b4 443d 5d0b b73d 9dbc e6be
000002c0: cf12 c63c 2cdd 2cbc 34ff 21bd 4f70 30be
000002d0: 2232 4cbe 8a49 23be 17da 24bd 0c0c 84bd
000002e0: e9d9 adbc 06a1 e33d c604 5cbc 210b 96bd
000002f0: 1bef adbb 4730 85bd 9f05 b53c a1c0 76bc
00000300: 2d99 fc3d 5d19 c13d cd12 7c3c fc54 98bb
00000310: 5dea 84be 50f3 413e 3a56 28bd 530c 343e
00000320: e078 24bd 8a4d e73d 7d6f 24be 31a7 0cbd
00000330: b196 6fbd 556f 1b3d caab 4fbe cdb5 a7bd
00000340: 23b5 f1bc 6772 12be 2aca acbd 6f56 0b3e
00000350: 38df 9e3e 4699 89be e45c e03c f45f bbbe
00000360: f732 bcbd 76b1 52be 9fca 2a3e 5e4a a0be
00000370: 35c7 2e3c 0a97 a2be 2e75 7b3d 8a81 863d
00000380: a5c7 053e e2b1 973d 916c 81bd 0a7e fc3d
00000390: 8c54 41be c93f a53d 0393 733e 9332 46bc
000003a0: 14fc 203b 90f9 04be cc19 313e 3baa ef3d
000003b0: aa72 e23d 8086 0abe 9391 7b3d 6b48 e2bc
000003c0: 37ab b5bc 66b8 15be 2c9a 30be 4136 35be
000003d0: d443 0a3d 930a 7e3c 78a1 183d 0314 a03d
000003e0: d353 97bd 846d ddbd 5971 1a3e ee6f da3d
000003f0: ea0c b63d 5886 dfbd d64b 1dbe b349 e0bd

params,ScannedRNN_0,GRUCell_0,hz,kernel f4 [64, 64]
-0.12177173 -0.038722824 0.14189854 -0.20445807 0.039108485 0.03981301 0.013625978 -0.007937837
-0.0646697 0.11179754 0.062465727 -0.1593835 -0.23811004 0.04691943 -0.1657803 0.20003957
0.022227855 0.024484925 -0.16303526 0.19326371 0.036470715 0.034568213 -0.012490316 0.23366807
0.107220106 -0.047787648 -0.023158526 -0.16994521 0.27858087 -0.06591843 -0.02149548 -0.06289037
0.10488849 0.08905396 0.0018594413 -0.13457541 -0.09504172 -0.17095524 0.16684327 0.08127636
0.039171748 -0.059630692 0.007668233 0.13570325 -0.10574462 -0.0865352 -0.21088277 -0.06498875
0.089575045 0.14679816 0.082189165 -0.10994444 0.059956964 0.072884105 0.022619246 0.036906112
0.023435634 -0.2502422 0.21415704 0.09373851 -0.13195299 -0.26612848 -0.09933964 -0.12164024
0.05366194 -0.17861849 -0.01566051 -0.08830305 -0.114980094 0.011901407 -0.08370246 0.060845718
-0.19937271 -0.13755764 -0.16567512 -0.23395258 0.040671192 -0.11349492 0.021218782 -0.014399335
-0.061609782 -0.07551956 -0.23287708 0.01568035 -0.027511835 0.12033434 0.037504546 -0.08871738
-0.02988554 0.124618694 -0.016483793 0.057271518 -0.20902562 0.1396738 -0.17348196 -0.17278379
-0.2069097 -0.028989878 -0.1656601 0.03946202 -0.053999748 0.17671587 0.29332235 0.0027530177
0.08605025 0.099995196 -0.093391806 0.049503043 0.14824769 0.07483242 0.094039835 0.21064472
-0.065364875 0.11371244 -0.063035816 -0.09803785 0.09303977 -0.06441118 -0.1812426 -0.07029999
-0.14859787 -0.13068502 0.15921792 -0.08983647 -0.109670185 -0.05127454 -0.27092022 0.014899727
0.03157628 0.045806687 -0.14116283 0.10501014 -0.10102554 -0.06402002 0.4309439 -0.0114261415
0.06567109 0.099111445 0.10782067 0.008268471 -0.05033328 0.14514802 0.11542801 -0.31276408
-0.04894474 0.06689876 -0.069219224 0.1357801 -0.22320417 0.10040518 0.15823445 -0.027588041
-0.048931837 0.024860278 -0.13384767 -0.09387622 -0.0031576506 0.04690932 0.23436663 0.029891726
0.18061426 0.26242706 0.040576763 -0.030965747 -0.08266424 0.009997297 0.10563727 -0.1514979
0.13150904 -0.11446495 -0.035636034 0.023923151 0.13703561 0.071698986 -0.24610372 0.06362209
-0.14403951 -0.04960651 0.05575091 -0.034176227 0.057570722 -0.06318655 0.101801 -0.14113337
0.064694285 0.122800104 0.08411946 -0.23374292 0.074513555 -0.16422458 0.017312018 0.035506964
-0.027743243 0.037924863 0.042498834 -0.021508345 -0.016112275 -0.12725319 0.0072908974 0.12732185
0.23216145 0.18666139 -0.020675661 -0.0045260144 0.027286407 0.10874004 0.31953138 0.25462577
0.14838423 0.09640996 0.10069156 0.19828168 -0.04137996 0.13450757 0.09814242 0.0050113685
0.15224257 0.14734998 -0.18690349 0.099333435 0.2426228 -0.10329122 0.024726 0.2213737
0.13909301 -0.0075929384 0.05813438 -0.06741406 0.19859359 0.147372 0.05415596 -0.01165954
0.09418486 0.0062158615 0.33733973 -0.03389103 0.3373364 -0.049631007 -0.08908002 -0.0932402
-0.026507853 -0.06487562 0.047661927 0.028222812 -0.0021850246 0.3947742 -0.07338247 -0.15757063
-0.09629365 0.17737278 0.2927683 -0.13865113 0.0021116547 0.12904204 0.16941579 0.010917023
00000000: 7563 f9bd d39b 1ebd da4d 113e 755d 51be
00000010: 3830 203d f712 233d 7e3f 5f3c b40d 02bc
00000020: 8c71 84bd 1cf6 e43d 10dc 7f3d 6e35 23be
00000030: 1ed3 73be 972e 403d 50c2 29be 2cd7 4c3e
00000040: 3117 b63c 9c94 c83c b7f2 26be ece6 453e
00000050: 5162 153d 6697 0d3d 2fa4 4cbc af46 6f3e
00000060: 3796 db3d fbbc 43bd f3b6 bdbc 1e06 2ebe
00000070: 27a2 8e3e 3e00 87bd 4a17 b0bc abcc 80bd
00000080: c7cf d63d ec61 b63d 7fb8 f33a 23ce 09be
00000090: 3ca5 c2bd e40e 2fbe f6d8 2a3e 3874 a63d
000000a0: 8e72 203d 503f 74bd cd45 fb3b cbf5 0a3e
000000b0: a390 d8bd 5e39 b1bd a7f1 57be d218 85bd
000000c0: 1f73 b73d 4252 163e cb52 a83d 8d2a e1bd
000000d0: 6f95 753d 4344 953d ff4b b93c dd2a 173d
000000e0: 16fc bf3c bf1f 80be fc4b 5b3e faf9 bf3d
000000f0: af1e 07be fe41 88be 9572 cbbd 851e f9bd
00000100: 9fcc 5b3d c4e7 36be 784a 80bc 3bd8 b4bd
00000110: af7a ebbd 1efe 423c 326c abbd 5c39 793d
00000120: 5c28 4cbe e9db 0cbe bda6 29be 4491 6fbe
00000130: d696 263d 0670 e8bd 03d3 ad3c 30eb 6bbc
00000140: 8a5a 7cbd 00aa 9abd 5477 6ebe 1474 803c
00000150: 8060 e1bc da71 f63d 5e9e 193d 75b1 b5bd
00000160: 85d2 f4bc 1638 ff3d 0509 87bc 8a95 6a3d
00000170: d00a 56be a606 0f3e 41a5 31be 3cee 30be
00000180: 23e0 53be 2e7c edbc cda2 29be eda2 213d
00000190: d72e 5dbd 01f5 343e 592e 963e f96b 343b
000001a0: 1d3b b03d 48ca cc3d 3444 bfbd b4c3 4a3d
000001b0: 3ece 173e bd41 993d f597 c03d 40b3 573e
000001c0: 05de 85bd 11e2 e83d ec18 81bd 11c8 c8bd
000001d0: a38b be3d 02ea 83bd a997 39be 71f9 8fbd
000001e0: 0a2a 18be 4bd2 05be 060a 233e 2ffc b7bd
000001f0: c39a e0bd 4105 52bd 0eb6 8abe fc1d 743c
00000200: 2156 013d cb9f 3b3d fd8c 10be 8e0f d73d
00000210: 7ae6 cebd ee1c 83bd aea4 dc3e b634 3bbc
00000220: 907e 863d f1fa ca3d 15d1 dc3d 7b78 073c
00000230: 452a 4ebd afa1 143e 8565 ec3d 9d22 a0be
00000240: 487a 48bd 3802 893d cfc2 8dbd f009 0b3e
00000250: a28f 64be 3ba1 cd3d 3608 223e 5100 e2bc
00000260: c06c 48bd c8a7 cb3c 5d0f 09be 2d42 c0bd
00000270: 96f0 4ebb fd23 403d cefd 6f3e 7edf f43c
00000280: f2f2 383e d75c 863e d233 263d e1ab fdbc
00000290: de4b a9bd b4cb 233c 5a58 d83d 4422 1bbe
000002a0: 4eaa 063e 9a6c eabd 17f7 11bd 7cfa c33c
000002b0: 1053 0c3e ebd6 923d 9d02 7cbe 4c4c 823d
000002c0: 187f 13be 3230 4bbd 115b 643d 5ffc 0bbd
000002d0: 47cf 6b3d f367 81bd 0b7d d03d 4485 10be
000002e0: 707e 843d 9f7e fb3d d346 ac3d 4e5a 6fbe
000002f0: 909a 983d 7d2a 28be efd1 8d3c c06f 113d
00000300: cc45 e3bc 1a57 1b3d 4213 2e3d 4532 b0bc
00000310: e4fd 83bc a94e 02be 7be8 ee3b a960 023e
00000320: bbbb 6d3e 2a24 3f3e 0160 a9bc f64e 94bb
00000330: be87 df3c 19b3 de3d 9e99 a33e 4f5e 823e
00000340: 09f2 173e 9672 c53d 6037 ce3d 5a0a 4b3e
00000350: 087e 29bd 5abc 093e e5fe c83d 6836 a43b
00000360: 7ae5 1b3e eae2 163e a163 3fbe 546f cb3d
00000370: 1c72 783e 598a d3bd 2e8e ca3c caaf 623e
00000380: 666e 0e3e 2fce f8bb 511e 6e3d 6210 8abd
00000390: 1e5c 4b3e b0e8 163e a4d2 5d3d a807 3fbc
000003a0: fee3 c03d 6dae cb3b cbb7 ac3e 52d1 0abd
000003b0: 5bb7 ac3e e249 4bbd 966f b6bd b8f4 bebd
000003c0: ff26 d9bc 82dd 84bd 2739 433d 8733 e73c
000003d0: a132 0fbb d81f ca3e 8c49 96bd 325a 21be
000003e0: 9b35 c5bd 36a1 353e bae5 953e 90fa 0dbe
000003f0: b063 0a3b 9923 043e 557b 2d3e 50dd 323c

params,ScannedRNN_0,GRUCell_0,in,bias f4 [64]
-0.05104869 -0.024290107 0.06558547 0.3266945 0.0032018467 0.029549044 0.05402927 -0.10682934
-0.15307522 0.0348068 -0.06468736 0.19513805 -0.08213955 0.013087922 0.03774123 0.07798966
-0.09006555 -0.0725874 -0.06473329 -0.15575539 -0.042567886 0.019067634 -0.18965118 0.00084275845
0.1586553 -0.14697279 0.10234236 -0.08959473 -0.07861183 -0.2154152 -0.004183173 -0.027168063
0.0508044 0.1726947 0.13959636 0.0012353242 -0.08127372 0.073992856 0.08931317 -0.0011304482
-0.18024795 0.033621233 -0.2533446 0.17165765 -0.0432166 -0.03890911 0.02308455 0.013819865
0.03951814 -0.08545021 -0.09024796 0.094241194 -0.06007668 0.08206287 0.13964616 0.07600997
-0.015137579 -0.04187169 0.06542514 -0.21756455 0.17907922 0.049185317 -0.08265384 0.06154006
00000000: 6e18 51bd 0cfc c6bc ad51 863d 8044 a73e
00000010: 13d6 513b d610 f23c cc4d 5d3d 57c9 dabd
00000020: c0bf 1cbe 9391 0e3d ce7a 84bd 45d2 473e
00000030: c838 a8bd b96e 563c 8c96 1a3d 0bb9 9f3d
00000040: 4974 b8bd b4a8 94bd e392 84bd 577e 1fbe
00000050: aa5b 2ebd ba33 9c3c eb33 42be 90ec 5c3a
00000060: 8976 223e 0980 16be df98 d13d 717d b7bd
00000070: 3dff a0bd cd95 5cbe 0013 89bb 8f8f debc
00000080: 4618 503d e1d6 303e 59f2 0e3e 9aea a13a
00000090: d672 a6bd 9189 973d d3e9 b63d 8c2b 94ba
000000a0: eb92 38be 6bb6 093d 62b6 81be 06c7 2f3e
000000b0: e403 31bd 295f 1fbd cf1b bd3c b76c 623c
000000c0: c6dd 213d 8500 afbd ecd3 b8bd 8701 c13d
000000d0: f712 76bd 9410 a83d 67ff 0e3e 1dab 9b3d
000000e0: 9c03 78bc a681 2bbd 9efd 853d 3ec9 5ebe
000000f0: 8b60 373e 8b76 493d 6b46 a9bd 6e11 7c3d

params,ScannedRNN_0,GRUCell_0,in,kernel f4 [64, 64]
0.386618 -0.15421262 0.01898196 -0.16357595 0.29792595 0.20378006 -0.03330397 0.24890853
0.44235224 -0.28002018 0.12584513 -0.063342065 0.19695504 0.13080327 0.067725025 0.017519355
0.36704388 -0.1636928 0.20238465 0.27786532 -0.14459231 0.36858177 0.30243388 0.019759202
0.12983032 -0.14116102 0.0537252 -0.05366726 0.13583927 0.40921852 -0.07626862 0.31288517
-0.14201406 -0.14225014 0.07153918 -0.13198361 0.07322215 0.033260077 -0.21346974 -0.033472482
0.16837233 0.10294424 0.1299814 0.17650317 0.055922635 0.097938575 -0.2494185 -0.0015191581
0.046747133 0.018158214 -0.1899288 -0.021954356 0.008125657 -0.23252165 -0.027676167 -0.02175381
-0.08735556 0.21098644 0.15620552 -0.23477422 -0.14435254 0.13865742 0.26174867 0.17461291
0.35124218 -0.15199852 0.04676096 -0.12312975 0.028082909 0.2555753 -0.2572659 0.22179854
0.23683567 -0.14218883 0.023560118 -0.41044787 0.32901168 -0.054687653 -0.26731226 0.040408257
0.3037735 0.25098842 0.275583 0.1499106 0.4200904 -0.02119472 0.33824697 -0.0455853
0.25054756 0.10901941 -0.08376025 -0.065469116 0.24476507 -0.005298361 -0.008836541 0.017561562
-0.06963599 -0.31288776 0.35327816 -0.10809612 0.11497122 0.14159833 -0.06852776 -0.1626287
0.21181668 0.07034815 0.2585928 0.16926564 0.119732246 0.23563273 -0.102382645 -0.33460313
-0.3255362 -0.16341044 -0.09361366 -0.047724485 -0.3691321 -0.21582207 -0.3315168 -0.29890332
-0.24424326 0.23753229 -0.27063808 -0.10904478 -0.4499301 0.29771137 0.252679 0.31308576
-0.0069984724 -0.05852181 0.10546613 -0.50011486 0.08351008 0.3024663 -0.13423862 0.26816905
0.14871435 -0.10409707 -0.054552883 -0.23086083 0.33806115 -0.06770361 -0.29196653 0.11150843
0.1167282 0.32733 0.1747999 -0.00915072 0.33660394 0.113890454 0.12559937 -0.22738443
0.1960279 0.14765857 0.24298102 -0.040527333 0.28688675 -0.003636677 -0.013921723 -0.07395552
-0.34202877 -0.038295876 0.019625554 -0.08818131 0.008596549 0.06006411 -0.0780267 0.06954391
-0.13460426 0.0034508728 0.086033925 0.31469172 0.14455941 0.21229675 -0.29809746 0.07286982
-0.33447987 -0.013782566 -0.22404814 -0.058803312 -0.2840282 -0.23374614 -0.22535089 -0.19984832
-0.33189857 0.277309 -0.11115885 0.15606259 -0.31052262 0.19612877 0.12550516 0.31340808
0.07746151 -0.15057307 0.009555761 -0.09515552 -0.055455968 0.09958833 0.017495243 0.093031324
0.014576514 -0.16787685 0.05262041 -0.2560581 0.013600445 0.15227793 -0.020015884 -0.14536358
-0.09364933 0.008906347 0.32678634 -0.05690037 0.047225423 0.11510686 0.27019575 -0.25606978
0.28243047 0.041322578 -0.052084737 0.017472165 0.003454427 -0.25352502 -0.1132466 -0.012625672
-0.1598952 0.06634319 -0.08527608 0.08024101 -0.008980262 0.007008479 0.032380603 -0.10626787
0.07685006 -0.01907078 0.21956792 0.36622128 -0.02431655 0.11727556 0.03585752 -0.11108322
-0.19698113 0.11571795 -0.15348998 0.057677157 -0.15539256 0.037732158 -0.30025345 0.060048822
-0.06370948 0.065440744 -0.10146064 0.13912122 -0.0909331 0.01472614 0.006990896 0.26447663
00000000: cbf2 c53e eae9 1dbe 0e80 9b3c 7480 27be
00000010: c089 983e b8ab 503e be69 08bd e1e1 7e3e
00000020: fe7b e23e ce5e 8fbe 8cdd 003e 7cb9 81bd
00000030: 95ae 493e 4bf1 053e 6bb3 8a3d c084 8f3c
00000040: 2ded bb3e 169f 27be ec3d 4f3e 5d44 8e3e
00000050: 0210 14be c0b6 bc3e 9dd8 9a3e 0dde a13c
00000060: 3df2 043e 848c 10be f50e 5c3d 33d2 5bbd
00000070: 7319 0b3e 1785 d13e b932 9cbd 7c32 a03e
00000080: 226c 11be 05aa 11be 2283 923d b626 07be
00000090: 7ff5 953d b83b 083d d097 5abe 711a 09bd
000000a0: cc69 2c3e 6ed4 d23d d819 053e 3fbd 343e
000000b0: 220f 653d 0594 c83d 9067 7fbe 7d1e c7ba
000000c0: ec79 3f3d 89c0 943c b27c 42be 9fd9 b3bc
000000d0: 7a21 053c 281a 6ebe 21b9 e2bc 0c35 b2bc
000000e0: 79e7 b2bd d40c 583e 57f4 1f3e a768 70be
000000f0: 27d1 13be 36fc 0d3e ec03 863e bacd 323e
00000100: 04d6 b33e 80a5 1bbe 6c88 3f3d 732b fcbd
00000110: 210e e63c c4da 823e 5bb8 83be 281f 633e
00000120: 0d85 723e f399 11be 2601 c13c 3926 d2be
00000130: 3874 a83e 2900 60bd 27dd 88be 2183 253d
00000140: 3388 9b3e 8e81 803e 3719 8d3e 2a82 193e
00000150: 1716 d73e 8da0 adbc b52e ad3e a7b7 3abd
00000160: c547 803e 9245 df3d 7e8a abbd ac14 86bd
00000170: b2a3 7a3e e09d adbb 24c7 10bc 44dd 8f3c
00000180: 509d 8ebd d332 a0be e0e0 b43e 8061 ddbd
00000190: 0876 eb3d 27ff 103e 4858 8cbd 2388 26be
000001a0: 79e6 583e b112 903d 4766 843e f953 2d3e
000001b0: 2e36 f53d b549 713e fead d1bd 1a51 abbe
000001c0: aeac a6be 1155 27be 85b8 bfbd c07a 43bd
000001d0: e2fe bcbe 7600 5dbe 92bc a9be db09 99be
000001e0: e81a 7abe aa3b 733e 1391 8abe df52 dfbd
000001f0: 3d5d e6be a06d 983e 245f 813e c74c a03e
00000200: 7153 e5bb 91b4 6fbd a0fe d73d 8707 00bf
00000210: 5507 ab3d dddc 9a3e d975 09be 744d 893e
00000220: 9348 183e d830 d5bd d872 5fbd c866 6cbe
00000230: 5a16 ad3e 31a8 8abd a37c 95be 885e e43d
00000240: 320f ef3d cc97 a73e bffe 323e e7ec 15bc
00000250: 5a57 ac3e 663f e93d 1f9d 003e 77d7 68be
00000260: 8abb 483e cf33 173e 04d0 783e fdff 25bd
00000270: d2e2 923e 5155 6ebb f017 64bc fe75 97bd
00000280: 651e afbe 23dc 1cbd c5c5 a03c 6798 b4bd
00000290: 8ad8 0c3c c905 763d 76cc 9fbd 0a6d 8e3d
000002a0: b3d5 09be 0a28 623b 8e32 b03d 461f a13e
000002b0: 6207 143e 5264 593e 3ba0 98be c63c 953d
000002c0: f240 abbe 46d0 61bc e06c 65be bedb 70bd
000002d0: 256c 91be 265b 6fbe 62c2 66be 0aa5 4cbe
000002e0: 9cee a9be 72fb 8d3e 40a7 e3bd dfce 1f3e
000002f0: d2fc 9ebe fbd5 483e 6d84 003e 0677 a03e
00000300: 24a4 9e3d d42f 1abe c48f 1c3c e6e0 c2bd
00000310: cc25 63bd f7f4 cb3d 2f52 8f3c 3587 be3d
00000320: 55d2 6e3c e9e7 2bbe 8088 573d 0c1a 83be
00000330: 67d4 5e3c bfee 1b3e 5af8 a3bc 31da 14be
00000340: 38cb bfbd edeb 113c 8a50 a73e 5d10 69bd
00000350: 726f 413d 25bd eb3d 1957 8a3e 941b 83be
00000360: ba9a 903e dd41 293d ce56 55bd c921 8f3c
00000370: ab63 623b 08ce 81be d5ed e7bd e8db 4ebc
00000380: 91bb 23be f0de 873d 3aa5 aebd 6655 a43d
00000390: f321 13bc 62a7 e53b 86a1 043d f8a2 d9bd
000003a0: 9063 9d3d 533a 9cbc 6ad6 603e 5b81 bb3e
000003b0: 8033 c7bc 2b2e f03d 56df 123d 997f e3bd
000003c0: 6cb5 49be 88fd ec3d 7a2c 1dbe e23e 6c3d
000003d0: 3a1f 1fbe 098d 1a3d d2ba 99be c1f5 753d
000003e0: 1e7a 82bd cc05 863d 99ca cfbd cb75 0e3e
000003f0: 223b babd e845 713c e313 e53b 7b69 873e

params,ScannedRNN_0,GRUCell_0,ir,bias f4 [64]
-0.0052937674 -0.10664032 0.019592483 0.24440461 -0.02677958 -0.029880699 0.056041516 -0.13699307
-0.11705076 -0.12333388 0.010964791 -0.16128512 -0.072397016 -0.070350826 -0.07161215 -0.08323361
-0.05368585 -0.04566888 -0.14160131 -0.03923774 0.18892057 -0.1265169 -0.06241233 -0.045141477
-0.01889363 -0.0031675263 -0.055810105 0.0021272236 0.10590837 -0.19379267 -0.056627505 -0.08568583
-0.021277012 0.0019534924 0.0040515033 -0.05399271 -0.15316804 -0.12364961 -0.0027224468 -0.15649946
0.05468975 -0.1074581 0.17304003 -0.011865145 0.072767004 -0.12624857 0.101003386 -0.114418015
-0.18368573 -0.06570066 -0.0063178358 -0.07758586 -0.105609 -0.14267938 -0.016455013 -0.00016947785
0.050614785 -0.12746927 0.07831464 0.20699783 0.15467222 -0.039911836 -0.054390494 -0.08396697
00000000: 5777 adbb 3d66 dabd 6a80 a03c 3445 7a3e
00000010: da60 dbbc 5ec8 f4bc ca8b 653d e947 0cbe
00000020: 4fb8 efbd 7996 fcbd aba5 333c ed27 25be
00000030: e344 94bd 1814 90bd 64a9 92bd 6276 aabd
00000040: b2e5 5bbd 4b0f 3bbd efff 10be c1b7 20bd
00000050: 6574 413e a58d 01be 12a4 7fbd 45e6 38bd
00000060: d0c6 9abc 4696 4fbb 2399 64bd e468 0b3b
00000070: 7de6 d83d 9671 46be 3ef2 67bd 0d7c afbd
00000080: 214d aebc 2a06 003b 79c2 843b 7627 5dbd
00000090: 15d8 1cbe 023c fdbd 146b 32bb 6541 20be
000000a0: 5c02 603d fe12 dcbd 6831 313e 0666 42bc
000000b0: de06 953d 4e47 01be ddda ce3d fe53 eabd
000000c0: 1d18 3cbe 118e 86bd d905 cfbb 56e5 9ebd
000000d0: 8849 d8bd 8b1a 12be aacc 86bc ddb5 31b9
000000e0: 7351 4f3d 4e87 02be 6d63 a03d 3df7 533e
000000f0: 6562 1e3e 987a 23bd 91c8 5ebd e0f6 abbd

params,ScannedRNN_0,GRUCell_0,ir,kernel f4 [64, 64]
-0.22746041 0.014083597 -0.108694196 -0.3550219 -0.22497253 -0.010903543 0.13494334 -0.15374422
0.07376532 -0.033557244 -0.0017539124 0.047712628 -0.34219626 -0.2494497 -0.06903716 -0.005044977
0.0073258695 0.0665189 0.064258896 -0.17006329 0.07606973 0.02262761 0.009408416 0.2556319
0.24130514 -0.050373424 0.081172645 0.27706578 -0.11585147 -0.01938562 -0.11813988 0.32212445
-0.25953394 -0.09505221 0.0030758472 -0.03697311 -0.078590214 -0.14764898 -0.1438638 0.057430588
0.0840616 -0.19243135 -0.011519623 -0.20920187 -0.12026433 0.06623184 -0.33341318 0.044340376
0.053795375 -0.113913424 0.25414294 0.038826637 -0.041759856 -0.061667394 0.12093394 -0.11523949
-0.08087514 -0.14437646 0.20932506 0.065842465 -0.011995233 0.01026678 0.0680643 -0.27403715
0.10790738 -0.17575476 -0.16463698 -0.17981544 -0.025561985 -0.006570456 0.082787976 -0.0451251
0.045788497 0.058135476 0.036685266 -0.11060097 0.0733232 -0.13537116 0.19687241 0.21054451
0.018347004 -0.07363515 -0.041981798 -0.074701734 -0.15899548 0.12002728 0.00097010756 0.18951978
0.16696769 0.039579194 0.02216584 -0.18457784 -0.22606196 0.23730694 -0.13275313 0.1801057
-0.29165837 -0.19011103 -0.117108345 0.21187027 0.07266389 0.08082591 0.11187449 -0.18530259
0.015218539 0.052938644 -0.09783155 -0.027292393 -0.03279522 0.115021214 -0.009873067 0.009140445
-0.027905554 -0.05052881 0.1401349 -0.01611831 0.14796256 0.027168518 -0.035595447 0.006348358
-0.017336508 0.02984453 0.15351933 -0.19242701 -0.19962788 -0.1602012 -0.2516256 0.14425327
-0.22982877 0.2479508 0.079091065 0.00991331 -0.09953964 -0.052615073 -0.06488573 -0.018928593
-0.17145808 -0.057908554 -0.083473586 0.11701267 -0.0053564617 -0.068528906 0.23115578 -0.07703628
-0.07084465 0.039327323 -0.023702364 0.10242362 -0.0046495427 -0.114168644 -0.15975687 -0.23366064
0.096692406 -0.1633227 -0.08611134 0.03010381 0.025936566 0.21581346 -0.08819892 0.06697466
-0.11034956 0.19186056 -0.0783641 -0.010859035 -0.012196194 0.053174626 0.170474 -0.010442279
-0.1251784 -0.0958009 -0.034265988 0.10910345 -0.1295539 -0.14833128 -0.22858398 0.03709764
-0.061665528 0.028785432 -0.11221364 -0.008108938 -0.24826223 0.26115683 0.11184773 -0.07476646
-0.2505041 -0.10728051 -0.18959433 -0.09700483 -0.096779026 0.26260677 -0.029483233 0.019333845
0.03237195 0.022068799 -0.12007232 -0.09026266 -0.15266041 -0.0006002123 -0.0047079544 0.015493105
0.005365188 -0.30069166 -0.03312912 -0.14792009 -0.062316418 0.02956947 0.018650822 0.0057131825
-0.004977196 0.09064763 -0.27006105 0.129433 -0.028557476 -0.07843392 -0.11113057 -0.0017525306
0.07118192 0.036908355 0.059366453 -0.065160304 0.08427695 0.19223943 -0.094373584 0.043686017
0.11499294 0.086707674 0.07689825 0.0394323 0.06852674 -0.11394998 -0.0011173695 -0.036436677
-0.080203235 -0.22235043 -0.14041053 0.05784094 -0.054020092 0.00073048816 -0.14479187 -0.06689179
0.06922893 -0.07629958 -0.001363431 0.06974215 0.098684825 -0.07085226 0.038911622 -0.038106516
-0.0061167395 -0.15721378 0.10550872 -0.26948473 0.032878697 0.008765584 -0.1045001 -0.00030531237
00000000: 62eb 68be e3be 663c 109b debd 6ec5 b5be
00000010: 335f 66be c6a4 32bc 962e 0a3e 206f 1dbe
00000020: 4612 973d 5273 09bd 89e3 e5ba 516e 433d
00000030: 5934 afbe be6f 7fbe 5b63 8dbd 5650 a5bb
00000040: d90d f03b 103b 883d 2b9a 833d 1225 2ebe
00000050: 72ca 9b3d 8a5d b93c c225 1a3c 2fe2 823e
00000060: b218 773e 5d54 4ebd d83d a63d 91db 8d3e
00000070: 8943 edbd 97ce 9ebc 52f3 f1bd 7fed a43e
00000080: a2e1 84be bcaa c2bd 2794 493b 1e71 17bd
00000090: e8f3 a0bd 4b31 17be 0851 13be 563c 6b3d
000000a0: 7d28 ac3d b90c 45be cdbc 3cbc 0439 56be
000000b0: 254d f6bd 8fa4 873d 22b5 aabe 419e 353d
000000c0: 8a58 5c3d 714b e9bd 061f 823e ae08 1f3d
000000d0: 620c 2bbd f396 7cbd 37ac f73d af02 ecbd
000000e0: dea1 a5bd 6cd7 13be 4f59 563e 6ad8 863d
000000f0: a787 44bc ff35 283c 4c65 8b3d 994e 8cbe
00000100: 8bfe dc3d 0ef9 33be 9996 28be 8a21 38be
00000110: 5e67 d1bc fb4c d7bb be8c a93d 19d5 38bd
00000120: b88c 3b3d 771f 6e3d 4a43 163d c382 e2bd
00000130: 792a 963d bd9e 0abe ec98 493e fb98 573e
00000140: 754c 963c 07ce 96bd 1bf5 2bbd 39fd 98bd
00000150: b6cf 22be ddd0 f53d d14e 7e3a 7911 423e
00000160: 94f9 2a3e cb1d 223d 2395 b53c f901 3dbe
00000170: c97c 67be 9700 733e 70f0 07be a16d 383e
00000180: 3f54 95be 77ac 42be 80d6 efbd 85f4 583e
00000190: ced0 943d 0e88 a53d 741e e53d f6bf 3dbe
000001a0: 2e57 793c 31d6 583d e85b c8bd 4c94 dfbc
000001b0: 4854 06bd 3e90 eb3d a5c2 21bc cec1 153c
000001c0: 309a e4bc 4cf7 4ebd 867f 0f3e 8c0a 84bc
000001d0: 7f83 173e 8390 de3c 88cc 11bd e305 d03b
000001e0: 4b05 8ebc 847c f43c 2c34 1d3e 960b 45be
000001f0: 406b 4cbe c90b 24be 12d5 80be 21b7 133e
00000200: 3c58 6bbe d1e6 7d3e 7ffa a13d 706b 223c
00000210: 70db cbbd e782 57bd cfe2 84bd 2310 9bbc
00000220: b592 2fbe 8531 6dbd 33f4 aabd 57a4 ef3d
00000230: 4285 afbb e258 8cbd 1ab4 6c3e 32c5 9dbd
00000240: 0017 91bd b015 213d 762b c2bc 7ac3 d13d
00000250: 315b 98bb 40d1 e9bd 4e97 23be bc44 6fbe
00000260: ab06 c63d 113e 27be 245b b0bd 449c f63c
00000270: ec78 d43c 34fe 5c3e a3a1 b4bd 032a 893d
00000280: f3fe e1bd 1877 443e 5b7d a0bd 18ea 31bc
00000290: 8cd2 47bc a3cd 593d bc90 2e3e 1816 2bbc
000002a0: c42e 00be 4333 c4bd 7e5a 0cbd a171 df3d
000002b0: c7a9 04be 28e4 17be eb11 6abe b2f3 173d
000002c0: fe94 7cbd 6dcf eb3c 44d0 e5bd 5adb 04bc
000002d0: 7438 7ebe 59b6 853e 6c10 e53d 281f 99bd
000002e0: 1342 80be e2b5 dbbd 0425 42be 78aa c6bd
000002f0: 1534 c6bd 6574 863e d286 f1bc 0362 9e3c
00000300: 7398 043d a0c9 b43c 7ae8 f5bd a1db b8bd
00000310: 0353 1cbe 9157 1dba 2f45 9abb cbd6 7d3c
00000320: 75ce af3b 42f4 99be 66b2 07bd 5d78 17be
00000330: 803f 7fbd ac3b f23c 9cc9 983c a635 bb3b
00000340: bf17 a3bb 77a5 b93d 7145 8abe 168a 043e
00000350: 5ef1 e9bc f7a1 a0bd 6d98 e3bd 2bb5 e5ba
00000360: d4c7 913d 372d 173d 3d2a 733d c472 85bd
00000370: 6599 ac3d 6ada 443e f046 c1bd 1cf0 323d
00000380: 6b81 eb3d cb93 b13d d47c 9d3d c383 213d
00000390: bf57 8c3d 9b5e e9bd b374 92ba a03e 15bd
000003a0: 9841 a4bd d5af 63be c7c7 0fbe 9fea 6c3d
000003b0: 2c44 5dbd 3b7e 3f3a 5244 14be 90fe 88bd
000003c0: e6c7 8d3d f442 9cbd 27b5 b2ba f9d4 8e3d
000003d0: 451b ca3d fd1a 91bd cb61 1f3d 9415 1cbd
000003e0: ee6e c8bb a6fc 20be f514 d83d e7f9 89be
000003f0: d0ab 063d 869d 0f3c 2604 d6bd 5512 a0b9
