baselines/QLearning/checkpoints/MPE_simple_tag_v3/iql_ps.safetensors (safetensors, 107340 bytes, 14 tensors)

params,Dense_0,bias f4 [64]
00000000: 789c 0e3f 54cf 71bf 2881 7f3e d15e 183f
00000010: 3aa0 7fbe bfdf c4be 3e24 be3c bc31 373d
00000020: f474 893d 4b38 22be 8e2b 593e e155 44be
00000030: bd8f 873e 8a73 8dbc a60e 913c 4809 ebbe
00000040: e221 11bf 1f4a f43d 9633 19be 1e87 f53c
00000050: 0fd6 56be f9d5 f6bd 9769 70bf 5525 a0be
00000060: 662e 4ebe 19dd 2fbe aac5 27be bf3f abbd
00000070: b9bc 9a3e aad6 87be d637 17bc 5ad2 21be
00000080: d963 8d3d 66b2 a3bc 03d9 c2be b8ac 613e
00000090: 47cb 8ebd f149 7c3e 6b53 0bbf 792e 85be
000000a0: a6aa febd ddff 14bf 239c 23be ed6a a43c
000000b0: 08f8 073e 9d95 09bf 6f32 32be ca5b e8be
000000c0: 1292 2abe e214 783e 38c3 0fbf f7f3 f2be
000000d0: 65d7 ea3e de6e febc ee38 3abf 5dcf 8fbd
000000e0: bc38 9bbe 5aaf 5ebe bc98 6fbf a8df 3ebd
000000f0: 60bd 95be ab46 0bbe bf4c 033e 6847 c3be
0.557075 -0.9445698 0.24951613 0.5951968 -0.24963465 -0.38451955 0.023210641 0.044725165
0.0671176 -0.15841787 0.21208021 -0.19173385 0.2647685 -0.017267007 0.01770718 -0.4590552
-0.56692326 0.119282 -0.14961085 0.029971655 -0.20980094 -0.12052531 -0.9391112 -0.31278482
-0.20134887 -0.17174186 -0.16383997 -0.08361768 0.3022211 -0.26530963 -0.009229621 -0.15802899
0.0690381 -0.019982528 -0.38056192 0.22038543 -0.06972366 0.24637581 -0.5442416 -0.26012018
-0.12434892 -0.58202916 -0.1597753 0.020070517 0.1327821 -0.53743917 -0.17402051 -0.4538253
-0.16657284 0.24226716 -0.56157255 -0.47451755 0.45867458 -0.031058725 -0.7274312 -0.07021973
-0.30316722 -0.21746579 -0.9359243 -0.046600014 -0.29246044 -0.13601176 0.12822245 -0.38140416

params,Dense_0,kernel f4 [20, 64]
00000000: 6776 cbbc b737 4dbd b1d9 62be 7ac4 29bd
00000010: 06b3 c2be 2119 d6be 6c7b 70be 4fb5 e7bc
00000020: 1dd9 c73e 65d5 cd3c ce75 c7bd 502e 873e
00000030: 4e82 76bc fdda 143f 0abc f13e 4338 7dbe
00000040: 9000 98be 5356 343d e38f b03c 69be b7be
00000050: e91e 2cbe cb9e ec3c faec d9be 632b 663e
00000060: 1379 ecbe 6364 f03e a026 343d aefd 39bf
00000070: 2940 293f 6220 073f 8e1f 00bf 2c85 ae3e
00000080: 1c08 2d3e 859d 05bf 48e3 c1be c039 0bbf
00000090: abfb 15bc 7892 873e ffa6 6cbc 211d db3e
000000a0: ef13 303c 14dc cabe 533c a53d d797 22bd
000000b0: 6c10 9bbd 9567 343e 7868 23bd 2593 55be
000000c0: 28ba d83d 06e5 063e 7d36 cd3d 7a0e 0abe
000000d0: 70e0 2d3e 160f dd3c eb2b 9e3e aca8 073d
000000e0: 2bf8 453c 62e7 98bf 28b6 0d3f a151 713b
000000f0: 1ec5 133d e1ae 0abd 3086 93be c928 bd3e
00000100: d9ac b4be 7d10 25bf 008b 8cbe 308d e2bd
00000110: 0978 62bf e5ef 223f 864d 19be 1fb0 943c
00000120: 11c5 033c f4b5 0e3d db68 38be 8451 04be
00000130: 26eb 04be b9a7 ddbe aade 3d3e 43fb debb
00000140: ada6 c5be f3ce 3dbf 7335 36bc 1437 10bc
00000150: fa6e ef3e e15f 38bf 69ab 133e 5643 54be
00000160: 8a94 5e3e 8817 513e 25ec 8abe e2ef f3be
00000170: f2ba dd3e c63d 063e 17fe 98be 1493 86be
00000180: bf0a fa3e e049 1f3e 3454 88be cede da3e
00000190: fc78 8c3c afc0 abbd b07f ee3e 66b8 c03e
000001a0: 8b1d e1bb 4f45 c13e a751 1e3c 5dd3 793c
000001b0: d28b d6bd aa3e eeba 16db 26be 7330 31bf
000001c0: e73f 86bd 1df2 f5be e5f3 af3f dada 173f
000001d0: 5f37 bb3e 4e42 f3bd 40d1 043f b289 2abd
000001e0: 30a0 dfbe 2396 be3e e0cf d1be 64aa d93c
000001f0: b040 93bd ea2a d3bd 6807 2e3f 0474 8bbc
00000200: f489 10bd abb6 14be 1da4 af3e e0c2 48ba
00000210: 2fc2 043d 521d 3abf edda 0c3f 8756 30bd
00000220: 9de5 f4be 2fa6 2cbe 8c3e d2bd ebb5 113e
00000230: 9e1f 3cbe 18b6 743e dbf0 b33e b1d7 26bf
00000240: 8d0d a1bf f600 2cbc 177c db3d 2e0e 35bf
00000250: 4a30 79bd 29f2 22bd 6c46 b2bf f9e5 873f
00000260: 030b 2f3e 520f 35be e761 b3be 7215 a2bf
00000270: 7317 243e a640 83be d9af b03d 7fdf b4bd
00000280: a170 ab3d 69b3 dc3e c6b9 bb3e 322e 1bbe
00000290: d91c e83b 9174 f73e aea4 d3bd 51d4 453f
000002a0: d883 16be 6ef5 8bbf b5f2 9b3b 89e9 a3be
000002b0: f91c cfbd 6f91 da3d c9ef 55be 0243 d73e
000002c0: 74b8 463f 9e5d aebc ab2a 9dbe 02e0 8dbe
000002d0: 4889 cabc f4d2 aa3f 9c4a 953f 9162 e23e
000002e0: fefe 9cbe feb5 d73e c39d 873f 2fbb a8bb
000002f0: 2d8d 00be 97b2 b0be 5673 8cbe 1af8 b63f
00000300: b4f9 843e 9073 9bbf 5c28 433f 2702 50be
00000310: e045 2bbe a341 3c3f 44c0 2b3e 5d7a e2bd
00000320: d589 debd bffa 00be 3123 d33e 52f6 90bf
00000330: 3376 c53e 53cc 1bbd e4f2 813f c432 de3e
00000340: 022d 7fbf 44a2 a5be fcce d83d d92c 89be
00000350: b163 7fbd ad4c 91bd fb93 b93e 18b3 a3bf
00000360: 0e31 51be 3f25 85bd 0786 16bf 2ee5 b4be
00000370: ca6f f73d 8c5a 213d e91b 873b f751 e53c
00000380: a9d9 1dbe 151a a9be 6323 08bf b600 e03d
00000390: 5a0d 15be b4ca c93e 0be1 023f a7f7 943f
000003a0: 51ec 16be 94e4 973f e3f2 8fbd f61c 913e
000003b0: 6698 85bf a008 343e 0e47 81bf 9df2 9d3d
000003c0: e837 873e e13b 673e 1c43 f8bd d90c 7c3f
000003d0: 92e6 dfbd b133 e43e 447c 7e3f a6ad e93c
000003e0: ff3b 923e f83b 5abe af5a 8ebf ca4b af3e
000003f0: 1352 203e 362c 8b3f 3d3a d03e bb07 813d
-0.024836732 -0.050101962 -0.22153355 -0.04144714 -0.3802721 -0.41816047 -0.23484582 -0.028284697
0.39032832 0.025126169 -0.09739266 0.2640252 -0.0150457155 0.5814665 0.47213775 -0.24728493
-0.2968793 0.044027638 0.021552986 -0.3588746 -0.16808666 0.028884312 -0.4256361 0.22477488
-0.46186122 0.4695159 0.04398215 -0.7265271 0.66113526 0.5278379 -0.5004815 0.34085977
0.16897625 -0.5219348 -0.37868714 -0.54384995 -0.009154241 0.26478934 -0.014444112 0.4279566
0.01074694 -0.3962103 0.080681466 -0.039695587 -0.075714916 0.17617638 -0.03989455 -0.20856912
0.105823815 0.13173303 0.100201584 -0.13482085 0.16980147 0.026984733 0.30892882 0.033119842
0.012083094 -1.1945612 0.55356073 0.0036822336 0.036076657 -0.033858184 -0.28813314 0.3694518
-0.35288122 -0.64478284 -0.274498 -0.11062086 -0.8846441 0.636473 -0.14970979 0.018150387
0.00804259 0.034841493 -0.18008749 -0.1292172 -0.12980327 -0.43292025 0.18541971 -0.006804855
-0.38603726 -0.74143904 -0.011121142 -0.008802194 0.46764356 -0.720213 0.14420857 -0.20728812
0.2173635 0.20419133 -0.2713329 -0.47643954 0.4330669 0.13109502 -0.29881355 -0.26284087
0.48836324 0.15555525 -0.26626742 0.4274811 0.017147534 -0.08386361 0.46581793 0.37640685
-0.006869977 0.3774819 0.009663022 0.015248147 -0.10475887 -0.0018176634 -0.16294512 -0.6921455
-0.06555157 -0.4803628 1.3746306 0.59318316 0.36565682 -0.11877881 0.5188179 -0.041635223
-0.436769 0.3722392 -0.4097891 0.026570506 -0.071900725 -0.103109196 0.6798005 -0.017023094
-0.035287812 -0.14522807 0.34304896 -0.0007658433 0.03241175 -0.7270099 0.55021554 -0.04305127
-0.4783143 -0.16860269 -0.10265836 0.14229552 -0.18371436 0.23897588 0.35144696 -0.6517287
-1.258226 -0.010498276 0.10717028 -0.7072476 -0.060837068 -0.039781723 -1.3927741 1.0617057
0.17094044 -0.17681625 -0.3503563 -1.2662795 0.1602457 -0.2563526 0.0862729 -0.08831691
0.08371092 0.4310563 0.3666517 -0.15154341 0.007083517 0.4833112 -0.103341445 0.77277094
-0.14698732 -1.0934274 0.0047591575 -0.3201411 -0.10112948 0.106722705 -0.20892252 0.4204331
0.77625203 -0.021284875 -0.30696616 -0.27709967 -0.024723664 1.3345628 1.1663394 0.44215825
-0.30663294 0.42131037 1.059502 -0.005149267 -0.12553854 -0.34511253 -0.27431744 1.4294465
0.25971758 -1.2144642 0.7623346 -0.20313321 -0.16725874 0.73537654 0.16772562 -0.11058495
-0.10866133 -0.12595652 0.41237786 -1.1325171 0.3856674 -0.038036656 1.0152249 0.43398106
-0.9967805 -0.3235036 0.10586354 -0.2679203 -0.062350933 -0.07094703 0.36245713 -1.278903
-0.20428869 -0.06501245 -0.5879826 -0.353311 0.12081869 0.039392993 0.0041232 0.027993185
-0.15415062 -0.33027712 -0.53178996 0.109376356 -0.14555874 0.39412463 0.5112464 1.1638077
-0.14738585 1.1866632 -0.07028749 0.28342408 -1.0437133 0.17581415 -1.0099809 0.077122904
0.2640984 0.22581436 -0.12122175 0.98457104 -0.1093265 0.44570687 0.99408364 0.028525185
0.28561398 -0.21311939 -1.1121424 0.3423751 0.15656309 1.0872867 0.40669432 0.063003026

params,Dense_1,bias f4 [5]
00000000: 5fa5 06be 6893 203e 0fc0 c03e f6e1 223f
00000010: f7a4 763d
-0.13149022 0.15681231 0.3764653 0.6362604 0.060215916

params,Dense_1,kernel f4 [64, 5]
00000000: bbcb 47bf 419c 3fbf 9371 46bf 1f18 69bf
00000010: 3311 2bbf d205 343f b1f7 ae3f e4e7 8ebe
00000020: 8184 353f 5faf ac3e ce0d 9abf 6e14 aebf
00000030: feee a7bf 1cce afbf 902f a4bf 3a47 f93f
00000040: 9cf2 0040 daab 0140 c8fa fa3f 86b5 f93f
00000050: ce35 45bf 1aad 4bbf df13 49bf 324a 86bf
00000060: 69e2 11bf a48e 273f 7e6d 403f 101a 063f
00000070: 27e3 273f 0d23 3e3f 4b1c b13f 2ae7 873f
00000080: eb0e bf3f c065 ea3e 33ef e53f d472 20c0
00000090: d71d 4dc0 9e3c 43c0 e93d b1bf bd29 08c0
000000a0: 6048 113f b9bd 143f 66d3 3a3f 53f9 143f
000000b0: 4988 883f 535d 0bbf 2c56 0bbf fad3 14bf
000000c0: f8a7 1abf 173f 21bf 8aa5 013f a608 1a3f
000000d0: 9174 083f e78b 183f d145 0d3f fba5 b93f
000000e0: a8fe a43f 30ac e33f fbcf db3f 0b81 993f
000000f0: a4e8 85bf 0896 7cbf ca6f 86bf 0cd5 aebf
00000100: bdcf 96bf f0e1 9e3e 6383 8d3e b92a b13e
00000110: fef7 023f 2d40 9b3e 09c6 383f 9426 473f
00000120: ca49 233f 2b47 5a3f 089e 233f 7ba2 6bbe
00000130: 4455 fabd ab23 94be 56f9 7fbe 618c 80be
00000140: 141a 74bf b9e2 97bf b277 67bf 469f 7dbf
00000150: 100c 87bf 8ad3 b2bf eaa3 1ac0 5532 93bf
00000160: 28a2 76bf 8ef0 ecbf 4827 b63e 5583 873e
00000170: 39d8 cc3e 8a64 df3e 255d 8f3e 9813 8abf
00000180: 76bc 88bf 49d2 84bf 667f 8bbf 04a9 83bf
00000190: 9fdc e73f 465b fa3f 5e33 f63f 13e0 e83f
000001a0: f9d4 ea3f 148a e1bf ada9 dbbf 73b4 05c0
000001b0: 5dd8 12c0 957c 95bf bb31 893f 57d7 8b3f
000001c0: 6362 903f d402 e53f 7277 463f d58d e1bf
000001d0: 9022 cbbf 569a cabf 6bc8 9ebf 8d8e 09c0
000001e0: d68b b2bf 3dfb d1bf fa35 f8bf 2953 fabf
000001f0: 0917 bdbf e293 4abf eeff 31bf 4a65 6ebf
00000200: 8d09 3bbf b080 58bf f39f 21bf f203 46bf
00000210: 194b f7be e32c 2ebf 8d3b f8be f0ff 8b3e
00000220: 90d9 5b3e 575f 8a3e e129 8e3e a653 823e
00000230: 5173 23bf ab60 14be 6650 a3bf f0ae 41bf
00000240: 6f43 60be 16f7 eabe 20cb c2be 95bf 23bf
00000250: 163e 13bf 0d47 fbbe 0f1f 9a3f 4021 b23f
00000260: 5680 723f e870 813f 5496 a53f cd80 9b3f
00000270: 59ea c93f 9142 513f afd6 b23f d3a3 543f
00000280: 8c5c 7ebf 458b 9fbf 1f9d 19bf 4805 8fbf
00000290: 18c5 34bf dd46 f23f 5b75 df3f 2a5f ee3f
000002a0: 2fce 3040 0df5 0040 063f 6fbf 9ca2 6ebf
000002b0: d602 41bf cd6f 50bf 4d39 3ebf 28e7 c13f
000002c0: 2ced c03f 599d bf3f dfda f83f f7b7 b23f
000002d0: 9e05 65bf c9bc 56bf 3984 40bf 0680 afbd
000002e0: 5587 b1bf 92e8 c0bf 9185 87bf c6ec c8bf
000002f0: fe28 56bf d710 febf b611 9c3f 0710 ca3f
00000300: 06c6 d43f af63 c13f 2680 f83f a44e 0b40
00000310: 5a45 d83f 35ba fd3f 70e7 2840 51ce e03f
00000320: 598c 97bf 735f a6bf e659 94bf aa69 a6bf
00000330: 9be4 96bf 3383 0fc0 84db 04c0 1be3 06c0
00000340: 7b84 25c0 57e8 0ac0 ee45 61bf 5abd 32bf
00000350: 50b8 88bf b833 96bf 0f30 89bf 19df 36bf
00000360: e6e6 84bf a41a c5be 68e7 11bf 3527 3fbf
00000370: 6698 8ebf 3454 83bf f23e 7ebf 3a81 b3bf
00000380: b52c 60bf 4be2 2d3f 8f29 ff3e f4b7 453f
00000390: 7e90 623f b61e 273f bdf1 9d3f 4a28 c23f
000003a0: a634 ca3f bd72 bf3f f4f4 863f e2d2 70be
000003b0: c8c1 a7be a939 77be 8459 f6bd aec7 53be
000003c0: 6d6f 3f3f 995a 723f dfb0 293f 16a5 583f
000003d0: a147 583f 0f60 bb3f cd05 9a3f 1b48 f33f
000003e0: a106 0740 df2f 2e3f a271 24c0 f733 2dc0
000003f0: c08d 1cc0 7843 84c0 4400 41c0 ac4b debf
-0.78045243 -0.748478 -0.7751705 -0.9105243 -0.6682312 0.7032138 1.366934 -0.27911294
0.7090531 0.33727548 -1.2035463 -1.3599985 -1.311981 -1.3734775 -1.2827015 1.9474862
2.0148077 2.026114 1.9607782 1.9508522 -0.77035224 -0.7956101 -0.78545946 -1.0491393
-0.569861 0.6545203 0.7516707 0.5238352 0.6558098 0.74272233 1.3836759 1.0617421
1.4926428 0.45780754 1.7963623 -2.5070086 -3.2049463 -3.0505748 -1.3847018 -2.1275475
0.5675106 0.58101994 0.7297882 0.5819294 1.0666591 -0.54439276 -0.5442836 -0.5813595
-0.6041255 -0.6298689 0.5064322 0.60169446 0.53302866 0.59588474 0.55184656 1.4503778
1.2890215 1.7786922 1.7172846 1.1992506 -1.0461621 -0.9866643 -1.0502865 -1.3658767
-1.1782147 0.31031752 0.27639303 0.34602907 0.51159656 0.303224 0.7217718 0.7779324
0.6378447 0.85264844 0.6391301 -0.230112 -0.122232944 -0.28933463 -0.24997458 -0.251071
-0.9535229 -1.1866065 -0.90417016 -0.99071157 -1.0550556 -1.3970807 -2.4162545 -1.1499735
-0.9634118 -1.8510911 0.35576844 0.26467386 0.40008715 0.43631393 0.2800075 -1.078723
-1.0682514 -1.0376674 -1.0898254 -1.0285954 1.8114203 1.9559104 1.9234426 1.8193382
1.8346244 -1.7620263 -1.7161156 -2.0891387 -2.2944558 -1.1678644 1.0718302 1.0925092
1.1280025 1.7891488 0.7752601 -1.7621409 -1.5869923 -1.582835 -1.2404913 -2.1493256
-1.3948925 -1.6404797 -1.9391472 -1.9556628 -1.4772655 -0.791319 -0.6953114 -0.93123305
-0.7306145 -0.8457136 -0.6313469 -0.7734977 -0.48299482 -0.6803724 -0.48482934 0.27343702
0.21469712 0.27025864 0.27766326 0.25454444 -0.63847834 -0.14490001 -1.2758911 -0.7565756
-0.21900724 -0.45891637 -0.38045597 -0.63964206 -0.5751661 -0.49077645 1.2040728 1.3916397
0.94727075 1.0112581 1.2936502 1.2148682 1.5774642 0.817422 1.3971766 0.83062476
-0.99359965 -1.2464377 -0.6000537 -1.1173487 -0.7061324 1.8927876 1.7457689 1.8622792
2.7625844 2.0149567 -0.9345554 -0.9321687 -0.7539495 -0.81420594 -0.74306184 1.5148668
1.5072379 1.4969894 1.9441794 1.3962392 -0.89461696 -0.83881813 -0.75201756 -0.085693404
-1.3869425 -1.5070975 -1.0587636 -1.5697258 -0.836563 -1.9848889 1.2192905 1.5786141
1.6622932 1.5108546 1.9414108 2.1766748 1.6896164 1.9822451 2.6391258 1.7562963
-1.1839706 -1.2997879 -1.1589935 -1.3000996 -1.1788515 -2.2423828 -2.0758982 -2.1076114
-2.586211 -2.170431 -0.8799733 -0.6982018 -1.0681248 -1.1734533 -1.0717791 -0.7143417
-1.0382965 -0.38496888 -0.5699372 -0.746692 -1.1140258 -1.0260072 -0.99314797 -1.4023812
-0.8756822 0.6792342 0.49836394 0.77233815 0.8850173 0.65281236 1.2339398 1.5168545
1.5797317 1.495689 1.0543504 -0.23517945 -0.3276503 -0.2414309 -0.120287925 -0.2068164
0.747794 0.9466949 0.6628551 0.846269 0.844843 1.463869 1.203302 1.900638
2.1097796 0.68041795 -2.5694356 -2.7062967 -2.4461517 -4.133236 -3.0156412 -1.7366843

params,ScannedRNN_0,GRUCell_0,hn,bias f4 [64]
00000000: 32bc 3e3c 02d2 eb3d 0297 1a3d 94df c63e
00000010: 8d9e 01bf 0501 203f e216 213f 4346 03bf
00000020: 2210 1dbe af1b 97be 8577 0c3f 5338 c23e
00000030: cbc4 2ebe 241c 93bd 94d2 b83e 0966 cd3d
00000040: 2dd5 a9bf 5ba0 d3be 832b e43e 78e2 94be
00000050: ab74 a13e 1607 db3c 7aaf 883e bccc 0bbf
00000060: 6197 9dbd e79f babe c5cd 053d fb85 6e3e
00000070: 3cd9 40be f10e d2bd a75d 8d3f afab bfbe
00000080: 5032 87be e1c4 89bf 5a47 5dbe 3e68 8fbd
00000090: ce14 a7bf 96bf cebd 45d3 5dbe 48db 433f
000000a0: 7c72 9cbe d687 3c3f eb47 31bf a2ff d9be
000000b0: 9191 e3be 8535 4b3f 91aa b9be cb6b 2bbf
000000c0: 4f20 c63e cb82 f83f 478a 2d3f ac97 97bf
000000d0: 86bc 453f a4f3 1d3f cf49 25be 48e1 1b3f
000000e0: 1a0d af3e 0d12 d1bd 0ebf 10bd d359 3a3e
000000f0: 6cc7 2c3e e5f9 1abe 3bb6 c6bb 2f75 233f
0.011641549 0.11514665 0.03774167 0.38842452 -0.50632554 0.62501556 0.6292554 -0.51279086
-0.15338185 -0.29513308 0.5486987 0.37933597 -0.17067258 -0.07183102 0.36098158 0.10029227
-1.3268181 -0.4133328 0.44564447 -0.29079032 0.31534323 0.026736777 0.26696378 -0.54609275
-0.07694889 -0.3645012 0.03266694 0.23293297 -0.18832868 -0.10256756 1.1044205 -0.37435672
-0.26405573 -1.0763208 -0.2160925 -0.070023045 -1.3053224 -0.10095136 -0.21662624 0.7650647
-0.30556095 0.7364477 -0.69250363 -0.42577845 -0.44446996 0.7937854 -0.36262944 -0.66961354
0.38696525 1.9414915 0.6778912 -1.1843162 0.7724079 0.6169989 -0.16141437 0.60890627
0.34189683 -0.10208521 -0.035338454 0.18198328 0.16872948 -0.1513439 -0.006064204 0.6385068

params,ScannedRNN_0,GRUCell_0,hn,kernel f4 [64, 64]
00000000: e508 54bf 297d b63c b1c0 a8bd 7f7d 19bf
00000010: dd68 7bbd 9992 1c3e d5a4 483e 8ef1 013f
00000020: 3a29 69be 1e56 8e3c de6d d93c db2d 3ebe
00000030: 3fb2 983e b6b3 82bd 9ae5 643e 1f0e 90be
00000040: ef36 c03d dbe5 4ebc 3082 c23c f0dc 15be
00000050: b610 7dbe fd81 00be 7b80 863d 8cf1 093d
00000060: bed3 d73c f752 65be 469f 97bd 2c3b 1cbd
00000070: 1c4f 79be 6591 ca3d 84f5 873e 6558 b03d
00000080: 716b 9bbe 9c9c 8f3c 9e6e 65be c01e 9f3e
00000090: 503e 21be 9c8e 303d a235 063d 2ff3 b7be
000000a0: e0e9 3dbe 465f ba3d ee2c 2dbe 11b0 b03e
000000b0: 8414 de3e 65ce 223e ca36 f53d 4c59 7ebe
000000c0: 7e5a 39bd ab83 e9bc 5164 46be be3b ea3d
000000d0: 3db3 b1bc ed6a 81be 7cbf d1bd f38b 4abd
000000e0: a9be f33d de78 0a3e 4cb3 6abe c094 8fbe
000000f0: 8ec0 833e 070c 84bd 36d2 143d 23ce 3abf
00000100: 563b a2bd b1fb c1be d77b 303f 92fa a6bd
00000110: b569 a23c d400 1fbc 207e 45bf e0ad e2be
00000120: 7333 413e 0eef dcbc b2e0 79be 4321 103e
00000130: dce4 2c3e bd47 2c3e b16b 74be bbce 9bbe
00000140: 91eb 60be 5f4d 243e 0aa1 03bd 7510 f9bc
00000150: a0a7 f53e bfc5 693c 0ea9 1cbd fdd9 e6bb
00000160: 3586 263e b7a0 383e 38d3 533e faa7 973d
00000170: 2302 9c3e ee1b b0bc ad89 143d 9a34 f2be
00000180: f495 91bd 3b42 8cbe 119e 8a3e bee5 21bb
00000190: 5a52 103e 8cda a3be 8b36 293d e1a7 423f
000001a0: 4a6a 193d d828 e23d 5303 893e f109 01bf
000001b0: 83ab 11be 7688 e13d 6422 f1be e7b9 c63d
000001c0: 3b9f a8be 9050 513e 2ca8 1b3e ad78 ae3d
000001d0: dda0 aebc bc0f 163e ba5a a5be 92fa 49be
000001e0: af48 5bbe 0d88 c9be 78f2 fbbb ea18 ef3b
000001f0: d9b5 49bc e301 02be 55e7 b63e 191c cebd
00000200: 8346 233d 2f2b 8fbe b5dd 81bf f9b6 91bd
00000210: 3ae5 d2bb a118 d63d 78ae 973e f16b dfba
00000220: d54b 523e e98c 973e aebf 17be 7672 103e
00000230: f1e8 933d f5f3 f0be b1c2 993c cb80 ed3c
00000240: 05fa 6dbe 705e 0e3e 4f58 e9bd d561 d03e
00000250: 605b 5f3d 3524 6f3d d3a7 983e 155c a93e
00000260: 4063 4e3e 5a75 053e e8bf 743d 03a4 bcbd
00000270: 8ffa c0bd c96d 4d3e 5a26 90be e76e 51be
00000280: 2ba3 dd3e 9b4f 053f 2d58 13bf f967 c23e
00000290: 6ee0 c03c 5801 2e3e ea1d 133e 207a 403f
000002a0: e567 1ebf 1c20 c73d 852f 61bd f8c6 a93e
000002b0: db27 c83c e30e 103e 792c 2bbe 9dfc 6e3e
000002c0: 1bdd 0bbe cbc3 1cbe b7a5 943e a4eb d73b
000002d0: c425 923d e707 ce3e 5adc 91be 7cae 08be
000002e0: 7b20 a33e 3a6f 213e 4dd1 a3be 1ca3 4abe
000002f0: 47a8 a03e abce 3e3e 07da ba3e 9e88 5c3e
00000300: 957b 513f aefc 933e db0f 4d3c 78bd 06bf
00000310: 9d3e 95bd 827b 003e 871c d83c 4562 9fbe
00000320: b58f d23d 6cf5 14bf dad7 f7be 502f 5abe
00000330: 4e56 443e 1aec a8be d49c 33bf 2cc5 92bd
00000340: 1b82 41bc b6c2 d2bd 95a1 fb3e 9964 963e
00000350: 6afb 0b3f 68e9 db3c 3a9b 5e3e f20e e1bd
00000360: 3c84 023e 876a 423e e29f 9dbe b2c7 ac3e
00000370: fe80 cb3e 79c7 5f3d 5e00 d0bc 12e4 983d
00000380: 0b69 c8be 4cfa b3be 1953 d7be 9287 763e
00000390: 7095 663d f2a8 1dbd dbd1 d63d 0ef3 1e3d
000003a0: 8151 823f d50c 423c a03b e73d 3569 a13d
000003b0: 5454 b2be 54b1 813e 7788 0abe 7f61 f8bd
000003c0: 95d2 83bd 2f40 e1be 05e4 ea3d 7f65 3abd
000003d0: 2c1f 84be 0b5e 0bbd 5000 0d3e 032a 493e
000003e0: 3896 4fbe 155e 273e 4ae8 67bd 7bca 6f3d
000003f0: 2a65 b0be 6b03 053e d092 15bf ff2b 253e
-0.8282607 0.022276478 -0.08239878 -0.59957117 -0.061379302 0.15290298 0.19594128 0.5075921
-0.22769633 0.017375048 0.026541647 -0.1857218 0.2982349 -0.063819334 0.22353211 -0.28135774
0.09385478 -0.012628044 0.023743719 -0.14635062 -0.24713406 -0.12549587 0.065674745 0.033677623
0.026346084 -0.2239493 -0.07403426 -0.03814237 -0.24346584 0.09891013 0.265545 0.0861061
-0.3035541 0.017530732 -0.22405478 0.31078148 -0.15746427 0.043104753 0.032765992 -0.35927722
-0.18546247 0.09100203 -0.1691167 0.34509328 0.43375027 0.15899046 0.11973341 -0.24838752
-0.045252316 -0.028505167 -0.19374205 0.11437176 -0.021691913 -0.2527689 -0.10241601 -0.049449872
0.119016 0.1352267 -0.22919959 -0.28043175 0.25732845 -0.064476065 0.036333285 -0.7297079
-0.07921474 -0.37887338 0.68938965 -0.08153261 0.019825796 -0.009704787 -0.77145576 -0.4427328
0.18867283 -0.026969459 -0.2440212 0.14075188 0.16884178 0.16824241 -0.23869206 -0.3043116
-0.21964861 0.1604514 -0.032136 -0.030403355 0.4797945 0.014268338 -0.03824716 -0.007045029
0.16262133 0.18030058 0.20686042 0.07405086 0.3047038 -0.021497693 0.03626411 -0.47305757
-0.071086794 -0.2739428 0.2707372 -0.0024703587 0.14093915 -0.32002676 0.04131178 0.7603741
0.03745488 0.110429466 0.2676035 -0.50405794 -0.14225583 0.11012356 -0.4709655 0.09703427
-0.32933983 0.20440888 0.15200871 0.08519111 -0.02131694 0.1465444 -0.3229578 -0.19724491
-0.21414445 -0.3936161 -0.0076888166 0.007296671 -0.012311422 -0.12696032 0.35723367 -0.10063953
0.039862167 -0.27962634 -1.0145785 -0.071149774 -0.0064360173 0.10453916 0.29625297 -0.0017045719
0.2053674 0.29599693 -0.14819214 0.14106163 0.072221644 -0.47061124 0.018769594 0.028992077
-0.23239906 0.13903213 -0.11393797 0.4069964 0.0545305 0.05838414 0.2981554 0.33078066
0.20155048 0.13033047 0.05975333 -0.0921097 -0.0942279 0.20061411 -0.2815426 -0.20452462
0.4328855 0.52074593 -0.5755642 0.3796995 0.023544516 0.169927 0.1436688 0.7518635
-0.6187728 0.09722921 -0.05497696 0.33159614 0.024433067 0.14068179 -0.16716184 0.23338552
-0.13658564 -0.15309064 0.2903268 0.00658937 0.071361095 0.40240404 -0.28488427 -0.1334781
0.31860718 0.15765086 -0.3199562 -0.19788784 0.31378385 0.18633525 0.36494467 0.2153649
0.81829196 0.28903717 0.012515987 -0.52632856 -0.07287333 0.12547114 0.02638079 -0.3112966
0.10281316 -0.58186984 -0.4840687 -0.21307111 0.19173548 -0.3299263 -0.70161176 -0.07166514
-0.011810805 -0.102910444 0.49146715 0.29373625 0.546805 0.026844695 0.21738902 -0.10989179
0.12745756 0.1898595 -0.30786043 0.33746105 0.3974685 0.05463359 -0.0253908 0.07465376
-0.3914264 -0.351519 -0.42055586 0.24075153 0.05629486 -0.038491197 0.104892455 0.038806014
1.0181123 0.01184388 0.112906694 0.07881395 -0.34829962 0.25330603 -0.1352862 -0.12127971
-0.0643665 -0.4399428 0.114692725 -0.04550695 -0.25805032 -0.034025233 0.1376965 0.19644932
-0.20272148 0.16344483 -0.056618012 0.05854271 -0.34452182 0.12989585 -0.58427143 0.16130064

params,ScannedRNN_0,GRUCell_0,hr,kernel f4 [64, 64]
00000000: 192f a7be b6d1 d4bc 7af5 253f 66f8 1bbe
00000010: e159 83be 1db7 84be 80e8 ad3d 1033 9dbb
00000020: 3615 1dbe 938a 2f3e b956 1ebe e09b 743e
00000030: 421c a7bd ba94 7fbe d287 a5bd 0b24 13be
00000040: afe9 e13d be1f 413d 1251 adbe ce81 d63e
00000050: bf54 fdbd 1db8 40bf 5f6c 72be 5bcc 44be
00000060: 25c3 1ebe 8d7b 6dbe fbea 20be b5d5 0f3f
00000070: 3a78 cfbb d6a9 c13d f538 6d3e 65f4 d93e
00000080: cf8b 97bd 9176 a5bd 311f 933d 5b4a 7f3d
00000090: 4cbb ddbc f909 54be 725d 3dbe dd33 0a3d
000000a0: 9fa7 153e e971 07bf 897a 263e 476c de3c
000000b0: 509d f93d bcd9 c0bd 9fea b2bc 0006 93be
000000c0: 2804 a23e efcb 9f3e dd7d e5bd d762 663d
000000d0: fae9 0d3e 1e1b 82bb c674 ffbc 4e67 063e
000000e0: 2145 a0be 281d 4a3e fd09 96be efd3 88be
000000f0: 379d a0bb f4fc 9e39 145a ba3e 857d d43d
00000100: 3cf4 513d 1f52 9e3e 1932 25be 0d61 25be
00000110: f520 cabe 0600 a9bd a63e 5c3e c620 1bbe
00000120: 94a3 abbd cbea 903c 1ac8 0abe 2d79 febd
00000130: 536d 10be 7b49 edbd 4d45 85bb 524f 02be
00000140: a11b 15be 8947 d63c 01c3 2cbe cc2a d8be
00000150: 0dcb 913d f22e 803e f1b0 d2be 5c32 07be
00000160: 9fa4 42bd c276 5dbc 145c 17be f1fa 74be
00000170: 37b8 9fbe b251 da3d d4bb 84bd 7e54 f83d
00000180: ace5 09be 88e3 d53c 5d42 b93e 0a05 c53e
00000190: 5118 11be 9193 1f3e 6483 cb3d 4512 7d3d
000001a0: 9762 b33c 414c a13e 9392 b6bd 41a5 cbbe
000001b0: 5829 49be a7a9 903d 7eef bdbd 6c67 623c
000001c0: 9f84 323e d0ab afbe 4a49 a9be b245 50be
000001d0: 439c 92bd 2f73 1c3e 15b8 6f3e efd6 e43e
000001e0: 2815 883e 5c1c 8fbe 922e 813e 0aa6 a73e
000001f0: 05e3 a53e 60f6 af3e e8f4 37be 7e6f 7b3e
00000200: f2dc a8be 1c9a 343c e5c0 e3be 6e8b bdbc
00000210: 74e4 89bd 8775 af3e c979 53be eddb 06bd
00000220: 06a8 313e 0535 233e eb58 d3bd 291c 99be
00000230: baa2 f53d f1bc debd 2628 6f3d 5c13 39bd
00000240: fb0b 0abe 0a3d 65be 2ea3 87bd a8a9 f83d
00000250: e2ac 22be f90d d23e f569 a6bd 8d25 a6bb
00000260: c02d cc3e 6065 15be 4e2c 0abe 4177 093e
00000270: 9695 673e 42c0 f0bc d746 963d 1e1b 853d
00000280: ac41 f4bd be40 3fbe a46c 613e 7138 8bbe
00000290: b8eb aebd c219 863b ef30 643e d889 36bd
000002a0: c9a7 b8bc 0aed 1fbe 7049 f0bc 0c44 92be
000002b0: d7a0 c7be afee 08be b09c 293e ff75 65bf
000002c0: f6d6 4ebd 45ab 21bd 1d1a adba d309 a1be
000002d0: 87dd 29be 87ed 0cbe b873 f13d 3af3 023e
000002e0: 4bb0 c33d 0e7d 813e fe31 823c 2b34 e1bc
000002f0: f546 fbbd 9d92 babe 5e02 f5bd 976d a03b
00000300: fd7e 07be 8b8f 303e 9ea5 adbe 0407 49bf
00000310: 27b0 7fbe 0a15 f73d a734 70be 6d9f 813d
00000320: 7696 f4bb be50 b33e 5af3 1fbf f437 893e
00000330: f1a6 fabe 69a5 7ebd 56a4 6dbf 2a3b 36be
00000340: 481f 243e 5ec4 87ba 8075 e2bd 4e8d 90bd
00000350: 1c94 0abe 404c 72be 3d79 953e b6c5 b6bd
00000360: 2b9a 4ebe d783 0b3c 2c4e 733e 3916 ae3e
00000370: f54c ee3d 2ce2 edbc dccc 233d c862 2e3e
00000380: 5431 463e 826a aa3e e684 93bd 543a fe3c
00000390: 4bae 1fbd 0597 093e 68e5 ba3e 818d 413e
000003a0: a48b c8be 8093 7d3e b0b5 7e3d da4b b8bc
000003b0: 1783 e7bd 563c 9c3e f996 793e 2ce9 29be
000003c0: 2bf9 543e 5e8b 12bd d5ec eebd 4022 9fbc
000003d0: fbe8 edbd 79bd 093c ae14 ef3c 0914 453d
000003e0: baaf c53b c507 91be 10b1 863e fe64 123c
000003f0: 8f7c 553d 0be8 8abd f2d1 cd3e 2856 83be
-0.3265312 -0.025978904 0.6482769 -0.15231475 -0.2565451 -0.25920954 0.084916115 -0.004797347
-0.15340123 0.17142706 -0.1546277 0.23887587 -0.081596866 -0.24959078 -0.08082546 -0.14369218
0.110309 0.047149412 -0.33850914 0.41895908 -0.1236968 -0.75280935 -0.23674153 -0.1921858
-0.15504129 -0.23191662 -0.15714638 0.56185466 -0.006331471 0.09456222 0.23166259 0.4256927
-0.07399713 -0.08079255 0.07183684 0.06232677 -0.02706685 -0.2070693 -0.18492678 0.033740867
0.14614724 -0.5290819 0.16257681 0.02715124 0.12188208 -0.094165295 -0.021840392 -0.28715515
0.31643796 0.31210276 -0.11205647 0.056246605 0.13858786 -0.003970518 -0.031183612 0.13125345
-0.3130274 0.19737685 -0.29304495 -0.26724193 -0.004901554 0.00030324573 0.3639685 0.103755035
0.05125831 0.30922028 -0.16132392 -0.16150303 -0.3947827 -0.082519576 0.21508273 -0.15149221
-0.083808094 0.017690083 -0.13552895 -0.12425456 -0.14104204 -0.11586281 -0.004067099 -0.12725571
-0.14561321 0.026157157 -0.16871263 -0.4222015 0.07118807 0.25035816 -0.4115062 -0.13202804
-0.047520276 -0.013517084 -0.14781219 -0.23923852 -0.31195232 0.106601134 -0.06481138 0.121254906
-0.13466519 0.026109472 0.36183444 0.38480407 -0.14169432 0.15583636 0.0993717 0.061785
0.021897597 0.3150349 -0.089146756 -0.39774516 -0.19644678 0.070636086 -0.09274195 0.013818603
0.17433403 -0.3431077 -0.33063728 -0.20339087 -0.07158711 0.15278314 0.23410065 0.4469523
0.2657864 -0.27951324 0.25230843 0.32743865 0.32399765 0.34367657 -0.17964518 0.2455425
-0.32981068 0.011023071 -0.44483104 -0.023137774 -0.06733027 0.34269354 -0.20651926 -0.03292458
0.17349252 0.15938194 -0.10319694 -0.29904297 0.11993928 -0.108758815 0.058387898 -0.04518448
-0.13481133 -0.22386566 -0.06622921 0.12141734 -0.15886262 0.41026285 -0.081256784 -0.0050703944
0.39878654 -0.14589453 -0.13493463 0.13424398 0.22615656 -0.02938855 0.073377304 0.06499313
-0.119265884 -0.18677041 0.220141 -0.271915 -0.085410535 0.004092426 0.22284292 -0.04456505
-0.022540944 -0.15617767 -0.029331893 -0.2856754 -0.389899 -0.133723 0.16563678 -0.8963317
-0.05049797 -0.039469976 -0.0013206635 -0.31452808 -0.16588412 -0.13762484 0.1178965 0.12788096
0.095551096 0.25290722 0.015892979 -0.027490696 -0.12269393 -0.36439982 -0.11963342 0.0048958766
-0.13232036 0.17242257 -0.33915418 -0.7852633 -0.2496954 0.1206456 -0.23457585 0.06329236
-0.0074642254 0.3502254 -0.624807 0.268005 -0.4895549 -0.062169466 -0.9282888 -0.17796007
0.16027558 -0.0010358205 -0.110575676 -0.07058202 -0.13533062 -0.236619 0.2919406 -0.08924429
-0.20175998 0.00851532 0.23760289 0.3400133 0.11635772 -0.029038511 0.03999029 0.1702987
0.19354755 0.33284384 -0.07203083 0.031033672 -0.038984578 0.13436516 0.36503148 0.18901636
-0.39169037 0.24763298 0.06218499 -0.022497106 -0.113043 0.30514783 0.24373998 -0.16592854
0.20798175 -0.035777442 -0.11666266 -0.019425511 -0.11616703 0.00840699 0.029184666 0.04811481
0.006032911 -0.2832624 0.26306963 0.008935211 0.05212074 -0.0678254 0.40199238 -0.2565167

params,ScannedRNN_0,GRUCell_0,hz,kernel f4 [64, 64]
00000000: a9fc 3c3e a63f a9bd fdfa 163e 831f a6bd
00000010: 70ff 613d 21dd 3b3e f9a9 bbbd 1f9e 793d
00000020: 9164 ccbb 3149 923e 1c56 cfbd ef54 3dbd
00000030: 1e50 7e3d 25ac 0fbe b3bf b1bd 60b4 8b3e
00000040: ff08 753d 59ea 113e 2fbd aebd 061b 523e
00000050: fe8f 3f3f 1cbf 53bd e907 f9bd 2b56 043e
00000060: e782 a13c e5f2 27be 6bb3 0c3d c76a d73c
00000070: 1d86 033e 7e13 35bd 6844 483d 6d29 183e
00000080: 37b2 4bbe c45f 273e 3b19 7abd b319 423e
00000090: 1dc7 8ebd 3b0b 19be d8d8 cb3d 5839 0d3e
000000a0: b3ea cd3c 62b9 6b3d 184e a9be d41b 033d
000000b0: 7075 2fbe 4c53 51be 3b5e 57be d8d8 383e
000000c0: 7944 62bd c333 3abd b72f 3b3e 56f1 633c
000000d0: 85d3 07bd e76a 8dbd 0afe cdbd 14ae 48bb
000000e0: ff3d 983a be76 70be 6353 423e b43a 693d
000000f0: f69d 553e a24f c3be ab10 94be 1996 b1be
00000100: b054 f43d 35a1 3ebe a743 58bd daed 5dbe
00000110: 7653 7fbd c00d f03d 6835 7e3d ce99 f9bd
00000120: e3d5 9ebb a001 94bb 8bd7 eabb a974 98be
00000130: fbf1 c13d 16be 853c 5b26 413e bb70 4ebd
00000140: 3007 eebd 8bea 4dbe fc53 7ebe 1f47 243d
00000150: 8dd8 edbe 7579 523e 056b 97bd c368 89bc
00000160: 536a ef3c 9e5d 5c3e d519 a83b 76d7 aa3d
00000170: 7168 5ebd 5595 233e 6df6 b53c 89e6 5abe
00000180: d210 b5bc cbc7 edbd 71f0 c7bc d0be 4f3e
00000190: 6c5b bf3d f2cc 2f3c 82cf bc3e ef62 b4bd
000001a0: 88df 9e3e 4477 bd3a b5ac fdbd ea47 6a3d
000001b0: 5743 3c3e 1ea4 813d 7215 f8bd f549 863d
000001c0: 0c6c 023d 8f1b 883e 5114 3fbe 4db8 3bbe
000001d0: 8d83 553e d063 cc3d 0c7c 90bd 082f 613c
000001e0: e79f 07be 8af9 67be 4938 953d 9e08 3dbd
000001f0: 2174 9fbe d5e8 bcbc 976f 5fbe 9de0 183e
00000200: ac3d 663e beab 1cbe 22f1 46be a32d de3d
00000210: c786 4fbe 482b 063d 8f37 953e 8f2b 43be
00000220: 74a0 3abd 96f5 30be 506d fd3d 8334 28be
00000230: e9b3 f83b ba52 df3d ed64 bd3d e694 d3be
00000240: a1e2 aebe aa2e 993c b742 d7bd 3a70 a33e
00000250: b1bc 60bd b9b2 3fbe 8ca0 103f b754 5cbe
00000260: 2f76 94be a72f f0bc 10ac 90be 24e0 bdbe
00000270: 5d60 afbd a4ec d6bc 57eb 033e 9ac7 163d
00000280: a1e4 0e3d b8e4 323e 0dec 203e 77da e03e
00000290: 69ed 1fbe f2bc b2bc 7fab f3bd b04d 41be
000002a0: d7eb 053f 7f1d 0fbe bf90 2d3c 87d5 a1bd
000002b0: cd99 c9be 2443 01bd f708 21bf a7a4 453e
000002c0: 3140 6fbe 65de 64be 8cfe d3bd d26e d5bd
000002d0: 9a3b 6ebd c0b3 573d 7099 0ebe efde 8fbe
000002e0: 3fe6 25be 36be fd3d 145f 063e f217 d1be
000002f0: 8ee8 673d 22f8 3fbe 4e47 b4be 7a2d 91be
00000300: b4c9 3fbd d18c 1c3e 53a0 babd 65f9 0abe
00000310: d8ef 3ebe feb2 a7be 1424 da3c 4536 93bd
00000320: c33c a03e a07d c83d feac bcbe da4b 07be
00000330: 4d91 91be 089e 903d c270 9a3d 6b9c 9d3e
00000340: 3e6f 233e bce2 55be 9dc5 bdbe ccbc 0d3c
00000350: fcdf 16bf e554 a73e 7b76 2b3e 2fc9 8c3e
00000360: 5124 d93e c516 0f3e a6d5 8fbd c4ab 063e
00000370: 3915 f93d 5961 d4bd 024e f03e 3006 aebd
00000380: 17e3 733e ddb3 1cbe db62 e3be 1017 a8bd
00000390: 9d42 403e 26e5 253d e14b 8c3e b833 d1bd
000003a0: 086b 38be d9da 12be c3f8 1a3f a47c a13e
000003b0: 0904 233e f159 a03d 7b43 1d3f 8d9a 0f3e
000003c0: 11db 883b 6c6d 623e e117 3dbd 4fa8 40be
000003d0: 8336 e23d 8b83 db3d 918e 413e c313 d2bc
000003e0: b838 533b e73d 833e 55f9 6c3e 7a86 dab9
000003f0: 1fd9 2a3e 3c18 df3e 26ef 56bd ed7e a13e
0.18455757 -0.08264093 0.14744182 -0.08111479 0.055175245 0.18346073 -0.09163279 0.06094181
-0.0062375744 0.28571466 -0.10123846 -0.046223577 0.062088124 -0.14030512 -0.08679142 0.27286053
0.059823032 0.14249553 -0.08532178 0.20518121 0.7482909 -0.051695928 -0.12159712 0.12923495
0.01971574 -0.1640125 0.034350794 0.026296033 0.12844129 -0.044208042 0.048893362 0.14859553
-0.19892202 0.16345125 -0.061059218 0.18955116 -0.069715716 -0.1494569 0.09953469 0.13791406
0.025136327 0.05754984 -0.33067393 0.03200896 -0.17134643 -0.20441931 -0.2103204 0.1805147
-0.055241082 -0.04545952 0.1827992 0.013912519 -0.033160705 -0.06905156 -0.1005822 -0.0030621337
0.0011615156 -0.23482797 0.18977122 0.05694075 0.20861039 -0.38146693 -0.28918967 -0.34684828
0.11930215 -0.18616183 -0.052798893 -0.21672764 -0.062335454 0.117213726 0.06206265 -0.12187539
-0.0048472746 -0.0045167953 -0.007166808 -0.29776505 0.09469982 0.016325992 0.18862288 -0.050400477
-0.11622465 -0.20109002 -0.24836725 0.04010689 -0.46454278 0.20554145 -0.07393459 -0.016773587
0.029225504 0.21520087 0.0051300325 0.08341877 -0.05429882 0.15974934 0.022212232 -0.21377005
-0.022102747 -0.11610373 -0.024406644 0.20287633 0.09343609 0.010730015 0.36877066 -0.088079326
0.31029916 0.00144551 -0.12386457 0.05719749 0.18385063 0.06330131 -0.12113465 0.06557075
0.031841323 0.26583526 -0.18660094 -0.18332024 0.20850964 0.09979975 -0.0705491 0.013744123
-0.13244592 -0.22653785 0.07286126 -0.046150796 -0.31143287 -0.023060242 -0.21819912 0.14929433
0.22484463 -0.1529989 -0.19427922 0.10848548 -0.20266257 0.03275612 0.2914395 -0.19059585
-0.045563176 -0.17281184 0.12374365 -0.16426282 0.0075898063 0.10904451 0.09247766 -0.41324538
-0.3415728 0.018699009 -0.10510772 0.3192156 -0.05486745 -0.18720521 0.56494975 -0.21516691
-0.28996417 -0.029319597 -0.28256273 -0.37085068 -0.08563302 -0.026235886 0.12882744 0.03681145
0.034886006 0.17470062 0.15715046 0.43916675 -0.15617909 -0.021818612 -0.11897945 -0.18877292
0.5231299 -0.13976096 0.010593592 -0.07902055 -0.39375153 -0.03155817 -0.62904304 0.19301091
-0.23364331 -0.22350462 -0.10351285 -0.10421528 -0.05816231 0.052661657 -0.1392572 -0.28099772
-0.16201113 0.123897955 0.13122207 -0.4083858 0.056618266 -0.18746999 -0.3521065 -0.28355008
-0.04682322 0.15288092 -0.09112611 -0.13571699 -0.1864618 -0.32753748 0.026628532 -0.071880855
0.31296358 0.09789586 -0.36850733 -0.13212529 -0.28431168 0.07061392 0.07541038 0.307834
0.15960404 -0.20887274 -0.3706483 0.00865097 -0.58935523 0.32681957 0.16744415 0.2749724
0.4241052 0.1397353 -0.07023172 0.13151461 0.12162251 -0.1037013 0.46934515 -0.08497274
0.23817097 -0.15302987 -0.44411358 -0.08207524 0.18775411 0.040501736 0.2740164 -0.10214943
-0.18009579 -0.14341296 0.6053583 0.31540406 0.15919508 0.07829655 0.6143109 0.140238
0.0041765054 0.22112054 -0.04616535 -0.18814205 0.110455535 0.10718449 0.18902041 -0.025644189
0.0032229852 0.25633165 0.23141988 -0.00041680393 0.16684388 0.43573177 -0.052474163 0.3154215

params,ScannedRNN_0,GRUCell_0,in,bias f4 [64]
00000000: cc8e 28be cab5 553c ac89 d8be e63a 8d3d
00000010: 4357 0cbf c080 403e f62e 0b3f c61a c6be
00000020: 1320 cb3e 0f0b 02bf ce14 db3d befe 933e
00000030: 81f9 52be 60a8 8e3d b361 0c3f b031 b53d
00000040: 0cba 1ebe d8f5 d2be 79da 013f 4e68 2dbe
00000050: 1b0d 683d e3e6 c1bd 0c7b cd3e c744 a9bd
00000060: 7f18 1cbf b444 82be 4e15 0ebf 3984 163f
00000070: 9ceb 12bd f0f6 61bb 56be 5c3e d2a0 9f3e
00000080: ab26 653d f3cb 2c3e 13b4 3bbf a715 d13e
00000090: f2c1 d6be 0337 8dbe ec3c 45be 9a66 583e
000000a0: b660 d7be c4bb aebd 8c8e 80bf 77b4 4cbe
000000b0: 15f0 b0be f5c5 6f3e fae2 88b9 cccb 95be
000000c0: 7e7d fa3d 8da9 d53e 250c d7bc 4c47 00bf
000000d0: 2e27 803f 20b1 b73d b841 e63d b0eb 4d3f
000000e0: 705a 28be e01b dcbe be1d 15bc a1bb 553e
000000f0: 1199 2e3e c44a 7e3e 1d0a 6d3d dade 46bc
-0.16460723 0.01304383 -0.42292535 0.068959996 -0.5482065 0.18799114 0.5436853 -0.38692302
0.39672908 -0.50798124 0.106973276 0.2890529 -0.2060299 0.06965709 0.5483658 0.08847368
-0.15500659 -0.4120319 0.5072399 -0.1693432 0.056653123 -0.09467866 0.4013294 -0.08265071
-0.6097488 -0.2544304 -0.5550126 0.58795506 -0.035869226 -0.0034479462 0.21556982 0.31177384
0.05594508 0.16874675 -0.73321646 0.40836832 -0.41944844 -0.27581033 -0.19261521 0.2113289
-0.42065972 -0.08531907 -1.0043502 -0.19990717 -0.34558168 0.23415358 -0.00026109052 -0.29257047
0.12230967 0.4173092 -0.026250908 -0.5010879 1.0011957 0.08969331 0.112430036 0.80437756
-0.16440749 -0.42990017 -0.009101329 0.20872356 0.17050578 0.24833208 0.057870973 -0.012138093

params,ScannedRNN_0,GRUCell_0,in,kernel f4 [64, 64]
00000000: f103 733e f2d7 eb3e 5acd 08bf a8a1 183e
00000010: ae14 463f 7f1b c8be ea6e 963e beb0 a23c
00000020: acde b03d 3ae5 2dbe 32c5 7bbd 80c1 a73d
00000030: 2063 8f3e 894d a5bd 57da 513e 6306 87bf
00000040: 47cf 01bc a538 b6bd c1ef d1bd 0d31 0cbe
00000050: 1558 69bf e951 2f3d 81cd f73e 09d0 0ebf
00000060: 2da3 a0be b88d c6bd 598f 9abe 6bda 823d
00000070: 8a9f e3bd f86b 9c3d 1b6e 223d 7b90 763d
00000080: 93b1 30be c96a 9bbf 2553 26bf a1eb 063f
00000090: adfa d63d 9068 10bd d756 19bd 7e9e 4ebf
000000a0: 1f2e aa3c 78fb 9dbd ff2f 323d f0ff a93d
000000b0: 2381 19bd 2c2b 993e 9030 70bd 54f1 eebe
000000c0: e4f1 0dbe 3488 843e 591e 2fbd dbe0 0abe
000000d0: 6f87 f73b c672 b0be ce34 e63e 4c5e e43d
000000e0: 0a70 9cbe 2192 a3be f959 683e 6910 843f
000000f0: ecba d4be b3d1 993f 5c56 f7bd f69d 02be
00000100: b80f f63e e25f c7be c874 413e 55ca 1b3e
00000110: 133f dd3e d7cc 863e 1545 0bbe 2009 073d
00000120: 74a6 0cbe 1738 7b3d ac73 82bd 2c0a 94bb
00000130: 812b 1dbe a26d 10bf 8aea 1bbf 3e9a 8bbe
00000140: 64f5 f4bd 3df8 593c 8513 41be 9d5a 2cbe
00000150: d5b9 793e 3990 15be 1abb 58bf f10e c63e
00000160: 26e3 f03e 4f06 a03e 398f 6dbd 17ed 963c
00000170: 8c79 bf3e fd6e 51be 0b25 a73e 7579 993d
00000180: 60d6 4c3f 64ce 923d 014b b43e c09f 12bf
00000190: ca3d 343d 51d7 bcbd cef8 113f b80f 2e3d
000001a0: 2a2b d7bb 75fa f63d 3c96 bb3e cd41 a63e
000001b0: 6300 90be ccdb e8be 69ca 7ebe c1a0 3b3e
000001c0: ebb0 bebc d929 30bf f2ac 053e 5143 4cbe
000001d0: d247 26bf 3ab6 723e 03ae 48bf eb1e 86be
000001e0: 30ee e43e d981 503f fda9 53be fc25 bcbe
000001f0: 7824 a7be c1ef a8be 6922 57be d64c 603f
00000200: 2664 bb3d 0553 453f 9daa 88be 4892 d7bd
00000210: 4c95 5c3c 96fa 273e 52db 063c 5d50 e4bc
00000220: a750 8a3e 99e3 ccbd de0f 913e f498 88be
00000230: 77c9 603e 7d4a 5dbe f6f2 443e db7f 87ba
00000240: e96d b1bd c763 aebe 5e32 9e3e 99b0 a6bd
00000250: 5f5a 143d 9ade adbe 9da9 b43e 9571 29bf
00000260: 1fb8 d7bc 6840 f4bd 8635 d43d e048 fa3d
00000270: 2afa 6abe 4b1f 9abe d4d4 ba3e f8d8 0f3b
00000280: 1847 88be c0e5 013d dc66 b6be e3ff a43e
00000290: 0353 15be 9f77 29bc 21e1 81bc 0e5a 51be
000002a0: 8c94 16be f332 1dbc 86c0 9dbe 3ddf 393d
000002b0: 31c6 063e 86e7 3e3e 0a63 4a3d 71b0 12bd
000002c0: 3602 af3c 0658 49bd 3422 f13c 7da2 f7bd
000002d0: 1fce 803c 53b2 57be 8a77 023e 622d d03d
000002e0: 1024 e5be 4662 b9be 71a3 043f 5f67 443f
000002f0: 1cad f03d fd30 643f 2980 403d 06d3 1abc
00000300: daaf 9ebe abf3 323e 1603 c3be 4665 423e
00000310: c154 30be de2d 893d 120d 863e 788d 01be
00000320: 8544 cd3e efec 873d e590 eebd 6647 033e
00000330: e625 cfbe 06e0 1ebe cee5 81be 0286 aa3e
00000340: 8929 41bd 8549 7dbe df3b b43e 48db 79be
00000350: ad81 893e 36de 6cbe 8dc6 023f 164e 7a3d
00000360: c3df 5cbe 2cfe ccbe 878b f8be a412 d13e
00000370: b3b1 49be 6f54 07be 7af3 153f af20 083e
00000380: 1c32 5bbe 952e 493f b478 39bf 02c5 4c3f
00000390: c9af c0be 2d40 a3be 1b5d fc3d 72cc 1d3f
000003a0: 8145 14be b57f 26bf 3095 3abd 8912 c93e
000003b0: eef6 57be 627d 803e f93e b13d e6ca f23c
000003c0: 0d15 0f3e ada8 7a3e bbb9 34bf 3ef1 c2be
000003d0: d64a 17bd a879 f53e 8ab7 bebd 19da 4f3e
000003e0: c4a0 0ebe 3f0b 4ebe f9df 59bc be25 98bd
000003f0: 7a49 393e 90cf 0e3e fb86 103d 8d67 883e
0.23731972 0.4606319 -0.5343834 0.14905417 0.77375305 -0.39083478 0.29381496 0.019859668
0.08636221 -0.16981974 -0.061467357 0.08191204 0.28005314 -0.08071429 0.20493446 -1.0548824
-0.007922954 -0.08897523 -0.102508076 -0.13690586 -0.9115003 0.042802725 0.48398975 -0.55786186
-0.31374493 -0.096949995 -0.3018749 0.06389316 -0.11114414 0.07637781 0.039655786 0.06019638
-0.17255239 -1.2141963 -0.6497062 0.5270329 0.10497031 -0.03525597 -0.037436333 -0.8071059
0.020773945 -0.077139795 0.043502804 0.08300769 -0.03747667 0.2991575 -0.058640063 -0.46668494
-0.13861805 0.25885165 -0.04275355 -0.13562338 0.0075539867 -0.34462565 0.44962162 0.11150798
-0.3055423 -0.31947425 0.22690572 1.0317508 -0.4154886 1.201712 -0.120770186 -0.1275557
0.48058867 -0.3894034 0.18892205 0.15213902 0.43212184 0.26328155 -0.13600571 0.032967687
-0.13735372 0.06133279 -0.06369719 -0.004517814 -0.15348627 -0.56417286 -0.60904753 -0.27266115
-0.11960867 0.0133038135 -0.18855102 -0.16831441 0.24387296 -0.14605798 -0.84660494 0.38683274
0.470483 0.31254813 -0.057997916 0.0184236 0.3739742 -0.20452495 0.3264545 0.07493869
0.8001461 0.07168272 0.35213473 -0.5727501 0.04400424 -0.09220756 0.5702027 0.04249546
-0.006566425 0.1205949 0.36638057 0.32472077 -0.28125295 -0.45480192 -0.24881901 0.18323041
-0.02327772 -0.68813854 0.13054255 -0.19947554 -0.6495334 0.23702326 -0.7839052 -0.26195464
0.44712973 0.8144813 -0.20670314 -0.3674773 -0.3264501 -0.32995418 -0.2100922 0.8761724
0.09149961 0.770798 -0.26692668 -0.10525948 0.0134633295 0.16404185 0.008231001 -0.027870351
0.27014658 -0.10004348 0.28332418 -0.26679194 0.21951853 -0.21610446 0.19233307 -0.0010337787
-0.08663542 -0.340605 0.30897802 -0.08139152 0.036218997 -0.33958894 0.35285655 -0.6618894
-0.026332913 -0.11926347 0.10361771 0.12220931 -0.22946993 -0.30102 0.364905 0.0021949392
-0.2661674 0.031713247 -0.3562535 0.32226476 -0.14582448 -0.010343461 -0.01585442 -0.2044451
-0.14705104 -0.009594667 -0.30810946 0.045378912 0.13161542 0.18643007 0.049410857 -0.0358128
0.021363359 -0.04915621 0.029435255 -0.12091539 0.015723286 -0.21064119 0.12740913 0.10164906
-0.44754076 -0.3620779 0.5181189 0.7672023 0.11751768 0.8913725 0.046997223 -0.009449726
-0.3099354 0.17475764 -0.38088292 0.18983945 -0.17219831 0.066982016 0.26181847 -0.12651622
0.4009134 0.06636988 -0.1164873 0.12820205 -0.40458602 -0.15515146 -0.2537064 0.33305365
-0.04715875 -0.24735077 0.35201928 -0.24400055 0.26856747 -0.23131642 0.51084214 0.061109625
-0.21569733 -0.40037668 -0.4854395 0.40834534 -0.19696693 -0.13215803 0.5857464 0.13293718
-0.21405834 0.78586704 -0.72449803 0.7998811 -0.37634113 -0.318849 0.12322446 0.61640084
-0.14479639 -0.65038615 -0.045552433 0.39271954 -0.2109029 0.2509566 0.08654589 0.029637765
0.13972874 0.24478407 -0.705959 -0.38074678 -0.036936603 0.4794438 -0.09312351 0.20298041
-0.13928515 -0.20121478 -0.013298028 -0.07429074 0.18094435 0.13946366 0.035284977 0.26641503

params,ScannedRNN_0,GRUCell_0,ir,bias f4 [64]
00000000: df03 203d d5e7 033c 7697 a7bd 4cae 0bbd
00000010: e3c6 f0bc 38a2 b13d 0dfe bb3e 73c8 4c3d
00000020: 17f2 6f3c b6e7 b7bd eed6 c03d 1ce3 0bbe
00000030: 8581 1c3c 7974 ad3b ce45 983d beeb 36bd
00000040: a33b 533e 3990 6abc c5ba 07be 2e22 5abe
00000050: 9b84 50bd c2ef 053d 46e2 c83e 61b6 69be
00000060: 2c58 de3d ba3f 1e3e 8c29 903d 2ec2 633d
00000070: b390 f3bd 295f fdbc 0938 a1bd ce22 f5bd
00000080: 6499 b0bc c275 2e3c 0ad7 183d e91c 9abc
00000090: c8c7 17be 0393 5bbd 79c7 153c cf59 d9bd
000000a0: 58f4 b93e 3b89 bd3d f37c 573d fd96 6ebd
000000b0: 0bca 1f3e 961b 1bbd 8259 883e b834 183e
000000c0: 0243 c3be 91bb 0bbe 861e dfbd 252c 6a3d
000000d0: 1ac3 8c3d b9b7 c9bc d65f 0d3d 7ea9 063e
000000e0: 6d14 bebd 3dcc 673d e4e5 8d3d b252 1bbd
000000f0: 4df5 98bd 79cd 113e f846 083e bfec 723d
0.03906619 0.0080508785 -0.08183186 -0.03410177 -0.029391712 0.08673519 0.36717263 0.04999585
0.014645121 -0.08979742 0.094159946 -0.13660854 0.009552364 0.0052934256 0.07435189 -0.044658415
0.20628218 -0.014316612 -0.1325484 -0.21302101 -0.050907712 0.032699354 0.39235133 -0.22823478
0.10856661 0.15453997 0.070391744 0.055605106 -0.118928336 -0.030929165 -0.07872016 -0.11969529
-0.021557517 0.010648193 0.037314452 -0.018812614 -0.14822304 -0.053607 0.009141796 -0.10612833
0.36319232 0.0925469 0.052609395 -0.058249462 0.15604417 -0.037868105 0.2663079 0.1486386
-0.3813706 -0.1364577 -0.10894494 0.057171006 0.0687315 -0.024623739 0.034515224 0.13150594
-0.0928124 0.05659126 0.06928614 -0.03792066 -0.074686624 0.14238538 0.13308322 0.05930781

params,ScannedRNN_0,GRUCell_0,ir,kernel f4 [64, 64]
00000000: ac35 583d baca 443e 84a2 2f3e 4a0e 1ebe
00000010: 421f 47bf e429 403e af9c a0be 8a57 1bbe
00000020: 1bb7 f63d 4419 9c3d 741f cf3d 267b a2bd
00000030: 752c e3be 86a2 9cbe 043b 9fbe fd72 26bf
00000040: f169 1f3c 3d49 ffbd ea10 153e cc73 f9be
00000050: 6c43 c13e b497 733e e9ea 1fbb c2e3 1f3f
00000060: 0231 383e 7c0a ab3d 6d95 693d 2632 02be
00000070: 83d7 c0bd 97e1 c1bd 8854 ba3d dd45 973e
00000080: 57b9 58be feb3 2abe 7e75 b13e 7b59 9b3f
00000090: 767a edbd 7a8a 41bc d242 763e eedf 0d3d
000000a0: 36a9 c13d 2459 593e 55bf 433a 7f5e 6ebe
000000b0: 1d0b 52be 304d 663d 48b7 933d 1abe 253f
000000c0: b77d 303d e438 04be 6f8d 5ebe dbdb 213e
000000d0: 598a ad3c a6e3 0e3e 71cc 673d 3fb5 993c
000000e0: 894e 533e 87c8 6ebd 6c8a b83e 0f49 863c
000000f0: d035 313d a188 1fbf 6373 efbd 8c6e 70bd
00000100: 662b 483d 5bc5 b93d 9337 1ebd 93d4 88bc
00000110: 168c 893e 3a08 d73e 1740 35bd 5193 9ebd
00000120: 5db0 4f3e ae6a d33c add5 683e 6fad 48be
00000130: e715 b73e 3f22 e6bd 7dd6 bebe 21bd 453e
00000140: 212b d0bc 37fb 3abe 09af 133d 7823 1dbd
00000150: 1c9c 953c 05be 3b3e c1ff bb3d f76c d93e
00000160: e770 b03e 8e91 10be bff0 8ebe 372d 9bbe
00000170: 2ab0 0fbf b9fd b43e a5bd 573e dd45 0f3e
00000180: 1beb 173e 4807 e2be c3fd 89be 672f 7ebe
00000190: 8557 ac3e d39f 77bd 6a0c a9bd 81db 79be
000001a0: e0d0 0dbf 28e5 e43c a936 0bbd 21f7 25bd
000001b0: 37b4 473e 91fe 0c3e 4108 fc3d afa7 d1bc
000001c0: ee15 86be a27c d1bc 54f5 863e 5e55 88bc
000001d0: 02c5 cf3e 9464 c43e 22cc 9e3e a799 5b3d
000001e0: c428 a23e 9d08 063e 6e06 aa3e 5f4d 003e
000001f0: d0c4 a2bd 6da1 fbbe 2d8d 21be 3682 cc3e
00000200: 66e0 22bf f5c6 803e d817 e4bc 8228 b73e
00000210: bb84 51be a322 dc3c dcf1 eabe 09e3 80be
00000220: b5f3 92be 27d1 903e 32a5 7abe f545 983e
00000230: 38fb 413d 7e9a 15bd 6a54 a9bd f460 36be
00000240: feb5 023e a31f 7a3d 2d28 9abd b4eb 1b3e
00000250: 8e9b 99be d237 f3bd c384 84be 7406 9fbd
00000260: 616c 49be 0f76 0abf a443 b0be 6b8d 5a3c
00000270: ee94 72be a2fc 9c3d 627c 5fbf 46ab 6d3e
00000280: 5558 f6bd 631f 0e3f c9e1 dfbc 9ef9 e83d
00000290: b645 31be 2c21 89be aba9 763e bc60 28be
000002a0: 2a84 833e fc9b d03d ba63 ba3d 77c1 dc3d
000002b0: 48c2 2bbe e189 10bf 6d64 d73c db72 343e
000002c0: 15a3 1fbe 6c70 cf3e dbda d9bc 2a60 443e
000002d0: 7b73 0bbe 4fa4 043d eefc c5be c89b 843c
000002e0: 04ac b8bd 720b b0be 6dd4 8bbe 91bb 8bbe
000002f0: 9631 bc3d 515b 99bd 43c1 d9bd d783 243e
00000300: 82d6 e4bd 39e1 c43e 95dd 01bf 4509 96bd
00000310: c07e 9b3d d901 4ebc ce3f 823d 7573 97bd
00000320: 2fe8 033e a547 f93c ce26 71be f6e0 6ebe
00000330: cb2b 463d 7214 04bd e088 023d ddd3 213e
00000340: b363 0dbe 724b 2fbb e4a7 b1be 4829 643e
00000350: 683e dc3d 3cdf ff3e edbc c7be 8a11 d83d
00000360: 6ac6 5f3e ecf6 723e e213 8ebc 6174 68be
00000370: a181 35bd d4c5 4e3e bda7 e8bd 5ff3 1c3e
00000380: 43e7 183e 3e5b 143e 75e8 9dbe 4acb 0cbf
00000390: 8323 a13e e69b febd 833b 6fbc b712 06be
000003a0: 344e 1bbe ef60 c6be 42b6 ef3c 6444 40be
000003b0: 873c 96bb b7eb 98bd 288f a73d 3970 f43c
000003c0: c379 a5be c0fd eb3d 39e6 1cbf ec6b 11be
000003d0: cd8f b83e 9908 93bd 6f3f 823e a775 e73d
000003e0: 1e66 c1bc 2808 77be 2e39 873e d1b7 b1be
000003f0: c4e5 5d3e 8179 753e 0bf9 e0be 40e3 8e3e
0.05278556 0.19217959 0.17151839 -0.15435138 -0.7778207 0.1876598 -0.3136954 -0.15170112
0.12046643 0.076220065 0.10113421 -0.07933645 -0.44369856 -0.30592746 -0.31099713 -0.6501921
0.009729848 -0.12465141 0.14557233 -0.48721159 0.3774675 0.23788339 -0.0024401492 0.62456906
0.17987445 0.08351609 0.05702727 -0.12714443 -0.094161056 -0.09466856 0.09098154 0.2954549
-0.21164452 -0.16670224 0.34659952 1.2136682 -0.11595623 -0.011812801 0.24048927 0.034637384
0.094561026 0.2122541 0.00074671704 -0.23278235 -0.20512052 0.056225955 0.072126925 0.64743197
0.04308864 -0.12912327 -0.2173364 0.15806524 0.021184133 0.13954028 0.056591455 0.018763183
0.20635428 -0.058296707 0.36043108 0.016392259 0.04326421 -0.62317854 -0.1169193 -0.058699176
0.048869513 0.09070846 -0.03862722 -0.016702926 0.2686469 0.41998464 -0.044250574 -0.07742942
0.20282121 0.025807705 0.22737761 -0.1959741 0.35758898 -0.11237001 -0.37273017 0.19310428
-0.02541119 -0.18259893 0.0360556 -0.038363904 0.018262915 0.18334205 0.091796406 0.42465946
0.34461138 -0.14118025 -0.2791805 -0.30307934 -0.5612818 0.35349825 0.21068437 0.13991494
0.1483578 -0.4414618 -0.26951417 -0.2482277 0.33660522 -0.060455155 -0.08254321 -0.2440014
-0.5539684 0.027941301 -0.033987675 -0.040518884 0.1950234 0.13768984 0.12306262 -0.025592653
-0.26188606 -0.025572125 0.26359046 -0.016642269 0.40579993 0.38357985 0.31015116 0.05361333
0.31671727 0.13089223 0.3320803 0.12529515 -0.07947695 -0.49146596 -0.1577651 0.39943093
-0.63623655 0.25151792 -0.0278434 0.35773093 -0.20460789 0.026871985 -0.4588765 -0.25173214
-0.2870156 0.2828457 -0.2447708 0.29740873 0.04735872 -0.03652429 -0.08268054 -0.17810422
0.12764737 0.061065327 -0.07527194 0.15226632 -0.3000149 -0.11875881 -0.2588254 -0.07764903
-0.1967025 -0.54086393 -0.34426606 0.013339381 -0.23689625 0.076653734 -0.8729917 0.23209867
-0.12028567 0.5551664 -0.027329342 0.11375736 -0.17311749 -0.2678312 0.2408816 -0.16443151
0.2568677 0.10186002 0.091010526 0.10779088 -0.16773331 -0.56460387 0.026293004 0.17621939
-0.15589555 0.4051546 -0.026593616 0.19177309 -0.13618271 0.03238326 -0.38669533 0.016187564
-0.090171844 -0.34383732 -0.27310506 -0.2729154 0.09189145 -0.0748812 -0.10632565 0.16065918
-0.111737266 0.3845308 -0.5072873 -0.07325987 0.07592535 -0.012573683 0.06359826 -0.073950686
0.1288154 0.03042967 -0.23549959 -0.23328003 0.048381608 -0.03224606 0.031868815 0.15803476
-0.13807563 -0.002674785 -0.34698403 0.22281373 0.107540905 0.49975002 -0.39011326 0.1055022
0.21853033 0.23727006 -0.017343465 -0.22700645 -0.044313077 0.20192653 -0.113601185 0.15327214
0.1493197 0.14487931 -0.30841413 -0.54997694 0.31472406 -0.12432079 -0.014601591 -0.13093077
-0.15166551 -0.3874583 0.029261712 -0.18776089 -0.004584852 -0.07466834 0.08181602 0.029838668
-0.3231946 0.11523008 -0.6128879 -0.14201325 0.3604721 -0.07179374 0.2543902 0.11301737
-0.023608264 -0.24124205 0.26410812 -0.34710553 0.2166968 0.23972131 -0.43940005 0.27907753
