baselines/QLearning/checkpoints/MPE_simple_tag_v3/shaq_ps.safetensors (safetensors, 107340 bytes, 14 tensors)

params,Dense_0,bias f4 [64]
00000000: 40cf a53e 9dc1 5ebe b9c8 403c ad10 96be
00000010: 9f46 9c3e 2e55 91be 0059 bcbe 7943 d9be
00000020: 0a1f b7bd c987 a73e 34a9 253e 7c90 95be
00000030: 7f80 c8be 2604 fbbe efe8 e2be 9d21 94be
00000040: e878 7a3e 920e f93e 46fb dbbe 20e7 a0be
00000050: 83e5 0a3e f645 70be 5f35 3bbd b391 b5be
00000060: 4151 6bbe ed6a e93e 6a1b 16bf a490 2f3e
00000070: a3e4 b2be b998 8c3e f263 bf3e 916b 40bf
00000080: da58 b8be 8a31 d1be febb 743e 814a a2bd
00000090: 23f9 2fbe e1fb ab3d 5f84 4cbe 41a6 9bbe
000000a0: b90e 2a3e 7064 2abe 9103 a8be 285b 483e
000000b0: 669d a8be 9c5c fcbe 94a6 e0be 817e a1be
000000c0: bf51 01bd 70f8 193f bc15 d3be 1074 1abe
000000d0: 2178 acbe 84b3 2c3e c3c1 8abe 1954 e3bb
000000e0: fc68 9b3d 5ee4 803e 668a 7cbd 25a6 a2be
000000f0: 1d91 3d3e 6b15 9dbc d032 ca3e ea87 26be
0.32384682 -0.21753545 0.011766606 -0.29309598 0.3052263 -0.283853 -0.36786652 -0.4243429
-0.08941467 0.32720783 0.16177827 -0.29211795 -0.39160535 -0.49026603 -0.4431834 -0.28931895
0.24460185 0.4864393 -0.42965144 -0.31426334 0.13564114 -0.23464188 -0.045705196 -0.35462722
-0.22980215 0.4558939 -0.5863558 0.1714502 -0.3494006 0.27460268 0.3738094 -0.75164133
-0.36005288 -0.40858108 0.23899838 -0.07924367 -0.17184882 0.083976515 -0.1997237 -0.3040028
0.16607179 -0.16639876 -0.3281522 0.19566023 -0.32932585 -0.49289405 -0.4387709 -0.31541827
-0.0315721 0.6014471 -0.4122752 -0.15083337 -0.336854 0.16865355 -0.27100953 -0.0069375155
0.075883836 0.2517423 -0.061655425 -0.31767383 0.18512388 -0.019175252 0.39491892 -0.16262785

params,Dense_0,kernel f4 [20, 64]
00000000: 595b 993e 1cf8 463e 6773 aabf 524d 9fbd
00000010: d144 113e 069c 253f 2a8e 6abd a80b 9e3f
00000020: 63f3 133d b377 493f 6fa3 5d3f 2222 91be
00000030: d347 02bf 828c 533e 94ab 793e fc7a 4c3f
00000040: 7f2f 8e3e 9dd5 b6be 047b 71bf a92a afbf
00000050: 3593 033f f0c0 39bd f565 563f 12df c03e
00000060: 7e09 933f 00e5 6cbd 22bf 683f d56d b8be
00000070: dc73 06bf c46d b5be de73 7a3d 045b 3b3c
00000080: 80f0 473f 6de6 a2bd 011f ddbe 4c26 e33e
00000090: ef98 34bd 5aae 683f 3181 04be bea9 843d
000000a0: f672 ad3d 3e08 fd3d 492e aabc c4a0 1bbf
000000b0: 0ccd 28bf eea5 45bd 6a1c 0a3e 8e01 fcbe
000000c0: f307 d1bf 8f16 1c3f d9f5 9b3d a8aa 86bf
000000d0: 362b f2be 2a64 4b3e e546 48bf 5e52 31be
000000e0: 4bd2 ba3e 328b 083e 3f4a c83e df6b b3b9
000000f0: d097 9cbe aee4 30bf 9502 263f b8a8 153f
00000100: 020c c73e a72e 8dbd b02f 903f ee74 d53e
00000110: 1c2c 8d3f 5eba bc3d 0e50 61bf 162a 9c3f
00000120: bb6c c1bf b8f2 d23e 640c b9be 3c87 3c3f
00000130: 6167 4f3e adf5 17bd 0d97 cdbe 89d7 f83d
00000140: bec3 913c 56b5 1a3f 4fbb 833f a4a5 4bbf
00000150: c827 e5be 2b03 033e f898 7b3e a113 7abe
00000160: 8f73 4abf 3253 bcbe b038 88bf a2d7 de3e
00000170: 141d 5abf 1f5e b6be e60d f93d 08a6 34be
00000180: c372 e73e 136a 233d e7aa f13d 5bcb bdbe
00000190: 1469 0b3f d6dc 3a3f 37a6 42bf 94c3 8f3e
000001a0: c5d8 c63e 5302 943c 5b6d 2cbf 08d1 94be
000001b0: 0f87 893f e68f 6fba 9aaa d63e a861 20bf
000001c0: 1088 12be cd91 58bf afc0 efbd a19d a2be
000001d0: 4a11 e3be 3486 dfbe 58d3 48bf bca7 0fbf
000001e0: 77ca babe 24f8 e7bc 2618 9ebe bed8 af3e
000001f0: 4fed 3abe 6033 49bf 1bb1 2a3f f1d9 883f
00000200: b9ff 253d a7af c23e fe87 ed3d a9f0 b2bd
00000210: dd75 8fbd 84d0 93bc 5709 42bf 1b2b 3b3e
00000220: 1332 55bd b054 473d 14d5 3d3d 3a4f dfbd
00000230: 7cc3 413e db22 b53f 35a4 fd3e 0b6c 2cbf
00000240: 5cc0 df3c 114e db3a 5c36 d13d 400d 3cbd
00000250: 8f3c 0e3c 355b a13d 9e5c 793b 9d6b f93d
00000260: 126f 3ebe d4ac c43d 87db 943e ca4f 9bbc
00000270: 00aa 0ebe 0d8f 213d 066e 15bd bea9 de3c
00000280: ab75 983c 16fd 063d 2b86 343d b6fc 503e
00000290: 4d93 edbc 7ecd 60bd 31aa 853e 7244 e03c
000002a0: 7135 bb3c f3fd bebc c841 f63d 3d10 2cbe
000002b0: a3df 9fbd 682c cabe 90c0 65bd 67c3 e7be
000002c0: abba 973d 0b77 c8bd c183 1abe 1016 0fbe
000002d0: 0e47 8f3e db0e 18be a715 17bd 3833 2b3d
000002e0: 413e 213c e973 883d aa10 d3bc 170e 15bd
000002f0: c160 003c c593 1d3e 2d52 55bd 5d00 b03d
00000300: a952 783c d383 2c3e 2b5a e53d 2d2d 333e
00000310: 8678 3c3d 721e 3ebd 734a a6be f5f0 8b3e
00000320: ae40 88bd 36b8 1d3d df8f 1abe 5cc0 243f
00000330: 35b7 d7bd 3859 a5be 5f78 e2bd 03ab 7abf
00000340: 6700 a6bc 617c 11bd 3a22 5cbe 6c22 79bd
00000350: 6882 c83c 8a2f d139 00d4 263a f80c a7be
00000360: 3dde 2f3c 6be2 ffbd 53d0 63bd f14c d03c
00000370: 744d 99bd 660b b43c 2211 28bd 6534 d4be
00000380: 320c bcbd e9c2 d13f 8fe4 d9bd 5e3c 3f3c
00000390: b755 bc3b 2c56 d9bc 1aa0 8d3d a237 563c
000003a0: 693c 84bc 260a a8bd 2b9d 3b3e 7d35 823b
000003b0: 46ac 5a3e 0d12 3cbf ff3f 22bd 207e a2be
000003c0: 2e2c e13d b1a4 fc3b 6b4a 053d 1d6f 39bc
000003d0: f2fc d2bd 0055 7f3d b631 29be 855e 4fbd
000003e0: 3e52 a0bc 649a 103d 7628 7c3c cff7 a2bb
000003f0: f244 893e 57dd b5bc c71a 123e 9dd8 3f3e
0.29952505 0.19430584 -1.3316468 -0.077784196 0.14186408 0.646912 -0.057264484 1.2347307
0.036120784 0.7869827 0.86577505 -0.28346354 -0.50890845 0.20659068 0.24381858 0.7987516
0.27770612 -0.3570985 -0.9432833 -1.3684894 0.51396495 -0.045350015 0.83749324 0.3767019
1.1487272 -0.05783558 0.90916646 -0.36021295 -0.5252054 -0.35435307 0.061145656 0.011435274
0.7810135 -0.079541065 -0.43187717 0.44365156 -0.04409116 0.9089104 -0.12939908 0.06477688
0.08469193 0.12355088 -0.020774024 -0.60792184 -0.65937877 -0.048253946 0.13487402 -0.49219936
-1.6330551 0.6097192 0.07615251 -1.052083 -0.47298592 0.19862428 -0.78233176 -0.17316577
0.36488566 0.13334349 0.39119145 -0.0003422191 -0.30584574 -0.6909894 0.6484769 0.5846057
0.3887635 -0.06893664 1.1264553 0.41690773 1.1029086 0.09215234 -0.8801278 1.2200344
-1.5111307 0.41200805 -0.36142266 0.7364385 0.2025428 -0.03709953 -0.40154305 0.12150485
0.017793532 0.60432947 1.0291537 -0.7954962 -0.44756913 0.12794177 0.24570072 -0.2442155
-0.7908258 -0.36782223 -1.06423 0.4352389 -0.8520062 -0.35618684 0.12160854 -0.17641461
0.45204744 0.039896082 0.11800175 -0.3706921 0.5445721 0.7299322 -0.76034874 0.28078902
0.38837257 0.018067515 -0.67354363 -0.29065728 1.0744342 -0.0009138569 0.41927034 -0.6264901
-0.14309716 -0.84597474 -0.11706673 -0.31760886 -0.44349128 -0.43657076 -0.78447485 -0.5611532
-0.36482593 -0.028316565 -0.308778 0.3434505 -0.18254589 -0.7859402 0.6667649 1.069151
0.04052708 0.38024637 0.11598204 -0.087373085 -0.070049025 -0.018043764 -0.757955 0.18278162
-0.052049708 0.04866475 0.046345785 -0.10903783 0.18922228 1.4151262 0.49539343 -0.6735236
0.027313404 0.001673164 0.10215446 -0.045911074 0.0086814305 0.078787245 0.003804959 0.12178729
-0.18597057 0.09603277 0.29073736 -0.018958945 -0.13932037 0.039443064 -0.03648188 0.027180549
0.018610796 0.032956205 0.044073265 0.20408902 -0.029000903 -0.054883473 0.26106408 0.027376387
0.022852631 -0.023314452 0.120242655 -0.1680307 -0.07806327 -0.39487004 -0.056091845 -0.45266268
0.07408651 -0.09788331 -0.15089323 -0.1397326 0.27983898 -0.14849417 -0.036885884 0.041796893
0.009841503 0.06662733 -0.025764782 -0.03639039 0.007835568 0.15388401 -0.052080322 0.08593819
0.0151564265 0.16847162 0.11198839 0.17497702 0.046013378 -0.046415754 -0.32478675 0.27332273
-0.06652962 0.038505755 -0.15093945 0.6435602 -0.10532991 -0.3229463 -0.11058115 -0.97917193
-0.020263864 -0.035519008 -0.21497431 -0.060823843 0.024476245 0.00039899006 0.0006363988 -0.32627082
0.010734138 -0.12494358 -0.055618595 0.025427314 -0.07485476 0.021978091 -0.041031964 -0.41446224
-0.091820136 1.6387607 -0.10639297 0.0116721075 0.0057475227 -0.026530348 0.069153026 0.013074787
-0.016142087 -0.08205061 0.18321674 0.0039736615 0.2135478 -0.73465043 -0.039611813 -0.3173685
0.10994755 0.0077100624 0.032541674 -0.011317995 -0.10302152 0.06233692 -0.1652287 -0.05062725
-0.019570466 0.03530349 0.015390506 -0.0049733887 0.26810414 -0.02220027 0.14268027 0.18734975

params,Dense_1,bias f4 [5]
00000000: 549d 4c3f 0333 2c3f b09d 533f 1990 123f
00000010: 441e 0a3f
0.79927564 0.6726534 0.8266249 0.57251126 0.5395243

params,Dense_1,kernel f4 [64, 5]
00000000: d492 a6bf ccff 93bf 3387 f6bf cbbc 94bf
00000010: f32d 9dbf ee7d a6bf 1132 cdbf 6c44 63bf
00000020: b6bc 19c0 16f2 31bf 2a2f 9fbf ef08 c2bf
00000030: b961 3fbf c435 04be cee2 eebf 7976 2d3e
00000040: ac76 02c0 252f c93f 60a3 45be 6789 9a3f
00000050: 4434 cd3e f32f a3bf 3695 d03f 2a15 863e
00000060: c3c0 603f dcae d7bf f2e7 f2bf 62e1 ebbf
00000070: b09f bebf c608 d0bf 8b3d ba3f f723 b13f
00000080: 876a c73f e293 8f3f 6359 e13f 7731 093e
00000090: 5267 f2bd 8d53 2a3f a666 c23c 2a5b e2bd
000000a0: a5db ad3f 2240 a83f 227c a43f 4b5a 9e3f
000000b0: 9cf0 a63f 26bd a2bf a66f d7bf 9832 dcbf
000000c0: 079e 94bf 1500 c0bf 0bec d9bf 83d4 d8bf
000000d0: 3354 12c0 54df 00c0 aeb9 97bf 05a2 473e
000000e0: 9e6c 233f 4b63 90be 47d0 44bf ce5e 6b3f
000000f0: ccf1 623e 2691 68bf 7726 9a3f 7184 e03f
00000100: fc44 76bf 655d 583f 0145 aa3f c6da 2fbd
00000110: b038 103f 629b 683f 2d1f 1dbf 02f5 d3be
00000120: 20d0 acbf fd81 4ebf b3fb 1cbf 2ee7 c63f
00000130: 126c f93f 5bf5 a03f bd8e 823f 4905 0c40
00000140: 1cc8 f03f 367f e23f 2e05 ad3f 5cb5 ca3f
00000150: 67b8 e03f b8fa 31be f167 9f3e 25dc 853e
00000160: abbb 643b 3873 35bf f0c4 9a3f e5c0 df3f
00000170: 36ed cb3f 6664 e23f dda7 c73f de4d 59bb
00000180: 905a 783e 9b9e ffbf c3fe 7e3e b0bc 62be
00000190: b9cf dabf bed7 9bbf b749 febf 1798 09c0
000001a0: 57b3 00c0 9549 a2bf d78a cabf a165 80bf
000001b0: 79e9 91bf e6c2 a2bf bc5b 92bf 86b6 e3bf
000001c0: 0633 87bf 3954 97bf 94a8 bebf b714 8b3f
000001d0: 80c0 4e3f d6e2 9c3f e7f3 113f b288 a83f
000001e0: 69b5 a7bf 03ee 77bf 713a babf 076b aabf
000001f0: 6fe1 90bf 5ab0 d43f e5c6 923f ddee 0540
00000200: b5cb e83f 3bf7 a03f 39a4 883f 2694 a73f
00000210: 9a3a bd3f f4fa a83f 9b9a 0abe 3fa1 b93f
00000220: 6030 933f 53c9 893f a53a d13f e077 cc3f
00000230: 7ca4 64bf b806 8abf 5ede 6bbf ffb4 c7bf
00000240: 54a6 e7be 21e8 89bf 609b 163f 2cc4 0ec0
00000250: aa25 14bf 9cb0 a3bf db51 cebf fdac f7bf
00000260: 99c6 b4bf 8455 08c0 9c63 e5bf ff45 79bf
00000270: ccd7 b2bf a04d 89bf 304a 62bf 8809 93bf
00000280: 7317 133e 86ab 36bf aae8 6a3f ebdf 833f
00000290: 05a9 6bbf 4461 b9bf dedd adbf 9939 a9bf
000002a0: bfaf e3be d9df 2bc0 3acb 833d 4b7f 96bd
000002b0: 47f3 0b3f 22ef 573e 28f7 79be 03a5 893f
000002c0: 4b75 d13f 53b9 303f 0bbc d63f 72c6 a6be
000002d0: 60b5 c23f 04a2 aa3f 2d3c b33f b8fc d23f
000002e0: a48b e43f 2335 563f 956c 393f 140c af3f
000002f0: 4f97 323f 6b12 a03f 0c3f c2bf 559b 99bf
00000300: 49b9 c7bf 99d2 adbf 392d c6bf 84e5 ba3f
00000310: af8f ce3f 678c e73f 2101 cd3f 863d a73f
00000320: b9c1 a1bf 1592 a7bf b958 8fbf e94d f8bf
00000330: c9a4 2abf 2979 d13f 47a4 ef3f ea7c ef3f
00000340: cf98 e23f 65fe e23f e2b3 54bf 7dbf 55bf
00000350: 2af3 68be f522 20bf 3868 40bf 82a3 b13f
00000360: ac80 d33f b013 893f 4532 b63f 156c 993f
00000370: ed83 bfbf 4713 efbf 4268 4cbf 7ac7 8fbf
00000380: 51a1 dcbf 683d d03f 9199 e33f dba3 eb3f
00000390: 98ab e63f 2f92 a43f b79b b93e 8848 923f
000003a0: 6a66 b5bf 1699 893f eb62 1ebe 2452 81bf
000003b0: b7f9 9ebf 58ff 6abf e56e 5dbf 7a0c 9bbf
000003c0: fb29 cebf d424 c7bf 9dce ddbf 1fb4 babf
000003d0: 4209 b7bf 9065 9c3e 29fd 333f c574 0e3f
000003e0: ec3d f43e 6746 9bbd f683 cc3f bb24 e53f
000003f0: 3493 893f a926 e33f b828 943f 0c8d c3bf
-1.3013558 -1.1562438 -1.926001 -1.1620115 -1.2279648 -1.3007181 -1.6030904 -0.8877628
-2.402143 -0.6951002 -1.2436268 -1.5158976 -0.7475849 -0.12911135 -1.8662965 0.16939725
-2.0384932 1.5717512 -0.19300604 1.2073182 0.40078938 -1.2749008 1.6295536 0.26188022
0.8779413 -1.6850238 -1.8977034 -1.8428156 -1.4892483 -1.6252677 1.4550031 1.3839101
1.5579385 1.1217005 1.7605404 0.13397776 -0.11836113 0.6653374 0.023730587 -0.110525444
1.3582655 1.3144572 1.2850382 1.2371305 1.3042178 -1.2713974 -1.6830947 -1.720294
-1.1610726 -1.5000025 -1.702516 -1.6939853 -2.286389 -2.0136309 -1.185354 0.194954
0.6383761 -0.28200755 -0.76880306 0.91941535 0.2216255 -0.9084648 1.2042989 1.7540418
-0.9619901 0.8451751 1.3302308 -0.042933248 0.563365 0.90862095 -0.61375695 -0.41397864
-1.3501015 -0.80667096 -0.6132156 1.55393 1.9486105 1.2574877 1.019981 2.1878226
1.8811069 1.7695072 1.3517206 1.5836596 1.7556275 -0.17380798 0.31133988 0.2614452
0.0034901898 -0.70878935 1.209135 1.7480742 1.5931766 1.7686889 1.5598103 -0.0033157985
0.24253297 -1.9970278 0.24901871 -0.22142291 -1.7094642 -1.2175214 -1.9866246 -2.1499078
-2.010946 -1.2678705 -1.582362 -1.0031015 -1.1399375 -1.2715728 -1.1434245 -1.7790077
-1.0562446 -1.1822578 -1.4895196 1.0865697 0.8076248 1.2256725 0.5701279 1.3166716
-1.3102237 -0.9684755 -1.4549085 -1.3313912 -1.1318797 1.6616318 1.1466948 2.092704
1.8187166 1.2575449 1.0675117 1.3092086 1.4783509 1.3201585 -0.1353554 1.4502333
1.1499138 1.0764564 1.6346022 1.5974083 -0.89313483 -1.07833 -0.9213618 -1.5602111
-0.45244086 -1.0773965 0.58830833 -2.2307234 -0.5786997 -1.2788272 -1.611873 -1.9349667
-1.4123107 -2.1302195 -1.7921023 -0.9737243 -1.3972106 -1.0726814 -0.8839445 -1.1487284
0.14364414 -0.71355474 0.9176127 1.0302709 -0.9205478 -1.4482808 -1.3583333 -1.3220702
-0.4447002 -2.6855376 0.06435247 -0.07348498 0.54668087 0.21087316 -0.24410689 1.0753483
1.636392 0.6903278 1.6776136 -0.32573277 1.5211601 1.3330693 1.4002739 1.6483374
1.7855115 0.8367483 0.7243131 1.3675561 0.6976213 1.2505621 -1.517549 -1.2000529
-1.560342 -1.3579894 -1.5482551 1.4601293 1.6137599 1.8089722 1.601597 1.306565
-1.2637244 -1.3091456 -1.1198951 -1.9398776 -0.6665769 1.63651 1.8722008 1.8709996
1.7702883 1.7733885 -0.8308698 -0.8349531 -0.2274901 -0.6255334 -0.75159025 1.3878024
1.6523643 1.0709133 1.4234091 1.1986109 -1.4962136 -1.8677758 -0.79846585 -1.123275
-1.723673 1.626874 1.778124 1.840938 1.8021116 1.2857112 0.36251613 1.1428385
-1.4171879 1.0749843 -0.15467422 -1.0103192 -1.2419957 -0.91795874 -0.86497337 -1.2113183
-1.6106561 -1.5558114 -1.7328678 -1.4586219 -1.42997 0.30546236 0.70308167 0.55646926
0.47703493 -0.075817876 1.5977771 1.7901834 1.0748048 1.7746173 1.1574926 -1.5277419

params,ScannedRNN_0,GRUCell_0,hn,bias f4 [64]
00000000: 2ff2 0dbf 4f0f debe 7ac7 34be 24a1 afbc
00000010: 4877 8c3d f996 28bf 7467 1f3f 65ce 0e3e
00000020: 79bf ae3e a71a cdbe dc06 52be 691b 8abd
00000030: d104 5abd 2b3e a23d 88a6 4bbe e0bc b33e
00000040: 192a 5d3f 1bda 87bd 5a3c ad3e 7d30 64be
00000050: 708f b23d 4bab 7abe 69bc 3fbf 7016 e23e
00000060: 19cf bfbe 8837 293f 725f 083f bb6b b03e
00000070: ab6c 01bf 3897 05be e044 e7be 4e7b b2be
00000080: c08b 273f e65a 88bf 827c a2bd 9cb6 23bd
00000090: e339 8c3f 17f2 913e 1cbc 1bbf 2659 c23e
000000a0: eeb9 d3be 8f8c fb3e 1394 8ebd 7ae2 013f
000000b0: 3ac6 36bf 4871 843e ba87 b5be 8155 16bf
000000c0: d474 8fbe e1e4 fb3c d5ce ec3e 16ec e2be
000000d0: 0896 0a3e da30 dc3e 826a 863e 1519 7dbe
000000e0: 5c83 64be cc7f 29bf 5ac4 b83c 071e 48bd
000000f0: 4983 1abf 6019 d93e f0da ca3c 22ee 83be
-0.5544767 -0.43371055 -0.1765422 -0.021439143 0.068586886 -0.65855366 0.6226723 0.13945921
0.34130457 -0.40059397 -0.20510429 -0.06743509 -0.05322725 0.07922014 -0.19887745 0.35105038
0.8639236 -0.06633397 0.33835107 -0.22284122 0.08718765 -0.24479406 -0.74896866 0.44157743
-0.3746269 0.6610036 0.5327064 0.34457192 -0.5055644 -0.13045967 -0.45169735 -0.348597
0.65447617 -1.065274 -0.07933904 -0.03996907 1.0955166 0.28505012 -0.6083391 0.3795864
-0.4135279 0.49130675 -0.06961837 0.507362 -0.7139622 0.25867677 -0.35455114 -0.5872422
-0.2801882 0.030748786 0.4625155 -0.44320744 0.13533795 0.4300602 0.26253134 -0.247166
-0.22315735 -0.6621063 0.022554565 -0.04885676 -0.60356575 0.42402172 0.0247626 -0.25767618

params,ScannedRNN_0,GRUCell_0,hn,kernel f4 [64, 64]
00000000: eb39 95be 8889 56bd de4e db3d d238 a3be
00000010: a10e 41be abad 503e 06b6 e3be 34a4 73bc
00000020: a457 9bbc 3604 3f3d c87d fcbd e092 0ebe
00000030: 2f01 8cbc ed2d e3bd ea63 653e 5907 883e
00000040: cc62 aabd 523e b1be 0115 df3d 6725 403e
00000050: f17b 9b3d 09d7 9b3e a72a 3c3e 504d 84be
00000060: 3b19 8a3d 9f47 97be 6340 85be ae02 8fbe
00000070: 6503 06be 6b68 bebe e27e 543e 0689 213f
00000080: 99bc e3bd 8f64 973e ab3d 733d 9d77 a8bd
00000090: d588 66be 00e0 d63c 16e8 c6bc 52d1 edbd
000000a0: 07c9 9dbd f1df 523e d30c 18be 10fa c63e
000000b0: fee5 3bbe 2e8c 4ebd e01a 153e 5ed8 a5be
000000c0: 29cb ccbe 4880 113e b876 9dbd 0ad2 b0bd
000000d0: 2786 cc3d 78fc 2c3d e87d 743d 20ed 4c3d
000000e0: d6ae 3e3e 2a62 983e 335f 12be 1692 2e3d
000000f0: 9d4e 993e 11a7 7e3e addb 94bc a883 713e
00000100: ee0d 9bbe f755 3ebf 4302 213c 5353 a0be
00000110: 49b4 69be 4e86 c43e 032f edbd 9c48 efbe
00000120: 0ae9 ac3c fd9b 04bf a84b 0bbd 7f90 603d
00000130: 527d 5cbe e409 683e 75e2 08be dfd1 96be
00000140: 6c44 11bd 2a0f 8bbe db7b eebe 7336 ca3d
00000150: 12e8 a6be ad02 cebd 47fc 923e a19c 713e
00000160: b6c5 3f3f a005 19be fd13 d5be 78e1 c83e
00000170: 0027 1fbe e17a bfbb 1172 acbe 7bb1 e6be
00000180: 12a5 b4bd efe0 b63e 2f07 acbe 6296 ccbe
00000190: 298f 3dbd e704 00bf 2283 29be a356 803e
000001a0: 9624 d9be 78a1 ba3e d150 01be 09d7 3a3f
000001b0: 3fa1 08bd 90db 4f3e c7c2 d13e abf8 0dbf
000001c0: 20a4 373d 3633 dcbd bb4d 6c3e 03b1 88be
000001d0: 21f1 d63c 747b f93c a7f6 96be aad3 13bf
000001e0: b36f fc3d fae7 f9bc 31c2 98bb 4460 40be
000001f0: f0de 14bf 5c9b b63d 7fea eebd 602f 0cbf
00000200: f7a8 a73e 3ac2 0abe 2f52 0bbe ee2c 98be
00000210: 0ece 903e a703 ec3e 5f59 10be 9cf3 b0bc
00000220: eb09 3dbe 7180 833c fa92 f23c e376 b03c
00000230: a536 243e d8c4 213e 3128 a13a 3045 513e
00000240: bef1 1e3e 6f0c 103b b933 39be 5618 3bbe
00000250: 0f72 1bbe d473 bb3d dab2 033e c8b4 bc3d
00000260: fc97 44bd 0c79 95bc 9027 f23d 4fc3 293d
00000270: 5316 14bd 65cb 7dbd 654c b83d 07fc 75be
00000280: 6446 bdbd b680 e03d 6a4b 27be 993e 9a3d
00000290: 09bd 163e c162 b83e 29a2 913e 9bc6 553e
000002a0: da40 c53d 4d81 163e 627b 063f ba7f a33d
000002b0: edee 5abe d6a1 c1be 53ec 023e aa19 37bf
000002c0: fefe 033e 87a7 943e ba4a 4a3e 245d b73e
000002d0: 38ef cebc ddbd ebbb 9e85 45be 750d 293e
000002e0: 028d 79bb c78d febd 5a39 733e 0806 65bc
000002f0: a2af f0bd 3d86 2bbe d796 2bbe b14c a73e
00000300: e694 a83e c561 ea3d 6031 d4be ff09 613e
00000310: 313f 0abf 341d aa3e a997 843c ae94 363f
00000320: 235e 4bbf 8659 e0be 2348 bbbe 5b10 0fbe
00000330: 9596 263e 73b3 85be 9414 f13e 6dd9 eabe
00000340: 0ba4 62bf 9e28 75bd b39f af3e c4b1 513e
00000350: 5a90 ebbe 942f 593e ad7d 4b3f 8abd 0a3e
00000360: cfb0 fcbd 4019 023e ae53 9bbe 7296 5d3e
00000370: 7ab9 54be ef3d 9e3e 63c2 77bf 9ab9 3ebe
00000380: 6f59 3a3e 1d83 51be f961 11bd d9f1 10bf
00000390: e4ca 05be 4ec2 653e ba91 87be 7731 323f
000003a0: d2ce ca3e ce01 2cbe 11b0 003e 2b10 3dbe
000003b0: e979 51bf 63fb a3be 0465 7fbf d14c 5fbf
000003c0: b9e4 57be 6841 d73e 5fe4 a53e f63d 343e
000003d0: 0688 0a3f ddc9 ad3e fa06 6c3f 414c 983e
000003e0: 30d6 0c3f 5d03 253e 1f04 bc3d 39a8 323f
000003f0: 6999 99bd 0e08 7fbf e1dd a8be 0fbd 92bd
-0.2914575 -0.052377254 0.10708402 -0.31879288 -0.18853237 0.20378749 -0.4447481 -0.014870692
-0.018962689 0.046634875 -0.12328678 -0.13923216 -0.017090408 -0.11092744 0.22401395 0.26568106
-0.08319625 -0.3461786 0.10892678 0.18764268 0.07591999 0.30437496 0.18375646 -0.25840235
0.067430936 -0.2954683 -0.26025686 -0.27931732 -0.13087232 -0.3718904 0.20751527 0.63099706
-0.111199565 0.29568908 0.059384983 -0.082259394 -0.22513135 0.026229858 -0.02428059 -0.1161219
-0.077043585 0.2059324 -0.14848642 0.38862658 -0.18349454 -0.050426655 0.14561033 -0.32391638
-0.3999875 0.14209092 -0.076886594 -0.08633812 0.09986525 0.04223296 0.059690386 0.050030828
0.18621382 0.29762393 -0.14294128 0.042619787 0.2994279 0.24868418 -0.018171156 0.23585379
-0.30284065 -0.7434992 0.009827199 -0.3131357 -0.2282268 0.38383716 -0.115812324 -0.46735084
0.021107215 -0.5180052 -0.0340077 0.054825302 -0.21532181 0.22660023 -0.13367637 -0.29456994
-0.035465643 -0.27160007 -0.4657887 0.098736666 -0.3259893 -0.10059104 0.28708097 0.23594905
0.7491106 -0.14943552 -0.41616812 0.3923452 -0.15542221 -0.0058435057 -0.33680776 -0.45057282
-0.08820547 0.35718486 -0.3359923 -0.39958483 -0.046279106 -0.5000748 -0.1655393 0.250661
-0.42410725 0.36451316 -0.12628485 0.7298437 -0.0333569 0.202986 0.40968916 -0.5545756
0.044834256 -0.10751955 0.23076527 -0.2669755 0.026238026 0.030454375 -0.29485056 -0.5774485
0.123259924 -0.030506123 -0.0046618213 -0.18786722 -0.58152676 0.08916351 -0.1166582 -0.5475979
0.32746097 -0.13550654 -0.1360557 -0.2972178 0.28282207 0.46096537 -0.14096592 -0.021600537
-0.18460815 0.016052457 0.0296111 0.021541065 0.1603647 0.15797746 0.0012295303 0.20436549
0.15521905 0.0021980067 -0.18086137 -0.18271002 -0.15180229 0.09152952 0.12861195 0.09214169
-0.047996506 -0.018246196 0.11823952 0.041446026 -0.036154103 -0.06196155 0.08998946 -0.24021922
-0.092419416 0.1096205 -0.16337362 0.07531471 0.14720549 0.36012843 0.2844403 0.20876543
0.0963151 0.14697762 0.5253202 0.07983346 -0.21380205 -0.37818784 0.12785463 -0.71523535
0.1289024 0.29034063 0.19755068 0.35813248 -0.025260553 -0.0071942643 -0.19289252 0.1650904
-0.0038078432 -0.12429386 0.23752347 -0.013978489 -0.11752249 -0.16750427 -0.1675676 0.32675698
0.329261 0.11444429 -0.4144392 0.2197647 -0.5400267 0.33225405 0.016185598 0.7132062
-0.79440516 -0.438183 -0.36578473 -0.13971083 0.1626838 -0.2611347 0.47086012 -0.45869008
-0.8853156 -0.05985319 0.34301528 0.20477968 -0.4600857 0.21209556 0.7948864 0.13548866
-0.12338411 0.12704945 -0.3033728 0.21639422 -0.20773879 0.30906627 -0.96780986 -0.18625489
0.18198179 -0.20460172 -0.035493825 -0.5661903 -0.13065678 0.22437403 -0.26478368 0.6960673
0.39610916 -0.16797563 0.12567164 -0.18463199 -0.81826645 -0.3202773 -0.9976351 -0.8722659
-0.21083345 0.42042089 0.32400796 0.17601761 0.54113805 0.33943072 0.92198145 0.29745677
0.55014324 0.16114564 0.091804735 0.6978794 -0.07499964 -0.99621665 -0.3298178 -0.07164966

params,ScannedRNN_0,GRUCell_0,hr,kernel f4 [64, 64]
00000000: fc21 c7bd eebf 7c3c 07b8 07bd e763 f4bc
00000010: 28fd 663e dc5b 17be 3195 173e 3582 c4bd
00000020: 47f0 453e 34aa 43bb 0e50 5a3d 0af5 5c3e
00000030: 9722 1dbe 7934 1dbe d841 2cbe 10fe 1cbd
00000040: 1d7c 8e3d d820 6f3e 926d b6bc 66ca 423e
00000050: c7a9 2a3e 3565 1ebe e841 5c3e 0b76 8d3e
00000060: 3ce7 1a3e ee85 8e3d b0cc 613d 68fa c03d
00000070: 3922 a5bb 03e2 983d b6f2 9e3e 04ed e4be
00000080: f5f4 8ebc 1a37 313e 1401 8e3d 2464 f03c
00000090: 1a71 41be 7445 30be cec7 35bd 3d72 903e
000000a0: 261d 0a3f 1d0e 3d3e 2a8a 073e c6df 153e
000000b0: 2420 80bc 36de b53e 33e5 76bd cdf5 45be
000000c0: 1798 63be f07e a03e 07a3 aabb 6c79 883e
000000d0: 3bdc a33e 279b 443c 9370 a1be 5d77 053f
000000e0: e5eb 7e3d 5a7d 95bd 05fe 673d 1ada 693c
000000f0: 3b99 88bd 016e 9f3d 7b0f a13e 898f 9abc
00000100: 3431 6ebe cfcd a6be bf76 2ebd 3c6d 6fbf
00000110: a0c1 8abe 1709 96be 51bc 8abd ada3 d3be
00000120: 9a16 d9be 20e4 e03d b09c b7be d999 8c3c
00000130: ae9a 18bf 963b 9cbe bb33 85be cc73 d7be
00000140: 8e4a adbd 283f a4be 1429 23be 1356 7a3e
00000150: 263f fb3d 63ca 483e 3766 8abd e031 f7be
00000160: 8885 f5bc 7717 183e d1ef 26be ab7c e23d
00000170: a4f3 acbe bab1 5fbe 8b92 0dbe d45b 633e
00000180: 3980 8bbe e21e 81be 5506 48bf 828b 03be
00000190: dcc9 a43e fd6f e33d 9684 f23d dbaf 533c
000001a0: 9ee1 5a3e d7b4 913d 2075 24be fb87 a1be
000001b0: d5a7 d53d 93cb fbbd ef09 293e 82fc a5be
000001c0: 58f8 ef3c fa66 803e 58bd 483e 0d75 16bd
000001d0: 3767 c3be 05a5 6b3e c1ca 103d dd3f dcbc
000001e0: 52fc df3e 8d83 f8bc e772 69be 6b6b 54be
000001f0: e643 003f 2d26 053f 22bf 2bbe 5895 883e
00000200: b5e4 d9be cc86 c0be 07d7 48bf d1a8 dcbe
00000210: 4d1e 3f3e 6c68 123d 3782 1f3e 9dae 30be
00000220: b5c8 14bf c6f6 69bd ebae d03e 75d1 f43e
00000230: 15c7 b0be a582 0ebe ab6c 22be 3337 883c
00000240: a0d0 853b e62f f93d 7d85 46be 4033 013e
00000250: c4e7 123e b0ae 75be 2453 e73c 017d 1fbd
00000260: 8adb 1d3e ae28 893d dfe4 adbc c9fb 7f3d
00000270: f156 8fbd 3664 9a3c 4f06 ea3e 2d5a 823e
00000280: 5eec cd3e 1b68 abbd 7975 973e eb85 a6be
00000290: 1a10 ae3e 03a2 a2be b5ee aa3d 0c04 94be
000002a0: 43ca 00bf 049a d3bc 0300 c1bd 0cb6 a73d
000002b0: 6c02 4fbd 570d 6cbe 1092 52bc c290 83be
000002c0: b2b2 373e 1fe9 303e 0a99 4c3d f390 84bd
000002d0: 6f61 953e 4d9b 01bc e8f7 fd3d 67f7 803d
000002e0: 8d6a d6bd a561 eabd 8d35 b7be 2a29 543d
000002f0: 9ffd 8d3e 0fda 86bd f21c 71bd 5f85 06be
00000300: f8dc 053f c5bb 163e 1fe6 9b3d ad80 863f
00000310: 8b49 2ebf 93d9 dabc 45c5 433d db49 203e
00000320: c3ec f9bd 218a 8ebe 7388 e63e 3991 b2be
00000330: 93be b4be f9e6 f43e 5e3c 1c3f 12ed 903e
00000340: 9803 223f 3444 10be 98b9 313f cb66 033e
00000350: 0b04 3dbf 540c 9a3e 5663 d9bc 2a92 143f
00000360: 7c19 953c 769b 553e ca91 c23d 2943 303e
00000370: 7dec edbd 85d8 4abf 67f2 7dbf d57f 2a3e
00000380: 7de0 63be ab70 c63e b78e a23c 89b6 883f
00000390: 5c77 f5be 152f 373e cde1 11be 6326 d9be
000003a0: 3cac 58be eae7 b8be b659 4f3e 842c 88be
000003b0: f3e9 423e 1ca5 e0be f0e1 123f 27fc bc3e
000003c0: 022f 113f 61ec a7bd e238 b33e 88f6 42bf
000003d0: 99de 62bf c05a 143e 64a1 8d3e 5026 76bf
000003e0: c99e 403f 4809 df3c bc01 32bb 16b5 d7be
000003f0: 017f 3bbf a63b 08be 5fe3 74be b59e 213f
-0.09723279 0.015426619 -0.033134487 -0.029832793 0.22557509 -0.14781135 0.14803006 -0.095951475
0.1932994 -0.0029856088 0.053299002 0.2157785 -0.15345226 -0.15352048 -0.16821992 -0.03832823
0.069572665 0.23352373 -0.022269044 0.19022521 0.16666327 -0.15468295 0.21509516 0.27629122
0.15127271 0.06959139 0.055126846 0.09422761 -0.00503948 0.07464983 0.3104455 -0.4471208
-0.017450789 0.17306176 0.069337994 0.029344626 -0.18890801 -0.17213994 -0.04438 0.28212157
0.53950727 0.18462415 0.13236299 0.14636144 -0.015640326 0.35521096 -0.060277175 -0.19332047
-0.22225986 0.31346846 -0.0052074227 0.26655138 0.3200396 0.011999882 -0.315312 0.5213526
0.062236685 -0.072992995 0.056638736 0.014273191 -0.066698514 0.077846535 0.31457123 -0.018867271
-0.23260957 -0.32578894 -0.042593714 -0.93526053 -0.2710085 -0.2930381 -0.067742 -0.41335812
-0.42400056 0.109810114 -0.3586173 0.017163204 -0.5961102 -0.3051421 -0.2601603 -0.42080534
-0.08461486 -0.32079434 -0.15933639 0.24446897 0.12267904 0.19608454 -0.06757777 -0.4828024
-0.0299709 0.14852701 -0.1630242 0.11058935 -0.33779633 -0.21845141 -0.13825433 0.22202998
-0.27246264 -0.25218874 -0.7813466 -0.12846187 0.32185256 0.111053444 0.11841695 0.012920345
0.21375129 0.071145706 -0.16060305 -0.31549057 0.10432402 -0.12294688 0.16507696 -0.3241921
0.029293224 0.25078565 0.19603479 -0.036732722 -0.38164684 0.23012169 0.03534961 -0.026885921
0.43747193 -0.030336166 -0.22797738 -0.20744102 0.50103605 0.52011377 -0.1677213 0.2667644
-0.42557302 -0.37602842 -0.78453106 -0.43097547 0.18663903 0.035744116 0.15577017 -0.1725411
-0.58118755 -0.057120107 0.40758452 0.47816053 -0.34526888 -0.13917024 -0.15861766 0.016627884
0.004083708 0.12167339 -0.19386859 0.12617207 0.14346224 -0.23992419 0.028237887 -0.038937572
0.15415779 0.06697212 -0.021227298 0.06249598 -0.06999005 0.018846612 0.45707938 0.25459424
0.40219396 -0.08369466 0.29581812 -0.32524046 0.3399666 -0.3176423 0.08346311 -0.28909338
-0.50308627 -0.025830276 -0.0942383 0.081890196 -0.05053942 -0.23051964 -0.012852207 -0.2569638
0.1793926 0.17276429 0.049950637 -0.06472959 0.29175898 -0.007910562 0.124008 0.06297188
-0.10469542 -0.114444055 -0.35783044 0.05179707 0.2773256 -0.0658456 -0.058865495 -0.13136815
0.52290297 0.14720066 0.076122515 1.0508019 -0.6808097 -0.026715076 0.047795553 0.15653174
-0.12203362 -0.2783976 0.45025977 -0.3487642 -0.35301647 0.47832468 0.61029613 0.2830587
0.63286734 -0.14088517 0.6942382 0.12832181 -0.73834294 0.3008753 -0.026536625 0.5803553
0.018200628 0.20860085 0.09500463 0.1721312 -0.11617372 -0.7923663 -0.99198 0.16650327
-0.22253604 0.38757834 0.019843442 1.0680705 -0.47942626 0.17889054 -0.14246292 -0.424121
-0.21159452 -0.36114436 0.20249066 -0.26596463 0.19034557 -0.43875968 0.57376003 0.36911127
0.56712353 -0.081993826 0.35004336 -0.76157427 -0.8862091 0.14487743 0.27662194 -0.9615221
0.75242287 0.027226105 -0.0027161678 -0.42130345 -0.7324067 -0.13304004 -0.2391486 0.6313279

params,ScannedRNN_0,GRUCell_0,hz,kernel f4 [64, 64]
00000000: c903 183e 9ade 763e 2b56 0a3f 6dd8 a53d
00000010: bac6 a53e e1bb dcbe 9dbc 983e 8e90 c83d
00000020: 0939 3abe 2e43 103f f0c5 dabe 81e3 133d
00000030: 0d1d e43e 6d08 0a3f ec5e ebbe 837a e53d
00000040: afdc 2e3f 3766 0abe c8f8 5c3e f22b 833f
00000050: f5c4 58be 6b21 9bbd 147b b53e e1fe 8fbd
00000060: 6358 1cbe 4906 9d3c 2a16 57bd 017e c5be
00000070: 0b46 d1be d922 3e3f 8db3 493f ab80 3d3d
00000080: 5e82 613f 1acd abbe ee42 483c ac86 4fbe
00000090: 55f4 3d3e 00c1 c13e 26dd c93e 427b ce3e
000000a0: a8c3 a93e 6d89 d93e 9b42 1cbf 98d5 b53d
000000b0: 4923 803e aff4 ea3d 6eb1 4dbd 0233 37be
000000c0: 0e2a 1abe 5835 c8be bce2 0b3f 7257 203f
000000d0: b00f 9e3d 3ce0 e23e 97b3 0b3e 89e7 1d3f
000000e0: 040d a6bd 46fb b53e e440 223e b51f e23e
000000f0: aed1 043f 0506 ad3e 7608 9f3e ee8a cfbe
00000100: 6cbf 2e3f 273e 3f3e 1fea bebd f320 abbe
00000110: c37d ce3e f91f 90be 3044 ed3c 1c8e c53d
00000120: 9b47 3fbe 63f2 f9bd b0c4 4bbe a850 b33e
00000130: 6e4a 853c 3137 873e 7731 68be 6e48 bb3d
00000140: c876 1c3f 4abf 283e 95d7 323f 277b d23d
00000150: da90 8ebe 0bea 58be ed27 523f b003 443f
00000160: bd4a 3bbe a904 91bd e42e 523c 8e0d 0b3d
00000170: edc8 44bf d5a4 503e 44dc fabd d64e 953e
00000180: 3bf5 f7be 304b 92bd d747 15be c70d 35be
00000190: 7add e0bd b2bc a5bd 7745 353d e40c e03e
000001a0: ea86 713e 651d 313e e7aa a7bc 501d 1abe
000001b0: ab7b bebe d873 0c3f dd9d b13d a765 9abe
000001c0: f05d a93d 9104 88be 13db 663e 4369 08be
000001d0: 13cb a7be 99a9 9fbe 6e70 37be b839 78be
000001e0: 6001 9fbe 760e 5fbd 6d4e 883e 94f1 d93e
000001f0: 75cb 96bd 9f6b 1a3f 2481 0e3f 298a afbe
00000200: 1773 38bf 4592 a9bf e29c 0e3f 1335 fa3e
00000210: 673f 18bf 10fe da3e 77c4 1ebe aa29 313e
00000220: caaf 0a3c c0c7 5d3d 1e79 8a3e 8c2d 473d
00000230: 484d 223e 562f 0b3f 5a44 843e b6bb 9cbf
00000240: cedb 0abf a99e 06bf 7b3b 583e aa47 403e
00000250: bc68 b8bd 2007 983e 3c3c 313f e120 b03e
00000260: bc08 9cbe 5a4f 4cbd 5864 8d3c 2857 bc3e
00000270: c3fc 5d3e 8bd2 bb3d e0c2 fe3e 11cd 363e
00000280: ec58 a0be 5ec9 3cbe d24e 3dbf b922 e4be
00000290: 7855 06bd 818b 13bf e290 463e 0afc dfbd
000002a0: 8b64 0e3c f574 ed3e 37da a0be 3298 a53e
000002b0: e927 4b3e b4c2 823e 6df4 8f3e d97d 19bf
000002c0: 7467 723f b40d a2be b260 09bf d13d 4c3f
000002d0: e532 b03e 0b56 07bf 1e06 103f 78a9 ec3e
000002e0: fb21 a6bd 23c1 09be 00b9 573d 6258 d13d
000002f0: de65 27bf 3fb1 06be a7fa e83e 195d 63be
00000300: fed6 0f3f f0c0 ff3e d5d1 20be 2087 443e
00000310: 4c98 6abe 5808 2ebf 5d9d 01bf cd10 2a3f
00000320: c7f7 d6be e883 38be e4c4 c0be 098b 8a3d
00000330: 6190 e2be 1270 bfbe 34bc b83d 5438 28be
00000340: 02c6 58bf 04cd fb3e 6d71 4d3f 8b31 533f
00000350: dc2a 033e b242 81be f2cd 7dbf fcd5 6f3d
00000360: 263a c9bd 8460 37be 781c 253e f999 b2be
00000370: fb00 22be 75e1 dcbe ab8e 0ebe abb6 193e
00000380: ad40 d1be be40 f5bd 017b b0be 7cfa b4bd
00000390: 2b1e 3d3e 4bce 4ebf 6c8b 1abe 20d8 f6be
000003a0: 2340 b0be 3692 013e fc06 32bf 622a a0be
000003b0: 8a52 0a3d 41c4 183d c406 21bf 7aba 8e3f
000003c0: 0c72 413e c00e fdbe c32e e83e 5abc 883e
000003d0: 4391 f23d 06cb 14be c188 cebe dffe 7e3f
000003e0: 34d6 253f c04c a23e b506 1abf 512d ddbe
000003f0: 1024 b03e a665 0c3c 7d47 1cbf 0713 7e3e
0.14845194 0.24108353 0.5403773 0.080979206 0.3237818 -0.4311209 0.298314 0.097931966
-0.1818582 0.5635251 -0.4272914 0.036105637 0.44553414 0.53919107 -0.45970857 0.11205008
0.68305486 -0.13515554 0.21579278 1.0247786 -0.21168883 -0.07574733 0.35445464 -0.07031036
-0.15268092 0.019168036 -0.05251137 -0.38572696 -0.4087375 0.74271923 0.787896 0.046265285
0.8808955 -0.33554918 0.0122229885 -0.20266217 0.18550237 0.3784256 0.39426535 0.40328413
0.33157086 0.4248766 -0.6103913 0.088786304 0.2502692 0.11472451 -0.05021804 -0.17890552
-0.15055105 -0.39103198 0.54642844 0.6263343 0.07717836 0.44311702 0.13642727 0.6168142
-0.08107951 0.3554327 0.15845066 0.44164816 0.51882446 0.33793655 0.31061143 -0.40535682
0.68260837 0.18676053 -0.09321999 -0.33423576 0.40330324 -0.28149393 0.028963178 0.09646246
-0.18679659 -0.12204435 -0.19899249 0.35022473 0.016270842 0.26409295 -0.2267512 0.09144674
0.61118746 0.16479221 0.698602 0.10277396 -0.27844888 -0.2118303 0.8209217 0.76568127
-0.18290229 -0.07080967 0.012828562 0.033948474 -0.7686909 0.20375378 -0.122490436 0.2916171
-0.48429283 -0.07143247 -0.14578186 -0.17681037 -0.10979743 -0.080926314 0.0442557 0.43759835
0.23586622 0.1729637 -0.020467235 -0.15050244 -0.37203726 0.54864264 0.08672688 -0.3015568
0.0826987 -0.26565984 0.22544508 -0.13321404 -0.3277212 -0.3118408 -0.17913982 -0.24240768
-0.31055737 -0.05445715 0.26622334 0.42567122 -0.07363025 0.60320467 0.556658 -0.34285095
-0.72050613 -1.3247763 0.55708134 0.48868617 -0.59471744 0.4277196 -0.15504633 0.1730105
0.008464763 0.054145575 0.2704553 0.04862742 0.15849793 0.54369104 0.25833398 -1.2244785
-0.54241645 -0.52585846 0.2111644 0.18777338 -0.090043515 0.29692936 0.69232535 0.34400085
-0.30475414 -0.049880363 0.017259762 0.36785245 0.21678452 0.09171017 0.49758053 0.17851664
-0.31317842 -0.1843619 -0.73948395 -0.4455774 -0.032796353 -0.5763474 0.19391206 -0.109367445
0.0086909635 0.46378294 -0.31416485 0.32342678 0.19839443 0.25539172 0.2811617 -0.59957653
0.94689107 -0.3165108 -0.5366317 0.79781824 0.3441383 -0.52865666 0.56259334 0.46223044
-0.0811195 -0.13452582 0.052666664 0.10221936 -0.6538981 -0.13153552 0.45503733 -0.22203483
0.5618743 0.49951887 -0.15705045 0.19192171 -0.22909659 -0.6798148 -0.5063074 0.66431886
-0.41985914 -0.18019068 -0.37650216 0.067648 -0.44250777 -0.3739019 0.09020272 -0.16427737
-0.84677136 0.49179852 0.802512 0.8249747 0.12809318 -0.25246197 -0.9914237 0.05855368
-0.09825544 -0.17907912 0.16124141 -0.34883097 -0.15820687 -0.4314076 -0.13921611 0.15011089
-0.40869656 -0.11975239 -0.34468845 -0.088368386 0.1846854 -0.8078353 -0.15092248 -0.48211765
-0.34423932 0.12653431 -0.6954191 -0.31282336 0.03377012 0.037296537 -0.6290095 1.1150658
0.18891162 -0.49425316 0.45348176 0.267062 0.11844113 -0.14530572 -0.4033871 0.9960765
0.64779973 0.3169918 -0.60166484 -0.43198636 0.34402514 0.008569157 -0.6104658 0.24811946

params,ScannedRNN_0,GRUCell_0,in,bias f4 [64]
00000000: 8075 0abf b3cd d3be 4e8c c1be 61b7 abbe
00000010: 601d fc3d 1c6c debe d43e b43e cfe3 85be
00000020: e186 bc3e 6dd7 b2be ddc8 d5be a8f5 893c
00000030: f790 3dbc 2903 4c3e a7e6 cdbe a862 eb3e
00000040: a502 6d3e bafc 3ebd a68a 0d3f 6d78 813e
00000050: a7b1 f9be 2f87 c7be 6e1a 44be 92b2 8f3e
00000060: 9f08 acbe 0985 a43e 1d16 f63e ef0f f53e
00000070: 7f8d c9be 1c61 04bf 33b9 07bf ce64 10be
00000080: 4842 be3e c0a3 eebe eed2 073e de01 8b3e
00000090: ea5d c53e 326d f13e 082f 80be c980 f73e
000000a0: e098 f4be 0912 293f f9cd 0abe 6a8d d33e
000000b0: 2468 19bf 9f7d de3e 224e 9bbd a5d5 01bf
000000c0: cc69 f7be 4ced 003e 5029 a63e ac7b 1abf
000000d0: 9fb1 093f 143d 6e3e aad5 cf3e acb0 b1be
000000e0: 3daa c7be b844 3cbe d7fc ccbc 5658 f63e
000000f0: ecca 65be a207 aa3e 5147 873d 3b6a 06bf
-0.5408554 -0.41367874 -0.37802356 -0.33538345 0.1231029 -0.43441856 0.35204184 -0.26150367
0.36821654 -0.34929982 -0.4175481 0.01684077 -0.011570207 0.1992308 -0.40215036 0.45973706
0.2314554 -0.046627738 0.55289686 0.2528719 -0.4876835 -0.38970324 -0.19150707 0.28065926
-0.33600327 0.32132748 0.48063746 0.4786372 -0.39365765 -0.5171068 -0.53016967 -0.14100954
0.37159944 -0.46609306 0.13264057 0.27149862 0.38548213 0.47153622 -0.25035882 0.48340443
-0.47772884 0.66043144 -0.13555135 0.41318828 -0.5992453 0.43455216 -0.07583262 -0.5071662
-0.48322904 0.12590522 0.32453394 -0.6034496 0.53786653 0.23265487 0.405927 -0.34705102
-0.3899707 -0.18385589 -0.025022907 0.4811427 -0.2244069 0.33208948 0.066053994 -0.52505845

params,ScannedRNN_0,GRUCell_0,in,kernel f4 [64, 64]
00000000: b71a 83be 10c3 9ebd 15a3 6bbd 1c3e 793e
00000010: 5257 6ebe 9cbf 36bf 7811 02bf 1afc b63e
00000020: def9 343f e4f7 cb3e cec4 72bf dca0 27bf
00000030: fabb 903e f8bc 1b3f ac6f 30be 3c85 7c3e
00000040: fada 61be 4290 58bf f5de 1d3e ea4d 083d
00000050: a531 cabe cae3 27bf e6fd febe dc57 6d3d
00000060: be22 20bf 895e 93bd 9090 483f 03be debd
00000070: 64d3 f2bd b93e 5c3f 1341 853e 0f58 24bf
00000080: 4f56 72be b7eb 16bf 7e8a 0c3e 0c0a 333f
00000090: 825d e2bd 0d90 7b3f abbf 11bf 0cff 2ebe
000000a0: 79a2 08be b1ff 9bbe d119 8fbc 071a 333f
000000b0: 5ca9 533e a4cf 5abe 791a a83e 1d96 203d
000000c0: 879e 50bf 8482 2d3e 9144 53bd 8969 023d
000000d0: 775a 7cbe dba9 d6be 3070 043e 1aa0 4a3e
000000e0: efcc 41bf cf30 36bf 8564 613b 8601 833f
000000f0: f5af 803c 7bfe 673e 4b56 933f 413c 55bf
00000100: f17f 10be 6d5a b3be 0cf1 5dbd 448b 7fbe
00000110: 2adf 6b3f 9765 d03e 559b b33e 9756 5f3e
00000120: ccc9 06bf be8a 3abf 108e d43e 540d 4dbe
00000130: 6ab4 1b3d bcc1 3f3e e30a be3e 1439 4c3e
00000140: 2ea2 3a3e 822f 043d 1ea9 e5bd abd0 853e
00000150: be7d a33e 4743 2e3f d5c4 6b3e ad26 d53d
00000160: ba91 b73d ca36 983e 8b4e 86be d647 0dbe
00000170: 6ea2 5c3e dbe1 cdbd 0a54 83be 0d66 973d
00000180: 9a49 3abe f405 6c3e 6d12 a43e 5296 15be
00000190: 0998 16be b159 15bf 20ae 873e dc86 c3bd
000001a0: 2712 b6be 7544 ef3e a991 e63e ef2f a8be
000001b0: ec51 03be 0431 023f 81f8 dabe bc72 533e
000001c0: 3e6d a03e a043 d8be d0e2 8abe 4e69 ce3e
000001d0: cbd8 6d3e 6323 cf3e 6cbc 193e 47c0 d6bd
000001e0: d793 233f 6df8 a73d 473c 7f3d 8bd5 8ebd
000001f0: 476d 963d 5fa0 ae3e 0ae4 93be c306 843e
00000200: 73f2 453e e25c d7bd 4b28 d63d 0437 89bf
00000210: f0e5 953e 032b 45bd 30fd e33d 9ef0 833c
00000220: 8dcf ccbd 8bfd c9be 19ec 29be bb2a 8d3e
00000230: 9926 d3bd 5220 c03e 80ca aa3d ecdc 103f
00000240: 5db3 8e3e 19da 03be 8406 173e ce82 82bd
00000250: 1d3d bd3d e697 16be 773c a23e 357f 263e
00000260: c940 03bc 9cec 11bf cd54 a2be 28d9 9d3c
00000270: fe14 febd e85d 053e 6432 06be 77f9 b6be
00000280: 5910 b63c 77a4 0abe 0345 a7be 1be5 9b3d
00000290: b1f1 103e cd3e 993e f26e 0b3e 334b f9bd
000002a0: be34 7b3d 940c 93bd 71a5 92be 4026 cc3e
000002b0: fbdc f0be da37 acbe c19d ab3d 4cfa febe
000002c0: 2262 fb3d 9f8f b3be 835e 2c3e 8e28 5bbe
000002d0: 95c4 d93e cbb9 0cbd af97 b2bc 70cd 8dbe
000002e0: 049c 73ba 3693 0d3f 0d83 c1be 4fe7 75be
000002f0: 3d9c ffbd 00a4 263f 341b ac3d 6db8 e9bd
00000300: f600 ab3e df9e 03bf fe54 953e e1ad 003f
00000310: 2fd9 9fbe 1f0e d83e 2e96 d23d 85ad 87bd
00000320: edd0 27bf 5367 1dbe cf95 833e e6e8 adbe
00000330: 7cfa 23be 07cf 933c a723 173f aa2a cfbe
00000340: 8610 243e 5438 363e 0a15 5abe bb76 53be
00000350: 35fd a9be 55b3 123f 8701 1c3e 050c 5bbd
00000360: 0a3a aabc 1006 353e a4a1 fcbd d8c7 813d
00000370: 0113 9c3d 0b28 9e3e 7449 b13c 2e45 efbd
00000380: 2f2f b1be 5f09 1f3f be1f 5c3e 6dce 32bf
00000390: 1a12 4fbe b9f1 97be 6bc2 b03d 1499 b3bd
000003a0: 7cd1 36bd 5dfe c53d 7381 733e c341 9fbe
000003b0: 9078 003f b81f c23d 8b31 e4bc 0f00 f33e
000003c0: 3140 a53e 86cc 97be 7e80 15be cfc4 043e
000003d0: e914 f23d 0c6a a33d a504 913e c410 b7bc
000003e0: d83c c0bd af52 4cbe 88f3 b13e 1725 903e
000003f0: 0639 593e 8597 c5bd 41f0 6dbe a322 c33d
-0.2560632 -0.07752049 -0.057528574 0.24340099 -0.23275498 -0.7138612 -0.50807905 0.35739213
0.7069377 0.39837563 -0.9483155 -0.65479827 0.28268415 0.6083522 -0.172301 0.246602
-0.22056189 -0.8459512 0.15417083 0.03327743 -0.39491 -0.65581954 -0.49803084 0.057945117
-0.6255301 -0.071957655 0.78345585 -0.108760856 -0.11856726 0.8603321 0.2602621 -0.64196867
-0.23665737 -0.5895342 0.13724706 0.69937205 -0.110529914 0.9826668 -0.5693309 -0.1708948
-0.13343228 -0.30468515 -0.017468365 0.6996159 0.20670074 -0.21368271 0.32832697 0.03920566
-0.81491894 0.16944319 -0.051579062 0.031838927 -0.24643885 -0.41926464 0.12933421 0.19787636
-0.7570333 -0.71168226 0.003439219 1.023484 0.015708903 0.2265567 1.151071 -0.83295065
-0.14111306 -0.35029927 -0.05418496 -0.2495547 0.92137396 0.40702507 0.35079446 0.21810375
-0.5265167 -0.72867954 0.41514635 -0.20024616 0.038013853 0.18726248 0.3711768 0.19943649
0.18225929 0.03227187 -0.11213897 0.26135764 0.3193187 0.6807141 0.23024304 0.104077674
0.08963342 0.297293 -0.262318 -0.13796934 0.21546337 -0.10052844 -0.25650054 0.073925115
-0.1819214 0.23049146 0.32045308 -0.14608124 -0.14706434 -0.58339983 0.26500034 -0.09547207
-0.35560724 0.46731916 0.45033005 -0.3284907 -0.1282422 0.5085604 -0.42767718 0.20649236
0.31333345 -0.42239094 -0.2712617 0.40314716 0.23227231 0.40456685 0.15013283 -0.10485893
0.6389746 0.0820168 0.062313344 -0.06974324 0.07345062 0.34106728 -0.28884917 0.2578641
0.19330768 -0.10515763 0.10456904 -1.0719914 0.2927699 -0.048136722 0.11132276 0.016105946
-0.10000525 -0.3945125 -0.1659397 0.27571663 -0.10310096 0.37524658 0.08339405 0.565871
0.27871218 -0.12876166 0.1474858 -0.06372605 0.09240172 -0.14706382 0.31686756 0.16259463
-0.008011051 -0.5700166 -0.31705323 0.019268587 -0.12406348 0.13024104 -0.1310516 -0.35737202
0.022224592 -0.13539301 -0.3266984 0.07612058 0.14154698 0.29930726 0.13616541 -0.12172546
0.061329596 -0.071801335 -0.28641847 0.39872932 -0.47043595 -0.3363636 0.083796985 -0.49800336
0.12274577 -0.35070512 0.16832928 -0.21402189 0.42532793 -0.034356873 -0.021800844 -0.276958
-0.00092929625 0.5530275 -0.37795296 -0.24014018 -0.12480972 0.65093994 0.08403626 -0.114121296
0.3339917 -0.51414293 0.29166406 0.5026532 -0.31220385 0.42198274 0.10282551 -0.06624893
-0.6555317 -0.15371446 0.25700232 -0.3396675 -0.16013521 0.018043054 0.59038776 -0.40462238
0.16021928 0.17794925 -0.21297088 -0.20650761 -0.33200994 0.5730489 0.15234958 -0.05347826
-0.020779628 0.17678094 -0.12335518 0.06336945 0.07620812 0.30889925 0.02164147 -0.11683117
-0.3460631 0.62123674 0.21496484 -0.6984623 -0.20221749 -0.29676607 0.08630832 -0.08769432
-0.044633374 0.096676566 0.2377985 -0.3110486 0.50183964 0.09478706 -0.027855655 0.47460982
0.32275537 -0.29648226 -0.14599797 0.12965702 0.118203945 0.07979211 0.28323856 -0.022346862
-0.09386605 -0.19953416 0.34756112 0.28153297 0.21213159 -0.09648041 -0.23236181 0.09528091

params,ScannedRNN_0,GRUCell_0,ir,bias f4 [64]
00000000: 634b 6fbe 5d6b ad3d e4d7 50be b9a5 5bbe
00000010: 5e2d 41bd 28b4 65b9 da98 003e 0155 6bbb
00000020: b57e eabd bdb4 98be 6841 4dbe c3bc bebe
00000030: c514 9dbe e569 afbe cf9f 97be 85a8 6bbe
00000040: 88cd 8e3e 3a99 6bbe 3aa2 43be 1453 a9bd
00000050: 984a d8be 8f1e 87be e6c7 063f c508 2d3e
00000060: f614 11be dc7b d53d 9d31 ef3b 519a 47bd
00000070: 6956 ca3a b010 75be 1a73 c5bc ef34 173e
00000080: bc96 1c3d b53d d93e 2782 45be 802f bbbe
00000090: f36e c43e 892a 58be 38a1 0e3e b7ca 9abd
000000a0: a1c4 84be 5856 84be f72e 19bd 918e 19be
000000b0: aa57 a03e dfd7 7bbd f1dd 343d 1b64 8a3d
000000c0: 1675 15be 8400 12be 9f82 a43e 0d02 f5bd
000000d0: c47b 1fbe 66a2 70bd b352 47be fe0f 003d
000000e0: d7dd 64be 9fd6 503e 46ed 90bd 8376 bbbe
000000f0: 926c e83e 6090 30ba b1d8 39be a1f7 423c
-0.23368602 0.084677435 -0.20394856 -0.21449937 -0.047162406 -0.00021906255 0.12558308 -0.003590882
-0.11449949 -0.29825392 -0.20044482 -0.3725339 -0.30679908 -0.3426048 -0.29614112 -0.23013504
0.27891183 -0.2300767 -0.19104853 -0.08267799 -0.4224441 -0.26390502 0.5264877 0.16897877
-0.14168152 0.10424015 0.0072996155 -0.048731152 0.0015437129 -0.23932147 -0.024102736 0.14766286
0.03822969 0.4242989 -0.1928793 -0.36559677 0.38365898 -0.21109976 0.13928688 -0.07558196
-0.25931266 -0.25847125 -0.037398305 -0.14995791 0.31316882 -0.061485168 0.044156972 0.06757375
-0.14595446 -0.14258009 0.32130906 -0.11963282 -0.15574557 -0.058748625 -0.19465141 0.03126525
-0.2235025 0.20394371 -0.07076506 -0.36613855 0.45395333 -0.0006735381 -0.18149067 0.01189986

params,ScannedRNN_0,GRUCell_0,ir,kernel f4 [64, 64]
00000000: 87a8 16bf b7c7 153e 0b51 b33e 1b61 7ebe
00000010: 3d9b cbbe 0cd8 113f 190f 7cbf a075 c7be
00000020: e4f0 73be 041d c63d 7cb4 13be 980b 85be
00000030: 3672 babe 3627 9c3d ae23 dd3d f378 913d
00000040: 7553 3b3e 54bd 93be e8bf 743f ffdb 83bf
00000050: 6738 24bf 35a7 0ebe bc8e 6dbe e0e9 89be
00000060: 8e0c bb3e 0afe 7b3d cc1f 783e 3d4e 22be
00000070: cb07 013f 257d debe 88f7 b9be 954e 0b3f
00000080: f255 233f a464 a33f a5d5 11bd def5 80bf
00000090: 64b7 30bf 676d acbf a77d 623f 44e2 dd3e
000000a0: 64e8 793e d728 54be 173e 7bbf 0120 bdbf
000000b0: 22f9 62be 4979 45be afce 2abf 25b7 6f3e
000000c0: 7030 2bbe c1ff 3f3e 52a8 6ebf 5638 673f
000000d0: 58bd d9be 714d f5be 2cea a53e 0feb bdbe
000000e0: d73b 04bf f6ae aa3f dabc b4be a988 9a3f
000000f0: e8b1 60be 1736 c13d bc0e 91bd 33cd a53e
00000100: c730 013f 4ee7 473e d528 ecbe 5f79 353d
00000110: 94d6 843e 6ca4 0ebf 8dc4 e6bd e7f7 e3be
00000120: e16d 1bbf 60aa 82be 7283 4fbe a042 6ebe
00000130: 4a3e 343f 78b4 ba3e 367b b8be e4e3 f2bd
00000140: 82bb 4ebe c577 1bbe e2f3 9f3d 2c0a 293f
00000150: 4d85 cdbe fd2e 703e 49b7 793e 14a3 62bc
00000160: bde3 97bd 57b1 953e 2a14 a53d 8cc7 a7bc
00000170: 2d3a 37be 59d6 643e c26b bdbd 052d 2abd
00000180: 373e 01bf 808c 14be 06aa 34be 9cdf 963e
00000190: f117 d03e d591 403e f609 75be c0b8 50be
000001a0: 7a68 cc3e ee6e 4abf 6564 3abe 7938 893d
000001b0: 7274 c2bd 4fbe 14bd b10a 353f da7e dfbd
000001c0: 09a2 123f d2a3 3fbe 8c45 3d3e e01c b4be
000001d0: 07cc f3bd 7a83 6c3d 4403 86be 5b15 713e
000001e0: bd93 f73e 4887 6dbd b011 dfbe 4e37 6bbf
000001f0: 4bd4 febe 9ee1 ccbe 28dc ca3d 6ac7 ac3e
00000200: 0e69 9cbd b767 1dbf bd85 2ebf bc02 06be
00000210: 7a70 2c3d 7c7c 3abe 1251 aa3d 8835 b9be
00000220: 7928 97bf a360 50bf 9673 d5be a585 b03d
00000230: b119 ce3e ea7d febe ba37 6b3e 5d40 1c3f
00000240: a4da fabe 84bd cbbe 5e12 14bf 5cf3 393f
00000250: 4e57 a03d ac26 87bd 59c5 7b3e b4a0 2fbd
00000260: 0aed b9bc f5c9 c1bd a660 1b3f d529 93bf
00000270: 5619 513f 508f 313d cf58 0dbf 3528 c33d
00000280: 9d56 a93d b353 023f 2577 17be 9d8a 72bd
00000290: 00ea 48bf 77f6 9dbe 6b42 49be 8254 613e
000002a0: 6905 0ebf a8f8 15bf 07a7 b9be 5001 4fbe
000002b0: 9c22 8f3f 2aec cb3e 927a dd3d 4267 acbc
000002c0: d874 7bbf e29e e93e 9d8b 3a3f 4311 d1bd
000002d0: 4897 cb3d 7d0c 06be 7de4 b73e c451 e03e
000002e0: 3005 61bf 361b da3d 3cf6 c6be 8b04 da3d
000002f0: 5436 a7bc 51cf 5d3f 4be5 2c3d e577 a2be
00000300: 5abb 803d 3024 d5be 218a 13be 5cc8 2d3d
00000310: 8b1d 8b3d b50b 42be 2ed5 b93d 7592 233e
00000320: cbf0 84bc 8740 003f 6bd3 663f ad9f 7cbe
00000330: 437c 463f cf70 aabb 05d1 293e 75a1 263e
00000340: c48e ca3e b55b 05be bfb4 e0bd 9718 22bf
00000350: 8cba 1e3d a3c8 963d 0f82 563d d20f 84bf
00000360: f233 703e 10b3 203e b109 b43d 9cad 133f
00000370: c9c6 4ebf ffed c73d 7bfb bdbe 94b0 093f
00000380: 2075 153f 7b98 9abe a0b1 a9bd 1ab2 86bd
00000390: 1ba1 183f f761 0fbe 1cf1 133f c345 a93d
000003a0: 0f9e 013f 68a0 343f 332d 1dbf e941 8c3e
000003b0: cfe7 58be 7183 60be 1d8f 0a3f f4f5 59be
000003c0: a663 ff3e 979c 85be 30a8 86be c22b 97be
000003d0: ecf3 ac3e 3422 d63e 8e6e 04bf 39eb 56be
000003e0: e61b 0fbe 7703 b7be 78e4 8cbe 3ae9 cebe
000003f0: 983a 10be 9756 05bf a68a 0b3d 9067 c3be
-0.588509 0.14626966 0.35022768 -0.2484173 -0.39766875 0.56970286 -0.9846054 -0.38956928
-0.23822361 0.09673503 -0.14424318 -0.25985408 -0.3641526 0.076246664 0.10797821 0.07103147
0.18293555 -0.28855383 0.95605326 -1.0301512 -0.64148563 -0.13930972 -0.2319898 -0.26936245
0.36533016 0.061521567 0.2423088 -0.15850158 0.50402516 -0.43454853 -0.36321664 0.5441678
0.6380302 1.2765088 -0.035604138 -1.0075033 -0.6902983 -1.3470887 0.8847298 0.4333669
0.24405056 -0.20718704 -0.98141617 -1.4775392 -0.22165349 -0.19284548 -0.66721624 0.23409708
-0.16717696 0.18749906 -0.93225586 0.90320337 -0.4252727 -0.47910646 0.3240522 -0.37093398
-0.5165381 1.3334644 -0.35300332 1.2072955 -0.21942866 0.09434145 -0.070828885 0.32383117
0.50465053 0.1952183 -0.46124902 0.0443052 0.2594496 -0.5571964 -0.11267958 -0.44525072
-0.60714537 -0.2552061 -0.20264986 -0.23267603 0.70407546 0.36465812 -0.36031502 -0.11859873
-0.20188716 -0.15182407 0.07810189 0.66031146 -0.40140763 0.23455425 0.24386324 -0.013832826
-0.074164845 0.29236862 0.080604866 -0.020480894 -0.17893286 0.22347392 -0.09249069 -0.04154684
-0.5048556 -0.14506721 -0.17642984 0.29467475 0.40643266 0.1880563 -0.23929581 -0.20382977
0.3992346 -0.79075515 -0.1820236 0.067002244 -0.094948664 -0.036314305 0.7071944 -0.10912867
0.57278496 -0.18714836 0.18483561 -0.3517828 -0.119041495 0.057742573 -0.26174366 0.23543303
0.48354903 -0.057990342 -0.43568182 -0.91881263 -0.49771342 -0.40015882 0.09905273 0.3374589
-0.07637225 -0.6148638 -0.6817282 -0.1308698 0.042099454 -0.1821155 0.08316244 -0.36173654
-1.1809226 -0.81397456 -0.41689748 0.08619241 0.40253976 -0.4970544 0.22970477 0.6103571
-0.48994935 -0.39793026 -0.57840526 0.7263696 0.07829152 -0.06599173 0.24587001 -0.042877868
-0.022696037 -0.09462348 0.6069435 -1.1497141 0.81679285 0.043349564 -0.55213636 0.09529153
0.08268473 0.50908965 -0.14791544 -0.059214223 -0.78482056 -0.308521 -0.19654243 0.22004893
-0.55477005 -0.58582544 -0.36260244 -0.20215344 1.1182437 0.39828616 0.10814394 -0.02104533
-0.98225164 0.4562903 0.7286928 -0.102083705 0.09940964 -0.13090701 0.3591651 0.43812382
-0.8789854 0.10649721 -0.38859737 0.10645398 -0.020411648 0.86644465 0.04221086 -0.31732097
0.062857345 -0.4162917 -0.14408161 0.042427406 0.06792744 -0.18949778 0.09073864 0.15973838
-0.0162281 0.5009846 0.9016635 -0.24670286 0.7753336 -0.005201436 0.16583641 0.16272528
0.39562047 -0.13023265 -0.109719746 -0.6331877 0.038752124 0.07362487 0.052370127 -1.0317328
0.23457316 0.15693307 0.08790911 0.5768678 -0.8077207 0.09762191 -0.37105927 0.5378506
0.58381844 -0.30194458 -0.082858324 -0.06576939 0.5962083 -0.14002214 0.5778978 0.08265259
0.50631803 0.7055726 -0.61397094 0.27394035 -0.21182178 -0.21925141 0.54124624 -0.2128523
0.49880713 -0.2609603 -0.26300192 -0.29525572 0.33779848 0.4182297 -0.51731193 -0.20988168
-0.13975486 -0.3574483 -0.27518058 -0.40412313 -0.14084852 -0.5208525 0.034067772 -0.3816495
