baselines/QLearning/checkpoints/MPE_simple_push_v3/iql_ps.safetensors (safetensors, 107596 bytes, 14 tensors)

params,Dense_0,bias f4 [64]
00000000: 9d4f d6be 22eb 42bf b2a3 90be 93da d6bd
00000010: bdfd e2be 5d7a 4dbe 2830 86be 2022 c9bd
00000020: 2d3c 20be 8b76 f5be 9f1f a9be ae06 0cbe
00000030: 1513 45be ffc8 99bd f986 b1be 9230 fb3d
00000040: 6b29 9dbd 9bc4 e8be bf85 71bd 225b 93be
00000050: c227 b5be 1ed1 0ebf 49f7 58be 1931 c9bd
00000060: a625 25be 1248 1abf ef77 ddbd 58a2 6abc
00000070: 82fb 603d ffa5 93bd 2e84 94bd 61f6 97bd
00000080: 8bf8 90be 9483 d4be e620 21bf 95bc 2bbd
00000090: fa1c 1cbe cc0b 6e3d badc a2bd 5e3e 0cbf
000000a0: 6924 e0be a766 97be 24e1 08bd afe6 c83c
000000b0: 672e 64bc 6083 8abd 3f8f b8be 5797 9ebe
000000c0: 3e19 37be 7c77 8c3d b788 9bbe dec5 16be
000000d0: 88be 06bf a917 cebd a204 ddbe e5ea cebe
000000e0: 4731 70bd 55d6 fbbe fb57 9ebe 2ac3 87bd
000000f0: e685 13be 0ee0 d8bd edd7 dbbd 3114 12be
-0.41857615 -0.76140034 -0.2824989 -0.104909085 -0.44334212 -0.20066209 -0.26208615 -0.09820962
-0.15647955 -0.47942004 -0.33031937 -0.13674423 -0.1924556 -0.0750904 -0.34673288 0.122651234
-0.076739155 -0.45462498 -0.05896544 -0.28780466 -0.35381895 -0.5578784 -0.21188082 -0.09823818
-0.16127643 -0.6026622 -0.10813891 -0.014320932 0.054927357 -0.072093956 -0.07251774 -0.0742004
-0.28314623 -0.41506636 -0.62940824 -0.041927893 -0.15245429 0.05811672 -0.079522565 -0.54782665
-0.4377778 -0.29570505 -0.033417836 0.024524061 -0.013927079 -0.06763339 -0.36046788 -0.30974838
-0.17880723 0.06858727 -0.30377743 -0.14723918 -0.5263448 -0.100631066 -0.43167597 -0.40413585
-0.058640745 -0.4918696 -0.309265 -0.066290215 -0.14406547 -0.1058961 -0.10734544 -0.14265515

params,Dense_0,kernel f4 [21, 64]
00000000: 3d3b afbd 0b8f 24bc 3ddd e53d 31a0 5a3d
00000010: b912 4b3d 047e b1b9 20e9 b0bd 6612 a4bd
00000020: c4b5 28bd edc8 aabd b489 633d c059 03be
00000030: 488c 613e 9fff dbbd 1812 e13d 3f1d acbc
00000040: a185 ad3d 8f0b 8cbc e444 823c 1974 693d
00000050: d586 443e 7a78 b63c 5dbe 8fbe db9d 8fbe
00000060: 208a 8e3c ae2f a5bd 7723 99bd 0812 403e
00000070: a157 093e 3a5b 9ebd 4146 833d 46dc 04bc
00000080: da6c 85bd 8704 b93e 7077 503e c1bf ff3c
00000090: ee7a 8ebe a22a 93be 43f8 b63b 8c15 7d3c
000000a0: 6168 a23d a8f8 483d fb3f 7abe 4a54 07bc
000000b0: 0895 003e bf31 ebbc 2974 893d 9971 b13c
000000c0: f30d 55be 9798 debd 93a0 cfbb 09e6 a1bd
000000d0: 60f8 8b3e 849a ee3d e3ca 023e 043e 1cbe
000000e0: 5503 cb3e 057f a1be 8c96 b0bd 0fc0 69bd
000000f0: 570b 44bb d51c 253d 92a9 17bc 1c27 403e
00000100: adc4 513e 02b4 8cb9 b603 83bd 78b5 a6bc
00000110: baee 0fbe 649f 083c cf5a d53d 2f40 443c
00000120: 3c07 15be cb45 0ebe 5376 273d 8d9a 2d3d
00000130: 4794 0abe 3c44 bd3c 7a23 733e f07f 873e
00000140: 553f e9bd 6a57 fabd e942 9b3d 52a0 9cba
00000150: 4bb4 26be d8aa efbc 7474 723e 4cca 903c
00000160: b37e 143e a0b9 e33a 447a 18bd 3924 863d
00000170: b8bd 4a3e 50ce 6a3d e650 13bc c210 7ebd
00000180: abd5 b9bd 0ac0 c43c 2536 f9bd d39f 18be
00000190: 0d2f 6c3d 1272 a4bd 74de bc3e 96ba 753e
000001a0: 17c7 3d3e 8344 4fbd ee16 7d3e bc02 44be
000001b0: dc46 6cbe 71ff 44bd b558 a1bd 4565 07be
000001c0: 321e 80bc bbdf 993d 8712 90be 153c 12bd
000001d0: 5a2f 97be d4be e43d fecf 513c 0581 15bc
000001e0: 4c00 963d d1ef 0abe 91c8 183d cd98 623c
000001f0: 1076 0ebe 831d 7bbe 6bc1 0c3d fe8a 923c
00000200: 9704 563e f671 99be 55b7 aa3e 9f54 d8be
00000210: cf9c 0abd a753 073d 689d 6f3e 78e3 80bf
00000220: 9542 413f db41 2b3e 983a eabe a53f 673f
00000230: 926b 043e 23d5 f23d 1fb8 bcbd 7420 49bd
00000240: a9a6 c0be 5446 dabe 4bd7 cf3e f88f b8be
00000250: cb32 d0be dd08 003e f770 303f b8b9 863f
00000260: a5ce 7bbd 8503 5ebe dd62 eb3d 8f41 05bd
00000270: 3b2b 8b3e 5182 e83e d602 773f 7ac9 103f
00000280: 3f73 3dbf 7b9a a4bf cd0f cc3e c98b 033e
00000290: 4701 02bf 67a7 1a3f 13b6 ea3e 2864 70be
000002a0: 05e6 71bd c664 0dbe e48d 3f3f 3b2f e7bc
000002b0: 0fb9 bfbd c664 8e3e 0697 cf3e 52ed 943e
000002c0: cccf 5e3f ca65 623f 7467 cfbe 205c eb3e
000002d0: a980 e5bd 4372 173d 1d01 61bf 1033 cfbe
000002e0: cf89 9fbf 0624 ab3e 6832 bd3d 671c 5e3f
000002f0: a493 9abd 073f 1bbe 7bfd db3d 29fa 3a3e
00000300: 6672 11bf 648c 473e 3390 153e 916b f63c
00000310: 61ae f13e 6e1d 843f 3f5b bbbe 0cde bf3e
00000320: d116 493f 7400 083f 8a43 7c3e 61d9 c3bd
00000330: 8b69 723d 3469 1a3f 9aab 8d3e 5a4a 383e
00000340: f810 233f 1f5c c1be 6d36 52bf a91a 43bf
00000350: 82dd 1d3e 5296 bbbe cb97 dabe f1c1 a7bd
00000360: 4e60 22be d972 6dbe cf66 5e3d 7504 e73c
00000370: f771 153e 1e41 8dbd 64e5 223e 81d4 003f
00000380: 6b18 44bf ca91 e6bd 7ac6 a9be 40b3 843f
00000390: ebd4 71bb 6b7e 993d 3232 05bf b353 7bbf
000003a0: 9bcd 89be cdc7 ed3d b5db 03bf 8f03 d0bd
000003b0: 703a 503f ebec 5c3e b930 1bbf fe5d 04bf
000003c0: 43f8 d1bd 1d50 d3be b0ea 133f 4210 8cbd
000003d0: d953 ac3e c2d6 0f3e 93ca 39be 20ab 1abe
000003e0: 3eb8 ddbe 7b59 093e ecc1 ef3e f7d9 1ebd
000003f0: 3127 1c3e eab5 b83f bc7b 47be b3ee b53d
-0.08556221 -0.01004387 0.112238385 0.053375427 0.049578402 -0.0003385396 -0.08638215 -0.08011322
-0.04118897 -0.08339105 0.055551246 -0.12827206 0.2202617 -0.10742115 0.10989779 -0.02101004
0.08472753 -0.017095355 0.01590199 0.056995485 0.1919206 0.022274245 -0.28074923 -0.28050122
0.017399848 -0.08065735 -0.074774675 0.18756878 0.13412334 -0.07732244 0.06409884 -0.008109158
-0.065149024 0.36136267 0.20358062 0.031219365 -0.27828163 -0.28743464 0.0055837943 0.015447032
0.07930065 0.049065262 -0.24438469 -0.008259842 0.12556851 -0.028710244 0.06711609 0.021660613
-0.20806102 -0.10868948 -0.0063362806 -0.07905204 0.27337933 0.11650565 0.12772708 -0.15258032
0.3965098 -0.3154222 -0.086224645 -0.057067927 -0.0029913986 0.0403107 -0.009256737 0.18764919
0.20485182 -0.00026836997 -0.06397192 -0.020350203 -0.1405591 0.008338783 0.10417711 0.011978193
-0.14553541 -0.13893811 0.040884327 0.04238372 -0.13533126 0.023103826 0.23744002 0.26464796
-0.11389033 -0.12223704 0.075811215 -0.0011949635 -0.16279714 -0.02925627 0.23677236 0.017674588
0.14501457 0.0017374046 -0.037225977 0.06549878 0.19798934 0.05732566 -0.008991456 -0.0620277
-0.09073957 0.024017353 -0.121685304 -0.14904718 0.05766206 -0.0802957 0.36888468 0.23996958
0.18532978 -0.050602447 0.24715778 -0.19141668 -0.23073906 -0.04809517 -0.07878248 -0.13222225
-0.015639398 0.07513376 -0.28139135 -0.03570183 -0.29528314 0.1116921 0.012805937 -0.009124999
0.073242754 -0.13568045 0.03730065 0.013830376 -0.13912225 -0.24522977 0.034364145 0.017888542
0.20900188 -0.29969758 0.33342996 -0.4225206 -0.03384095 0.03303876 0.2339989 -1.0069418
0.7549222 0.1672434 -0.45747828 0.9033149 0.1293166 0.11857059 -0.09214806 -0.049103215
-0.37627152 -0.4263178 0.40593943 -0.3604734 -0.40663752 0.12503381 0.6892237 1.0525427
-0.06147637 -0.2168103 0.11493466 -0.032533225 0.2718142 0.45411924 0.964887 0.5655743
-0.74003977 -1.2859644 0.39855805 0.12846293 -0.507832 0.60411686 0.45842037 -0.23475707
-0.059057254 -0.13807973 0.7482588 -0.028220763 -0.09361469 0.2781126 0.4054491 0.2908731
0.8703582 0.8843657 -0.40508616 0.45968723 -0.112061806 0.036974203 -0.87892324 -0.40468645
-1.2463931 0.3342592 0.0923813 0.8676209 -0.075476915 -0.15160762 0.10741707 0.18259491
-0.56815183 0.19487149 0.14605789 0.030080589 0.47203353 1.0321481 -0.36593053 0.37474096
0.7855044 0.5312569 0.24635139 -0.09562946 0.059182685 0.6031678 0.27669984 0.17997113
0.6369777 -0.37765595 -0.821143 -0.76212555 0.1541653 -0.36638123 -0.42693934 -0.08191288
-0.1585705 -0.23188342 0.054297265 0.028200367 0.14594255 -0.06897186 0.15907818 0.50324255
-0.7659976 -0.11258276 -0.33159238 1.0367203 -0.003690059 0.074948154 -0.52029717 -0.9817459
-0.26914677 0.116103746 -0.5150712 -0.10156929 0.8133917 0.21574752 -0.6062122 -0.5170592
-0.1025243 -0.4127206 0.5777998 -0.068390384 0.3365772 0.14046767 -0.18143682 -0.15104342
-0.43304628 0.1341304 0.46827638 -0.038782086 0.15249325 1.4430516 -0.19480795 0.08883419

params,Dense_1,bias f4 [5]
00000000: f52d 5fbe c5a3 35be 4a82 6abe 7377 67be
00000010: 139e 3cbe
-0.21794875 -0.17738254 -0.22901264 -0.2260416 -0.18419676

params,Dense_1,kernel f4 [64, 5]
00000000: 33b8 053e 13a7 b7be 2f41 2bbd 09ec 4ebe
00000010: 562d 35be 85b8 3d3f 0eff bf3e c14a 3dbd
00000020: a923 8a3e 2426 7c3e b780 90bf b30e 03bf
00000030: e716 1ebf 419a 1fbf 90ba 22bf 1929 933f
00000040: 79b5 813f ddba 473f c92f 8a3f 29a1 423f
00000050: 09da c0be e120 e9be 49a2 18bf 2207 90be
00000060: 2ddf f0be 9436 90be 034e 38bf 930f 32bf
00000070: 1aaa 55bf 42be fbbe 5c06 313f d0d3 4a3f
00000080: 6615 673f c7be 0d3f af98 153f c6af 2a3e
00000090: 37b7 843e 48ec f2bc d997 073f 2ab0 ebbd
000000a0: 88dc 0d3f b0aa 9f3e 0ef4 8a3d 53f8 6f3e
000000b0: f35c f93e eccd fbbe 4c02 febe 4857 bfbe
000000c0: 91d6 00bf acc1 87be edb0 bd3e ec50 b63e
000000d0: 8f93 473e 8e81 cc3d 7efe 193f de40 c53e
000000e0: ab8c 723e 28b8 843e a92f 0b3f 6ed9 063e
000000f0: f84c abbe 4d5c 05bf 2d7c 1abf f977 5cbf
00000100: d5b3 f9be e936 c7be 31fc 7cbf ddb5 1ebf
00000110: edfb 2bbf a0c0 59bf 8bc7 d93c d0ad 34be
00000120: 9700 80bd 353a 8e3e 10fb fb3d 3f57 aabe
00000130: daca 63bf 954f 01bf 9edb 10bf 18a0 1bbf
00000140: cbff 083f 4a3a 333f 4968 1a3f db86 213f
00000150: 418d 173f 62ef 9bbd 69f0 29bf e239 e6be
00000160: 4458 4ebe 7ec1 15bf 8d0d 123f cc2f 243f
00000170: 4a90 193f a0a3 ec3e 02f5 2f3f 7276 60bf
00000180: 5990 46bf 6918 08bf ffc2 19bf bd08 02bf
00000190: 9df8 bebe 10d7 74be 2b4c 73bd 62af 9b3c
000001a0: 73c4 bcbd ce97 39bf 2ba6 f7be 49a7 73be
000001b0: 6d12 28bf b67d 9fbd eaa1 45bd 4df5 8cbe
000001c0: 8b66 963e fedc 0bbd 7d39 59be 8478 b23e
000001d0: 864d 5e3e b61a d43e 413a dc3e b2b8 fd3e
000001e0: 5b14 abbe 7300 18bf 4934 0fbf 725d 24bf
000001f0: ee95 d1be 170e 77bc 4016 cbbe 6ad1 98be
00000200: d8e0 86be 65f0 26bf 3f14 afbe 71f0 10be
00000210: 0518 fbbe b34d 80be 9d30 84bd 0363 0c3e
00000220: d8f2 e73d dcfd 653e 4f6a e7bd e490 263e
00000230: ff3a 53bf 03f4 8abe dc1c 34bf e527 75be
00000240: d6dd 9dbe da4f f23e 346f ed3e f752 8c3e
00000250: 7b14 d73e aaa3 343f 2263 1a3f 5d9f 723e
00000260: cb32 973e 7edb ed3e 9691 2b3f 0506 b0be
00000270: 418c 8abe 8f72 1ebf 8d56 43bf 38d9 0bbf
00000280: cf9c abbc 7968 9dbd 09d8 bfbd 65e2 88be
00000290: 9895 7a3e 99e5 283f 283c d03e 6803 563f
000002a0: ce15 b73e beb3 803f d1cb 49bf 3d83 3cbf
000002b0: cd8a 2ebf abd9 3dbf 048b bcbe 19bb 983e
000002c0: 5e06 32bd 28fa ed3e 438c c4bd e528 a33e
000002d0: c0a2 52bd ea33 adbe cc12 b13e 7241 9f3e
000002e0: ff53 9d3c ecf2 f9be 068d b8bd bcd9 3abc
000002f0: a79e 4f3c beaf c13c 6e20 f43e 9b43 f43e
00000300: f787 3d3f 3236 333f da45 123f 05f8 083f
00000310: ac5c 153c 936c 293f 4063 d73e 26bf c73e
00000320: 5d9e debe bb7f 87be b583 00bf 45e0 e7bd
00000330: c7ce e7be 7fad 4ebf 4a36 e7be b6a0 04bf
00000340: f819 4ebf 804f 72be 0949 19be 291b 5fbe
00000350: dcb5 c7be a8af ffbe b710 4fbe 0443 8fbe
00000360: d7f3 f9be b41b 70be 9708 c1be c2f2 b8be
00000370: 9df3 4cbd f3d5 c9bd 132d ee3d d3ee e8bd
00000380: 353b bcbd ae67 54be d7be c1be 8806 06be
00000390: db98 c0be 4d04 be3d 550c 383f a43e e13e
000003a0: dd53 983e bb2b 313f 4b5e 6c3e b879 653e
000003b0: 15a9 933e 6931 b23e 4275 253f 0cd8 173f
000003c0: 91b0 c73e aacb b93e bb2b a6bd 3dec 823e
000003d0: e04b 893e dd6a 083f 4199 ae3e 5ea6 813f
000003e0: f6b6 713f fbda bf3e 6f1c 213f ae36 353e
000003f0: 59f8 b03e dd12 8d3d 327f 593d 1dc0 1ebf
0.13058548 -0.35869655 -0.04181021 -0.20207228 -0.17693076 0.7410968 0.3749928 -0.04621387
0.26980332 0.24623924 -1.1289281 -0.51194304 -0.61753696 -0.6234475 -0.6356592 1.1496917
1.0133506 0.78019506 1.0795833 0.7602716 -0.37666348 -0.45532897 -0.5962263 -0.28130442
-0.4704527 -0.2816664 -0.71994036 -0.69555014 -0.8346268 -0.49168593 0.6915033 0.7922945
0.90267026 0.5536923 0.584361 0.16668615 0.25921032 -0.029653683 0.52966076 -0.1150821
0.5541463 0.31184912 0.06784831 0.23434572 0.48703727 -0.49180543 -0.49611127 -0.37371278
-0.503274 -0.26514947 0.37049046 0.35608613 0.19489883 0.09985648 0.6015395 0.38526052
0.23686473 0.2592175 0.543696 0.1316888 -0.3345716 -0.52093965 -0.6034573 -0.86120564
-0.48770013 -0.3890908 -0.98822314 -0.6199625 -0.67181283 -0.8505955 0.026584407 -0.17644429
-0.062501125 0.27778783 0.12303746 -0.33269688 -0.889814 -0.5051206 -0.5658511 -0.6079116
0.5351531 0.7001082 0.60315377 0.630964 0.5919991 -0.07614018 -0.6638246 -0.44966036
-0.20150858 -0.5849837 0.57051927 0.6413543 0.5998579 0.46218586 0.6873323 -0.87680733
-0.7756401 -0.53162247 -0.60063165 -0.50794584 -0.37299052 -0.23910165 -0.05939881 0.019004527
-0.09217157 -0.7249726 -0.48368964 -0.23794283 -0.65653116 -0.07787649 -0.048250116 -0.275309
0.2937511 -0.0341463 -0.21213336 0.3485757 0.2170926 0.4142663 0.43013194 0.49554974
-0.33413967 -0.59375685 -0.55939156 -0.64205086 -0.409347 -0.015079043 -0.39665413 -0.2984727
-0.26343417 -0.6521056 -0.34195134 -0.14154221 -0.49041763 -0.2505928 -0.06454585 0.13709645
0.11325616 0.22460121 -0.11299574 0.16266209 -0.82511896 -0.2713929 -0.70356536 -0.23941
-0.3083331 0.47326547 0.46373904 0.27407047 0.42007813 0.7056223 0.60307515 0.23693605
0.2953094 0.46456522 0.6701902 -0.34379593 -0.2706013 -0.6189355 -0.7630394 -0.54628325
-0.020948796 -0.07685942 -0.09367377 -0.26735225 0.24471128 0.6597534 0.40670896 0.8359895
0.35758823 1.0054853 -0.78826624 -0.73637754 -0.68180543 -0.7416026 -0.3682481 0.29830244
-0.043463103 0.46479917 -0.09597065 0.31867138 -0.05142474 -0.3382867 0.34584653 0.31104618
0.019205092 -0.48818147 -0.09011273 -0.011404451 0.012672103 0.02364337 0.47680992 0.4770783
0.7403559 0.7000457 0.57137835 0.5350345 0.009116333 0.66181296 0.4206791 0.39013022
-0.43480197 -0.26464638 -0.5020097 -0.11322073 -0.45274946 -0.80733484 -0.45158607 -0.51807725
-0.80508375 -0.2366314 -0.14969267 -0.21787705 -0.39005935 -0.49938703 -0.2022122 -0.27980816
-0.48818848 -0.23448068 -0.37701866 -0.3612271 -0.050037015 -0.09855261 0.11629691 -0.11373677
-0.0919098 -0.20742676 -0.37840912 -0.13088429 -0.3761662 0.09278164 0.7189382 0.43993104
0.29751483 0.6920735 0.23082845 0.22409713 0.28839937 0.34803322 0.64632046 0.59314036
0.39001897 0.36288196 -0.0811381 0.2557086 0.268157 0.5328806 0.34101298 1.0128896
0.944198 0.37471756 0.6293401 0.1769664 0.34564474 0.068883635 0.05309982 -0.6201189

params,ScannedRNN_0,GRUCell_0,hn,bias f4 [64]
00000000: a434 5abc e362 f6bc 115e e9bc c3fd 32bd
00000010: 732f e13d 87d4 acbd 61cf 12bd 3bd2 ce3b
00000020: 1f9d aebd 5fbc 1cbe 9d7b 9fbd ace1 fa3c
00000030: 0a94 03be ce56 8bbd 1f09 1bbe c277 943d
00000040: 502b 243e 68ff 85be a6e3 25be 12b6 ba3d
00000050: 4061 bebd a58a 78be 13d8 bdbb b2de 883d
00000060: e4b0 983e 67f9 e0bd 2ce8 c8ba 67fc 53be
00000070: 3de7 66bd cded 763c 221d 1a3e 11cc 1cbd
00000080: 791f 4c3d df26 833c 24f7 1cbc 48e8 9abc
00000090: a4f7 463d 56a4 803c 1f7d d63d 5e3c 6a3e
000000a0: 0f1e 383e 03ad 5d3e 062d 2cbe 2d61 22bd
000000b0: 220d bcbd 9aa4 06be c01f 0ebe cf11 723c
000000c0: f240 933c f986 b7be aaab 29bc 86b4 6abe
000000d0: b20a 99bc ff1a 45be 1fe5 253e b386 fdbd
000000e0: 5c7d 1a3e fba7 20be f03e 87bc 127d a7bd
000000f0: 0053 983d 3760 73bd 6a08 adbd ed2e b53e
-0.013318215 -0.03007645 -0.028487237 -0.043699037 0.10995378 -0.08438974 -0.035842303 0.0063116825
-0.08526062 -0.15306233 -0.07787249 0.030625187 -0.12849441 -0.06803666 -0.15140198 0.072494045
0.16032147 -0.26171422 -0.16200122 0.091167584 -0.09295893 -0.24271639 -0.0057935803 0.06683101
0.29822457 -0.1098507 -0.0015327982 -0.20701753 -0.05637287 0.015071345 0.15050176 -0.03828055
0.049834702 0.016009746 -0.009580407 -0.018909588 0.048576012 0.015703361 0.10473084 0.22874591
0.17980216 0.2164803 -0.1681405 -0.039643455 -0.091821924 -0.13148728 -0.13879299 0.014774754
0.017975304 -0.35845163 -0.010355869 -0.22920427 -0.018681858 -0.1924858 0.16200684 -0.123792075
0.15086883 -0.1568908 -0.016509503 -0.08178152 0.07437706 -0.05941793 -0.084488705 0.35387364

params,ScannedRNN_0,GRUCell_0,hn,kernel f4 [64, 64]
00000000: 16f4 d0be d256 913c dac6 b9bd d4cd f0bd
00000010: 8b72 94bd a3ed adbd 3814 4aba cbf8 083e
00000020: 6f56 5f3d 5c64 743d 9467 51be 822f 5b3d
00000030: 295e abbd 12c3 a5be b40d d7bd a19a 9e3c
00000040: e9ae 803d d6db 2cbe 9eba a2be dbd3 d3bd
00000050: c000 a03e f759 4f3d 3998 a9be 0dfa 0a3c
00000060: 85d6 143e 7ade 8cbe 4c1f 1dbd f3fc 423e
00000070: 809f 4e3d 654b 2e3e 7075 113e 29c5 1a3e
00000080: 2c30 85bd ef93 8dbe 63dc 65bd 5070 b4bd
00000090: d5c4 44be b5af 813b 3a9e ca3d 4772 adbc
000000a0: 225c c93c a118 8a3d 19cd c2be 6b50 653d
000000b0: a456 b7bb dd1b 44bd 8f59 6f3d fa3a a5be
000000c0: 0d6b b73c 987c 523d 4db9 61be ccad 24be
000000d0: e08e 273d 4c77 4dbd bc37 adbd 33ee d03d
000000e0: 8921 9f3d 0e8e ca3d 9f33 d23d f59d 6bbd
000000f0: 43f5 953d 7daf 27be 2bb1 243e 6a25 42bd
00000100: 04f2 f83d 53ca bfbe c299 dd3d 1f17 29bd
00000110: feef cebe 231e 10be 6eb5 ad3c 9421 5dbe
00000120: d64c e23d bed2 e9be 9845 873e d002 aa3d
00000130: b881 273d b289 40be 87e3 4f3d 727f b6be
00000140: 4352 22be 24db 113e 0535 323f eed5 c6be
00000150: c0ae ab3e 0acf 2b3e 5f55 93bd b36a 6f3e
00000160: 47e6 47be 0266 81bd 5969 093e e117 a0bd
00000170: f9b8 0b3c 6cdb 943e 8ab1 0abd efec f4be
00000180: d3f7 99be cf71 0dbe 9411 b9bd a879 933e
00000190: 076f 1cbd dd43 98bd 208d f23e 50f1 023e
000001a0: 8549 eebd f5d2 a8bd 5538 f63d 35a8 c23d
000001b0: 6d00 6cbe a0ce 293e 0036 e93d 2c40 00be
000001c0: b227 9cbd f2ba e13e 1dee 1b3e 0d7b 42be
000001d0: 7fec 7ebd ff26 44be 5e8a 47bc 68e2 f43e
000001e0: 5e43 873e cd17 3cbe 19b4 b83d c1d3 bcbd
000001f0: 8936 603a 8625 8dbe ed36 5cbe 443f 39be
00000200: b94d 103e 6cb8 e53c bef1 31bf 9e39 4b3e
00000210: c170 a3bc 33be 0fbd 94bd d23e 8ea8 4e3e
00000220: 058a 873e bb7e 12bd 35b9 223d b8e8 183e
00000230: 5bd8 68bd 9cc2 e4bd 00ca 73be 0a60 c2be
00000240: 95e7 7d3d 4278 09bd 2316 c6bc bce3 a8bd
00000250: 273e 22bc 422b 44be 77e0 c33d ea65 373e
00000260: ac86 b63d cc6b 5cbd f21f 17bc 737e 94bd
00000270: 1388 eebd 1d2f 1b3e 9447 64be 3169 263d
00000280: 1a3f 183e 0972 ae3e dfe1 c9be a4ea 133e
00000290: 8a49 7b3d 859e 203e 1a7f 903e eb3a 343e
000002a0: 0b48 74bd 133e b5be 1c4b 4ebe b2bd 2abe
000002b0: 8839 fdbd e8a1 e0bd 4f3d 8ebd fe1c 333e
000002c0: 991f 47bd a28a e6bc 24e1 0c3d 85b5 bebd
000002d0: 5152 1f3d f73f cb3e cc34 523e 2d1d 843e
000002e0: f80c f33e 587e c9bc db27 64ba 2f84 833e
000002f0: 828e 7f3e 24c2 993c 825b 1dbd 1249 a4bb
00000300: 257e 8a3e 702b 9abe 89d8 823e fc55 e2be
00000310: 1585 dc3d 1ccf 843e 4e29 7e3e a6fc 8bbe
00000320: dfe2 28be 3a87 253e 8ecf 06be 4627 0fbd
00000330: 693f c8bd 71d1 fe3c 6264 f53d b947 ed3d
00000340: 3f20 20be 8ff8 b63d c854 aebe e5c0 ddbd
00000350: b842 923e 4e5e dd3d eee3 c43e f4fe acbd
00000360: a8ed 1fbe 4254 d73d 93a2 a53d 617b 073e
00000370: 8079 533e cb8c 863d c101 313e 0afb 1c3e
00000380: 15ac c9bd fc5c 44be 831b 0bbd 855c 0d3d
00000390: ba61 50be 60a2 bb3e 0565 e0be 4d6b 80bd
000003a0: 5f1e ad3d 67c2 2f3e b425 8abc 030b 4f3e
000003b0: 39cc 613e cddb b13c d900 b8bd 50a4 783e
000003c0: f6ee c2bc ac0b f0be e046 8a3e 4895 0cbe
000003d0: f998 2d3e 8fc5 2d3d 4dbe a5bd 83b7 803d
000003e0: b7c7 053e 8bc6 483e 438a a0be c877 08bf
000003f0: 151b 7bbd 46e4 c83e 5865 2abd dc1d 45bd
-0.40811223 0.017741594 -0.09071131 -0.117580086 -0.0724841 -0.08492591 -0.00077087013 0.13376157
0.05452579 0.059666023 -0.20449668 0.053512104 -0.08367569 -0.3237539 -0.105006605 0.019360842
0.062833615 -0.16880736 -0.31783003 -0.103431426 0.31250572 0.050622907 -0.3312395 0.008482468
0.14534958 -0.27513486 -0.038359925 0.19041805 0.05044508 0.17020948 0.14204955 0.15114273
-0.06503329 -0.27651927 -0.05611838 -0.088104844 -0.1921571 0.0039577135 0.098934606 -0.021172656
0.024580065 0.06742979 -0.38047102 0.055984896 -0.005595045 -0.047878135 0.05843502 -0.32271558
0.022389913 0.051388353 -0.22043343 -0.16081923 0.04090774 -0.0501626 -0.08457896 0.10201683
0.07770068 0.09890376 0.10263752 -0.057523686 0.073221706 -0.16375537 0.16083209 -0.047398962
0.12155536 -0.3745905 0.108203426 -0.041281816 -0.40417475 -0.14073996 0.021204676 -0.2159484
0.110498115 -0.45668596 0.26420283 0.08301318 0.040895194 -0.18802527 0.050754096 -0.35644108
-0.15851693 0.14243752 0.6961215 -0.3883509 0.3353176 0.16778198 -0.071940176 0.23380546
-0.19521438 -0.063182846 0.13419093 -0.078170545 0.008527988 0.29073656 -0.03386072 -0.47837016
-0.30071887 -0.13812946 -0.09036556 0.28803754 -0.03819182 -0.07434819 0.47373295 0.12787366
-0.116351165 -0.08243362 0.12022463 0.09504739 -0.23047037 0.16582727 0.11387253 -0.1252448
-0.07624759 0.4408794 0.15227552 -0.18992253 -0.06223726 -0.19155501 -0.012178985 0.47828984
0.26418585 -0.18368454 0.09018726 -0.09220076 0.0008553048 -0.2756769 -0.21505328 -0.1809054
0.14092149 0.02804204 -0.69509494 0.19846198 -0.019951226 -0.035093497 0.41160262 0.20181486
0.26472488 -0.03576539 0.03972741 0.14932525 -0.056846958 -0.11169931 -0.23807526 -0.37963897
0.061988432 -0.033561952 -0.024180477 -0.08246562 -0.009902514 -0.19157127 0.09564298 0.17909971
0.08912405 -0.05381374 -0.009223925 -0.07250681 -0.11647048 0.15154691 -0.2229293 0.040627662
0.14867821 0.34071377 -0.39430138 0.14444977 0.06134943 0.1568547 0.2822197 0.176006
-0.059639018 -0.3539892 -0.2014584 -0.16673926 -0.12364489 -0.10968381 -0.069452874 0.17491528
-0.04861412 -0.028142277 0.0343944 -0.09311966 0.038896862 0.3969724 0.20527953 0.2580351
0.47470832 -0.024596378 -0.00087034487 0.25686786 0.24956706 0.018769331 -0.038417347 -0.0050135935
0.27049366 -0.30111265 0.25555828 -0.44206226 0.10767571 0.25939262 0.24820444 -0.27341193
-0.16492794 0.16164866 -0.13165113 -0.034949563 -0.097777195 0.031105729 0.11982037 0.11585946
-0.15637301 0.089341275 -0.34049058 -0.10827807 0.28566527 0.10809003 0.38455147 -0.08447066
-0.15618002 0.10514118 0.08087649 0.13230659 0.20651817 0.06569823 0.17285825 0.15330139
-0.09847275 -0.19176096 -0.033961784 0.03451206 -0.2034978 0.3664732 -0.43827072 -0.06270466
0.084530585 0.17164002 -0.016863681 0.20219044 0.22050561 0.021711254 -0.08984537 0.2428143
-0.023795586 -0.46883905 0.27007198 -0.13728821 0.16952886 0.042424735 -0.080929376 0.06285002
0.13064466 0.19606988 -0.31355485 -0.5330777 -0.061305124 0.3923666 -0.041600555 -0.04812418

params,ScannedRNN_0,GRUCell_0,hr,kernel f4 [64, 64]
00000000: c2a3 1cbd ec12 b63c 2ce6 2a3e 93a2 08be
00000010: dc81 b1be f1e3 83be 3167 703c d79a dc3d
00000020: 5c1a 51bd 4920 5e3e 9634 4cbe cc5a 003e
00000030: 482e 9bbd c4aa 133d 53c9 d1bc c50e 0f3e
00000040: 6fd1 143e 5acd bf3b ae03 ca3d b8b3 c0bb
00000050: a5cc fb3b f444 07be 1daf 92be 015b 563d
00000060: d5e7 08be 4bbc 42be f069 68bd 183a 7b3e
00000070: df48 a6bd 0f1c 993b 1930 753d 7d35 193e
00000080: bfdc 473e 4a86 06be 67e1 61be fec8 0abe
00000090: 0935 463d abf5 e7bc 0557 a3bd 188f c0bb
000000a0: 631c c7bc b714 4cbd c240 87bd 8ca5 b4bc
000000b0: 2eff 83bd df04 2f3c 4af0 24bd 4fcc 6bbe
000000c0: fefb 943b b5ca b53c 0dc0 bbbc ef21 f63d
000000d0: 6816 a03d 3844 3c3d a117 133d 2720 8a3e
000000e0: 7839 cd3d 8373 843d 99c5 61be 347b f1bb
000000f0: 0457 823e 751c 99bd 2dd6 ba3d 5ea3 ed3c
00000100: 826e c03d 05d5 60be 2f66 1abe 60b7 4b3d
00000110: e3bd 92be bf19 b7be 9642 a63e c091 9bbd
00000120: d1c9 73bd 2a89 c7be d279 a9bd 6521 ffbd
00000130: 1d23 09be 94b1 34bc 3322 393e cb49 a2bc
00000140: 7188 f3be af5e ba3d f8c9 87be 741a cabd
00000150: 5213 8f3d 25e9 563e d6b8 17be b28a c4be
00000160: 47f1 86be aa91 d9bd e789 9bbc d09b 85be
00000170: ebaf 7b3c 024f b4bd 8d9d e73d df78 b0bd
00000180: 9b35 89be 8bbe 443e 66aa bc3d a8c9 193e
00000190: c1cb 23bd 69f9 cb3c 2fb9 75be cd21 a43c
000001a0: 096b 39bc e16f 193f a057 43be 7fb7 85bd
000001b0: f31d 72be 75a3 c33d 3bfc 54be d784 93bd
000001c0: 7f27 8f3d fc63 46bd 10b6 b3bd b096 98be
000001d0: 8271 263b 6b58 8b3e 37e8 6c3d 9123 eabd
000001e0: 86d7 1f3f f296 9dbd 4a32 9cbc b248 e5bd
000001f0: ba36 1c3e 9115 6e3d 28a7 89be 8e49 163e
00000200: 9e91 3abe 6e1b 5cbd cdcc ed3d cc7d 813e
00000210: ab1a 7bbd ff3c 51bc 8856 95bd f8cf ad3d
00000220: e58d 2cbc 1955 633e 2e12 08bd 4c38 35bd
00000230: a821 99bd 110f 183d aa94 913d 5c81 183e
00000240: 4cf9 e0bc e0e5 e5bd 5098 dd3d 9e55 68bb
00000250: 9281 183e 5acf 9d3e 6269 163d 93ea 833d
00000260: 06e4 4b3e 1f42 223d eac9 8b3d 3c2f d53a
00000270: c986 6e3e 1ffc 09be 5892 263d 63ae 213c
00000280: 1ffe dcbd 0c92 213d f2da 393e bf4b 9a3c
00000290: db9a 243d e808 7a3d 4bac a43e e563 bc3c
000002a0: 893b 32bd 1e29 8cbd 336f f3bd 33be c33d
000002b0: 324a e6bd e32c f83d 24c2 293e 686d afbe
000002c0: ca4a a43d 1bd5 413d 0f2e f1bc e374 cfbd
000002d0: d329 81bb 8b99 a0bd 462a 873d 2346 78bc
000002e0: 1e62 703e 53b2 723e 5ce8 e43c ea33 3a3d
000002f0: 89c3 68bc b242 31bd fb62 bf3d fd26 b1bc
00000300: 8d4c b13d 1623 483e f7f3 4ebe d231 12bb
00000310: 18fa a8be 7dd1 3f3e f67b 0abe eda9 5f3e
00000320: 4bfa eebd 7071 913c f2bb 62be d127 253e
00000330: 0474 2bbe e614 2abe dc1f 62be e59d 10be
00000340: fa9e 2d3e 5e0a e8bd 0582 73bd f3dc d93c
00000350: 199b 573e 7d4f 58be 925e b33d 17d6 c1be
00000360: e4d8 66bd 3a31 48be c071 1f3e 144f 41be
00000370: e853 c93c 9921 adbe b34b 7d3d 2b82 223e
00000380: 7fbc 8f3d 723b d6bd 255f 93be c6d7 68bd
00000390: 1eff 07be c326 373d 6a9d 583d 5570 e0bd
000003a0: 84bd c8bd 64c4 7abe 4566 b73d b85c 193e
000003b0: 86d3 003d 1644 11bc b1d7 c9bd 0a49 b63c
000003c0: a31f 943d 6fce c1bd b6ba e1bd d626 6abe
000003d0: 22bf d73d c3e6 e33d e277 e3bc 4bca 673d
000003e0: 4754 a2be e78c 1bbe 4097 813d 3918 8d3e
000003f0: 117a a03d cd12 a0bd 8f86 55be 16fe 4abc
-0.03824211 0.02222582 0.16689366 -0.13343267 -0.34669387 -0.25759843 0.01467304 0.10771721
-0.05105053 0.21692003 -0.19941935 0.12534636 -0.07577187 0.036051527 -0.025608694 0.13970478
0.14533018 0.0058533372 0.09863983 -0.005880799 0.0076843076 -0.13209897 -0.28649226 0.05233288
-0.13369687 -0.1901714 -0.056741655 0.2453388 -0.08119368 0.0046725343 0.059860323 0.1496181
0.19517802 -0.13137165 -0.2205864 -0.13553235 0.048390422 -0.028315386 -0.07975582 -0.005876433
-0.024305528 -0.049824443 -0.066041484 -0.022051595 -0.06445156 0.010682314 -0.04026822 -0.23027156
0.0045466414 0.022191385 -0.022918725 0.12018191 0.07816774 0.045963496 0.035911206 0.26977655
0.10020727 0.064673446 -0.22048034 -0.0073694233 0.25457013 -0.07476131 0.09122882 0.029008564
0.09396078 -0.2195626 -0.15078042 0.049735427 -0.28660497 -0.3576183 0.32472676 -0.07596159
-0.05951864 -0.38971835 -0.082751885 -0.124575414 -0.13392301 -0.011028666 0.18079452 -0.019810578
-0.47565034 0.09100091 -0.26521277 -0.09868327 0.06986107 0.20987375 -0.14816603 -0.38387066
-0.26355955 -0.10623486 -0.018986655 -0.26095438 0.015361766 -0.08804132 0.11309347 -0.08616804
-0.2679871 0.19213311 0.092121884 0.15018332 -0.039989237 0.024899201 -0.23996423 0.020035649
-0.011317023 0.5993634 -0.19076395 -0.0652914 -0.23644237 0.09552661 -0.20799343 -0.072030716
0.06989955 -0.048435196 -0.0877496 -0.29802465 0.0025397246 0.27215895 0.057838645 -0.11432565
0.6243824 -0.07694806 -0.019066948 -0.11195506 0.15255252 0.058126036 -0.26885343 0.14676496
-0.18219611 -0.053737096 0.11611328 0.25291288 -0.06130473 -0.01277089 -0.07291895 0.084869325
-0.010531877 0.22200431 -0.033220463 -0.044243142 -0.074771225 0.037123743 0.071084335 0.14893097
-0.027462624 -0.11225486 0.10820067 -0.0035451422 0.14893177 0.3082226 0.036721595 0.06441226
0.19911203 0.03961384 0.068256214 0.0016264687 0.23293604 -0.13475083 0.040666908 0.009868237
-0.10790657 0.03944592 0.18149927 0.018834947 0.040186744 0.06104365 0.321627 0.022996852
-0.04351381 -0.0684378 -0.11886444 0.09557762 -0.112446204 0.121179365 0.16577965 -0.34263158
0.080220774 0.047322374 -0.029440908 -0.10129716 -0.0039417534 -0.07841786 0.0659986 -0.015153441
0.23474929 0.23700838 0.027942829 0.045459665 -0.014206775 -0.043276496 0.09345051 -0.021625036
0.08657179 0.19544634 -0.20210253 -0.0022307527 -0.33003306 0.18732257 -0.1352385 0.21842165
-0.11668833 0.017754287 -0.22142008 0.1612847 -0.16743475 -0.16609535 -0.22082466 -0.14122732
0.16955176 -0.113301024 -0.05945017 0.026594615 0.21055259 -0.21124072 0.08758272 -0.3785865
-0.056359187 -0.19550028 0.15570736 -0.18877822 0.024576142 -0.33814695 0.06183977 0.15869968
0.07018375 -0.10460557 -0.28783527 -0.056846403 -0.13280913 0.0447147 0.052884497 -0.10958926
-0.09801772 -0.2448898 0.08955053 0.14976776 0.031451724 -0.008866331 -0.09855593 0.022251625
0.07232597 -0.09463202 -0.110219404 -0.22866377 0.105345026 0.11127999 -0.027767126 0.056589406
-0.31704924 -0.15190469 0.06327677 0.27557543 0.07835782 -0.07816086 -0.20852111 -0.01238968

params,ScannedRNN_0,GRUCell_0,hz,kernel f4 [64, 64]
00000000: ec6f adbd 49ef 39be 3c50 223e 899e 0cbe
00000010: fad1 5f3d d167 813d 18f9 c63c 7fd9 91bc
00000020: 6a7d 25bd f019 d23d ecf8 c53d c755 10be
00000030: 8d4b 78be 5257 013e 9c56 12be f547 533e
00000040: 1eb0 9b3d 82a4 043d 371e 46be 641c 753e
00000050: dea2 ce3d 8c13 a23d 1897 ef3b 877c 743e
00000060: a24a 123e cedf 3cbd b526 adbc 8083 5abe
00000070: 2a22 953e ccc4 74bd 549e 153b ad2f e8bd
00000080: 324d 8b3d 0a99 a43d b0ee 3b3d 3494 49be
00000090: c740 8dbd f794 80be 8998 1e3e 7219 923d
000000a0: 11cb 8d3c cfa2 a5bc 0bac 0fbd 01d7 2f3e
000000b0: 3fd5 e3bd f688 e0bd e6b1 24be 4854 62bd
000000c0: dc5d dd3d 479e 103e 67fe f53d 573e 09be
000000d0: 731d 223d b6bb 2d3d 3d24 543d f7a9 a83d
000000e0: 7073 bd3d ca27 58be 6bca 563e 99be 453e
000000f0: 8168 33be c01b 86be 4023 e4bd ed11 c4bd
00000100: be0a e33c e167 35bc 5dda 253d 0eb1 41bb
00000110: a4f1 f1bd 1b52 ff3d c8c8 a03c fab8 233e
00000120: 1036 b4bd e3af b0bd 1226 19be 43ab 5bbe
00000130: 3c72 f73d 7c6f c6bd 1586 e23d 0eaa 4fbc
00000140: f618 5a3e 78e1 eabc eba3 b4be 4b2a 39bc
00000150: 7779 28bd bfce 233e 86a5 af3d f504 b3bd
00000160: dced 643d e0b9 223e 6c30 433c 8a2f 493e
00000170: 711e 36be 5b64 323e 2169 30be 615e 53be
00000180: f12a 0dbe 93f8 ce3d 21ce 5dbd 3456 df3d
00000190: 5b49 c3bd 45ec 5c3e f5d7 a73e 7be5 383d
000001a0: 741d 253e 136f b93d 4e7e 03be 6176 5f3d
000001b0: b59a 3f3e c049 483d b1a1 aa3d 07e1 933e
000001c0: 3a56 b5bd 4608 113e 0798 743d b1b6 7fb9
000001d0: a907 6d3e 4379 363d da53 0fbe 98c0 cd3c
000001e0: 6b15 23be 0274 e7bd 764f 843e 1f49 0f3c
000001f0: fbb7 b7bb ae27 3fbd fff7 19be 5dec 7a3d
00000200: b9e7 b13b 27be 993d b6cd 42be befc c03d
00000210: d0f0 07be fbdd 0bbe 2ad2 9d3e 4c46 bebd
00000220: 0aeb 8abd cbc6 d5bb 85af b93d dcd9 cebc
00000230: 528e 29be 1a25 e33d 81e8 893d d114 a1be
00000240: df27 43be 1d98 f9bc 20fe edbc be17 293d
00000250: b2a1 67be a06f d33c ea7c 0a3e e95d 9dbd
00000260: d1cf 92bd 56c7 3abd 37af 0fbe 0450 d8bd
00000270: 205b 71bd 4e5b af3c 8118 2a3e e91c 4d3c
00000280: f307 d73d d70d 2a3e 813d 31bd fec3 8fbd
00000290: d8ee 00be bcc5 cc3c a002 2c3b 567d 29be
000002a0: df6a 783d 3ee3 59be dd7e b1bd f038 86ba
000002b0: 0e0e 823d 985f 503d 957b 78be 9d25 653c
000002c0: 47e4 31be f8d1 aabd affe 9dbd ae65 05be
000002d0: 246e 9bbd aa1e 20be bc59 543d ad56 27be
000002e0: 092d 8dbc 18ca 4a3d e451 a03b aa50 7bbe
000002f0: ff0b c93b 8306 72be 3111 06be 53a2 8b3c
00000300: 0fa4 7fbd 07eb 4fbc cdaa f9bc 55e1 a4bd
00000310: 56a2 b6bd 7f93 28be 60ba 44bd 4c8c 863d
00000320: 0de6 a63d 7445 943c eaba 08bc 6601 d6bd
00000330: e38c 6abd 7583 84bc 49a0 853e af56 1c3e
00000340: c1cd a23d 2c29 44bd fd98 183d cd1e 6bbd
00000350: aa13 2fbe d130 f43c a178 ce3d d265 793d
00000360: 9fae 383e 9771 4a3c 2967 44be d79d d33d
00000370: abab 963d 32ec 1cbe 51ce e4bd 6174 353e
00000380: 18a3 2f3d 01f2 eebd 0d63 91bd 50f5 dcbd
00000390: 1d7e e73d 17f8 733e 5e5f 403d c32b e5bd
000003a0: 37e5 0a3d c5f5 b3bd 851d 8a3e 4b35 edbd
000003b0: 1e00 5f3e 41b2 29be fa30 32be 1b91 47be
000003c0: 053b 8ebd a718 24bd cfb6 6cbd 50a1 073e
000003d0: 8b48 023d b67b 873e 7c50 35be 0948 4dbe
000003e0: dad8 d5be d5cc 443d 4f45 7d3e 2de6 4dbe
000003f0: d75e 3cbd 70c9 093e 1ae3 c53c 6672 feba
-0.08468613 -0.18157686 0.1585092 -0.13732351 0.05464361 0.063186295 0.024288699 -0.017803906
-0.040402807 0.102588534 0.09666619 -0.14095221 -0.2424757 0.12630966 -0.14290851 0.20632918
0.07601951 0.03238345 -0.19347464 0.23936611 0.10089658 0.079138845 0.007311713 0.23875628
0.14286283 -0.046111874 -0.021136621 -0.21339226 0.29127628 -0.059757993 0.0022829967 -0.113372184
0.06801833 0.080370024 0.045881927 -0.19685441 -0.06897121 -0.2511365 0.15487875 0.071337596
0.017308744 -0.020219235 -0.035076182 0.17171861 -0.11124658 -0.10963623 -0.16083488 -0.055256158
0.10808918 0.14122878 0.12011414 -0.13402687 0.039578866 0.042415343 0.051792372 0.08235543
0.092505336 -0.21108928 0.20975654 0.19310988 -0.17520334 -0.26193047 -0.11139536 -0.095737316
0.027715083 -0.01107213 0.04049145 -0.0029554996 -0.118136674 0.12466832 0.01962699 0.15988532
-0.08799374 -0.08627298 -0.14955929 -0.2145205 0.12082335 -0.09689233 0.1106073 -0.012674822
0.21298584 -0.028671965 -0.3528131 -0.011301587 -0.041131463 0.15996836 0.08576493 -0.0874118
0.055890903 0.15891218 0.0119134 0.19647041 -0.1778505 0.17421095 -0.17227603 -0.20641471
-0.13785912 0.101060055 -0.054151658 0.10905114 -0.09535476 0.21574505 0.3278195 0.045140725
0.16124517 0.09054389 -0.1284115 0.054556254 0.1871136 0.04889846 0.083316214 0.2888262
-0.08854337 0.14163312 0.059715297 -0.00024386753 0.23147453 0.044549238 -0.1399683 0.02511625
-0.15926139 -0.113014236 0.25841874 0.008745461 -0.005606649 -0.0466687 -0.15036009 0.06126057
0.005429235 0.07506972 -0.19023785 0.09423207 -0.13275456 -0.13658898 0.30824405 -0.09290752
-0.067831114 -0.006523942 0.09066681 -0.025250368 -0.16558197 0.11091061 0.067338 -0.31461194
-0.19058178 -0.030468041 -0.02905184 0.041282408 -0.22620276 0.025810063 0.13524213 -0.076839276
-0.07168544 -0.045600258 -0.14031683 -0.10562137 -0.058924794 0.021405842 0.1661091 0.0125191
0.10499563 0.16606842 -0.043271545 -0.070198044 -0.12591112 0.02499663 0.0026246682 -0.16551718
0.060648795 -0.21278092 -0.086667754 -0.0010240357 0.06350337 0.050872415 -0.24265893 0.0139860185
-0.17372237 -0.083408296 -0.07714593 -0.13027069 -0.07589367 -0.15636697 0.05184339 -0.16341658
-0.017233388 0.049509138 0.0048925746 -0.2454249 0.0061354632 -0.23635297 -0.13092496 0.017045176
-0.062412318 -0.012690312 -0.030476952 -0.08050791 -0.08917682 -0.16462515 -0.048029304 0.06569728
0.081493475 0.018099524 -0.008345345 -0.104494855 -0.057263266 -0.016175965 0.2609885 0.15267442
0.07949401 -0.047890827 0.037255276 -0.05740242 -0.17097345 0.029808434 0.10081602 0.06088812
0.18035363 0.0123561835 -0.19179977 0.1033284 0.07356962 -0.15324476 -0.11172164 0.17720176
0.042880148 -0.11667252 -0.070989706 -0.10788977 0.11303351 0.23825108 0.04696595 -0.111899875
0.033910003 -0.08787111 0.26975647 -0.115824305 0.21777388 -0.16571905 -0.17401496 -0.19488947
-0.06944851 -0.040062573 -0.057791527 0.1324513 0.031807464 0.2646157 -0.17706484 -0.2004701
-0.41767007 0.048046906 0.2473347 -0.20107336 -0.045988884 0.13455749 0.024156142 -0.0019412756

params,ScannedRNN_0,GRUCell_0,in,bias f4 [64]
00000000: 6112 5a3c bc14 bcbd 5d14 c13c 522c 183e
00000010: 1342 b53d 9046 28be 40da 213c 19fd 253e
00000020: 5eb4 70bd 5bb4 84be 6a3f 9cbd 356b da3d
00000030: 9aa7 71be a73d 12bd b38c 70be 2b73 873d
00000040: e939 f43c 4dcb c4be 0f4f 9bbe 842e bf3d
00000050: db6f 6fbe 89c8 45be b4fd e2bc 6f94 be3d
00000060: d982 d43e 4ca3 70be b800 e03c b889 36be
00000070: 6148 a4bd 3a5f f53c 3fe8 323e 56ae 57bd
00000080: 62d6 133e 4314 cc3c fb88 d5bd 240c f23c
00000090: 8756 c73d 442b 7e3d c464 413e 26aa 3a3e
000000a0: 374f 693e 52d4 b83e a5dd d8bd 39c1 073c
000000b0: aeb2 b6bd 34e3 53be e497 e6bd cf4e 863c
000000c0: 8dc4 643c c5a5 ecbe 9ee4 55bd d5da 95be
000000d0: abe8 213d ba37 6abe 121a e53d 7ada c6bd
000000e0: af83 09bd 85f1 8abe ec56 4c3c 81a3 b3be
000000f0: 97af 193e de6b 06be 9ba3 15be 8198 f13e
0.013310046 -0.09183642 0.02356928 0.14860657 0.08850493 -0.16433167 0.009878695 0.1620983
-0.05876576 -0.2591885 -0.07629283 0.10664979 -0.23599091 -0.035703328 -0.23491172 0.066137634
0.02981277 -0.38436356 -0.30333754 0.09335044 -0.23382513 -0.1931478 -0.027708866 0.09305655
0.4150608 -0.23499793 0.027344093 -0.17825973 -0.08021618 0.029952634 0.17471407 -0.052656494
0.1443725 0.024912005 -0.104265176 0.029546805 0.09733301 0.06205298 0.18886095 0.18228969
0.22784124 0.36099488 -0.1058915 0.008285814 -0.08920799 -0.2069214 -0.112594396 0.016395
0.013962877 -0.46220222 -0.05221998 -0.29268518 0.03952853 -0.2287282 0.11186613 -0.0970964
-0.03357285 -0.2713739 0.012471896 -0.3508568 0.15008388 -0.13127086 -0.14613192 0.47186664

params,ScannedRNN_0,GRUCell_0,in,kernel f4 [64, 64]
00000000: f7db 8f3e 2b5a ddbd e03f 783d 0376 46be
00000010: fd04 9c3e f808 633e ff4b 30be cc56 1e3e
00000020: 01a8 1d3e 78b6 b2bd 0928 753c 7668 4bbd
00000030: 4564 803e 5027 f23d d9f7 803e d36d a6bd
00000040: 1653 5a3d 9cad 51bd dc8e 1abe f903 653e
00000050: c6c2 67be baa2 7c3e e824 403e a466 3dbd
00000060: 9327 4a3e ff21 ccbb 43b6 e03d f823 e5bc
00000070: 573d b33d b56b e43d e065 edbd 7cdb a83e
00000080: 4ef1 5abd 3257 a1be 87e6 763d 36c9 edbd
00000090: 3184 0b3b 0136 bdbd b8c6 95be 37f1 23be
000000a0: 3ae5 633e 52c5 fa3c e717 e53d 3851 5c3e
000000b0: aa01 38bc 9599 48be 42f4 29be be66 523c
000000c0: 6333 bc3c 3c2b b4bc 7160 7ebe 98bb 023e
000000d0: 40f8 0b3d 0a3f 4ebe 9b79 dbbb 13e5 4fbe
000000e0: b8f4 abbd 00c8 4c3e 40a7 fc3c 63ae 2abe
000000f0: 32b2 6ebe 3971 e43a 334a a83e ffc5 ba3d
00000100: 06d1 a73d 0acd 373d 3020 bcbe c723 f33e
00000110: 4195 9fbe 2ad3 7bbd ac67 c53d 472d b83d
00000120: 5da8 bf3c 4d9b fdbd 1d18 9d3e f269 15ba
00000130: e207 8dbd 1c16 ebbe fb0b 093c 4e47 b0be
00000140: 986c 623e 035e 35be b510 213e 7c07 57be
00000150: 00b4 353e 1537 89be f057 e33d c658 333e
00000160: dfd6 febd 18f4 84be ef30 90be e132 943e
00000170: c246 0cbe 7f1e 0a3e 6b21 c93e dc4d 85be
00000180: 3ff8 b23d 395c 893c 554a 643d 6fa3 8d3d
00000190: a91c 42be 7419 f1bc 4172 3c3e 1963 503d
000001a0: b665 88bd aa9c 22be 674c 0fbe 3819 e1bd
000001b0: 45a7 0dbe d63d 453e 5db4 ad3e 124e 86bd
000001c0: e592 023d 23bc 083e 7a1f 173e cabe 9ebe
000001d0: bb5b 443d 8817 943e b6d4 933a 74c9 233e
000001e0: e9a0 243e a8bd db3c 48c9 733d 9d94 e33e
000001f0: 77f2 79bd be92 013d 470d 77bd 595d ccbd
00000200: 365f 2ebe 5cef af3d 88e7 4ebe 10e1 73be
00000210: 9045 98bc 88af 1e3e 89be 67bc c2d9 82bd
00000220: dde9 0e3d d58d 0bbc c85f ad3d 7a2e 21bd
00000230: 3ec4 363e 051a 11be 156f a2bc e80c d2bd
00000240: 8cd5 f2bd 0c0e 3d3e 29dc a43a ddba 71be
00000250: 4e7e 593d 7d84 46be 3b7a 37bd b1c4 01be
00000260: adf6 d23a dff6 fe3c be09 6b3e 177f 4d3e
00000270: f46a 9e3d 04ce 04be 4309 1c3e feff 16be
00000280: a763 e4bd 4171 763e a7d1 51bd 6616 b4bd
00000290: 276c 08be 301a 90bd eae7 bfbd dd21 a4ba
000002a0: 6b56 85be eacb 80bd 81d0 0b3d 4508 5c3e
000002b0: bdf7 553e e436 6b3d 51a1 343c 2bbf 8d3e
000002c0: 0e60 b7bd 1169 1c3e e9ba 1fbe 76be b53c
000002d0: 0a46 b4bd abb5 ed3b 690d 5cbe 25a2 083c
000002e0: 623d 6dbe 1f54 2e3e 8a39 d83d 8352 d73e
000002f0: e239 f8bc 1c4a 7d3d c165 f63c 0c79 333e
00000300: 6889 0ebd a2c4 29bf e188 6bbe 208a 8d3c
00000310: 8544 b8be 4b7f 023d 3538 56be a9e0 14bd
00000320: f4bb e03e dc95 d3be f5c5 c53e 9c09 dc3d
00000330: aeef bcbe 18c8 a7be f379 253e 9a2d d2be
00000340: 631d 28bf 00c5 3abe c9ee b83e 3cd5 37bf
00000350: 3107 20be 03cb 05bf 9630 873e b27c 12be
00000360: 5676 fc3d 0b24 80be 4177 3cbe 4c83 7e3e
00000370: c8b6 03bf 995f 0f3e 5fa8 d23e 083a 083e
00000380: 9511 bfbd 39b2 c53e b2bf 1abf cd1a b1bd
00000390: 0cf2 0bbe ee87 203e ab29 493e 4a1a 3cbe
000003a0: 1d67 9c3b d644 fbbe 9902 8c3d cb33 173e
000003b0: d20c 56be 2e30 8c3e 0420 b03e a2c4 e03d
000003c0: 59e0 623e 21a4 b23e a09c dc3e f89c bc3c
000003d0: 0f66 7dbe 07e1 b03e f5c8 22bd d501 de3e
000003e0: 93af 193f 47be 04bf b8d8 493e a0e7 96bd
000003f0: 92aa 483d c91a b03d ed6f e9bd c701 e73c
0.28097507 -0.10808214 0.06060779 -0.19380955 0.30472556 0.2217139 -0.1721649 0.15462798
0.1539612 -0.087262094 0.014963158 -0.04966017 0.250765 0.118239045 0.25189093 -0.08126416
0.053301893 -0.051190957 -0.15093559 0.22364797 -0.22632894 0.2467145 0.18764079 -0.046240464
0.19741659 -0.0062296386 0.10972264 -0.027971253 0.08751934 0.11153356 -0.11591697 0.32979953
-0.053452782 -0.31511837 0.06027844 -0.116106436 0.002128851 -0.09238816 -0.29253173 -0.16009985
0.22255412 0.030611668 0.111862 0.21515357 -0.0112308655 -0.19589837 -0.16597083 0.012841878
0.022973722 -0.021993272 -0.24841477 0.12766874 0.034172297 -0.20141235 -0.006697846 -0.20302229
-0.08396286 0.19998169 0.03084147 -0.16668086 -0.23310164 0.0017428763 0.3286911 0.09119796
0.08194165 0.044873275 -0.36743307 0.47488233 -0.3116856 -0.06148068 0.096389145 0.08993011
0.023395712 -0.12383137 0.3068246 -0.0005699686 -0.06886269 -0.45915306 0.008364673 -0.344294
0.22111738 -0.17711644 0.1572903 -0.20998949 0.17744446 -0.26799837 0.11100757 0.17514333
-0.12443327 -0.2596748 -0.28162333 0.28945068 -0.13698867 0.13488196 0.39283308 -0.26035964
0.087387554 0.016767608 0.05573495 0.06915938 -0.18956245 -0.029431082 0.1840296 0.050875757
-0.06660025 -0.15880075 -0.13993989 -0.10991138 -0.1383334 0.1926187 0.3392667 -0.065578595
0.03187837 0.13353018 0.14758101 -0.31004936 0.047939043 0.28924203 0.0011278603 0.15994817
0.16077007 0.026823834 0.05951813 0.4444932 -0.061022248 0.031634085 -0.060315397 -0.09978742
-0.17028508 0.08590576 -0.2020551 -0.23816323 -0.018587857 0.15496647 -0.014144548 -0.0638919
0.034891 -0.008517702 0.084655344 -0.039350964 0.17848298 -0.14170082 -0.019828359 -0.10256368
-0.11857137 0.1846239 0.001257782 -0.23606439 0.05309897 -0.19386478 -0.044794302 -0.12672688
0.0016095244 0.031123577 0.22952935 0.20068012 0.077352434 -0.12969214 0.15237908 -0.14746091
-0.1115182 0.2406664 -0.05122533 -0.08793335 -0.13322507 -0.07036245 -0.09370406 -0.0012522299
-0.26042494 -0.062888935 0.03413439 0.2148753 0.20895286 0.057425395 0.011024789 0.27684912
-0.08953868 0.15274455 -0.15598644 0.022185545 -0.088024214 0.0072543225 -0.2148949 0.0083394395
-0.23167947 0.17024277 0.1055785 0.4205514 -0.030301038 0.061838254 0.030077817 0.17526644
-0.03479901 -0.6631566 -0.23001434 0.017277777 -0.35989776 0.031859677 -0.20919879 -0.036347065
0.43893397 -0.4132527 0.38627592 0.1074402 -0.3690161 -0.32769847 0.16159801 -0.41050416
-0.6566984 -0.18239212 0.3611968 -0.71809745 -0.15627743 -0.52262896 0.26404256 -0.1430538
0.12327258 -0.250275 -0.18404867 0.24854773 -0.5145078 0.14001311 0.41144082 0.13303387
-0.093295254 0.38612536 -0.60448754 -0.0864769 -0.13666552 0.15676853 0.19644801 -0.18369403
0.0047730342 -0.49075955 0.06836433 0.14765851 -0.20903328 0.27380508 0.34399426 0.10975005
0.22155894 0.34890845 0.43088245 0.023024067 -0.24745964 0.34546682 -0.03974243 0.43360773
0.6003353 -0.5185284 0.19711578 -0.07368398 0.048990794 0.08598859 -0.11398301 0.02819909

params,ScannedRNN_0,GRUCell_0,ir,bias f4 [64]
00000000: 5494 153d f5c5 7c3d bc01 5d3e fc67 563e
00000010: a087 323d ee97 10bd 7e3b 283e 5681 aabd
00000020: 76d1 fb3c e54e 84bd 1fdc 493c 182e 53bd
00000030: 1cd9 623b 87d1 1a3d 4c20 a73c bef4 90bc
00000040: ed2b 6b3c ffb1 0fbd cba2 9ebd 564b 1abd
00000050: 6d63 1b3c 5393 81bd d44a a23c 3791 07bd
00000060: 2ad4 5cbc c8b9 633d b1fb 9a3c a587 c3bc
00000070: b391 5e3d 47fe c7bd 64ff 8d3d 0caa c8bd
00000080: db39 cebc 1981 a13d 0c68 153e 47f5 453d
00000090: b148 9e3b 7941 43bc 89be 00bd bf02 ebbd
000000a0: c0af 9e3c 7f50 0a3d 49d5 4bbc 3b66 d63c
000000b0: 8a84 7c3c 92ad d03c d1e7 b6bb 9c03 b6bd
000000c0: 4cf9 5b3b 80af 27bd 8b30 903c db46 293a
000000d0: c2ec d23c 640f 543c 92e3 673d d322 cebd
000000e0: 2c82 6f3e a0f7 64bd d932 8f3c 0d30 c63d
000000f0: d42e 05bd 8b8f 303e ba73 26bd ec8d 813d
0.03651841 0.061712224 0.21582693 0.20938104 0.043586373 -0.03530114 0.16428944 -0.0832545
0.030739527 -0.064603604 0.012320547 -0.05155763 0.003461427 0.037797477 0.020401143 -0.017694827
0.014353734 -0.03508186 -0.07745894 -0.037669502 0.009484154 -0.06326928 0.019811071 -0.033097472
-0.013478318 0.055597097 0.018918844 -0.023868391 0.05433817 -0.097652964 0.069334775 -0.09798059
-0.025174072 0.078859515 0.14590472 0.048329618 0.004830443 -0.011917465 -0.03143171 -0.11475133
0.019370914 0.033768173 -0.012440988 0.026171794 0.015412459 0.02547339 -0.005581834 -0.08887407
0.003356534 -0.040938854 0.017601272 0.00064573967 0.02574766 0.012943123 0.056613512 -0.10065236
0.233895 -0.055900216 0.0174803 0.09677134 -0.032515362 0.17242257 -0.04063771 0.063258976

params,ScannedRNN_0,GRUCell_0,ir,kernel f4 [64, 64]
00000000: 16c7 f1bd e8b7 443c b35d 7bbc af2a 80be
00000010: 04e6 47be c16d 613d 5db7 3a3e adef cfbd
00000020: dda1 fb3d d286 fabb 9d95 64bd 2e90 763d
00000030: 50d5 79be 7c42 8abe 2b2a 65bd c43e 2bbc
00000040: ba97 ef3c 6069 a33c 046b 5a3a 387c 24be
00000050: 9f94 2b3e f161 42ba c856 7a3d 938e 513e
00000060: 8b20 1f3e a78c 7b3d 2268 ef3d e33a 8d3e
00000070: ae65 55bd 53a8 51bd 2b13 42bd 4e85 883e
00000080: 505c 10be fe93 8cbd c6a7 b53d 70d7 0a3b
00000090: 7c8c 6ebd 34b9 14be 56ab e9bd 7e77 803d
000000a0: c6f7 163e b14d 74be 01c1 893d 862a 2cbe
000000b0: b477 e6bd 5125 e73c 1eca 40be 3b39 f73d
000000c0: 2214 0f3d 8304 28be 451f 373e 2396 acbc
000000d0: f3da 023d 0efd 76bc d6f5 303e 742c b3bd
000000e0: ca75 f43c a95d b6bd 39dd 543e aa36 5e3d
000000f0: 83a5 9e3d 588e 1bbd 50f9 7c3d 6e23 74be
00000100: 3d8d 2d3e 0fa7 37be d440 24be 6ee4 0cbe
00000110: 648a 923b e6eb ef3b 6c59 0f3e 08e3 03bd
00000120: ad2f aa3c 310f 1d3d 0b66 2b3c 8f14 27be
00000130: ba10 303e 94bd 22be 30ef 7f3e 4df3 5e3e
00000140: 103f 3e3d 9fc2 06be ff79 f7bd 310e dfbd
00000150: 1c95 46bd 6e43 7d3d 5b37 323c fede 1e3e
00000160: ed43 0a3e f3e2 c93d 80ae 0a3d f80f 4dbe
00000170: 1b73 72be 9d86 2f3e 948f 00be 22af e93d
00000180: d31b 40be 7408 06be 5ead 01be b39b 573e
00000190: 5689 5b3d b46d a43d 578c 2f3e 6e13 37be
000001a0: b8ae eb3d c12e 4abd 87e1 6e3d ce1f 603b
000001b0: 1c44 ba3d ad21 af3d ed4f 8e3d 44fe d33c
000001c0: db09 3cbd 972d 71bd 59d1 8a3d b726 f9bd
000001d0: 3fbc 2d3e 5290 9abc 95c5 2b3a 1f89 783d
000001e0: 81d7 8a3d bb5f bc3d 5ca8 253e e14f 10be
000001f0: 1f29 a8bd 4cde 36be 9f3c 7ebe 6653 243e
00000200: 24f7 40be 74a8 593e 5c5a 8a3d d263 c83d
00000210: 32ff c8bd f696 74bd e612 adbd d764 3ebc
00000220: 6f9c 30be 9d77 e3bd 0b8f edbd e602 d03d
00000230: 4b55 483d 2dd5 07be 1ce0 593e f655 fbbd
00000240: 8c41 29be e893 9dbc 2e80 2fbe a040 723d
00000250: fe92 ad3d 0b11 1ebe 8bfb 1fbe 7660 7fbe
00000260: 68ec 773d 4ea1 d2bd b15d 74bd 138d 043d
00000270: 16ca b93c ac68 4f3e 0f26 dfbd 72ae 923c
00000280: 9ac0 54bd 74d0 6a3e a600 36bd 122b 8ebc
00000290: 1b2a d3bb c073 1f3d 66e0 7a3d 1229 fdbc
000002a0: fa36 07be e0fb 5ebe 99f1 e7bb 54ae f93d
000002b0: 44b8 14be e5cd 3abe 1897 31be bf70 723d
000002c0: c090 d7bd 2fc5 f3bc 4b9c 0ebe 5a0f 0bbe
000002d0: 0b44 98be 1bea 683e 5225 e43d 13e0 cfbd
000002e0: 6581 8dbe be4d 01be 6c21 66be 6262 5abe
000002f0: ee22 0ebd 2c74 623e 87fa 36bd 579f 823d
00000300: 3b2f ae3d f01f 033e 40d3 89be 2f08 243e
00000310: 803f 15be 69c2 a2be f1f4 223e c652 b83c
00000320: 949d dcbc 0249 dfbe a55d 96bd a06f d4bd
00000330: 439e b9bb ddd5 5b3d 8b1d 103d f4c6 cebc
00000340: b5c8 82be a0e8 02bd 16a4 a4be 1598 f43d
00000350: 8e9c 723d 4c71 803d 9d45 87bd 7418 363d
00000360: 5ee1 0d3e a14c 8b3d 443b 03bc ee6e 76bd
00000370: 85af 9b3d 9f1e 063d 6ff2 40bc f8b5 0f3e
00000380: 3ae3 483e 4ad7 c33e 34cd 6e3c d8b5 2b3d
00000390: c7a3 873d 0fa9 cfbd 2833 c43d d870 abbd
000003a0: 3945 62bc 0ac7 d53d 92d7 9abc 9051 f83d
000003b0: ed0a 8b3d 29e5 7ebd da8b 34be a1f3 08be
000003c0: f367 133e 969b fdbc 340b 803d 3f4e 25be
000003d0: 3a02 123e 2fb4 913c 6cb4 1c3e de9e a33d
000003e0: 58de 423f 23b5 5ebd 0b17 c7bc 76df 42bf
000003f0: 516c 0bbc fab6 c5bb 8ce5 2abe 4916 7d3d
-0.11805551 0.012006737 -0.015342164 -0.25032565 -0.19521338 0.05503631 0.1823401 -0.101531364
0.12286732 -0.0076454664 -0.055806745 0.060196094 -0.24397779 -0.2700385 -0.055948418 -0.010451976
0.029247154 0.019947708 0.00083319866 -0.1606301 0.16755913 -0.0007415107 0.061117917 0.20464544
0.15539758 0.061413433 0.11689784 0.2758399 -0.052098922 -0.051185917 -0.04738156 0.26664203
-0.14097714 -0.06864165 0.08869891 0.002118554 -0.058239445 -0.14523774 -0.11409633 0.06272791
0.14742956 -0.23857762 0.06726266 -0.16813096 -0.112533 0.028216036 -0.18827102 0.12071463
0.03493131 -0.16407971 0.17883022 -0.021067685 0.031947087 -0.015074981 0.17281279 -0.08748713
0.029841322 -0.08904583 0.20787515 0.05425135 0.077464126 -0.037977546 0.0617612 -0.2384164
0.1694841 -0.17934822 -0.16040355 -0.13759014 0.004472064 0.0073218225 0.13998955 -0.032198936
0.020774687 0.038344566 0.010461341 -0.16316436 0.1719388 -0.15892631 0.24993587 0.217725
0.04644686 -0.1316018 -0.12083816 -0.10891379 -0.048482046 0.061831884 0.010877456 0.15514752
0.13502474 0.0985774 0.033857822 -0.20025623 -0.23676722 0.17141195 -0.1255477 0.11410357
-0.18760614 -0.13089162 -0.1266379 0.21055488 0.05359777 0.08028737 0.17143379 -0.17878506
0.11507934 -0.049360994 0.05832055 0.0034198645 0.09095022 0.08551345 0.069488384 0.02587808
-0.045907836 -0.05888137 0.06778211 -0.121655874 0.16966341 -0.018867645 0.00065525743 0.060677644
0.06779385 0.09197947 0.16177505 -0.14092971 -0.08210968 -0.17858237 -0.24827813 0.16047439
-0.18844277 0.21255666 0.06755516 0.09784664 -0.098143 -0.05971428 -0.0845087 -0.011620722
-0.17247175 -0.11106799 -0.11599549 0.10156803 0.048909467 -0.13264914 0.21276897 -0.12272255
-0.1652891 -0.019235566 -0.1713874 0.059143662 0.08475302 -0.15436189 -0.156233 -0.2493914
0.06052819 -0.10284673 -0.059659664 0.0323611 0.02267937 0.20254773 -0.10895931 0.017905448
-0.05194149 0.22931081 -0.044434212 -0.017354522 -0.0064442283 0.038928747 0.06124916 -0.030903373
-0.13204566 -0.2177577 -0.007078361 0.121914536 -0.14523417 -0.18242605 -0.17342794 0.059189554
-0.10525656 -0.02975711 -0.13926809 -0.13580075 -0.29739413 0.22745554 0.11139931 -0.10150161
-0.27637783 -0.12627313 -0.22473687 -0.21326593 -0.03470128 0.22114629 -0.044672515 0.06378048
0.08505102 0.12805152 -0.26918983 0.16018747 -0.14575005 -0.31788948 0.1591375 0.022500407
-0.026930608 -0.43610388 -0.0734208 -0.10372853 -0.005664618 0.053670753 0.035184424 -0.025241353
-0.25543752 -0.03196013 -0.32156438 0.1194307 0.059231333 0.0627161 -0.066050746 0.044456914
0.13855502 0.06801725 -0.0080097355 -0.060164385 0.07601837 0.032744046 -0.011776551 0.1403426
0.1961793 0.3825019 0.014575291 0.041921467 0.06623035 -0.10139667 0.0958007 -0.083711326
-0.013810449 0.10438354 -0.01890162 0.12124932 0.06789193 -0.062230263 -0.17631474 -0.13374187
0.14395122 -0.030957978 0.06252137 -0.1614313 0.14258662 0.017786114 0.153032 0.07989286
0.7612052 -0.054371964 -0.02430298 -0.76122224 -0.008509711 -0.0060337754 -0.16689128 0.06178883
