baselines/QLearning/checkpoints/MPE_simple_spread_v3/iql_ps.safetensors (safetensors, 107596 bytes, 14 tensors)

params,Dense_0,bias f4 [64]
0.0007544981 -0.08713185 -0.14516081 0.020344546 0.076820016 0.038455408 -0.16099957 -0.06748245
-0.082661934 -0.3598662 -0.12563144 -0.109134145 -0.28722307 -0.10436417 -0.14599237 -0.06675693
-0.053524997 -0.022994975 -0.0044596954 -0.1824562 -0.18379022 -0.35726878 0.063980125 0.10058534
-0.06281215 0.048572574 -0.13578096 -0.16457772 -0.0453776 -0.07154157 -0.15201353 0.039034188
-0.13511671 -0.30628598 -0.30765074 -0.24943118 0.0009413849 -0.13404676 -0.09863648 -0.0021488704
-0.08774755 -0.1786996 -0.07823348 -0.040120516 0.0056295656 -0.020118995 -0.14051023 -0.1626762
-0.10790655 -0.07168064 -0.06179311 0.036903657 -0.20232813 -0.27973703 0.050528314 -0.10126574
-0.02911415 -0.1659134 -0.109744266 -0.08872353 0.0014351794 -0.11757003 0.084794424 -0.11810593
00000000: 83c9 453a 2f72 b2bd 09a5 14be 9ba9 a63c
00000010: d053 9d3d 6b83 1d3d 12dd 24be 3d34 8abd
00000020: a94a a9bd 6240 b8be 87a5 00be b981 dfbd
00000030: e70e 93be e2bc d5bd 067f 15be dbb7 88bd
00000040: 073d 5bbd f55f bcbc a322 92bb ccd5 3abe
00000050: 8133 3cbe efeb b6be 0308 833d b0ff cd3d
00000060: a8a3 80bd 09f4 463d 2a0a 0bbe 1087 28be
00000070: dddd 39bd 6384 92bd 6fa9 1bbe 50e2 1f3d
00000080: 095c 0abe 84d1 9cbe 6684 9dbe e36a 7fbe
00000090: 45c7 763a 8e43 09be ec01 cabd 10d4 0cbb
000000a0: fdb4 b3bd 07fd 36be e038 a0bd 6955 24bd
000000b0: 3878 b83b 97d0 a4bc eae1 0fbe 9794 26be
000000c0: 1cfe dcbd 4dcd 92bd c61a 7dbd 4a28 173d
000000d0: 1b2f 4fbe b139 8fbe c7f6 4e3d 6a64 cfbd
000000e0: cc80 eebc 34e5 29be 9ac1 e0bd afb4 b5bd
000000f0: a11c bc3a 8ec8 f0bd b3a8 ad3d 86e1 f1bd

params,Dense_0,kernel f4 [21, 64]
-0.06299471 0.009128926 0.03609365 0.042774115 0.14739895 -0.048556212 -0.060400788 0.07909703
0.41692442 -0.16152234 0.112874046 -0.04654294 0.3724137 -0.23547931 -0.021896813 -0.018370438
-0.0050012497 -0.057871632 0.02324003 0.047522064 0.13788284 0.18130215 -0.029795578 0.030307047
-0.016772883 -0.33761615 0.29192984 -0.07008534 -0.3417138 0.5223424 -0.15903234 -0.19959018
-0.009380116 -0.04661918 -0.058790453 -0.07282821 -0.38066688 0.0074327826 0.15997347 -0.5300665
0.040659793 0.13703799 0.009063223 -0.2173052 0.028568333 -0.0018140138 0.09870109 0.008804002
-0.06774862 0.09714595 0.043628577 -0.029978318 0.009165452 0.17826773 0.122566395 -0.36242118
0.049551066 0.03132398 0.29067 -0.38535067 0.009196979 -0.13624814 0.10173444 -0.02144216
0.03031428 -0.028238479 -0.021362254 -0.1929868 -0.14852898 0.00061408035 0.20994681 -0.039680913
0.024365757 0.053037725 -0.014950426 -0.019309798 0.21262564 0.017790541 -0.03674443 0.24144685
0.021692565 -0.009001886 -0.02210877 0.039171897 -0.253094 0.28340116 -0.08134712 0.0337624
-0.020673212 -0.24806097 0.17833233 -0.004945924 0.17865682 -0.009139017 0.5418749 -0.035338935
-0.650134 -0.21965994 0.083282225 -0.035330907 0.17933652 -0.02996072 0.513986 -0.23372947
-0.04121679 -0.262749 0.025085025 -0.28538203 -0.051397894 0.020086098 -0.14614104 -0.15425277
0.027571857 -0.17215484 -0.5266821 0.33949968 -0.063452356 -0.041005094 0.3809809 0.0336369
0.026166225 0.09324578 -0.24912909 -0.0472368 0.009946449 0.32672268 0.19364135 0.031908125
0.033209477 -7.3658666e-06 -0.099915005 0.004655628 -0.0950474 -0.097195365 0.19734377 -0.12513535
0.009419866 -0.12025879 0.033717774 0.09326106 -0.04094376 0.08478675 0.02469156 0.10816421
0.011546927 -0.026991937 -0.07368936 -0.09154874 -0.04412224 0.04156923 0.15105648 0.15503164
0.025809554 0.15455711 -0.08116935 0.13550861 -4.1684427e-05 0.19624147 -0.053653847 0.079307415
-0.04610808 -0.54515314 0.18982446 0.11594169 0.0165468 -0.06278109 0.028353645 -0.09427469
-0.06483197 -0.09780849 -0.109275006 0.13075264 -0.029251928 -0.04634866 0.07631462 -0.02265204
0.19171038 0.35011292 -0.11185599 0.039875768 -0.1728136 0.05492321 -0.01443544 -0.05409666
-0.19342627 -0.08127963 -0.08820169 0.16421452 0.08267396 -0.058186527 -0.061863318 0.13279992
-0.2910211 0.06378236 0.00363033 0.084692 0.040942565 0.0387883 0.0045080236 0.17105238
0.11247588 0.055030786 0.014012918 0.06254902 -0.15844941 0.035428796 -0.0061965934 0.22337228
-0.053548187 -0.016549315 0.058675196 0.02996454 -0.034973588 -0.052638985 -0.10540572 -0.0316481
0.049895268 0.0726679 -0.065595716 0.015791133 -0.15319449 0.025763303 -0.022828385 -0.046691757
-0.222342 -0.25948524 -0.35517526 0.054170687 -0.052267674 0.023459379 -0.023379691 -0.19937511
0.032496244 0.11327484 -0.07047062 0.1102626 0.07298727 -0.07634625 -0.22391559 -0.08827357
-0.067975976 -0.15178029 0.21157031 -0.0746359 0.31709749 -0.040149517 -0.00399987 0.07322815
-0.05414573 -0.15290257 0.019854764 0.1193242 0.10123613 0.36915934 -0.040863864 0.001377168
00000000: 5f03 81bd 7e91 153c efd6 133d e933 2f3d
00000010: c0ef 163e e1e2 46bd d166 77bd a0fd a13d
00000020: 1e77 d53e 1d66 25be 822a e73d cfa3 3ebd
00000030: 02ad be3e 7d21 71be f260 b3bc 9a7d 96bc
00000040: 86e1 a3bb ce0a 6dbd e061 be3c 7fa6 423d
00000050: 2931 0d3e 45a7 393e db15 f4bc 7c46 f83c
00000060: 4967 89bc 06dc acbe d477 953e e788 8fbd
00000070: 1cf5 aebe 3bb8 053f 60d9 22be 5e61 4cbe
00000080: 0faf 19bc c1f3 3ebd 42ce 70bd f526 95bd
00000090: c5e6 c2be b38e f33b 16d0 233e 70b2 07bf
000000a0: e28a 263d b053 0c3e ea7d 143c 4185 5ebe
000000b0: 2308 ea3c 34c4 edba cc23 ca3d a93e 103c
000000c0: cabf 8abd 75f4 c63d e1b3 323d 1795 f5bc
000000d0: b12a 163c d18b 363e 1704 fb3d 458f b9be
000000e0: 0ff6 4a3d 934d 003d b3d2 943e af4c c5be
000000f0: edae 163c a284 0bbe 255a d03d 78a7 afbc
00000100: a755 f83c 6254 e7bc e5ff aebc 559e 45be
00000110: fb17 18be 3cfa 203a 4cfc 563e 7488 22bd
00000120: b29a c73c 163e 593d a2f2 74bc 952f 9ebc
00000130: 89ba 593e 78bd 913c 5481 16bd d83d 773e
00000140: 9bb4 b13c a57c 13bc 741d b5bc b672 203d
00000150: 8995 81be f519 913e 5299 a6bd 714a 0a3d
00000160: de5a a9bc b203 7ebe c09c 363e 6b11 a2bb
00000170: d0f1 363e d1bb 15bc 50b8 0a3f 8fbf 10bd
00000180: 2f6f 26bf 89ee 60be df8f aa3d 24b7 10bd
00000190: fea3 373e 2f70 f5bc 9694 033f c756 6fbe
000001a0: f0d2 28bd 0987 86be 1c7f cd3c 981d 92be
000001b0: 9986 52bd 9a8b a43c ffa5 15be 70f4 1dbe
000001c0: 60de e13c 5c49 30be a3d4 06bf e7d2 ad3e
000001d0: 4ff3 81bd f5f4 27bd ee0f c33e d9c6 093d
000001e0: 8d5a d63c a5f7 be3d b21b 7fbe 607b 41bd
000001f0: 6ef6 223c 3248 a73e eb49 463e 18b2 023d
00000200: a906 083d 5028 f7b6 3da0 ccbd 3d8e 983b
00000210: 36a8 c2bd 5d0e c7bd 7c14 4a3e 7b23 00be
00000220: c855 1a3c 3e4a f6bd a61b 0a3d a8ff be3d
00000230: a5b4 27bd ada4 ad3d f445 ca3c 3385 dd3d
00000240: 522f 3d3c 321e ddbc 72ea 96bd e87d bbbd
00000250: 86b9 34bd 7f44 2a3d 8dae 1a3e 9dc0 1e3e
00000260: 8f6e d33c 3844 1e3e 1e3c a6bd c5c2 0a3e
00000270: 50d6 2eb8 86f3 483e 23c4 5bbd ed6b a23d
00000280: d3db 3cbd 288f 0bbf 5861 423e d672 ed3d
00000290: 288d 873c 5f93 80bd e745 e83c 1713 c1bd
000002a0: a0c6 84bd d14f c8bd 93cb dfbd 05e4 053e
000002b0: bda1 efbc 18d8 3dbd d74a 9c3d c590 b9bc
000002c0: ba4f 443e 0042 b33e c114 e5bd c654 233d
000002d0: 0cf6 30be 29f7 603d a082 6cbc 7694 5dbd
000002e0: 8911 46be ef75 a6bd 16a3 b4bd da27 283e
000002f0: f750 a93d ff54 6ebd 6464 7dbd b4fc 073e
00000300: b800 95be 53a0 823d d5ea 6d3b 0073 ad3d
00000310: 64b3 273d 7be0 1e3d 0bb8 933b 5b28 2f3e
00000320: c159 e63d f667 613d 7096 653c b319 803d
00000330: 9040 22be c91d 113d cb0c cbbb b4bb 643e
00000340: 5855 5bbd 6e92 87bc 6755 703d 3278 f53c
00000350: 7740 0fbd fa9b 57bd f4de d7bd 70a1 01bd
00000360: fb5e 4c3d e8d2 943d 0c57 86bd 685c 813c
00000370: 04df 1cbe 900d d33c 9802 bbbc db3f 3fbd
00000380: 9fad 63be 40db 84be 88d9 b5be 15e2 5d3d
00000390: a116 56bd e22d c03c c486 bfbc fd28 4cbe
000003a0: c81a 053d a4fc e73d e752 90bd 5cd1 e13d
000003b0: 5a7a 953d 6c5b 9cbd 214a 65be c6c8 b4bd
000003c0: fd36 8bbd 4b6c 1bbe e3a5 583e b5da 98bd
000003d0: 9a5a a23e d273 24bd 5711 83bb a4f8 953d
000003e0: eac7 5dbd 7e92 1cbe 75a6 a23c 3f60 f43d
000003f0: e354 cf3d 7402 bd3e de60 27bd 1782 b43a

params,Dense_1,bias f4 [5]
-0.27099276 -0.33302546 -0.28343445 -0.3692626 -0.29514772
00000000: 90bf 8abe 5082 aabe 521e 91be fd0f bdbe
00000010: 9a1d 97be

params,Dense_1,kernel f4 [64, 5]
-0.0054166825 -0.11887208 0.04194323 -0.10172892 -0.06539825 0.45723605 0.41189 0.015342598
0.18287344 0.3496121 -0.86910015 -0.59978426 -0.59127563 -0.57171947 -0.82371783 0.46037728
0.4567289 0.45847973 0.66299886 0.27976373 -0.40929458 -0.44185176 -0.62786436 -0.2681467
-0.35862043 -0.15921451 -0.4059723 -0.38893563 -0.40867138 -0.29345718 0.60659045 0.72943
0.5723187 0.5235345 0.5935707 -0.49287477 -0.6748554 -0.42560363 -0.5064324 -0.50930274
0.3067074 0.13099469 0.08649554 -0.018264998 0.36406562 -0.3551359 -0.36757526 -0.250609
-0.21156688 -0.28703395 0.32870588 0.31318554 0.14509667 0.21076186 0.39857703 0.3570014
0.24013473 0.3055019 0.47895858 0.2665678 -0.544824 -0.60752785 -0.6630268 -0.9203357
-0.4428875 -0.12545447 -0.46916783 -0.20234439 -0.06731442 -0.6046912 0.012790713 -0.12662806
-0.0015125208 0.09270347 0.02701028 -0.08758265 -0.6425381 -0.18543395 -0.11862628 -0.5761505
-0.3122065 -0.43436068 -0.2168194 -0.32812598 -0.3256274 -0.20419271 -0.66332954 -0.51850134
-0.5410314 -0.4914676 0.11574342 0.18014565 0.14791842 -0.042838417 0.26162672 -0.35094067
-0.3474752 -0.37522024 -0.40182388 -0.2614156 -0.79557055 -0.63751197 -0.45588648 -0.47220442
-0.6363149 -0.49969816 -0.4075565 -0.27442023 -0.5674552 -0.11991109 0.3209254 0.19078387
0.5704564 0.39943358 0.115487814 0.33044156 0.1973751 0.2406336 0.34115478 0.2685141
-0.16406466 -0.3812641 -0.45245108 -0.5307514 -0.1954179 -0.4092543 -0.43755317 -0.37255147
-0.49918416 -0.5747693 -0.47367805 -0.24404737 -0.3839441 -0.1541757 -0.12724988 -0.21904854
-0.125135 -0.20080765 -0.27060595 -0.28827134 -0.28919697 -0.029566068 -0.28593546 -0.04357391
-0.14462383 -0.10002648 0.024232473 -0.26258096 -0.29936376 0.31209707 0.33173072 0.16587317
0.34772995 0.29785162 0.59587383 0.46767643 0.67607665 0.08367384 0.27787638 0.30794424
-0.12405176 -0.0976297 -0.10917863 0.024740541 0.0042570536 0.45341665 0.36585277 0.54779726
0.2987302 0.7681581 -0.57337576 -0.7558688 -0.359439 -0.6573411 -0.2737057 0.1784911
-0.1719442 0.17101994 -0.034047656 0.15175782 0.09641614 -0.15615594 0.3150499 0.31385723
0.07451321 -0.18554509 -0.18041009 -0.13366483 -0.18599358 -0.050899915 0.12138369 0.11331445
0.24493109 0.25633278 0.08761041 0.6146985 -0.07568961 0.74028873 0.40169296 0.46419883
-0.5998733 -0.6986357 -0.7661829 -0.53265744 -0.62750155 -0.28840858 -0.18012187 -0.37533644
-0.46252877 -0.25265384 -0.3566741 -0.26154965 -0.60327804 -0.53815114 -0.42834646 -0.44867077
-0.5049966 -0.35075977 -0.37797245 -0.43061453 -0.45980912 -0.5525679 -0.5269503 -0.63472724
-0.5961357 0.1821251 0.1245782 0.49816436 0.1656201 0.55778784 0.62146896 0.46495944
0.59921694 0.67684007 0.3902006 0.20454514 0.35212386 0.22778699 0.5523541 0.37327918
0.09674307 0.27422923 -0.26421067 0.110904515 -0.07311712 0.46176335 0.3647406 0.9074911
0.75878805 0.450742 0.43864122 0.2721817 0.52400017 0.3172164 0.24822356 -0.42803136
00000000: 6d7e b1bb 3573 f3bd aacc 2b3d 4157 d0bd
00000010: 85ef 85bd d81a ea3e 3fe3 d23e 855f 7b3c
00000020: 2d43 3b3e 5b00 b33e 597d 5ebf 768b 19bf
00000030: d75d 17bf 355c 12bf 2cdf 52bf 92b6 eb3e
00000040: 5fd8 e93e dbbd ea3e 4bba 293f 313d 8f3e
00000050: 0f8f d1be 653a e2be b8bb 20bf 864a 89be
00000060: 199d b7be 2109 23be 9adb cfbe 9222 c7be
00000070: 603d d1be 0540 96be 8349 1b3f edbb 3a3f
00000080: 7a83 123f 5b06 063f 40f4 173f 155a fcbe
00000090: 53c3 2cbf b8e8 d9be 8ea5 01bf aa61 02bf
000000a0: c108 9d3e 7923 063e 9324 b13d 7aa0 95bc
000000b0: cf66 ba3e 5fd4 b5be d332 bcbe d34f 80be
000000c0: fda4 58be 1df6 92be 234c a83e db59 a03e
000000d0: 3994 143e f5d1 573e 4a12 cc3e e3c8 b63e
000000e0: e1e5 753e bf6a 9c3e 0f3a f53e 937b 883e
000000f0: 9679 0bbf f286 1bbf 20bc 29bf 1f9b 6bbf
00000100: 27c2 e2be 2377 00be c436 f0be 5e33 4fbe
00000110: 25dc 89bd 0bcd 1abf 2490 513c c9aa 01be
00000120: c73f c6ba 51db bd3d aa44 dd3c 885e b3bd
00000130: 607d 24bf 66e2 3dbe 56f2 f2bd 997e 13bf
00000140: 88d9 9fbe 8664 debe e805 5ebe 2100 a8be
00000150: a2b8 a6be e517 51be f7cf 29bf 81bc 04bf
00000160: 0981 0abf a4a1 fbbe e30a ed3d 1a78 383e
00000170: ed77 173e 5677 2fbd f0f3 853e 7fae b3be
00000180: 45e8 b1be de1c c0be dcbb cdbe 44d8 85be
00000190: 83aa 4bbf fc33 23bf f469 e9be c7c4 f1be
000001a0: 89e5 22bf 70d8 ffbe 3fab d0be cf80 8cbe
000001b0: be44 11bf f293 f5bd 5650 a43e d95c 433e
000001c0: 6e09 123f 8f82 cc3e e084 ec3d a32f a93e
000001d0: b31c 4a3e a868 763e d7ab ae3e ae7a 893e
000001e0: 9100 28be 0c35 c3be aba7 e7be 53df 07bf
000001f0: a11b 48be c889 d1be f806 e0be 11bf bebe
00000200: 1195 ffbe 1524 13bf ee85 f2be 8ee7 79be
00000210: 5294 c4be 3ce0 1dbe cb4d 02be 434e 60be
00000220: 6423 00be 85a0 4dbe dd8c 8abe 4d98 93be
00000230: a011 94be 8a34 f2bc 2266 92be 8e7a 32bd
00000240: 4518 14be afda ccbd 2e83 c63c 0371 86be
00000250: 3546 99be 30cb 9f3e 9cd8 a93e a8da 293e
00000260: a909 b23e 0280 983e 308b 183f 4973 ef3e
00000270: 5c13 2d3f 315d ab3d d045 8e3e deaa 9d3e
00000280: d90e febd 15f2 c7bd 0c99 dfbd adac ca3c
00000290: c17e 8b3b 3a26 e83e 0e51 bb3e 713c 0c3f
000002a0: 2af3 983e 02a6 443f c1c8 12bf 9e80 41bf
000002b0: 6308 b8be 8247 28bf 2723 8cbe 5fc6 363e
000002c0: 2412 30be da1f 2f3e 8e75 0bbd 6766 1b3e
000002d0: d375 c53d 58e7 1fbe 384e a13e e5b1 a03e
000002e0: 629a 983d 88ff 3dbe 6cbd 38be 6fdf 08be
000002f0: 1a75 3ebe 6e7c 50bd 0398 f83d 6811 e83d
00000300: 37cf 7a3e 0d3e 833e 166d b33d e25c 1d3f
00000310: 2703 9bbd 9083 3d3f b3aa cd3e 78ab ed3e
00000320: 4c91 19bf cad9 32bf 9024 44bf 3d5c 08bf
00000330: f1a3 20bf 4aaa 93be de71 38be 192c c0be
00000340: 92d0 ecbe d85b 81be fd9d b6be d6e9 85be
00000350: 6e70 1abf 46c4 09bf 3a50 dbbe 2db8 e5be
00000360: 7547 01bf c996 b3be 9b85 c1be 8279 dcbe
00000370: 1a6c ebbe 1775 0dbf 37e6 06bf 7c7d 22bf
00000380: 599c 18bf 017f 3a3e db22 ff3d 660f ff3e
00000390: 5198 293e 2fcb 0e3f 9718 1f3f 2a0f ee3e
000003a0: 4866 193f 6445 2d3f 5fc8 c73e 4874 513e
000003b0: 9449 b43e fe40 693e 1467 0d3f 731e bf3e
000003c0: 3b21 c63d c667 8c3e 9f46 87be e821 e33d
000003d0: 6ebe 95bd 3f6c ec3e 48bf ba3e 5651 683f
000003e0: ef3f 423f a8c7 e63e 9595 e03e 665b 8b3e
000003f0: e024 063f 306a a23e 512e 7e3e ed26 dbbe

params,ScannedRNN_0,GRUCell_0,hn,bias f4 [64]
0.21057835 -0.11711613 0.1933726 0.11706587 0.17546973 -0.29513577 -0.20544393 0.15738691
0.083060734 -0.21188892 0.3139992 0.01918508 0.17507793 0.10580176 -0.081864215 0.21240143
0.07935145 0.088796206 0.011085027 -0.038428225 0.11578551 -0.21629179 0.132487 0.1344123
0.08867502 -0.31505454 -0.11277813 -0.20357326 -0.19149856 0.15141024 0.023933487 -0.03241122
-0.093845494 -0.03778723 0.0058377613 0.11003451 0.136756 0.18278116 0.2172497 -0.2948264
0.08178414 -0.35885224 0.12547562 -0.36238998 0.021943513 -0.29482082 -0.2691908 -0.08952996
0.10884811 -0.41220662 0.18537702 0.084658206 0.07958756 -0.09488054 0.09032755 -0.12190617
0.21738285 0.0906267 0.17991634 -0.15918717 0.2692587 -0.015758552 0.0534856 0.020934243
00000000: daa1 573e 95da efbd 7803 463e 3bc0 ef3d
00000010: 56ae 333e 091c 97be e55f 52be 092a 213e
00000020: bf1b aa3d 69f9 58be 81c4 a03e 072a 9d3c
00000030: a147 333e 98ae d83d 6da8 a7bd c37f 593e
00000040: 0383 a23d c9da b53d f99d 353c ea66 1dbd
00000050: f420 ed3d 987b 5dbe acaa 073e 61a3 093e
00000060: 409b b53d d44e a1be 38f8 e6bd 8275 50be
00000070: 3318 44be 490b 1b3e 2910 c43c a1c1 04bd
00000080: 1132 c0bd c8c6 1abd b14a bf3b c659 e13d
00000090: c409 0c3e fc2a 3b3e b576 5e3e 7cf3 96be
000000a0: 717e a73d 7bbb b7be ae7c 003e 2e8b b9be
000000b0: e2c2 b33c c1f2 96be 60d3 89be 7c5b b7bd
000000c0: c2eb de3d bf0c d3be 79d3 3d3e 4861 ad3d
000000d0: cdfe a23d bb50 c2bd a7fd b83d f1a9 f9bd
000000e0: 9c99 5e3e 7e9a b93d fd3b 383e f601 23be
000000f0: 47dc 893e 1418 81bc b713 5b3d 4a7e ab3c

params,ScannedRNN_0,GRUCell_0,hn,kernel f4 [64, 64]
-0.35830003 -0.015576855 0.17090605 -0.13871948 -0.120829925 -0.0067137447 0.17821757 0.024427162
0.1759453 0.16754702 -0.22147754 0.1310757 -0.03755537 -0.15324883 -0.19009815 -0.09767569
-0.087939315 0.0016018907 -0.08140961 -0.1495633 0.44877264 0.057593808 -0.32164365 -0.108748674
0.030584436 -0.2562612 -0.012353222 0.17656928 0.062181603 0.14473593 0.060409967 0.18227153
0.07405966 -0.11665442 -0.021459723 -0.104063794 -0.1459119 -0.032879855 -0.03025108 0.08700187
-0.051098872 0.05985132 -0.38075656 0.18342805 0.1602696 0.028272687 0.0648505 -0.5031974
0.07808876 -0.10083702 -0.18111917 -0.25578207 0.03674875 -0.075430684 -0.08754312 0.07815043
-0.18919452 -0.023390142 -0.004655577 -0.07738164 0.0065369266 -0.008357891 0.2810006 -0.025160404
0.105820075 -0.15320231 0.2603473 -0.15500921 -0.0947809 0.051304743 0.08266504 -0.12397388
-0.09195602 -0.03520416 -0.06787893 0.014054707 0.06743572 -0.059288494 0.07361902 -0.3410024
0.07599778 0.1792441 0.18772157 -0.027510066 0.27442336 0.21256131 -0.052079774 0.043652084
-0.28604895 -0.09966727 0.18774596 -0.10624804 0.12217037 0.01794425 0.042185545 -0.4246476
-0.19780888 0.114757724 0.020560073 0.14381555 -0.17040622 -0.23596656 0.07910599 0.20643112
-0.051631767 0.13699448 0.13164316 0.11386478 0.051051773 0.16974059 -0.07863369 -0.11222743
-0.04951077 0.24670482 -0.21273972 0.06906281 -0.10988174 -0.038220074 0.09245368 0.3725595
-0.04013948 0.11441915 0.023181025 0.10790112 -0.054573853 -0.05979236 0.015391238 -0.23182182
0.13372809 0.090232596 -0.24302274 -0.29233187 0.058587547 0.045247342 0.20087436 -0.018249756
0.24451818 -0.215351 0.055707946 0.14930433 0.0059840814 0.08675458 -0.16089141 -0.3101458
-0.12559003 0.056623694 0.061957758 -0.012381387 0.02619633 -0.17417409 0.09515226 0.20480116
0.045951936 0.05048716 0.040348817 0.08750169 -0.026425514 0.027953917 -0.20243171 -0.009890483
0.25821936 0.122954465 -0.15885232 -0.051826667 -0.049534664 0.12368828 0.07672715 0.10042191
-0.16471928 -0.06147957 -0.008817463 -0.1764376 -0.07756384 -0.10057822 -0.21991783 0.07403842
0.10722941 -0.022675684 -0.06655974 -0.12951156 0.043972924 0.28282782 0.027207071 0.47924155
0.14546824 -0.21998192 0.06798963 -0.0806238 0.103745624 -0.107103914 0.014919229 0.27202398
0.33617717 -0.10322166 0.18430576 -0.28764376 -0.16346742 0.1118047 0.04706167 -0.023717605
-0.2420534 0.08236941 -0.16217591 -0.016289119 0.13946596 -0.21898021 -0.033688534 0.28671792
0.18094867 0.009022811 0.062210158 -0.061660394 0.43345428 0.25535876 0.22235602 -0.37056923
0.33753374 0.016013697 0.057175554 -0.059926987 0.16613545 -0.027232133 -0.075650126 0.040682357
-0.27291232 -0.24158834 0.21283205 0.07142827 -0.03981218 0.23506069 -0.06779008 -0.108714715
0.12961169 0.16471867 0.06837625 0.24535602 0.1651172 -0.032839388 -0.34772974 0.036902383
0.03776726 -0.40469763 0.1571043 0.07442202 -0.1293377 0.02764782 -0.050928958 -0.2074203
-0.110134915 0.32143936 -0.41466334 0.04035859 -0.020242723 0.22878967 0.105398536 0.04125625
00000000: 1a73 b7be 1136 7fbc ff01 2f3e 7b0c 0ebe
00000010: ae75 f7bd f9fe dbbb ab7e 363e 791b c83c
00000020: 012b 343e 7291 2b3e 02cb 62be b538 063e
00000030: a9d3 19bd 43ed 1cbe 17a9 42be 310a c8bd
00000040: 8719 b4bd 88f6 d13a 15ba a6bd 1f27 19be
00000050: 87c5 e53e 7ce7 6b3d 7aae a4be a0b7 debd
00000060: 368c fa3c ab34 83be 2b65 4abc 94ce 343e
00000070: 23b2 7e3d a835 143e 7170 773d 63a5 3a3e
00000080: 97ac 973d 83e8 eebd 4dcc afbc 661f d5bd
00000090: ee69 15be 07ad 06bd 1dd1 f7bc 092e b23d
000000a0: 0d4d 51bd a826 753d 86f2 c2be 90d4 3b3e
000000b0: b71d 243e 1f9c e73c 57d0 843d 8bd1 00bf
000000c0: 00ed 9f3d a483 cebd 4e77 39be def5 82be
000000d0: db85 163d 677b 9abd cf49 b3bd 550d a03d
000000e0: 35bc 41be af9c bfbc cf8d 98bb 447a 9ebd
000000f0: b733 d63b 89ef 08bc 50df 8f3e 311d cebc
00000100: 32b8 d83d 11e1 1cbe 3e4c 853e bcba 1ebe
00000110: 7d1c c2bd ec24 523d 4a4c a93d 05e6 fdbd
00000120: 7053 bcbd 3d32 10bd 1c04 8bbd b745 663c
00000130: bd1b 8a3d 7ed8 72bd 92c5 963d de97 aebe
00000140: b9a4 9b3d c48b 373e 153a 403e ca5c e1bc
00000150: 3881 8c3e aca9 593e 9a51 55bd 87cc 323d
00000160: 0275 92be 5b1e ccbd 7a40 403e 9398 d9bd
00000170: 7534 fa3d d2ff 923c c0ca 2c3d 696b d9be
00000180: 698e 4abe 1906 eb3d 996d a83c 6244 133e
00000190: f87e 2ebe 38a1 71be 5202 a23d ae62 533e
000001a0: d57b 53bd 4848 0c3e 77cd 063e f031 e93d
000001b0: aa1b 513d 7ad0 2d3e b30a a1bd 7fd7 e5bd
000001c0: cecb 4abd 30a0 7c3e 71d8 59be cd70 8d3d
000001d0: ad09 e1bd a78c 1cbd 5b58 bd3d 1ec0 be3e
000001e0: 4c69 24bd 9654 ea3d 22e6 bd3c 43fb dc3d
000001f0: d588 5fbd d5e8 74bd 882b 7c3c b362 6dbe
00000200: 04f0 083e decb b83d f4da 78be 86ac 95be
00000210: 7ff9 6f3d 4755 393d 02b2 4d3e 8380 95bc
00000220: f962 7a3e f984 5cbe 042e 643d 3ce3 183e
00000230: 1d16 c43b 63ac b13d b8c0 24be 6ecb 9ebe
00000240: ac9a 00be 3fee 673d 6bc7 7d3d 4ddb 4abc
00000250: b099 d63c b15a 32be 30df c23d 65b7 513e
00000260: 1938 3c3d a0cb 4e3d cd44 253d 1634 b33d
00000270: 527a d8bc 9dff e43c 424a 4fbe b10b 22bc
00000280: 5435 843e 8dcf fb3d 2faa 22be 3348 54bd
00000290: dce4 4abd 4850 fd3d 2023 9d3d 01aa cd3d
000002a0: 2cac 28be 00d2 7bbd 1f77 10bc 0fac 34be
000002b0: cad9 9ebd f4fb cdbd 2432 61be 75a1 973d
000002c0: 189b db3d 5bc2 b9bc 7950 88bd ae9e 04be
000002d0: f41c 343d cfce 903e 5de1 de3c 265f f53e
000002e0: a0f5 143e f142 61be 263e 8b3d 171e a5bd
000002f0: 9678 d43d 4c59 dbbd c86f 743c ba46 8b3e
00000300: 6a1f ac3e e165 d3bd a6ba 3c3e 0b46 93be
00000310: 0164 27be ddf9 e43d bdc3 403d 6c4b c2bc
00000320: d9dc 77be 4bb1 a83d 7111 26be c270 85bc
00000330: 2ad0 0e3e 593c 60be fdfc 09bd b1cc 923e
00000340: 9c4a 393e 6ad4 133c 14d0 7e3d 9c8f 7cbd
00000350: b8ed dd3e 62be 823e 4cb1 633e 40bb bdbe
00000360: 39d1 ac3e 282f 833c ea30 6a3d 0076 75bd
00000370: 691f 2a3e ec15 dfbc 74ee 9abd 8ba2 263d
00000380: 2abb 8bbe ef62 77be a5f0 593e fc48 923d
00000390: 1912 23bd c0b3 703e 87d5 8abd d2a5 debd
000003a0: edb8 043e 03ac 283e d908 8c3d 9c3e 7b3e
000003b0: 7c14 293e 9882 06bd a209 b2be f426 173d
000003c0: d8b1 1a3d 8734 cfbe f3df 203e 926a 983d
000003d0: 1a71 04be ae7d e23c e29a 50bd fd65 54be
000003e0: 6a8e e1bd b393 a43e c14e d4be 0d4f 253d
000003f0: 11d4 a5bc d747 6a3e 30db d73d 50fc 283d

params,ScannedRNN_0,GRUCell_0,hr,kernel f4 [64, 64]
-0.025914945 -0.03576129 0.018153599 0.14385471 -0.24310388 -0.20289898 0.15449409 0.2304439
0.0048670853 0.18612732 -0.19604053 0.17479277 0.040407587 0.006982424 0.030893732 0.15941527
0.19721165 0.12787953 0.14623319 -0.019892076 0.021489525 -0.012231705 -0.22660999 0.052345954
-0.13446829 -0.20960979 -0.1254491 0.30648884 -0.08098846 0.03210898 0.081514135 0.14180036
0.19903743 0.036131486 -0.18638575 -0.14492339 0.05480227 -0.08610912 -0.0042763203 0.004866177
0.06976314 -0.0047044577 -0.06313539 -0.051449094 -0.09803915 -0.06540564 0.026384398 -0.283606
-0.019912256 0.118008845 -0.012064603 0.08481885 0.18521616 0.12341301 0.02530163 0.33205205
-0.06897807 0.07383312 -0.18624455 0.173276 0.3045095 -0.02055469 0.087385505 0.07195837
0.05007927 -0.20970292 -0.22493641 -0.00458551 -0.16007377 -0.2617338 0.075308755 -0.15236335
0.020644598 0.0058412696 0.07543542 -0.11457612 -0.05734263 0.08605519 0.18374836 -0.13490257
-0.13571614 0.13275254 -0.10812746 -0.06321289 0.034408696 0.21658857 -0.0076661156 -0.21909632
-0.1691259 -0.039648052 0.03766407 -0.1645709 -0.07875988 0.033515222 0.077420175 0.086575955
-0.2642874 -0.00033385842 0.05757438 0.19537568 -0.06909066 0.09635466 -0.1494949 -0.022342596
0.061321653 0.14434081 -0.09319414 -0.074387684 -0.2130301 0.13337898 -0.11542165 -0.016122129
0.093456134 -0.05605703 -0.06843995 -0.015531053 0.10091811 0.19884749 0.010253487 0.0036078568
0.10099375 -0.085046954 0.071834475 -0.056099154 0.038975008 0.18635848 -0.19568683 0.100277826
-0.21142359 -0.0745792 0.2938977 0.08785683 -0.062361684 -0.08944126 -0.20648015 0.07610022
-0.039975967 0.16490044 0.06514053 -0.042494003 0.029168123 -0.0966282 0.036306966 0.10136922
-0.062274802 -0.2207499 0.0009355742 -0.08607153 0.04591283 0.3280143 -0.015160731 0.10740892
0.24659179 -0.045764588 0.08255936 -0.018951118 0.16009592 -0.12556556 0.048902478 -0.123049594
-0.10936217 -0.08755344 0.18607423 -0.04509587 0.05809245 0.0096498495 0.16765799 -0.026081853
-0.117642775 -0.17892468 -0.26013422 -0.023065943 -0.12254042 0.038507808 0.20371403 -0.31882685
0.070036456 -0.05608787 -0.14334926 -0.1910538 -0.12229788 -0.046804447 0.02203403 0.0871739
0.0063734655 0.41511658 0.038488276 -0.038668055 -0.00765277 0.018412711 0.06431897 0.030082533
0.09151281 0.12433252 0.054305878 -0.031277634 -0.32604682 0.14150518 -0.09578308 0.12884022
-0.031373348 0.116238326 -0.13253939 0.16788198 -0.09270561 -0.005714688 -0.22377406 -0.12762778
-0.011722496 0.054544497 -0.020516789 0.16383906 0.3021552 -0.18654948 0.09024304 -0.3130416
-0.044976797 -0.18410899 0.2258023 -0.20897178 -0.00024825835 -0.21833688 0.011267716 0.14786124
0.025122166 -0.036119856 -0.101181686 0.098183066 -0.17733507 0.028915154 0.20615993 -0.061445367
-0.025956916 -0.07985325 0.11924829 0.08930969 0.120496325 -0.0107996315 0.05819939 -0.030548206
0.11526189 0.001832555 -0.12025459 -0.14766611 -0.00896647 0.040154852 0.01805773 -0.04060564
-0.15049334 -0.15791768 0.1579559 0.10153771 0.06590278 -0.0866662 -0.024185922 -0.13732655
00000000: 944b d4bc 6e7a 12bd dbb6 943c a64e 133e
00000010: 39f0 78be c0c4 4fbe b333 1e3e 7cf9 6b3e
00000020: 127c 9f3b 2998 3e3e d9be 48be e0fc 323e
00000030: 6d82 253d d1cc e43b da14 fd3c c23d 233e
00000040: daf1 493e daf2 023e 27be 153e b5f4 a2bc
00000050: cd0a b03c 7d67 48bc 730c 68be b668 563d
00000060: 0eb2 09be f3a3 56be bb75 00be 1bec 9c3e
00000070: 47dd a5bd b584 033d e2f0 a63d 1d34 113e
00000080: 78d0 4b3e 9cfe 133d e8db 3ebe cc66 14be
00000090: 5878 603d fa59 b0bd 6020 8cbb 7474 9f3b
000000a0: fadf 8e3d da27 9abb 214d 81bd 49bc 52bd
000000b0: c0c8 c8bd 64f3 85bd 1824 d83c ce34 91be
000000c0: 071f a3bc 9fae f13d 9daa 45bc 81b5 ad3d
000000d0: 4ea9 3d3e f6bf fc3d 5d45 cf3c ba02 aa3e
000000e0: 6044 8dbd d235 973d e4b6 3ebe 446f 313e
000000f0: abe8 9b3e 4f62 a8bc 2cf7 b23d e95e 933d
00000100: ec1f 4d3d 5dbc 56be bb55 66be 0c42 96bb
00000110: 61ea 23be f901 86be 7a3b 9a3d 2305 1cbe
00000120: dc1e a93c 1f68 bf3b e37d 9a3d e3a6 eabd
00000130: 1be0 6abd b43d b03d 8828 3c3e e623 0abe
00000140: 2cf9 0abe 48f0 073e ee71 ddbd c275 81bd
00000150: 22f0 0c3d 65c9 5d3e 0a34 fbbb c95a 60be
00000160: 572f 2dbe ff65 22bd a445 1a3d 4685 28be
00000170: dc4c a1bd 4247 093d 788e 9e3d bc4e b13d
00000180: ae50 87be b809 afb9 1dd3 6b3d 9010 483e
00000190: 677f 8dbd 9855 c53d 3115 19be d207 b7bc
000001a0: 6a2c 7b3d 14ce 133e 92dc bebd 9258 98bd
000001b0: 9024 5abe 8094 083e 3062 ecbd 8e12 84bc
000001c0: ee65 bf3d 0e9c 65bd 3f2a 8cbd f575 7ebc
000001d0: 27ae ce3d ad9e 4b3e 3efe 273c cb71 6c3b
000001e0: d0d5 ce3d 192d aebd f41d 933d 3ac8 65bd
000001f0: 42a4 1f3d c2d4 3e3e 2162 48be 765e cd3d
00000200: 6d7f 58be fbbc 98bd c279 963e 48ee b33d
00000210: f76e 7fbd fb2c b7bd 886f 53be 6fda 9b3d
00000220: d7bd 23bd a9db 283e 6668 853d 310e 2ebd
00000230: fdf1 ee3c 01e5 c5bd 9db6 143d aa9a cf3d
00000240: dd13 7fbd 430c 62be 5241 753a 4546 b0bd
00000250: 170f 3c3d 7ef1 a73e b764 78bc 35f9 db3d
00000260: 8f82 7c3e a673 3bbd e214 a93d 603f 9bbc
00000270: 2ff0 233e 4294 00be f74d 483d 6d01 fcbd
00000280: 46f9 dfbd 384f b3bd 3e8a 3e3e 72b6 38bd
00000290: 59f2 6d3d 671a 1e3c 89ae 2b3e 9ca9 d5bc
000002a0: b2ee f0bd 0838 37be 5030 85be caf4 bcbc
000002b0: 79f6 fabd 5dba 1d3d 699a 503e 463d a3be
000002c0: 466f 8f3d 65bc 65bd 26ca 12be 9ba3 43be
000002d0: 5077 fabd 05b6 3fbd b680 b43c 3b88 b23d
000002e0: 81d8 d03b 298a d43e e2a5 1d3d 6562 1ebd
000002f0: 16c4 fabb 41d6 963c aab9 833d a56f f63c
00000300: 116b bb3d 0ca2 fe3d d76f 5e3d fa1c 00bd
00000310: 9cef a6be bce6 103e eb29 c4bd b1ee 033e
00000320: 5781 00bd 5c0e ee3d 68b8 07be 41e9 2b3e
00000330: 70dc bdbd 4742 bbbb 0725 65be dbb0 02be
00000340: b60f 40bc 0d6a 5f3d d312 a8bc 6dc5 273e
00000350: 16b4 9a3e d406 3fbe 58d1 b83d fd46 a0be
00000360: 9739 38bd 1187 3cbe b838 673e b3fc 55be
00000370: ac28 82b9 b493 5fbe 3a9c 383c f068 173e
00000380: 00cd cd3c 6af2 13bd 5838 cfbd 3414 c93d
00000390: 5397 35be 79df ec3c 971b 533e 23ae 7bbd
000003a0: 99a3 d4bc 1a8a a3bd 7338 f43d 00e8 b63d
000003b0: c7c6 f63d f0f0 30bc 7c62 6e3d 3b40 fabc
000003c0: 6d0e ec3d 5832 f03a 0a48 f6bd c935 17be
000003d0: 1ae8 12bc 6a79 243d ceed 933c 1952 26bd
000003e0: ed1a 1abe 2cb5 21be 31bf 213e 01f3 cf3d
000003f0: 09f8 863d 0c7e b1bd 8e21 c6bc 559f 0cbe

params,ScannedRNN_0,GRUCell_0,hz,kernel f4 [64, 64]
-0.07803928 0.045499593 0.16236734 -0.16487762 0.11704073 0.06196225 0.02194076 0.0065149404
-0.03805949 0.15307496 0.10290096 -0.14565375 -0.23772101 0.13445236 -0.15135276 0.2083831
0.09675725 0.08465586 -0.13952419 0.23238686 0.090008155 0.114023045 0.03812789 0.2921938
0.14451747 -0.029415082 0.035880066 -0.13126071 0.2863362 -0.06308508 0.049917363 -0.013507611
0.08155082 0.099481165 0.06010817 -0.11349724 -0.07472453 -0.15748887 0.21857995 0.08125384
0.028185178 0.02148814 -0.006639756 0.18105029 -0.031654727 -0.05088998 -0.1726331 0.02197519
0.09903941 0.15368588 0.109512046 -0.09433083 0.04769341 0.06979394 0.057380885 0.06983639
0.122113176 -0.1762107 0.2602709 0.17578258 -0.13855205 -0.23603992 -0.028552951 -0.1323718
0.08660138 -0.18736081 0.063411996 -0.06320148 -0.02296037 0.035319045 0.065408245 0.17238249
-0.15947722 -0.07414334 -0.13409837 -0.1792394 0.12129922 -0.059726287 0.037642147 -0.010637138
-0.01631976 0.02813063 -0.27328724 0.050791666 -0.0060140113 0.122207075 0.072854705 -0.089693934
-0.0118420925 0.2129167 0.001317596 0.1298732 -0.16966413 0.21945877 -0.16305025 -0.029316979
-0.13031432 0.13072199 -0.12047504 0.103296675 -0.011633104 0.15005934 0.30295336 0.048948605
0.25495958 0.1250071 -0.0077244113 0.09038739 0.26153174 0.18563642 0.15216751 0.23528862
-0.026712984 0.1752802 0.059294835 -0.0013355175 0.19369547 0.120914586 -0.12784813 -0.033720292
-0.12357693 0.00263216 0.2127423 -0.013594823 -0.015420999 0.010478427 -0.11682425 0.051533423
-0.022564411 -0.0033802236 -0.17563708 0.13840754 -0.098873824 -0.10347314 0.2646609 -0.13064906
0.041564554 -0.010481439 0.095014915 -0.056157462 -0.13540767 0.1503374 0.092188366 -0.3390463
-0.16858189 -0.007259421 -0.12310534 0.08912009 -0.27419764 0.04570623 0.15391505 -0.08642909
-0.056983247 0.012765788 -0.16642871 -0.15108919 0.016039146 -0.013655142 0.110412225 -0.052904293
0.08795801 0.16413034 -0.022752339 -0.082488194 -0.16686742 0.068413064 0.08126861 -0.22201282
-0.02092907 -0.1676882 -0.075191855 -0.041091077 -0.025603147 -0.02305137 -0.30178276 -0.010829455
-0.16766103 -0.14813516 -0.057828754 -0.059846766 -0.05220557 -0.20683798 0.041815788 -0.19444531
-0.006468293 -0.0043998617 -0.028370066 -0.22015758 -0.031941544 -0.17170554 -0.12936547 -0.044946697
-0.07372095 0.008311984 -0.03695358 -0.09954662 -0.11045583 -0.16580002 -0.03360338 0.08389347
0.11032357 0.098628424 0.008085061 -0.048103604 -0.039924793 0.021374518 0.23884831 0.22229357
0.072250634 -0.04956297 0.11442595 0.06048213 -0.10129626 0.15850215 0.11271524 0.03270851
0.19702873 -0.01405882 -0.17678244 0.115463726 0.1304301 -0.10556102 0.04667306 0.17871074
0.060318794 -0.04899353 0.07338604 -0.09528848 0.1171847 0.08692437 -0.0064566336 -0.0057164473
-0.01631089 -0.006773632 0.2099383 0.0159366 0.26520053 -0.0682719 -0.13940611 -0.084828325
-0.06966745 -0.038028017 0.030427504 -0.098237894 -0.05348803 0.23379737 -0.12123754 -0.16671692
-0.11922503 0.12415182 0.26883084 -0.24946634 -0.059495594 0.12840416 0.14377166 -0.018867007
00000000: 0fd3 9fbd c85d 3a3d a043 263e aed5 28be
00000010: 0db3 ef3d 21cc 7d3d 1cbd b33c 487b d53b
00000020: 45e4 1bbd afbf 1c3e bdbd d23d 4226 15be
00000030: 236d 73be e1ad 093e 38fc 1abe 6162 553e
00000040: aa28 c63d 0d60 ad3d 6edf 0ebe d2f6 6d3e
00000050: 3256 b83d ea84 e93d fe2b 1c3d 6d9a 953e
00000060: 63fc 133e e6f7 f0bc faf6 123d 3569 06be
00000070: a99a 923e c032 81bd 2676 4c3d 074f 5dbc
00000080: 1e04 a73d c8bc cb3d fc33 763d 3e71 e8bd
00000090: 2d09 99bd c344 21be 6cd3 5f3e 6a68 a63d
000000a0: 9ae4 e63c e507 b03c 4f92 d9bb 3f65 393e
000000b0: 63a8 01bd 0372 50bd bbc6 30be 5005 b43c
000000c0: 2dd5 ca3d d55f 1d3e da47 e03d 8630 c1bd
000000d0: 2a5a 433d 20f0 8e3d 3808 6b3d 6206 8f3d
000000e0: 7916 fa3d 9470 34be 3a42 853e 5900 343e
000000f0: 97e0 0dbe 73b4 71be e1e7 e9bc 798c 07be
00000100: 105c b13d 83db 3fbe 26de 813d c76f 81bd
00000110: 6317 bcbc b4aa 103d c2f4 853d 0985 303e
00000120: ff4d 23be 77d8 97bd 1551 09be 898a 37be
00000130: ba6b f83d 8da3 74bd a72e 1a3d 6447 2ebc
00000140: 04b1 85bc 3572 e63c 4eec 8bbe ec0a 503d
00000150: 2f11 c5bb b447 fa3d d934 953d 74b1 b7bd
00000160: 5605 42bc d606 5a3e 2fb3 ac3a 7bfd 043e
00000170: 6fbc 2dbe cdb9 603e a5f6 26be 292a f0bc
00000180: 1e71 05be fcdb 053e 9ebb f6bd 358d d33d
00000190: c698 3ebc 28a9 193e b41c 9b3e 557e 483d
000001a0: 108a 823e dc01 003e 0f1d fdbb 061d b93d
000001b0: 7de7 853e 7917 3e3e cdd1 1b3e 80ef 703e
000001c0: 30d5 dabc a77c 333e 24df 723d 880c afba
000001d0: 1b58 463e 11a2 f73d 9fea 02be 4a1e 0abd
000001e0: e715 fdbd 5180 2c3b 1ed9 593e d2bc 5ebc
000001f0: 5ca8 7cbc b5ad 2b3c 8d41 efbd b614 533d
00000200: 00d9 b8bc be86 5dbb 35da 33be b5ba 0d3e
00000210: 5c7e cabd bae9 d3bd a281 873e dec8 05be
00000220: 983f 2a3d 57ba 2bbc 2e97 c23d 5e05 66bd
00000230: 4fa8 0abe 0cf2 193e 41cd bc3d 7a97 adbe
00000240: bba0 2cbe 70e0 edbb a71e fcbd 9884 b63d
00000250: a263 8cbe 7536 3b3d e89b 1d3e bc01 b1bd
00000260: 4467 69bd 9827 513c 4a6c 2abe 20b7 1abe
00000270: 8764 833c d1b9 5fbc ce1f e23d 2cb2 58bd
00000280: 5423 b43d c911 283e 1d63 babc 92ef a8bd
00000290: 4bdf 2abe 261c 8c3d 2870 a63d 5457 63be
000002a0: 7173 abbc 75b6 2bbe 30fe 99bd 1e4f 28bd
000002b0: b1bd d1bc 3ad6 bcbc 4583 9abe 076e 31bc
000002c0: 55af 2bbe beb0 17be d8dd 6cbd e221 75bd
000002d0: 82d5 55bd 56cd 53be 0847 2b3d ac1c 47be
000002e0: f9f3 d3bb b72c 90bb 5768 e8bc fd70 61be
000002f0: 23d5 02bd 94d3 2fbe 6278 04be 071a 38bd
00000300: 02fb 96bd fd2e 083c a35c 17bd 19df cbbd
00000310: ab36 e2bd 7bc7 29be b3a3 09bd 57d0 ab3d
00000320: 53f1 e13d b3fd c93d 3477 043c 4908 45bd
00000330: 2e88 23bd 9d19 af3c a794 743e eda0 633e
00000340: 24f8 933d 8a02 4bbd 2758 ea3d 1cbc 773d
00000350: 6a74 cfbd 634e 223e 3fd7 e63d 5cf9 053d
00000360: e6c1 493e f756 66bc 7506 35be 3f78 ec3d
00000370: 788f 053e 6030 d8bd 402c 3f3d f3ff 363e
00000380: d710 773d 71ad 48bd 6c4b 963d 9b26 c3bd
00000390: 88fe ef3d 6705 b23d 2b92 d3bb 0951 bbbb
000003a0: 6a9e 85bc 58f5 ddbb 11fa 563e 798d 823c
000003b0: 5dc8 873e 23d2 8bbd 7ac0 0ebe 79ba adbd
000003c0: cfad 8ebd 44c3 1bbd 1a43 f93c f330 c9bd
000003d0: 4416 5bbd 9468 6f3e 634b f8bd d7b7 2abe
000003e0: 412c f4bd 4f43 fe3d 32a4 893e 1b74 7fbe
000003f0: a7b1 73bd 617c 033e e138 133e fb8e 9abc

params,ScannedRNN_0,GRUCell_0,in,bias f4 [64]
0.32141095 -0.20417641 0.02743168 0.17364345 0.13977198 -0.48571905 -0.09737292 0.11386353
0.10081236 -0.3699661 0.53254324 0.043627612 0.22970998 -0.012110172 -0.19398311 0.17703675
0.0966295 -0.0009327825 -0.0019173315 -0.09895617 -0.03226603 -0.17199717 0.1917949 0.14532098
0.09869319 -0.5122247 -0.16267985 -0.32355708 -0.23015279 0.27327037 0.092249975 0.04411017
-0.22113414 0.09279367 -0.19713463 0.22580412 0.29939264 0.22879376 0.39109293 -0.20760998
-0.06179148 -0.48414117 0.09707012 -0.5121205 0.01915053 -0.4722292 0.08455017 -0.093553394
0.20500703 -0.12211807 0.28560564 0.08224349 0.0601614 -0.024596652 0.17465442 -0.16827312
0.37566525 0.17728363 0.31789175 -0.010970427 0.4286058 -0.072595865 0.0915225 -0.0885899
00000000: fa8f a43e 9f13 51be 67b8 e03c 97cf 313e
00000010: 6320 0f3e 2bb0 f8be 746b c7bd 4831 e93d
00000020: b676 ce3d 326c bdbe c154 083f deb2 323d
00000030: 1839 6b3e be69 46bc 82a3 46be 1f49 353e
00000040: b0e5 c53d f985 74ba f84e fbba 88a9 cabd
00000050: 6229 04bd 0720 30be e265 443e 06cf 143e
00000060: a81f ca3d 2821 03bf 8c95 26be 46a9 a5be
00000070: 2cad 6bbe 18ea 8b3e 8eed bc3d deac 343d
00000080: fd70 62be 9c0a be3d a9dd 49be 3239 673e
00000090: fe49 993e e948 6a3e 553d c83e b697 54be
000000a0: 1019 7dbd 5ae1 f7be b3cc c63d 541a 03bf
000000b0: 93e1 9c3c 07c8 f1be a428 ad3d ec98 bfbd
000000c0: 5ded 513e 0a19 fabd e73a 923e 466f a83d
000000d0: cd6b 763d eb7e c9bc 9cd8 323e ca4f 2cbe
000000e0: 3257 c03e d789 353e b5c2 a23e 4ebd 33bc
000000f0: 3872 db3e 24ad 94bd 2670 bb3d 9f6e b5bd

params,ScannedRNN_0,GRUCell_0,in,kernel f4 [64, 64]
0.20716381 -0.2720781 -0.12964152 -0.037904333 0.18996209 0.10460855 0.045874313 0.08518917
0.27202022 -0.09885799 0.10530487 0.20035838 0.10543894 0.07119964 0.15593176 -0.09387315
0.37194243 -0.11784055 -0.01518562 0.0073535284 -0.26178852 0.31200773 0.27564391 0.062050052
0.11971147 -0.07558762 -0.040372573 0.18796372 -0.027941152 0.14111386 -0.15229793 0.11318892
-0.05087758 -0.21548405 0.0053679505 0.08647525 0.016614785 -0.18858007 -0.046570066 -0.0363359
0.16254614 -0.047409862 0.0040104035 0.15088342 0.06577287 -0.06053955 -0.14116794 0.08863932
-0.003450856 -0.037197176 -0.10653635 -0.120496444 0.055372152 -0.2011329 0.026100792 -0.47879878
-0.10808954 0.25915924 -0.016988158 -0.095651194 -0.16452906 -0.15911156 0.4683035 0.017999854
0.18594308 0.1394892 0.23213571 0.06657148 -0.06517621 -0.0981839 -0.2582979 0.21870439
-0.16607642 0.114322335 -0.057804342 -0.1963864 0.14172855 -0.2209127 -0.10805477 -0.1075424
0.13551097 -0.16291825 0.11696789 0.16527547 0.2942937 -0.42478797 -0.08227709 -0.20192179
-0.025088834 0.024198199 -0.12116876 0.18637076 0.31421244 -0.11840164 0.3924032 -0.269462
0.19410126 -0.37420967 0.25999895 -0.18325686 -0.10922763 0.028310642 0.006886535 0.16008273
-0.23209628 -0.0059888386 0.28293622 0.00057139253 -0.015795007 0.11939374 0.020113809 -0.1407899
0.1062591 -0.0337725 -0.24309425 -0.1208275 -0.30366838 -0.0032719548 -0.14584653 0.16456266
0.009653408 0.39928702 0.050569624 0.03355275 -0.16444115 0.49001083 -0.004243603 0.031305924
-0.07599873 0.064532116 0.05792973 -0.1734137 0.074324824 0.051569153 0.1900051 0.25048482
-0.09550864 0.074099675 -0.04335684 0.010862776 0.04549921 -0.28466856 -0.032606825 -0.062632605
-0.23124687 0.18517041 0.0837984 0.1740813 0.36293674 -0.10479887 -0.214181 -0.44192857
0.16747026 -0.08361062 0.055141035 0.20252892 0.2476164 -0.26584315 0.115814365 -0.4162899
-0.09452001 0.09268015 -0.16406426 -0.17470558 -0.09744266 -0.13703431 0.07609209 0.389375
-0.08231395 -0.016770568 0.077273846 0.13178642 0.6838314 -0.021173198 -0.005953285 0.31316677
-0.15678184 -0.43612298 -0.21450001 0.2309512 -0.4244055 -0.3253825 -0.009304247 0.072498515
-0.23867905 0.2527481 0.13164824 0.37112898 -0.1798252 0.31377518 0.5312269 0.35191354
-0.11124608 0.17044945 -0.28578293 0.5590584 -0.23002048 -0.029815532 0.3722101 -0.2622027
-0.027328717 -0.088741876 0.014257327 0.14445974 -0.2717158 0.049965266 0.14370447 -0.46976763
-0.22770265 -0.14122145 0.08257417 -0.18862705 -0.22812398 -0.17080043 0.16848058 -0.063995495
0.030924477 -0.35923052 -0.3206084 0.06609277 -0.033057004 -0.62154955 0.29703116 0.0911575
-0.15014923 0.08828744 -0.26596648 0.034822445 0.06886499 -0.118661016 -0.084047675 0.254827
-0.039174344 0.03154695 0.14046748 0.1769913 -0.16577926 0.39240357 0.30023548 0.13027313
-0.13206618 0.26712808 -0.14307171 -0.04663012 -0.036379796 0.23267491 -0.26236954 0.41249368
0.004596 -0.2848034 0.10572876 0.60961443 0.15257338 0.021684546 -0.20121375 -0.013782461
00000000: c022 543e d24d 8bbe bfc0 04be 9341 1bbd
00000010: 6c85 423e 023d d63d b4e6 3b3d a977 ae3d
00000020: 3c46 8b3e 0f76 cabd 14aa d73d bf2a 4d3e
00000030: 5ff0 d73d 1ed1 913d 93ac 1f3e 9140 c0bd
00000040: 3d6f be3e 6356 f1bd 1bcd 78bc def5 f03b
00000050: 2509 86be 7abf 9f3e 3321 8d3e 3228 7e3d
00000060: 4a2b f53d afcd 9abd b65d 25bd 9079 403e
00000070: d8e4 e4bc 2780 103e fdf3 1bbe 98cf e73d
00000080: 0265 50bd daa7 5cbe a2e5 af3b f019 b13d
00000090: bb1b 883c 221b 41be 41c0 3ebd f4d4 14bd
000000a0: 7f72 263e d830 42bd b469 833b 2f81 1a3e
000000b0: edb3 863d 52f8 77bd 548e 10be 8888 b53d
000000c0: c227 62bb 115c 18bd bb2f dabd d7c6 f6bd
000000d0: e9cd 623d c8f5 4dbe 54d1 d53c 1d25 f5be
000000e0: 0c5e ddbd 85b0 843e c02a 8bbc c6e4 c3bd
000000f0: 4e7a 28be 24ee 22be 7ac5 ef3e 6e74 933c
00000100: dd67 3e3e 42d6 0e3e fcb4 6d3e a156 883d
00000110: 1b7b 85bd a414 c9bd 9f3f 84be 0bf4 5f3e
00000120: f00f 2abe d421 ea3d 3fc4 6cbd 8419 49be
00000130: 4a21 113e f036 62be d24b ddbd 313f dcbd
00000140: 63c3 0a3e 0bd4 26be dc8c ef3d f93d 293e
00000150: aaad 963e cf7d d9be e480 a8bd 96c4 4ebe
00000160: 1987 cdbc 4d3b c63c 5427 f8bd fad7 3e3e
00000170: 74e0 a03e 8f7c f2bd 12e9 c83e ecf6 89be
00000180: 7bc2 463e 6998 bfbe 951e 853e b0a7 3bbe
00000190: bcb2 dfbd b8eb e73c 71a8 e13b baec 233e
000001a0: a6aa 6dbe 053e c4bb 04dd 903e 81c9 153a
000001b0: 8864 81bc b584 f43d b7c5 a43c 3a2b 10be
000001c0: 5f9e d93d 0855 0abd b3ed 78be 6974 f7bd
000001d0: 6c7a 9bbe 4b6e 56bb cb58 15be 1d83 283e
000001e0: 5429 1e3c 596f cc3e 1822 4f3d 9c6e 093d
000001f0: 4363 28be b3e2 fa3e ec0d 8bbb a43a 003d
00000200: 39a5 9bbd 6a29 843d b947 6d3d 5c93 31be
00000210: 9d37 983d 2d3a 533d b290 423e 8c3f 803e
00000220: 099a c3bd 92c1 973d f196 31bd c9f9 313c
00000230: 615d 3a3d 14c0 91be bc8e 05bd 8645 80bd
00000240: fbcb 6cbe 509d 3d3e 7f9e ab3d 5e42 323e
00000250: d8d2 b93e caa0 d6bd 4452 5bbe 7644 e2be
00000260: 537d 2b3e 0b3c abbd 91db 613d be63 4f3e
00000270: 278f 7d3e 981c 88be 1530 ed3d f323 d5be
00000280: b593 c1bd 17cf bd3d 7600 28be 05e6 32be
00000290: 0490 c7bd b952 0cbe 2bd6 9b3d 295c c73e
000002a0: 3794 a8bd 6e62 89bc c041 9e3d 05f3 063e
000002b0: 930f 2f3f 6a73 adbc c613 c3bb 6557 a03e
000002c0: 6b8b 20be 834b dfbe e4a5 5bbe 797e 6c3e
000002d0: ad4b d9be 8998 a6be d770 18bc 1a7a 943d
000002e0: 4868 74be 3368 813e ccce 063e 9e04 be3e
000002f0: 1924 38be 24a7 a03e 7cfe 073f 032e b43e
00000300: fcd4 e3bd 4d8a 2e3e 2452 92be 741e 0f3f
00000310: 7d8a 6bbe b43f f4bc 5292 be3e 6f3f 86be
00000320: 79e0 dfbc 4dbe b5bd 9097 693c 41ed 133e
00000330: 551e 8bbe 61a8 4c3d 4427 133e 6285 f0be
00000340: e22a 69be 5b9c 10be a51c a93d 7327 41be
00000350: 5599 69be 4fe6 2ebe 2c86 2c3e 1210 83bd
00000360: 5455 fd3c 10ed b7be c926 a4be a55b 873d
00000370: c866 07bd df1d 1fbf 7814 983e c9b0 ba3d
00000380: b8c0 19be 0cd0 b43d c22c 88be fba1 0e3d
00000390: 1609 8d3d 8c04 f3bd 3021 acbd af78 823e
000003a0: 4775 20bd 6037 013d b5d6 0f3e 353d 353e
000003b0: 0ac2 29be 1fe9 c83e 77b8 993e 5266 053e
000003c0: 5b3c 07be 03c5 883e 6481 12be 3aff 3ebd
000003d0: fb02 15bd 5542 6e3e 4d55 86be 5f32 d33e
000003e0: 0b9a 963b c0d1 91be 5288 d83d b10f 1c3f
000003f0: 323c 1c3e caa3 b13c fa0a 4ebe d5cf 61bc

params,ScannedRNN_0,GRUCell_0,ir,bias f4 [64]
0.026803505 0.08072649 0.15255128 0.015788667 0.061556302 0.033103954 0.19055459 0.05815458
-0.008054557 0.06387967 0.049641028 -0.0009065667 0.08802261 -0.031367876 -0.018239329 0.06736548
0.012802409 0.061371475 0.023139533 0.03076334 0.12263666 0.06257061 0.017357798 0.049891643
0.018459124 -0.01325132 0.02751481 0.152695 0.00990366 -0.02707107 0.07566194 0.0043881284
0.039021377 0.065574534 0.1391311 0.03363981 0.009747196 -0.02496708 -0.013291335 0.06228027
0.101440296 0.062378176 -0.022010297 0.106368475 0.15005624 0.029561663 0.17045723 0.032025117
-0.013076997 0.039781436 0.041788355 -0.0490831 0.029165624 0.03494125 0.04476513 0.11790939
0.16191126 0.1157797 0.11926607 0.11600375 0.104194134 0.050829727 0.06275944 0.02974778
00000000: 0693 db3c ee53 a53d 6736 1c3e 3c57 813c
00000010: 7622 7c3d 0398 073d be20 433e 7f33 6e3d
00000020: 43f7 03bc 58d3 823d 6454 4b3d a9a6 6dba
00000030: 3345 b43d 9a7b 00bd a56a 95bc eaf6 893d
00000040: 32c1 513c a860 7b3d 1e8f bd3c 6603 fc3c
00000050: ee28 fb3d 0525 803d f131 8e3c 2e5b 4c3d
00000060: 9737 973c 111c 59bc bd66 e13c 145c 1c3e
00000070: f642 223c 26c4 ddbc a6f4 9a3d 4aca 8f3b
00000080: e1d4 1f3d f14b 863d 6278 0e3e e6c9 093d
00000090: b4b2 1f3c c387 ccbc e6c3 59bc 9919 7f3d
000000a0: eebf cf3d 4280 7f3d f04e b4bc b7d7 d93d
000000b0: 58a8 193e 4d2b f23c 578c 2e3e c52c 033d
000000c0: e740 56bc dcf1 223d 442a 2b3d 5c0b 49bd
000000d0: bfec ee3c 8e1e 0f3d a45b 373d 7a7a f13d
000000e0: 11cc 253e e81d ed3d c541 f43d 6093 ed3d
000000f0: bc63 d53d d532 503d 0588 803d 9eb1 f33c

params,ScannedRNN_0,GRUCell_0,ir,kernel f4 [64, 64]
-0.1151588 -0.024530629 -0.063055135 -0.28441748 -0.1507079 0.03739897 0.23049735 -0.038375832
0.13181683 -0.030888109 -0.024856169 0.021287747 -0.2553466 -0.18547124 -0.015274836 -0.011569258
0.060645886 -0.02801892 0.01749693 -0.09450428 0.01728206 -0.031202925 0.033359744 0.2003647
0.12565339 0.07539379 0.07822036 0.33943233 -0.05299749 -0.051525798 -0.052833345 0.27141833
-0.12404958 -0.16981238 0.005136926 0.040563248 -0.04697862 -0.14762963 -0.07848577 -0.008029962
0.2163485 -0.19505729 0.023037514 -0.18603179 -0.10678853 -0.0006016108 -0.32922125 0.14480616
0.008444259 -0.17885059 0.155766 0.01746911 0.08910245 -0.007287126 0.14853603 -0.12472584
-0.057414126 -0.12038006 0.18036585 0.0439765 0.052178454 -0.008810866 -0.0051114 -0.22789367
0.17250675 -0.16063689 -0.42132246 -0.0065643536 -0.041590057 0.084045194 0.14079696 -0.023420911
0.013817836 0.056293182 -0.023768924 -0.13508151 0.20139392 -0.057147622 0.23069295 0.16828479
0.10883929 -0.06805317 -0.08890225 -0.09755862 -0.12199384 0.10725474 -0.087782554 0.19743513
0.07701161 0.070606105 0.005769516 -0.16150638 -0.19214422 0.15641052 -0.07730984 -0.0005900601
-0.21745989 -0.05267651 -0.12243954 0.22583507 0.05832153 0.11397503 0.2261112 -0.1655018
0.013196663 0.06184483 -0.047035094 -0.04938829 0.012023252 0.06602288 0.116952315 0.060373403
-0.033969503 -0.044426676 -0.016454726 -0.09514421 0.16476591 0.04461051 -0.0127361175 0.23013544
-0.03074447 0.07148193 0.2559287 -0.16101976 -0.07851292 -0.2552004 -0.24682511 0.053004056
-0.17704949 0.3090525 -0.09518575 0.10281494 -0.16468716 -0.026393862 0.041449208 -0.09236784
-0.18492785 -0.12058513 -0.20737699 0.04463411 0.009079388 -0.07563561 0.2480977 -0.06463928
-0.108650826 -0.09412662 -0.033528667 0.1011824 0.040743887 -0.13862365 -0.26509157 -0.27247524
0.030921467 -0.12422796 -0.101641744 -0.011974005 0.055801842 0.2036881 -0.20272902 -0.07090529
-0.05103518 0.021195075 -0.12980045 0.011934929 -0.047280356 0.014763961 0.18876429 -0.087030254
0.09763039 -0.1490619 0.041263454 0.111053124 -0.527641 -0.15516767 -0.17724021 0.011604909
-0.1086931 -0.008983987 -0.1905778 0.005743736 -0.2756152 0.22276044 0.102525875 -0.10128066
-0.29203293 -0.15697254 -0.18872277 -0.027973937 -0.0835043 0.20302345 0.040468723 0.13043764
0.123305194 0.04068464 -0.2240791 -0.061839618 -0.18042085 -0.024665168 -0.09865667 -0.010320389
-0.023811638 -0.20691334 -0.07162507 -0.10744109 -0.00096518843 0.09401407 0.06774645 -0.10853743
0.06763448 0.061779972 -0.2369951 0.19818826 0.012414253 -0.09296287 -0.09262662 0.0719089
0.0035224305 0.15355046 0.17892377 -0.13857616 0.039585408 0.17862333 -0.08291086 0.062337458
0.20350507 0.09849527 0.049481772 0.012998613 0.11071658 -0.10244424 0.10753672 -0.06599293
-0.10298744 -0.19684155 -0.100662425 -0.005303354 -0.11797424 0.032092366 -0.26909557 -0.090686485
0.089880794 -0.19199845 -0.14418423 0.20541334 0.07491242 -0.12767099 0.10349149 -0.047573023
0.029496588 0.05577172 0.17165788 -0.29406625 0.053332694 -0.11561263 -0.12913014 -0.106711484
00000000: 60d8 ebbd 75f4 c8bc 0d23 81bd 2b9f 91be
00000010: 2c53 1abe aa2f 193d 7f07 6c3e fa2f 1dbd
00000020: fefa 063e 0f09 fdbc 2a9f cbbc a463 ae3c
00000030: cabc 82be 2cec 3dbe 4e43 7abc fc8c 3dbc
00000040: d267 783d ef87 e5bc b955 8f3c 768b c1bd
00000050: 1b93 8d3c 479d ffbc 3aa4 083d 672c 4d3e
00000060: 48ab 003e 0f68 9a3d ff31 a03d 13ca ad3e
00000070: e513 59bd b70c 53bd c767 58bd 58f7 8a3e
00000080: b50d febd 4ce3 2dbe a953 a83b a625 263d
00000090: a76c 40bd 392c 17be 26bd a0bd 1a90 03bc
000000a0: 768a 5d3e 19bd 47be 2bb9 bc3c 1e7f 3ebe
000000b0: f2b3 dabd 6bb5 1dba b08f a8be 1148 143e
000000c0: ca59 0a3c 9c24 37be 1f81 1f3e 611b 8f3c
000000d0: 587b b63d d8c8 eebb d419 183e 4370 ffbd
000000e0: 132b 6bbd d289 f6bd d3b1 383e b420 343d
000000f0: 13b9 553d 735b 10bc 887d a7bb f55c 69be
00000100: 9ca5 303e ff7d 24be 94b7 d7be ca19 d7bb
00000110: 565a 2abd e31f ac3d 142d 103e 36dd bfbc
00000120: 3464 623c ae93 663d 0cb7 c2bc cf52 0abe
00000130: 353a 4e3e a013 6abd c63a 6c3e d952 2c3e
00000140: 22e7 de3d 765f 8bbd 6212 b6bd d0cc c7bd
00000150: e8d7 f9bd 60a8 db3d 57c7 b3bd 6f2c 4a3e
00000160: 43b8 9d3d ef99 903d 350e bd3b ee61 25be
00000170: 74c1 44be 142a 203e 9f54 9ebd 43ae 1aba
00000180: cead 5ebe 53c3 57bd 95c1 fabd 4f41 673e
00000190: 8fe2 6e3d be6b e93d b289 673e 4e79 29be
000001a0: d136 583c 0151 7d3d dfa7 40bd 604b 4abd
000001b0: 2dfd 443c 0137 873d b284 ef3d 1a4a 773d
000001c0: 9b23 0bbd bff8 35bd 10cc 86bc f8da c2bd
000001d0: 65b8 283e 83b9 363d 26ab 50bc a0a8 6b3e
000001e0: d4db fbbc 1e65 923d 1609 833e 5de2 24be
000001f0: 62cb a0bd a0a9 82be b9bf 7cbe c81a 593d
00000200: 764c 35be 213c 9e3e bff0 c2bd a490 d23d
00000210: c0a3 28be f137 d8bc a5c6 293d 5a2b bdbd
00000220: ba5d 3dbe 56f5 f6bd a25a 54be 42d2 363d
00000230: b7c1 143c d8e6 9abd 530d 7e3e 9961 84bd
00000240: 5384 debd 75c5 c0bd 5b55 09bd b838 cf3d
00000250: 10e3 263d 5cf3 0dbe 15ba 87be e081 8bbe
00000260: 044f fd3c 3b6b febd 8c29 d0bd 9e2e 44bc
00000270: 7990 643d 9d93 503e 3298 4fbe cb36 91bd
00000280: 440a 51bd 4ba1 ad3c 69ea 04be b88a 433c
00000290: 0ca9 41bd 8ae4 713c 6d4b 413e eb3c b2bd
000002a0: 71f2 c73d afa3 18be de03 293d d26f e33d
000002b0: 7b13 07bf 46e4 1ebe 757e 35be 8422 3e3c
000002c0: 7d9a debd 9331 13bc d426 43be f335 bc3b
000002d0: 6f1d 8dbe 501b 643e 16f9 d13d 3c6c cfbd
000002e0: 5785 95be 69bd 20be 8b40 41be 9929 e5bc
000002f0: 4d04 abbd 61e5 4f3e 88c2 253d 7291 053e
00000300: 6f87 fc3d f0a4 263d fe74 65be 8a4b 7dbd
00000310: 3ec0 38be 9b0e cabc 820c cabd d916 29bc
00000320: a010 c3bc 17e1 53be 2ab0 92bd 130a dcbd
00000330: b304 7dba 738a c03d a7be 8a3d df48 debd
00000340: f283 8a3d ff0c 7d3d d8ae 72be ddf1 4a3e
00000350: 2765 4b3c 5163 bebd 06b3 bdbd f944 933d
00000360: 94d8 663b 553c 1d3e cb37 373e e9e6 0dbe
00000370: 4f24 223d 09e9 363e 2bcd a9bd 9055 7f3d
00000380: a263 503e e3b7 c93d 66ad 4a3d 22f8 543c
00000390: 60bf e23d 49ce d1bd 363c dc3d 4d27 87bd
000003a0: 14eb d2bd d590 49be 1a28 cebd c2c7 adbb
000003b0: 7a9c f1bd 4973 033d e5c6 89be d6b9 b9bd
000003c0: 6c13 b83d 3e9b 44be 08a5 13be e057 523e
000003d0: af6b 993d 2fbc 02be 59f3 d33d eedb 42bd
000003e0: d4a2 f13c e370 643d 15c7 2f3e da8f 96be
000003f0: 6273 5a3d 51c6 ecbd b13a 04be 8d8b dabd
