baselines/QLearning/checkpoints/MPE_simple_spread_v3/qmix_ps.safetensors (safetensors, 191688 bytes, 27 tensors)

agent,params,Dense_0,bias f4 [64]
-0.21116072 -0.064100996 -0.5212891 0.007031611 0.06875047 0.03078412 -0.101847544 -0.15837203
-0.39514318 0.03858261 -0.0872125 -0.27111724 -0.54943246 -0.51520294 -0.122608036 -0.03207809
-0.04699833 -0.036487702 -0.037393272 -0.12712912 -0.2747649 -0.21237504 -0.17713533 0.11400579
-0.07476611 0.028383672 -0.46279004 -0.14192922 -0.33578628 -0.07772442 -0.14144579 0.015757177
-0.085101 -0.57349426 -0.35785833 0.10955724 -0.005792445 -0.6908253 -0.49344906 -0.5137615
-0.34750608 -0.34664214 -0.089452185 -0.06813481 -0.008559351 -0.6360355 -0.15031965 -0.440915
-0.6659242 0.032404024 0.122388706 -0.036084652 -0.081151165 -0.037288867 -0.45127478 -0.22372347
0.0019810295 -0.56140614 -0.21626587 -0.1373857 0.058468018 -0.30672076 0.08010695 -0.08451225
00000000: 843a 58be 6247 83bd 3473 05bf 6e69 e63b
00000010: 0ccd 8c3d fb2e fc3c 7295 d0bd 472c 22be
00000020: 3550 cabe cd08 1e3d 789c b2bd e1cf 8abe
00000030: 9ba7 0cbf 57e4 03bf ec19 fbbd 5164 03bd
00000040: 5281 40bd 2174 15bd b029 19bd 232e 02be
00000050: fcad 8cbe d878 59be f762 35be de7b e93d
00000060: f91e 99bd e084 e83c d1f2 ecbe e555 11be
00000070: 2eec abbe fb2d 9fbd 2ad7 10be 3215 813c
00000080: 6f49 aebd 85d0 12bf 3539 b7be 8c5f e03d
00000090: 8dce bdbb edd9 30bf 5ba5 fcbe e085 03bf
000000a0: 51ec b1be 147b b1be b532 b7bd 438a 8bbd
000000b0: 853c 0cbc 39d3 22bf 65ed 19be 9cbf e1be
000000c0: 027a 2abf 15ba 043d eea6 fa3d 80cd 13bd
000000d0: 9532 a6bd 36bc 18bd 7d0d e7be c417 65be
000000e0: 29d4 013b 50b8 0fbf cd74 5dbe d6ae 0cbe
000000f0: 297c 6f3d 810a 9dbe 1d0f a43d c214 adbd

agent,params,Dense_0,kernel f4 [21, 64]
-0.32522157 -0.43597686 -0.50169677 0.018798226 0.56928325 0.17582953 -0.5683787 -0.5338183
1.1206303 -0.23545425 0.5383984 0.20385507 0.78431606 -0.34530473 0.13196892 -0.09232026
-0.2902629 -0.24308398 0.3709454 -0.22652005 0.6914456 -0.53432494 -0.19813874 -0.10952571
-0.32822096 -0.2161668 0.19540021 0.47085682 -0.93854207 0.49657163 0.39650592 0.052765008
-0.4578227 -0.7831546 0.06102234 0.19762792 -0.4155689 -0.30974993 0.46275705 -0.83300996
-0.06566204 0.40744996 0.32814595 -0.10516724 -0.34887382 -0.12912653 0.22333512 0.38973433
0.38283837 0.4005044 0.13916647 0.37117013 -0.35300517 -0.30777553 0.2399664 -0.5270839
0.32240736 0.008116295 0.18451442 0.062093828 -0.2806217 -0.16160479 -0.012181964 0.47332916
-0.844569 0.07083994 -0.20000732 -0.36535093 -0.02917136 -0.40407372 -0.39320046 0.0678524
0.23963176 0.21559009 -0.02414249 0.40752974 0.4883634 0.43455705 0.37759507 0.39836496
0.35239998 -0.42185315 -0.01792213 -0.28699178 -1.0205026 -0.31460088 -0.10315413 -0.51434875
-0.32333264 -0.24128383 -0.14357595 0.22959761 1.0590779 -0.20074917 0.90443814 0.37780282
-0.7727345 0.31415775 -0.08486446 0.2687227 0.14740719 -0.7023847 0.75751346 -0.5326284
0.39916158 0.06088745 0.033655003 -0.40692207 -0.08992753 0.19348498 -0.16932164 -0.50504464
-0.24729107 -0.18154606 -0.32122883 -0.35753396 0.32395497 0.41760096 0.1332578 0.0632895
0.20628719 -0.12166649 -0.2942019 0.0960959 -0.38758287 0.51574844 0.55633634 0.1479443
-0.06294349 0.10118499 0.011292609 -0.08561431 -0.17523131 -0.12658168 -0.036692113 -0.47314242
0.1320183 0.094093695 -0.19207862 -0.06271823 0.17862694 0.29122436 -0.094012976 0.041779358
0.1322346 0.2321255 -0.114897355 0.085348494 -0.034118768 0.00029592233 0.21052589 0.09592819
0.19133002 0.089031905 -0.032498278 -0.037450727 0.011253184 -0.030020518 0.07855098 -0.05829586
0.07746274 -0.5319238 0.15897913 -0.09577709 0.11078738 0.06143231 0.085102685 -0.04184256
-0.16184062 -0.119698785 0.014668706 0.11878306 0.1253394 -0.10026483 -0.041630056 -0.071642414
0.086108424 -0.11619261 -0.11808668 -0.08441391 0.11809637 0.22679934 -0.0948625 -0.045930866
-0.18260674 -0.046501204 -0.1961658 0.30584267 0.12698098 -0.012115202 0.047509342 -0.08809754
-0.19337884 0.020884436 -0.042714287 0.16864312 0.048148245 0.13304214 0.15174253 0.02686461
0.08875578 -0.041384578 0.0116765825 -0.12340017 0.05941133 -0.06611826 -0.12908666 -0.12232439
-0.13455892 0.14012155 0.040709924 0.10805499 -0.027177285 -0.05880266 0.12806119 0.13696265
0.14347237 0.07213409 0.3340143 -0.06674634 0.02154547 0.07775696 0.045370556 -0.07399101
0.086810164 -0.08149016 -0.29147026 -0.17956318 -0.08924048 0.20924751 -0.20857768 -0.10279829
0.0025918318 -0.12867953 -0.33815354 0.19065395 0.11714846 -0.04934847 0.0016069124 0.014892114
-0.15780367 0.17962234 0.12413439 0.13946427 -0.16202246 -0.14561932 0.041354958 0.18222731
-0.08548369 -0.31550553 0.2150978 0.07263925 0.19099487 0.403496 -0.17077628 -0.10727366
00000000: 7183 a6be 5c38 dfbe 336f 00bf bdfe 993c
00000010: 8cbc 113f a80c 343e 4481 11bf 51a8 08bf
00000020: d070 8f3f eb1a 71be 7ad4 093f 62bf 503e
00000030: f0c8 483f c8cb b0be dc22 073e 6812 bdbd
00000040: 579d 94be 02eb 78be 8eec bd3e dff4 67be
00000050: 9402 313f 85c9 08bf e2e4 4abe 044f e0bd
00000060: 940c a8be d45a 5dbe fe16 483e 2514 f13e
00000070: 4b44 70bf a33e fe3e d302 cb3e 1f20 583d
00000080: bd67 eabe d27c 48bf 90f2 793d f95e 4a3e
00000090: 72c5 d4be 8b97 9ebe 7eee ec3e 2440 55bf
000000a0: d279 86bd 489d d03e bf02 a83e ec61 d7bd
000000b0: 979f b2be bf39 04be f6b1 643e 428b c73e
000000c0: 6403 c43e ea0e cd3e a881 0e3e 030a be3e
000000d0: 18bd b4be c194 9dbe c1b9 753e f8ee 06bf
000000e0: 9412 a53e 35fa 043c 59f1 3c3e 1956 7e3d
000000f0: a6ad 8fbe ba7b 25be dc96 47bc 3358 f23e
00000100: ad35 58bf 8814 913d b8ce 4cbe 470f bbbe
00000110: c7f8 eebc c0e2 cebe 9251 c9be 33f6 8a3d
00000120: 0762 753e a6c3 5c3e 79c6 c5bc bda7 d03e
00000130: c40a fa3e 437e de3e 2454 c13e 7ef6 cb3e
00000140: c56d b43e 23fd d7be 6ed1 92bc 96f0 92be
00000150: d49f 82bf 5e13 a1be 7942 d3bd 5cac 03bf
00000160: db8b a5be 1c13 77be 9305 13be a31b 6b3e
00000170: dd8f 873f 3191 4dbe 4289 673f 5f6f c13e
00000180: eed1 45bf 49d9 a03e 6bcd adbd 0696 893e
00000190: e9f1 163e 7ccf 33bf 67ec 413f 565a 08bf
000001a0: e85e cc3e 1e65 793d d4d9 093d 1758 d0be
000001b0: ed2b b8bd ed20 463e a762 2dbe 9b4a 01bf
000001c0: df39 7dbe 36e7 39be 1b78 a4be b10e b7be
000001d0: 6ddd a53e cbcf d53e bc74 083e ed9d 813d
000001e0: f33c 533e 482c f9bd a2a1 96be edcd c43d
000001f0: 4371 c6be 1708 043f 0f6c 0e3f b67e 173e
00000200: 84e8 80bd 133a cf3d a304 393c 8e56 afbd
00000210: d66f 33be a19e 01be 784a 16bd b93f f2be
00000220: ce2f 073e 32b4 c03d 42b0 44be 6a72 80bd
00000230: fbe9 363e 5c1b 953e e089 c0bd d520 2b3d
00000240: 8268 073e 4fb2 6d3e 4e4f ebbd 31cb ae3d
00000250: 1fc0 0bbd 0626 9b39 1994 573e 0076 c43d
00000260: 04ec 433e 5c56 b63d ea1c 05bd ef65 19bd
00000270: 465f 383c 97ed f5bc 56df a03d a4c7 6ebd
00000280: c9a4 9e3d 282c 08bf 6dcb 223e c726 c4bd
00000290: 7ee4 e23d 72a0 7b3d 514a ae3d 1b63 2bbd
000002a0: 8cb9 25be a324 f5bd 0355 703c 8844 f33d
000002b0: f958 003e a657 cdbd 4784 2abd 42b9 92bd
000002c0: 9d59 b03d 64f6 edbd 6ed7 f1bd 33e1 acbd
000002d0: 82dc f13d 163e 683e 4547 c2bd 0122 3cbd
000002e0: 43fd 3abe 0c78 3ebd b0df 48be 6997 9c3e
000002f0: 4d07 023e d77e 46bc 2899 423d 7c6c b4bd
00000300: 1a05 46be d615 ab3c 2df5 2ebd c8b0 2c3e
00000310: 1837 453d 333c 083e 6562 1b3e 2c13 dc3c
00000320: 97c5 b53d e082 29bd 234f 3f3c 3ab9 fcbd
00000330: 4b59 733d 0369 87bd 4b2f 04be 3685 fabd
00000340: d0c9 09be 067c 0f3e 73bf 263d ef4b dd3d
00000350: e6a2 debc 0fdb 70bd 7922 033e f03f 0c3e
00000360: 6cea 123e 0abb 933d ec03 ab3e 4eb2 88bd
00000370: 2080 b03c 0b3f 9f3d 7ad6 393d 9988 97bd
00000380: 87c9 b13d 50e4 a6bd 973b 95be 69df 37be
00000390: b6c3 b6bd fb44 563e 6395 55be e987 d2bd
000003a0: b9db 293b 91c4 03be 7622 adbe ca3a 433e
000003b0: 88eb ef3d 9f21 4abd 089f d23a 0efe 733c
000003c0: 4997 21be ebee 373e 2c3a fe3d b9cf 0e3e
000003d0: 37e9 25be 3b1d 15be d163 293d cc99 3a3e
000003e0: 1312 afbd f189 a1be 9942 5c3e e3c3 943d
000003f0: 2994 433e 0797 ce3e fadf 2ebe 4bb2 dbbd

agent,params,Dense_1,bias f4 [5]
0.23117204 0.12301407 0.061847672 0.060776662 0.118242085
00000000: 5db8 6c3e cdee fb3d fc53 7d3d f3f0 783d
00000010: e828 f23d

agent,params,Dense_1,kernel f4 [64, 5]
-0.07907211 -0.23839556 0.11573549 -0.024149569 -0.098268226 0.19557397 0.25726798 0.082590126
0.18778837 0.20775622 -0.55873287 -0.49565732 -0.6398674 -0.4742312 -0.5557684 0.15996882
0.21757369 0.20957837 0.2552032 0.1459963 -0.001961098 -0.015962321 -0.10398703 0.09982193
-0.04095788 0.014792038 0.12020129 -0.05880717 -0.24302469 0.23919868 0.27395454 -0.03052228
0.5082859 0.3749347 0.058120806 -0.031011675 0.015058152 -0.06957008 0.05577375 -0.14941603
0.07879432 0.0019345181 0.05617018 -0.05776266 0.16810794 -0.20841143 -0.277678 -0.13645542
-0.22583531 -0.22013868 -0.0023943405 0.084666975 -0.101795234 -0.108120576 0.12385976 -0.08669067
-0.25093973 0.020785116 0.18409076 -0.4423402 -0.12344301 -0.12004828 -0.14715914 -0.31809655
-0.034746457 -0.6400306 -0.7846934 -0.5014325 -0.75162953 -0.5452862 0.17357458 -0.17912787
0.4663842 0.15115187 0.23916365 -0.39018616 -0.46701533 -0.25641748 -0.2651643 -0.48937893
-0.2011768 -0.21729793 -0.23979408 -0.19976734 -0.23798454 -0.1921686 -0.1521475 -0.2101117
-0.14705858 -0.22594647 -0.024321124 -0.0337104 -0.047934614 -0.1868428 0.14506091 0.04136394
0.20257178 -0.14890288 0.19177756 -0.12209289 -0.49951392 -0.7074066 -0.16556907 -0.16241793
-0.7274337 -0.20399705 -0.18262558 -0.19982284 -0.40405512 -0.023331596 -0.2503427 -0.44019997
-0.036241293 -0.098992094 -0.36937752 0.09862857 0.15958254 0.03746503 0.10662598 0.092300534
-0.12659076 -0.07365003 -0.31698585 -0.15403323 -0.1530032 -0.53421265 -0.39409918 -0.5844797
-0.4666683 -0.56818473 -0.10041924 -0.11660222 -0.038038787 -0.07375325 -0.06958073 0.107070416
0.384235 -0.22243033 0.17497002 -0.07827105 -0.04595901 0.26339227 -0.26649868 -0.11490531
0.115563355 -0.68622214 -0.65879774 -0.7154494 -0.9156895 -0.4253417 0.62543654 0.65443164
0.61038995 0.748847 0.580934 0.016165385 0.11136327 -0.088779725 0.04708363 -0.010321026
0.7160439 0.5855483 0.76002544 0.5371668 0.7924608 0.10433548 0.035819765 0.1640317
-0.03617633 0.27316305 -0.22891246 -0.28474754 -0.14779463 -0.47392955 0.046067685 0.02893237
-0.073488705 0.082773626 -0.1845739 0.14038694 0.1183566 0.18276651 0.00038541824 0.18951908
0.0034051707 -0.016760595 -0.042619277 0.02741742 0.051870186 -0.10394287 0.038308095 -0.11925697
0.18868794 0.22046693 -0.13783742 0.2735101 -0.11268572 0.6373619 0.020787923 0.50630033
-0.22130418 -0.017231284 -0.43601477 -0.12543747 -0.31075418 0.009078575 0.10321287 -0.08956544
-0.20021799 0.21417703 -0.091856465 -0.082674935 -0.11919099 -0.17732938 0.025846299 -0.09703618
-0.22726916 0.03912281 -0.12271746 -0.09321435 -0.19683185 -0.032499567 -0.29062346 -0.43471348
-0.053475384 0.0061570434 -0.18557893 0.18790784 -0.26566896 0.26064813 0.5772574 0.53286874
0.53172135 0.6196238 0.4569484 0.40614802 0.4165224 0.32735538 0.3973075 0.4284204
0.11084901 0.21927692 0.06754402 0.09553129 0.12544486 0.13140528 -0.21024606 0.5049733
0.41307953 -0.18841144 -0.5158614 -0.6956037 -0.31702486 -0.71809083 -0.27821678 -0.04446248
00000000: 8ff0 a1bd f71d 74be bb06 ed3d 51d5 c5bc
00000010: da40 c9bd 8b44 483e a1b8 833e 0325 a93d
00000020: 984b 403e 0cbe 543e 1e09 0fbf ccc6 fdbe
00000030: 5ace 23bf 6fce f2be d646 0ebf dece 233e
00000040: a3cb 5e3e b69b 563e fea9 823e 0e80 153e
00000050: c485 00bb 6ac3 82bc 27f7 d4bd 716f cc3d
00000060: 73c3 27bd 4e5a 723c 182c f63d c9df 70bd
00000070: 77db 78be 80f0 743e c543 8c3e dc09 fabc
00000080: 061f 023f 71f7 bf3e 1510 6e3d 320c febc
00000090: 78b6 763c c27a 8ebd 0473 643d 8400 19be
000000a0: eb5e a13d a88f fd3a b412 663d 8a98 6cbd
000000b0: 7d24 2c3e ce69 55be d02b 8ebe f8ba 0bbe
000000c0: 5f41 67be 096c 61be 5eea 1cbb e165 ad3d
000000d0: 057a d0bd 526e ddbd 30aa fd3d e18a b1bd
000000e0: 2c7b 80be 8c45 aa3c 4a82 3c3e 6a7a e2be
000000f0: b0cf fcbd dfdb f5bd e3b0 16be 8ddd a2be
00000100: 4d52 0ebd 0cd9 23bf abe1 48bf e15d 00bf
00000110: cb6a 40bf e097 0bbf 89bd 313e 4c6d 37be
00000120: e9c9 ee3e 8ec7 1a3e 51e7 743e 7bc6 c7be
00000130: a21c efbe 2749 83be 9dc3 87be e08f fabe
00000140: 4b01 4ebe 5983 5ebe 948c 75be cf8f 4cbe
00000150: 38b2 73be d8c7 44be 8ecc 1bbe 8627 57be
00000160: 8696 16be 835e 67be 183d c7bc eb13 0abd
00000170: 1657 44bd b853 3fbe d98a 143e 3c6d 293d
00000180: fa6e 4f3e ff79 18be 5661 443e d60b fabd
00000190: 4ac0 ffbe 9918 35bf f08a 29be e350 26be
000001a0: 1839 3abf 9ae4 50be 3302 3bbe 5c9e 4cbe
000001b0: 50e0 cebe e721 bfbc eb2c 80be e461 e1be
000001c0: c071 14bd 5ebc cabd 0d1f bdbe c7fd c93d
000001d0: 9b69 233e ee74 193d b95e da3d 1008 bd3d
000001e0: 02a1 01be d4d5 96bd f84b a2be e3ba 1dbe
000001f0: dfac 1cbe 29c2 08bf 5ec7 c9be 76a0 15bf
00000200: 26ef eebe 8e74 11bf 9aa8 cdbd 25cd eebd
00000210: 8fce 1bbd f20b 97bd 5780 8ebd bc47 db3d
00000220: 73ba c43e c7c4 63be 572b 333e 924c a0bd
00000230: 843f 3cbd 5adb 863e 8472 88be 7a53 ebbd
00000240: 7bac ec3d 41ac 2fbf f8a6 28bf b127 37bf
00000250: a16a 6abf 63c6 d9be 9c1c 203f d588 273f
00000260: 8442 1c3f 70b4 3f3f 17b8 143f 456d 843c
00000270: 6d12 e43d 25d2 b5bd c4da 403d 8519 29bc
00000280: a74e 373f 7ee6 153f 0791 423f c383 093f
00000290: b6de 4a3f d7ad d53d bfb7 123d edf7 273e
000002a0: a22d 14bd 07dc 8b3e 0768 6abe 6eca 91be
000002b0: 7a57 17be e5a6 f2be 78b1 3c3d 9403 ed3c
000002c0: 3f81 96bd 3885 a93d f100 3dbe 98c1 0f3e
000002d0: f264 f23d 2527 3b3e f611 ca39 4a11 423e
000002e0: 4929 5f3b 844d 89bc 8d91 2ebd 7f9a e03c
000002f0: d575 543d 00e0 d4bd f3e8 1c3d 003d f4bd
00000300: 6937 413e 15c2 613e 4125 0dbe 8409 8c3e
00000310: c5c7 e6bd 262a 233f 6f4b aa3c e69c 013f
00000320: 909d 62be 9f28 8dbc 543d dfbe ae72 00be
00000330: 2c1b 9fbe 4ebe 143c 4561 d33d 166e b7bd
00000340: f205 4dbe 3951 5b3e 3e1f bcbd 7a51 a9bd
00000350: 681a f4bd d595 35be 9ebb d33c e8ba c6bd
00000360: 3fb9 68be 3d3f 203d 4b53 fbbd 2ae7 bebd
00000370: 4a8e 49be 441e 05bd 99cc 94be c492 debe
00000380: 0109 5bbd 06c1 c93b 6708 3ebe ea6a 403e
00000390: c305 88be ac73 853e 24c7 133f 166a 083f
000003a0: e41e 083f aa9f 1e3f 24f5 e93e a2f2 cf3e
000003b0: 6d42 d53e 209b a73e e36b cb3e eb59 db3e
000003c0: ce04 e33d 218a 603e 8554 8a3d e9a5 c33d
000003d0: 9e74 003e 1b8f 063e be4a 57be ee45 013f
000003e0: 297f d33e eeee 40be 7e0f 04bf 1613 32bf
000003f0: 1551 a2be cdd4 37bf 6e72 8ebe 4a1e 36bd

agent,params,ScannedRNN_0,GRUCell_0,hn,bias f4 [64]
0.044462 0.38589266 -0.24150506 0.3148981 -0.23832801 0.009516159 0.02024162 0.014064984
-0.023413116 -0.10544392 -0.03768927 0.106587134 -0.6460765 -0.03513937 0.20397209 -0.19746928
-0.15650189 -0.39016652 -0.20464058 -0.2768412 0.011719836 -0.46503994 -0.06921982 0.31317008
-0.2668398 -0.36663255 -0.060447246 0.25957975 -0.013338797 0.2125681 -0.043197345 0.23081008
-0.0359511 0.09980578 -0.09703389 -0.039998643 -0.08364876 -0.14581332 -0.18128175 0.19633968
-0.30106348 -0.08578081 -0.106806956 -0.03347833 -0.13188379 -0.21085054 0.7410639 -0.028753836
0.1975158 0.2153009 -0.081028424 0.082518935 0.06280421 0.256719 0.1270314 0.27758402
-0.071914196 -0.32065716 0.24639341 0.09580532 0.124947116 -0.2235137 0.012263604 -0.04930567
00000000: c91d 363d b993 c53e 1a4d 77be 533a a13e
00000010: 420c 74be aae9 1b3c c1d1 a53c d270 663c
00000020: ddcc bfbc fbf2 d7bd 1060 1abd 5b4a da3d
00000030: 4565 25bf 4dee 0fbd 0fde 503e 6335 4abe
00000040: 0842 20be e8c3 c7be 4d8d 51be 21be 8dbe
00000050: 8e04 403c b719 eebe 1fc3 8dbd d457 a03e
00000060: 3a9f 88be 43b7 bbbe 8897 77bd a3e7 843e
00000070: f88a 5abc 74ab 593e b3ef 30bd 7a59 6c3e
00000080: 7641 13bd f966 cc3d b4b9 c6bd 9ed5 23bd
00000090: 0b50 abbd 1650 15be eca1 39be 450d 493e
000000a0: fe24 9abe d9ad afbd 9bbd dabd 9320 09bd
000000b0: 8b0c 07be 34e9 57be 5db6 3d3f 2a8d ebbc
000000c0: 9541 4a3e d777 5c3e 3bf2 a5bd b0ff a83d
000000d0: 7e9f 803d ac70 833e 8514 023e 7e1f 8e3e
000000e0: c047 93bd 2d2d a4be 8e4e 7c3e 9435 c43d
000000f0: 46e4 ff3d c6e0 64be 49ed 483c bef4 49bd

agent,params,ScannedRNN_0,GRUCell_0,hn,kernel f4 [64, 64]
-0.91615444 -0.022738285 -0.15681452 0.06062867 -0.04258193 -0.048348833 0.096958846 0.0043099425
0.21759732 0.17140293 -0.16267888 -0.32559714 -0.10379667 -0.1368929 -0.06087832 -0.19558631
-0.095686235 -0.042625632 -0.071062595 0.0025900137 0.6563272 0.15677959 -0.23394597 -0.11787668
0.17340009 -0.45529735 -0.03719981 0.17045851 0.12230153 0.12096039 0.35933718 0.10410409
0.07295077 0.12623952 -0.082650624 -0.12585403 -0.02955304 0.0022483203 0.033467535 -0.02981161
-0.23444821 -0.0537228 -0.5285333 -0.0005116856 -0.058319375 -0.0027431399 0.116638504 -0.48815012
-0.09886306 -0.051914003 -0.104073875 0.1326283 0.028041154 -0.2488889 -0.060623404 -0.081573755
0.047861673 0.03977215 0.022880333 0.16250761 -0.028746694 -0.17260925 0.20686106 0.16695702
0.110239714 -0.40915778 0.7130934 -0.09669625 -0.11404539 -0.06545407 -0.14637706 0.025688188
-0.12508014 -0.11092465 0.2040799 -0.2038737 0.025333453 0.087487474 -0.2864721 -0.1942319
0.4055617 0.06578717 0.08912936 -0.01592457 0.5579669 0.50551623 -0.24922462 0.16092208
-0.42367902 -0.1767827 -0.008197076 -0.21914965 0.15526386 0.12908714 -0.30757496 -0.1775491
-0.07813514 -0.058536045 0.19297633 0.17527938 0.016018502 0.14498122 0.1408021 0.019545037
-0.16064969 0.111462735 0.13870792 0.38764542 0.0780796 -0.016330482 -0.20760907 -0.4061684
0.40989152 0.39760584 -0.06514658 -0.120714456 -0.082624085 0.20854741 0.2998226 -0.21513352
-0.39550602 -0.001989079 0.16463272 0.0671821 0.17217703 -0.1377333 -0.090526365 -0.101538286
0.38673294 0.09313461 -1.1214391 -0.45917743 0.09788297 0.12338378 0.5953913 0.19579597
0.085277475 -0.31601667 0.08923191 0.16017799 0.118053146 -0.12986644 0.27365255 -0.04923689
0.004000782 -0.22379915 -0.22087269 0.19301379 -0.52941084 0.0004610197 -0.06360419 0.15167959
0.3740195 -0.16297698 0.1588274 0.11408286 -0.10671987 -0.19881104 0.29964837 -0.31425157
0.12682942 0.36581823 -0.39958116 0.041552875 -0.052845474 0.46287674 -0.07537347 0.43781674
-0.05397049 0.18106402 -0.012429921 -0.34947252 -0.1836321 -0.020006813 0.40221325 0.4002095
-0.45261472 -0.2794061 0.07859357 0.16997252 -0.28099248 -0.009191177 0.0871409 0.38453555
0.7743168 -0.06514138 -0.04875756 0.36687386 0.014005347 -0.38506946 0.026891923 0.18275313
0.6266414 -0.15622054 0.6582559 -0.7965957 0.16948693 0.05197699 0.01787916 0.19801356
-0.4989242 0.09138308 -0.38055322 0.20855084 0.071841 -0.25544837 0.010235588 0.35472634
0.27571365 0.14373066 0.33307272 -0.048533894 -0.06330707 0.4604533 0.19956698 -0.18056749
0.054934833 0.3229638 0.30132002 -0.20030937 0.36369282 -0.044341113 -0.10179514 -0.019214328
-0.6652023 -0.2733922 0.07789027 0.1709821 -0.114637144 0.32786864 -0.26533297 0.27889395
0.42189974 0.10947354 0.19971524 0.1573024 0.11737502 0.13001822 -0.24609292 0.10394397
0.27465945 -0.24413295 0.39586157 -0.18843782 -0.060241092 0.2464641 0.23884803 0.29420543
0.004467703 0.07502162 -0.16236365 -0.57492435 -0.15003377 0.25571397 -0.07804836 -0.55002654
00000000: 1989 6abf a445 babc fc93 20be c555 783d
00000010: 646a 2ebd 6d09 46bd 5c92 c63d 6b3a 8d3b
00000020: d5d1 5e3e 4084 2f3e 4b95 26be abb4 a6be
00000030: 5993 d4bd a72d 0cbe 8c5b 79bd c747 48be
00000040: 25f7 c3bd 3798 2ebd 4489 91bd 38bd 293b
00000050: 0f05 283f d48a 203e 888f 6fbe 5469 f1bd
00000060: cb8f 313e bc1c e9be d45e 18bd ad8c 2e3e
00000070: 3979 fa3d 15ba f73d 0bfb b73e 8634 d53d
00000080: 3767 953d ef44 013e bb44 a9bd e1df 00be
00000090: 3819 f2bc 8e58 133b 4115 093d 7a37 f4bc
000000a0: 3113 70be 700c 5cbd f54d 07bf a422 06ba
000000b0: 4ce0 6ebd 40c6 33bb 2be0 ee3d d0ee f9be
000000c0: b778 cabd c7a3 54bd af24 d5bd b7cf 073e
000000d0: 90b6 e53c bbdc 7ebe 3f50 78bd 2410 a7bd
000000e0: 9a0a 443d 1fe8 223d 896f bb3c 6568 263e
000000f0: 307e ebbc 7bc0 30be 63d3 533e c8f6 2a3e
00000100: 5cc5 e13d 217d d1be 4a8d 363f af08 c6bd
00000110: a190 e9bd c90c 86bd dee3 15be 0970 d23c
00000120: 0215 00be 772c e3bd 52fa 503e 44c4 50be
00000130: 1a88 cf3c a22c b33d 79ac 92be bae4 46be
00000140: c8a5 cf3e 6cbb 863d 7489 b63d 3e74 82bc
00000150: ebd6 0e3f 8369 013f bd34 7fbe c2c8 243e
00000160: 75ec d8be 8606 35be 074d 06bc c468 60be
00000170: 7dfd 1e3e 6b2f 043e 777a 9dbe 6ecf 35be
00000180: 5105 a0bd 7ec3 6fbd 969b 453e 707c 333e
00000190: 3c39 833c f575 143e 6d2e 103e ea1c a03c
000001a0: 5a81 24be 9346 e43d 7309 0e3e 7679 c63e
000001b0: 33e8 9f3d 81c7 85bc 7997 54be 4ef5 cfbe
000001c0: 4ddd d13e fe92 cb3e 926b 85bd 2439 f7bd
000001d0: d136 a9bd 748d 553e 5982 993e f64b 5cbe
000001e0: c47f cabe 355b 02bb 7b95 283e c596 893d
000001f0: 2d4f 303e f509 0dbe e365 b9bd 4ef3 cfbd
00000200: dc01 c63e 5cbd be3d 518b 8fbf 4e19 ebbe
00000210: de76 c83d a3b0 fc3d 906b 183f bd7e 483e
00000220: f5a5 ae3d f0cc a1be 38bf b63d b305 243e
00000230: d9c5 f13d b5fb 04be 301c 8c3e 9fac 49bd
00000240: fe18 833b 9b2b 65be 732c 62be 68a5 453e
00000250: 7887 07bf 04b5 f139 ea42 82bd e551 1b3e
00000260: 7c7f bf3e 70e3 26be a6a3 223e 46a4 e93d
00000270: f28f dabd 1f95 4bbe 836b 993e 95e5 a0be
00000280: 92df 013e 874c bb3e e795 ccbe 5933 2a3d
00000290: 7f74 58bd 2efe ec3e 685d 9abd 8429 e03e
000002a0: 2910 5dbd d968 393e dea6 4bbc 10ee b2be
000002b0: 0e0a 3cbe 54e5 a3bc e5ee cd3e 42e8 cc3e
000002c0: 1ebd e7be 510e 8fbe aaf5 a03d 470d 2e3e
000002d0: 3fde 8fbe 9796 16bc ee76 b23d d8e1 c43e
000002e0: a039 463f d868 85bd 02b6 47bd e4d6 bb3e
000002f0: af76 653c d327 c5be 734c dc3c a323 3b3e
00000300: 926b 203f 47f8 1fbe 7583 283f b2ed 4bbf
00000310: fb8d 2d3e d3e5 543d 5177 923c 11c4 4a3e
00000320: fe72 ffbe 0d27 bb3d dfd7 c2be 5a8e 553e
00000330: 6021 933d 21ca 82be 2bb3 273c b19e b53e
00000340: 572a 8d3e 212e 133e 8288 aa3e 7acb 46bd
00000350: 23a7 81bd 89c0 eb3e 495b 4c3e afe6 38be
00000360: 5903 613d 835b a53e 9e46 9a3e e61d 4dbe
00000370: f235 ba3e 079f 35bd f879 d0bd 5e67 9dbc
00000380: b34a 2abf 10fa 8bbe ef84 9f3d ee15 2f3e
00000390: e1c6 eabd 66de a73e b9d9 87be 30cb 8e3e
000003a0: 3e03 d83e aa33 e03d 2782 4c3e e113 213e
000003b0: 5162 f03d 7f23 053e c8ff 7bbe 93e0 d43d
000003c0: 2aa0 8c3e fdfd 79be 5eae ca3e d8f5 40be
000003d0: 5dbf 76bd 1661 7c3e 9494 743e 18a2 963e
000003e0: cf65 923b efa4 993d a842 26be 3e2e 13bf
000003f0: 74a2 19be f1ec 823e d2d7 9fbd 8ace 0cbf

agent,params,ScannedRNN_0,GRUCell_0,hr,kernel f4 [64, 64]
0.19263934 0.15426879 0.19435632 0.111364 -0.3095053 -0.34179127 0.28059974 0.14675224
-0.10417461 0.18551978 -0.22325562 0.03944097 -0.15328915 0.02943089 -0.050859254 0.34504882
0.15243642 0.058180545 0.023347156 -0.0048642587 -0.080723695 0.1454558 -0.42400467 -0.14143719
-0.14227147 -0.15050274 -0.03783327 0.29532686 -0.10553507 -0.11097406 0.30066162 0.34468213
0.08652404 0.07510834 -0.23218308 -0.15101959 -0.064400144 0.044541147 -0.13151191 0.031286914
-0.054511987 -0.18941055 -0.12376773 0.06767205 -0.01137752 -0.095684975 -0.1178883 -0.2779286
0.015799107 0.15316328 -0.04513012 0.12474568 0.2065002 -0.0069784615 0.092580006 0.31806818
-0.093750596 0.072826736 -0.25197998 -0.020671586 0.14939955 -0.08843735 0.09581854 0.058331437
-0.012378784 -0.415446 -0.4011409 -0.13138056 -0.26352748 -0.27800745 0.09396796 -0.031555656
-0.041669983 0.1723727 0.23863922 -0.17817385 0.12144902 -0.42017618 0.13148177 -0.13743867
-0.21094918 0.20578976 -0.044122152 -0.123962484 0.049100846 0.22513281 -0.115262024 -0.23894872
-0.20634566 0.2257784 0.039730914 -0.17296065 0.0042235125 0.026210083 -0.22205645 -0.09319434
-0.2625564 -0.11434627 -0.05533271 0.18509586 -0.089438684 0.09552218 -0.054678574 0.02447124
-0.018792618 0.1653575 -0.123907655 -0.17728084 -0.26871735 0.08614313 0.042725082 0.08075805
0.23669733 -0.22892009 -0.019553745 -0.08208717 0.0027134025 0.06434501 0.020864319 -0.020874292
0.4438249 -0.082995765 0.022648232 -0.16590026 0.26926082 0.07305893 -0.16385612 0.1032396
-0.36850977 -0.071842216 0.6703793 -0.046736 -0.111015506 0.054157697 -0.14086573 0.025259428
-0.13121031 0.22645015 -0.0197073 0.10133086 -0.19636184 -0.08982364 0.17331475 -0.13818704
-0.43759215 -0.32222226 0.20314029 -0.1259955 0.12300593 -0.25709468 0.025309807 -0.08395752
0.1981216 -0.110236436 -0.0642494 0.0278373 0.06475127 -0.1378234 -0.031222789 -0.32907024
0.04241468 -0.10241932 0.15077765 0.036577746 -0.053287856 -0.018344179 0.071163304 -0.123931855
0.06141358 -0.10237447 -0.23527475 0.07928736 -0.16624768 0.10631741 0.37464708 -0.16553538
0.034438547 -0.12716185 -0.1566379 -0.090889774 -0.17826033 -0.087319985 -0.009539493 -0.22511451
0.48164913 0.26941863 -0.05091601 -0.09260109 -0.035906106 0.06610211 0.1949422 0.023609433
0.16294692 0.11609502 -0.21673222 -0.11626091 -0.34464762 0.28171876 -0.11960487 0.06697138
0.08747527 0.3160318 0.025650246 0.19530721 -0.08531562 -0.032795694 -0.17868677 -0.25406757
-0.058018535 0.020800319 -0.070488796 0.10230335 0.1340603 -0.26997662 0.058580317 -0.14586888
-0.016999679 -0.28512445 0.16630566 -0.2544198 0.019413443 -0.05221696 -0.15257427 0.03328739
0.22888301 -0.30605048 0.1290519 0.21421993 -0.14297654 -0.10101804 0.17297272 -0.10646289
0.21064836 0.08216588 0.062048066 0.051798053 0.1185606 0.05870496 0.10639548 -0.069916606
0.119386464 -0.13828789 -0.06742074 -0.13926072 -0.003413673 -0.1451435 -0.098742396 -0.13479134
0.051194876 -0.19929114 0.20046924 0.16039826 0.004613262 0.06420314 -0.043535966 -0.21118458
00000000: 3f43 453e a3f8 1d3e 5805 473e cf12 e43d
00000010: 7b77 9ebe 44ff aebe c5aa 8f3e 3846 163e
00000020: 7f59 d5bd e6f8 3d3e 1f9d 64be db8c 213d
00000030: d5f7 1cbe 0d19 f13c cb51 50bd 3daa b03e
00000040: 4b18 1c3e b94e 6e3d 8942 bf3c 5c64 9fbb
00000050: 7752 a5bd 5ef2 143e 2417 d9be e9d4 10be
00000060: 9daf 11be 641d 1abe 0ff7 1abd 1535 973e
00000070: c522 d8bd 5e46 e3bd 52f0 993e 2d7a b03e
00000080: 8433 b13d 67d2 993d 67c1 6dbe e1a4 1abe
00000090: 39e4 83bd c770 363d 0fab 06be b526 003d
000000a0: f647 5fbd d7f4 41be f079 fdbd a597 8a3d
000000b0: c768 3abc 7cf6 c3bd 6c6f f1bd a84c 8ebe
000000c0: 216d 813c d6d6 1c3e 5cda 38bd aa7a ff3d
000000d0: ca74 533e 94ab e4bb 969a bd3d d5d9 a23e
000000e0: 5000 c0bd 2f26 953d 8503 81be 7557 a9bc
000000f0: 32fc 183e a41e b5bd 833c c43d f2ec 6e3d
00000100: 62d0 4abc 57b5 d4be 5762 cdbe a088 06be
00000110: 13ed 86be fe56 8ebe 4672 c03d 8140 01bd
00000120: 25ae 2abd 7882 303e d75d 743e 3573 36be
00000130: 44ba f83d 5521 d7be 28a3 063e b9bc 0cbe
00000140: 1003 58be 8dba 523e 6eb9 34bd 0be0 fdbd
00000150: f81d 493d 3789 663e 7f0e ecbd f9ae 74be
00000160: 474c 53be 7432 673e e2bc 223d 991c 31be
00000170: 6465 8a3b 87b6 d63c c462 63be addc bebd
00000180: cb6d 86be 612e eabd 8da4 62bd c589 3d3e
00000190: a12b b7bd 22a1 c33d a4f6 5fbd e977 c83c
000001a0: faf2 99bc 7a53 293e 4cc3 fdbd 1c89 35be
000001b0: 5295 89be cf6b b03d 7f00 2f3d 7a64 a53d
000001c0: c960 723e 076a 6abe 2d2f a0bc 511d a8bd
000001d0: 57d3 313b 51c7 833d a6eb aa3c 9000 abbc
000001e0: 043d e33e aff9 a9bd c988 b93c c2e1 29be
000001f0: 8edc 893e ec9f 953d e6c9 27be 496f d33d
00000200: 50ad bcbe 0322 93bd fa9d 2b3f 3f6e 3fbd
00000210: 195c e3bd 76d4 5d3d 1b3f 10be dcec ce3c
00000220: ff5b 06be 8ce2 673e 3471 a1bc 8e86 cf3d
00000230: 1413 49be 75f5 b7bd 6c79 313e e780 0dbe
00000240: 140c e0be 51fa a4be 0204 503e f704 01be
00000250: 88ea fb3d eaa1 83be 8356 cf3c ecf1 abbd
00000260: 64e0 4a3e a4c3 e1bd 3095 83bd 0d0b e43c
00000270: 509c 843d 9421 0dbe efc6 ffbc e57b a8be
00000280: 04bb 2d3d 38c1 d1bd 7565 1a3e 8cd2 153d
00000290: 5e44 5abd 8846 96bc 11be 913d fccf fdbd
000002a0: ce8c 7b3d b5a9 d1bd ddeb 70be 6961 a23d
000002b0: d53c 2abe f1bc d93d bed1 bf3e 1b82 29be
000002c0: 6f0f 0d3d b736 02be b065 20be 6b24 babd
000002d0: e089 36be d2d4 b2bd 894b 1cbc 6b84 66be
000002e0: b79a f63e 3df1 893e 4e8d 50bd a4a5 bdbd
000002f0: 4812 13bd 8b60 873d ee9e 473e 9268 c13c
00000300: 8fdb 263e 3ac3 ed3d 0def 5dbe 331a eebd
00000310: a775 b0be 713d 903e 66f3 f4bd 4a28 893d
00000320: 3c26 b33d ecce a13e 7720 d23c 9dfe 473e
00000330: f5b9 aebd c754 06bd aaf9 36be 2515 82be
00000340: d8a4 6dbd 6e65 aa3c 6e5c 90bd 6b84 d13d
00000350: 1a47 093e 603a 8abe eaf1 6f3d a75e 15be
00000360: e942 8bbc d5fb 91be 084c 2a3e 5043 82be
00000370: f108 9f3c 73e1 55bd 6e3c 1cbe 5c58 083d
00000380: 4f60 6a3e a6b2 9cbe 2e26 043e 785c 5b3e
00000390: 7168 12be 8ce2 cebd c31f 313e 3709 dabd
000003a0: 34b4 573e 9646 a83d 1d26 7e3d 322a 543d
000003b0: e6cf f23d 9d74 703d e0e5 d93d 7030 8fbd
000003c0: e480 f43d 579b 0dbe e313 8abd 5d9a 0ebe
000003d0: eeb7 5fbb 7fa0 14be 7439 cabd be06 0abe
000003e0: b8b1 513d fa12 4cbe cf47 4d3e 713f 243e
000003f0: d92a 973b f07c 833d c552 32bd c540 58be

agent,params,ScannedRNN_0,GRUCell_0,hz,kernel f4 [64, 64]
-0.05935251 0.08753006 0.14555079 -0.2255592 0.05304972 0.07079928 -0.04149837 -0.011532616
-0.060577158 0.12497031 0.043767102 -0.14843903 -0.29190594 0.04048506 -0.1588548 0.16874969
-0.061774753 0.12448417 -0.18674982 0.29470077 0.14132167 0.06133722 -0.025179511 0.2831732
0.1330875 -0.19707365 -0.13784052 -0.22591726 0.1509623 -0.07688492 -0.22775434 -0.03629587
0.057390336 0.102030635 -0.1881066 -0.20271109 -0.0661997 -0.13778336 0.22227614 0.021749802
0.03575913 -0.1317102 -0.07362974 0.16793308 -0.09761048 -0.076607265 -0.18169613 -0.15716667
0.093868546 0.1699113 0.07215401 -0.11339481 0.21729004 0.08942634 0.116816916 -0.010713332
0.050505977 -0.35939264 0.14049487 -0.03206794 -0.024575196 -0.21919017 -0.15536673 -0.09311817
-0.040333506 -0.17848293 -0.11436328 -0.16489285 -0.11479048 -0.18788494 -0.19733843 0.044283673
-0.14067766 -0.08528429 -0.11023554 -0.19121185 0.12937835 -0.18999206 0.08901661 0.029288644
-0.09662452 -0.044878326 -0.1774058 -0.08109614 -0.34846157 -0.063314065 -0.15007825 -0.06755605
-0.046326146 0.07584356 -0.0005294059 0.099875055 -0.04045976 0.020005012 -0.014753407 -0.12854484
-0.18448034 0.09899254 -0.10563366 0.014851963 -0.26898167 0.18829373 0.32380295 -0.0013048718
0.18455693 0.13308464 -0.12627918 -0.0837254 0.21572489 0.15938911 -0.055246264 0.13601777
-0.0083211195 0.099421866 -0.07201389 -0.19038638 0.13914365 -0.10915672 -0.37216267 -0.14925954
-0.48415732 -0.055550743 0.043515366 -0.21537296 -0.037491575 0.042884983 -0.25107235 0.089897774
-0.023041576 -0.029567402 -0.2229639 0.25951922 -0.12487455 0.121885695 0.36762318 0.005004485
-0.10075944 -0.042266328 0.083155036 -0.093457095 -0.13506101 0.18495677 0.10510885 -0.32156947
-0.0980002 -0.021762703 -0.056242708 0.21962544 -0.26563516 0.09176492 0.15597858 0.0056313537
-0.031211842 -0.114415094 -0.14529604 -0.1152042 0.3259925 0.057016443 -0.099633776 0.06796935
0.06189812 -0.16103579 -0.079933785 -0.056112017 -0.034835074 -0.023867153 0.017980516 -0.3389538
0.018216241 -0.27025893 0.048890587 0.12229335 -0.03141721 0.36951166 -0.23194712 -0.045793694
-0.08258626 -0.18044995 -0.045951024 -0.06074564 -0.02520421 -0.07104089 0.10361675 0.072969
0.01775346 0.10575515 0.27489525 -0.082717724 -0.0071360646 -0.32514983 -0.10833778 -0.054742094
-0.041841567 -0.061243653 -0.14468372 -0.03562615 -0.091509484 -0.25793463 -0.24586603 0.028808162
0.034730848 -0.01083294 -0.004918065 -0.071457915 -0.060669273 0.32831916 0.38134703 0.2976622
0.2652197 -0.10168964 0.13867208 0.0069996766 0.011079942 0.15881708 0.13601924 0.011621225
0.28362772 0.28869194 -0.10421491 0.076095246 0.17951626 -0.1700619 0.2043053 0.18779802
-0.081577234 -0.026403638 0.17337875 -0.118478216 0.14623219 0.06572962 -0.05330297 0.07205171
0.02549065 0.027856223 0.19406071 -0.038916938 0.29796714 -0.07329946 -0.2252452 0.014350995
-0.08030825 -0.026865827 -0.10434539 -0.015975835 -0.23858605 0.13706617 -0.2259672 -0.09265719
-0.12289707 0.24603719 0.24221654 0.032746013 -0.20313308 0.016775103 0.057477977 -0.039750885
00000000: 9e1b 73bd f642 b33d 440b 153e fef8 66be
00000010: aa4a 593d 37ff 903d 32fa 29bd 4cf3 3cbc
00000020: c11f 78bd 6ff0 ff3d 2245 333d 6700 18be
00000030: b274 95be aad3 253d d5aa 22be b8cc 2c3e
00000040: 8607 7dbd 8ef1 fe3d 583b 3fbe 05e3 963e
00000050: a1b6 103e bd3c 7b3d 4345 cebc 14fc 903e
00000060: 1748 083e adcd 49be 1126 0dbe db56 67be
00000070: dc95 1a3e d775 9dbd 6f38 69be faaa 14bd
00000080: 2112 6b3d 70f5 d03d 049f 40be 7f93 4fbe
00000090: b593 87bd 1517 0dbe 5b9c 633e a42c b23c
000000a0: 2a78 123d 0adf 06be 30cb 96bd a6f6 2b3e
000000b0: 01e8 c7bd 45e4 9cbd 8d0e 3abe 4df0 20be
000000c0: 273e c03d 3afd 2d3e 7bc5 933d 8a3b e8bd
000000d0: 4881 5e3e 2825 b73d b53d ef3d f986 2fbc
000000e0: 5bdf 4e3d 5002 b8be e3dd 0f3e ac59 03bd
000000f0: ec51 c9bc 6373 60be 7518 1fbe bdb4 bebd
00000100: bf34 25bd 3bc4 36be 4c37 eabd acd9 28be
00000110: 4517 ebbd e964 40be 1613 4abe cc62 353d
00000120: ce0d 10be 88a9 aebd 2cc3 e1bd 0acd 43be
00000130: c27b 043e 478d 42be 574e b63d bdee ef3c
00000140: 14e3 c5bd 56d2 37bd dea9 35be bc15 a6bd
00000150: 8e69 b2be ceaa 81bd 1dae 19be d45a 8abd
00000160: 7cc0 3dbd de53 9b3d d4c7 0aba 4b8b cc3d
00000170: 22b9 25bd 8de1 a33c 46b8 71bc 42a1 03be
00000180: 6ae8 3cbe 9abc ca3d 7656 d8bd a655 733c
00000190: f7b7 89be 12d0 403e 80c9 a53e 3b08 abba
000001a0: 7efc 3c3e 5747 083e 544f 01be 3978 abbd
000001b0: fce6 5c3e e636 233e e849 62bd 3e48 0b3e
000001c0: 4e55 08bc b19d cb3d 057c 93bd a6f4 42be
000001d0: ac7b 0e3e 8f8d dfbd 1b8c bebe 7ed7 18be
000001e0: 78e3 f7be 2d89 63bd 2b3d 323d bb8a 5cbe
000001f0: c490 19bd 2aa8 2f3d 8e8c 80be 531c b83d
00000200: b0c1 bcbc 5637 f2bc a650 64be b4df 843e
00000210: 3abe ffbd 359f f93d 1b39 bc3e aafc a33b
00000220: f75a cebd 751f 2dbd 304d aa3d 6f66 bfbd
00000230: 6f4d 0abe 4f65 3d3e 4f43 d73d c1a4 a4be
00000240: 54b4 c8bd b247 b2bc c15e 66bd 7ee5 603e
00000250: 5501 88be 3fef bb3d d9b8 1f3e 3887 b83b
00000260: faaf ffbc 7652 eabd 7cc8 14be 2ef0 ebbd
00000270: 7de8 a63e 138a 693d cb0c ccbd 8433 8b3d
00000280: e288 7d3d 91e6 24be 53b4 a3bd b7d5 65bd
00000290: 39af 0ebd 0c85 c3bc e04b 933c 5a8b adbe
000002a0: 3a3a 953c 615f 8abe 7f41 483d f074 fa3d
000002b0: 55af 00bd a230 bd3e 8c83 6dbe 2b92 3bbd
000002c0: fc22 a9bd dfc7 38be 2437 3cbd 6cd0 78bd
000002d0: 0f79 cebc e37d 91bd 0535 d43d c570 953d
000002e0: b46f 913c 2896 d83d 12bf 8c3e e967 a9bd
000002f0: a6d5 e9bb 0a7a a6be 33e0 ddbd 3f39 60bd
00000300: 1062 2bbd a0da 7abd f827 14be baec 11bd
00000310: 5369 bbbd 0210 84be 4ec4 7bbe 18ff eb3c
00000320: ef41 0e3d a57c 31bc b827 a1bb 8758 92bd
00000330: 5880 78bd 7319 a83e eb3f c33e 2e67 983e
00000340: e0ca 873e a842 d0bd 0e00 0e3e 8b5d e53b
00000350: a588 353c f2a0 223e a148 0b3e f366 3e3c
00000360: a737 913e 6ecf 933e a06e d5bd d3d7 9b3d
00000370: 1cd3 373e b524 2ebe 6935 513e 204e 403e
00000380: f711 a7bd 714c d8bc 338a 313e b5a4 f2bd
00000390: e4bd 153e 409d 863d 3754 5abd d98f 933d
000003a0: c5d1 d03c bc32 e43c dab7 463e 5e67 1fbd
000003b0: 268f 983e 071e 96bd ada6 66be 7020 6b3c
000003c0: a778 a4bd b915 dcbc 09b3 d5bd c1df 82bc
000003d0: e74f 74be 135b 0c3e f263 67be 0ec3 bdbd
000003e0: 76b1 fbbd 2cf1 7b3e 9d07 783e af20 063d
000003f0: 1e02 50be f16b 893c 076e 6b3d d3d1 22bd

agent,params,ScannedRNN_0,GRUCell_0,in,bias f4 [64]
0.03701335 0.5193675 -0.2826646 0.38371482 -0.4070479 -0.25670734 -0.032110307 0.0667976
-0.0780459 -0.07682329 0.06279212 0.060137503 -0.80577976 -0.05823079 0.2325203 -0.1813984
-0.360682 -0.6196037 -0.40331826 -0.3651835 -0.08440612 -0.4552392 -0.07889525 0.5175629
-0.29677016 -0.4945827 -0.013143782 0.17722362 0.0019573919 0.05565999 0.018358441 0.3573897
0.010216087 0.14587082 -0.10054692 0.053751025 -0.17538247 -0.42095217 -0.17286308 0.11090797
-0.33443493 -0.09943917 -0.011534881 -0.15678626 -0.18782651 -0.28216022 0.5062864 0.26553044
0.2941478 0.18691275 -0.225249 0.08881994 -0.026945425 0.22840962 0.16067176 0.46462473
0.08266661 -0.55186754 0.16545048 0.37454736 0.20747995 -0.16480848 0.073455885 0.14031936
00000000: 4f9b 173d 45f5 043f 6ab9 90be 4576 c43e
00000010: 9568 d0be 256f 83be 1986 03bd 2ecd 883d
00000020: 87d6 9fbd 8755 9dbd 2899 803d be52 763d
00000030: 9547 4ebf 6983 6ebd cd19 6e3e 81c0 39be
00000040: 50ab b8be 599e 1ebf bb7f cebe 55f9 babe
00000050: 1edd acbd 1d15 e9be d593 a1bd 017f 043f
00000060: 42f2 97be f239 fdbe 0459 57bc 1c7a 353e
00000070: 9647 003b bbfb 633d 7164 963c c8fb b63e
00000080: 6061 273c 295f 153e 8beb cdbd 092a 5c3d
00000090: 7697 33be 0b87 d7be 0503 31be b823 e33d
000000a0: 0e3b abbe c3a6 cbbd ccfc 3cbc 948c 20be
000000b0: 9855 40be 4e77 90be fc9b 013f 9bf3 873e
000000c0: 8a9a 963e 0e66 3f3e ada7 66be 3be7 b53d
000000d0: a7bc dcbc 36e4 693e 2387 243e 4be3 ed3e
000000e0: 1d4d a93d 3147 0dbf da6b 293e acc4 bf3e
000000f0: a075 543e 8ec3 28be 0a70 963d e1af 0f3e

agent,params,ScannedRNN_0,GRUCell_0,in,kernel f4 [64, 64]
0.21690434 -0.058392778 -0.056294013 0.01181274 0.02877038 0.0046120603 0.008430703 0.24408905
0.23864004 -0.10048601 0.1432601 0.055186305 0.2705111 -0.030814692 0.010007366 -0.06379948
0.106601246 -0.10424366 0.034634028 -0.11813967 -0.0902222 0.1492533 0.031353343 0.27056223
-0.10112323 -0.21753633 0.055383306 0.050270956 -0.028940687 0.57913625 -0.0042711534 0.13526928
-0.39422947 -0.06550547 -0.006352378 0.221003 -0.093306206 -0.15592442 -0.04642775 -0.05974383
-0.18307844 0.119526595 0.123170905 0.025200244 -0.20349327 -0.14582947 -0.3986345 0.07880371
0.05852147 -0.010299479 0.20388138 -0.08684708 0.22411743 -0.07820072 0.28997767 0.1742928
0.16692618 0.056877084 0.15707868 -0.02759732 0.015609402 0.076188885 -0.005088806 -0.09501922
1.0547807 -0.22424191 0.08030331 -0.22450013 -0.07576194 0.13791002 -0.3293708 -0.08464803
-0.038640484 0.5832252 -0.021104489 -0.051688388 0.03776585 -0.0803417 -0.3010628 -0.057285875
0.1639844 0.13496111 -0.054387998 -0.08698135 1.4712434 0.00050270866 -0.03223596 -0.3160092
0.24309278 -0.18653154 -0.3073201 0.049381126 -0.047212616 -0.021817973 -1.0567312 -0.0147324605
0.0741896 -0.29711756 0.6684803 0.017626235 -0.032400597 0.0026233192 -0.05380856 -0.68913996
0.12570381 -0.06768552 -0.037852958 0.27569643 -0.013020875 0.19799832 0.103413455 -0.19220756
0.014677908 0.06108598 0.038283437 -0.033922747 -0.23160236 0.09285096 0.31278044 -0.06533256
-0.0882407 -0.038143203 -0.22214516 -0.0924629 -0.13372388 1.2285439 -0.0725527 -0.0087428875
-0.0643468 -0.0002788579 -0.00018077326 -0.20013057 -0.0918178 0.14989738 0.03519789 0.04641814
0.13086218 -0.031249564 0.09280829 -0.05838457 0.2268719 -0.17584814 -0.17344598 -0.0058505815
0.11816527 0.0961561 -0.03719213 -0.17378618 0.10297679 -0.056788117 0.027549265 -0.24662386
-0.06157707 0.09103719 0.27851456 0.0013324707 0.15480958 -0.122855976 0.06002446 -0.38680187
0.17238598 -0.08238787 -0.13889356 0.044446755 -0.097649395 -0.063113645 -0.07872567 0.018149285
-0.03647864 -0.1490816 -0.21132734 0.08050965 0.012100654 0.1998082 0.09654819 0.10168359
-0.016096137 0.07823917 -0.3338057 -0.3198279 -0.14764805 0.062958896 -0.009783951 0.050851204
-0.29312238 0.07011177 0.18076707 0.25602752 0.12164318 0.18906453 0.097087376 0.19769222
0.09238037 0.1505484 -0.2097403 -0.2460387 -0.3713165 0.043779247 0.20668206 0.051575482
0.03127319 -0.3293036 -0.088201836 -0.23984344 -0.37226853 0.017381966 -0.24960767 -0.1931186
-0.24792947 -0.30024913 -0.024833806 0.0737033 -0.16907409 0.05258564 -0.0043648914 -0.36057115
-0.13200122 -0.26958627 -0.2426242 0.20822304 0.08407335 -0.079809636 0.23131703 -0.23615988
0.9395849 -0.021097807 -0.30094662 0.13689314 -0.04099159 -0.10416895 0.16748722 0.07034674
-0.09338154 0.16343245 0.10054025 0.15308748 -0.062325895 0.056708038 0.7530973 -0.097523816
0.1997234 0.0919849 -1.261455 -0.06586469 -0.23716718 -0.03914597 -0.2682412 0.25791815
0.036159303 -0.014762837 0.044159997 0.28743312 -0.046526287 0.011077263 0.14259899 1.4309043
00000000: 2c1c 5e3e 442d 6fbd 8d94 66bd 398a 413c
00000010: dcaf eb3c c420 973b ee20 0a3c 7bf2 793e
00000020: 0e5e 743e 9ccb cdbd c7b2 123e 090b 623d
00000030: 6e80 8a3e 186f fcbc eff5 233c 4da9 82bd
00000040: c151 da3d b37d d5bd 69dc 0d3d 36f3 f1bd
00000050: 6bc6 b8bd dbd5 183e 5d6c 003d 2287 8a3e
00000060: b219 cfbd d8c1 5ebe 9bd9 623d ebe8 4d3d
00000070: 0515 edbc 4642 143f 08f5 8bbb 0884 0a3e
00000080: 72d8 c9be bb27 86bd 9c27 d0bb 9c4e 623e
00000090: 5317 bfbd a7aa 1fbe 062b 3ebd f2b5 74bd
000000a0: ea78 3bbe 5cca f43d 0741 fc3d be70 ce3c
000000b0: 8a60 50be 5254 15be d219 ccbe d763 a13d
000000c0: 35b4 6f3d 25bf 28bc 48c6 503e e2dc b1bd
000000d0: 0a7f 653e b327 a0bd f477 943e d079 323e
000000e0: b2ee 2a3e f2f7 683d 3cd9 203e c613 e2bc
000000f0: 94be 7f3c eb08 9c3d 00c0 a6bb 7099 c2bd
00000100: 0e03 873f ac9f 65be 1076 a43d 5de3 65be
00000110: 1329 9bbd 4938 0d3e 4aa3 a8be f25b adbd
00000120: 7c45 1ebd 3f4e 153f 52e3 acbc 34b7 53bd
00000130: 5db0 1a3d 308a a4bd e724 9abe 98a4 6abd
00000140: 87eb 273e 3f33 0a3e f3c5 5ebd 4723 b2bd
00000150: b451 bc3f 35c8 033a db09 04bd f5cb a1be
00000160: 50ed 783e 2002 3fbe 0f59 9dbe dd43 4a3d
00000170: 0462 41bd 9bbb b2bc f842 87bf 6b60 71bc
00000180: b8f0 973d cb1f 98be 8621 2b3f e564 903c
00000190: 7db6 04bd feeb 2b3b 5d66 5cbd 7a6b 30bf
000001a0: 80b8 003e b59e 8abd b40b 1bbd 1528 8d3e
000001b0: 8255 55bc 12c0 4a3e 6fca d33d 0fd2 44be
000001c0: 9c7b 703c 4b35 7a3d 18cf 1c3d 94f2 0abd
000001d0: 2b29 6dbe a528 be3d c224 a03e 14cd 85bd
000001e0: 8ab7 b4bd 0c3c 1cbd 057a 63be 305d bdbd
000001f0: eaee 08be ed40 9d3f 8396 94bd 543e 0fbc
00000200: 41c8 83bd ac33 92b9 f48d 3db9 07ef 4cbe
00000210: f90a bcbd b37e 193e aa2b 103d f320 3e3d
00000220: bc00 063e 16ff ffbc 4612 be3d a924 6fbd
00000230: 1b51 683e 8911 34be d39b 31be 3cb6 bfbb
00000240: a200 f23d 7ded c43d c656 18bd 01f5 31be
00000250: 7fe5 d23d a89a 68bd ffae e13c f78a 7cbe
00000260: 3d38 7cbd b571 ba3d 7699 8e3e 4ca6 ae3a
00000270: 6786 1e3e ea9b fbbd 35dc 753d e50a c6be
00000280: f385 303e f9ba a8bd 1d3a 0ebe cd0d 363d
00000290: 68fc c7bd ba41 81bd ed3a a1bd cfad 943c
000002a0: a06a 15bd d9a8 18be 3266 58be 3ee2 a43d
000002b0: d241 463c 859a 4c3e 0fbb c53d 7c3f d03d
000002c0: 0cdc 83bc dc3b a03d 95e8 aabe 7cc0 a3be
000002d0: 0d31 17be 98f0 803d dd4c 20bc 5a49 503d
000002e0: 2314 96be c296 8f3d 011b 393e 0a16 833e
000002f0: 0f20 f93d 229a 413e bfd5 c63d d46f 4a3e
00000300: eb31 bd3d 5c29 1a3e 29c6 56be 92f1 7bbe
00000310: 321d bebe de51 333d 76a4 533e d040 533d
00000320: 5118 003d 7b9a a8be 2aa3 b4bd 8599 75be
00000330: fb99 bebe a064 8e3c 2799 7fbe e2c0 45be
00000340: 39e1 7dbe 41ba 99be 4470 cbbc c1f1 963d
00000350: c221 2dbe 0a64 573d 5d07 8fbb c89c b8be
00000360: 542b 07be 3607 8abe 7a72 78be 6c38 553e
00000370: a62e ac3d 3c73 a3bd 5fde 6c3e e5d3 71be
00000380: a388 703f 4fd5 acbc ad15 9abe b72d 0c3e
00000390: cce6 27bd 8856 d5bd c581 2b3e f411 903d
000003a0: d23e bfbd d65a 273e 0ce8 cd3d f7c2 1c3e
000003b0: 7049 7fbd b046 683d fcca 403f 91ba c7bd
000003c0: 4a84 4c3e 9462 bc3d 5c77 a1bf 11e4 86bd
000003d0: f4db 72be 8657 20bd e956 89be d90d 843e
000003e0: c71b 143d d4df 71bc 1de1 343d 6f2a 933e
000003f0: 5992 3ebd 697d 353c 7805 123e df27 b73f

agent,params,ScannedRNN_0,GRUCell_0,ir,bias f4 [64]
-0.15071255 0.09512425 0.31765667 -0.15630043 -0.053932 -0.1469078 -0.0042537795 -0.001957886
-0.003686005 0.125061 -0.01750151 0.042128984 0.17247705 0.03975781 -0.033171173 0.07055578
0.070128925 0.191154 -0.08621879 0.07264561 0.16815099 0.37525365 -0.14131413 0.25269237
-0.0056250184 0.014895256 0.26430583 -0.07517701 0.06935601 -0.076130785 0.14141856 0.05355733
-0.035118558 -0.008554652 0.15234415 -0.055737466 -0.084451996 0.044392355 -0.09488255 -0.013879214
0.0016585216 -0.10407569 -0.050960694 0.08333365 0.01628816 0.08212638 0.29864046 0.11407671
-0.023165347 -0.17638008 -0.1607338 0.012317735 0.02144059 -0.047655124 -0.014035895 0.25844073
0.3058043 0.12617452 0.24076298 0.37837046 0.075221345 -0.05751832 -0.074995026 -0.047782615
00000000: 6454 1abe 81d0 c23d e5a3 a23e 380d 20be
00000010: cde7 5cbd 006f 16be 4a63 8bbb e04f 00bb
00000020: e790 71bb fe0f 003e 545f 8fbc 718f 2c3d
00000030: d39d 303e 16d9 223d 7fde 07bd 8c7f 903d
00000040: c19f 8f3d e0bd 433e 7a93 b0bd 39c7 943d
00000050: c62f 2c3e 3f21 c03e a7b4 10be e560 813e
00000060: 1352 b8bb 3b0b 743c 1853 873e 67f6 99bd
00000070: 860a 8e3d 75ea 9bbd 07d0 103e ee5e 5b3d
00000080: 7ad8 0fbd d028 0cbc 1b00 1c3e f84c 64bd
00000090: 2bf5 acbd c2d4 353d c851 c2bd a565 63bc
000000a0: c062 d93a a325 d5bd 29bc 50bd d5aa aa3d
000000b0: bf6e 853c e031 a83d 67e7 983e 0da1 e93d
000000c0: 41c5 bdbc fb9c 34be 6797 24be 53d0 493c
000000d0: 2da4 af3c 0532 43bd cff6 65bc 5852 843e
000000e0: 6292 9c3e e533 013e 928a 763e c6b9 c13e
000000f0: a60d 9a3d 5498 6bbd fe96 99bd b4b7 43bd

agent,params,ScannedRNN_0,GRUCell_0,ir,kernel f4 [64, 64]
-0.12423909 0.036900993 -0.08268911 -0.21759789 -0.1521906 0.085529566 0.07379427 -0.102600195
0.10199649 -0.037707355 -0.07880788 0.030337341 -0.27653027 -0.36381194 -0.115399204 0.018119646
0.0687328 0.01725364 0.031675726 -0.10354045 -0.008818676 0.033962704 0.08202545 0.27324677
0.18332893 0.01667693 0.09661143 0.27352852 -0.063296676 -0.008104595 -0.3112893 0.29563817
-0.34097683 -0.12110991 -0.0481869 0.055337273 -0.0752384 -0.07145741 -0.10278905 0.07257596
0.067026764 -0.16741921 0.08581563 -0.0926303 -0.13782035 0.14438143 -0.26869008 0.15604274
0.07813056 -0.19623233 0.020126494 0.0586265 0.08721357 0.022415733 0.2181886 0.009747761
-0.15336768 -0.057394136 0.07547766 0.040563762 0.09981118 -0.047766443 0.0643147 -0.23528145
0.3246208 -0.27288297 0.043749824 0.16093011 0.08012765 0.024844963 0.0727231 0.065391935
0.15058264 -0.13188073 0.047046296 0.05120568 0.1847056 0.0022220365 0.01067402 0.28012666
0.16756465 -0.24022889 -0.22344634 -0.18190494 -1.1501261 0.2921306 0.051075757 0.030223202
0.24998073 0.15375304 -0.004449902 -0.021156004 -0.3514345 0.09676093 -0.7712131 0.117198385
-0.43857205 0.22734714 -0.71488893 0.12127118 -0.06214037 0.25550804 0.027121019 -0.35379538
-0.036966354 -0.14781094 0.14150609 -0.09175468 -0.05016206 -0.06233623 -0.029217862 -0.08604859
-0.013565956 -0.09400116 0.09331218 0.0027204098 0.30168948 -0.4306192 0.08196732 0.15381595
0.06497972 0.008738535 0.022195546 -0.022113653 -0.06567687 -1.075405 -0.34622917 -0.20926975
-0.2594684 0.22048068 0.21567306 0.13364244 -0.07608057 -0.017767604 -0.1708123 -0.0051238704
-0.16879402 -0.062977605 -0.11304796 0.050012164 0.09001105 0.0018563963 0.07057046 -0.109500766
-0.06537602 -0.012399783 -0.07387678 0.0600901 -0.13815169 -0.16525291 -0.15857294 -0.30802837
0.06253809 -0.07043818 -0.16482307 0.01586299 0.033863652 0.2466775 -0.33043283 -0.012593203
-0.009869949 0.13926038 -0.1346693 0.03236306 -0.04864172 0.03569386 0.20596424 -0.17905995
-0.19811417 -0.059530225 -0.019706061 0.036715414 -0.15130988 -0.22956602 -0.14447226 0.14522472
-0.051900696 -0.042174857 -0.103875704 -0.035439167 -0.25263587 0.3932774 0.10351351 0.0013437306
-0.3182403 -0.08304992 -0.13650818 -0.18758605 0.00265728 0.0445323 -0.009978403 0.08839019
0.03999372 0.10276483 0.005673498 -0.11259727 -0.11205317 0.13695292 -0.119389586 0.1463731
-0.008471788 -0.18312784 -0.08770193 -0.12735675 0.14059992 0.12217938 0.022545936 -0.0052240943
-0.05517622 0.07015429 -0.42131224 0.100015245 -0.03544155 0.10060919 -0.26247415 0.012744738
-0.03412532 0.2778103 0.023056785 -0.035949107 -0.07219658 0.4170532 -0.13488449 0.09863092
-0.056447905 0.13456792 -0.08242051 -0.006216281 0.13728721 -0.122428276 -0.2396705 0.19061475
-0.21599925 -0.0900381 -0.14138813 0.14756925 -0.1355334 -0.07169101 -0.39138702 0.14203627
0.188251 -0.12123772 -0.42252442 0.049970612 0.18715246 0.024045588 0.27882472 0.14725472
-0.039029785 -0.10312973 0.036392875 -0.31494662 0.19946016 -0.054524258 -0.13154355 -0.023606146
00000000: 1071 febd 7f25 173d e858 a9bd fbd1 5ebe
00000010: dad7 1bbe 202a af3d 7321 973d 0d20 d2bd
00000020: 89e3 d03d 0773 1abd 0766 a1bd 0486 f83c
00000030: 6095 8dbe 8f45 babe 6b56 ecbd a76f 943c
00000040: c8c3 8c3d 8157 8d3c 68be 013d 040d d4bd
00000050: 357c 10bc 7a1c 0b3d f6fc a73d 00e7 8b3e
00000060: 94ba 3b3e 0f9e 883c 37dc c53d ee0b 8c3e
00000070: b0a1 81bd 23c9 04bc 5061 9fbe e35d 973e
00000080: 8494 aebe 7908 f8bd a05f 45bd 56a9 623d
00000090: 9716 9abd 4358 92bd 1183 d2bd b4a2 943d
000000a0: 5445 893d f16f 2bbe 1bc0 af3d f4b4 bdbd
000000b0: c720 0dbe bad8 133e bf91 89be abc9 1f3e
000000c0: ea02 a03d 21f1 48be 51e0 a43c 5722 703d
000000d0: 079d b23d 33a1 b73c d56c 5f3e 13b5 1f3c
000000e0: 6b0c 1dbe 1d16 6bbd 0894 9a3d 3026 263d
000000f0: ce69 cc3d bfa6 43bd 6db7 833d 9fed 70be
00000100: b334 a63e 51b7 8bbe 0433 333d ddca 243e
00000110: f719 a43d aa87 cb3c d9ef 943d 35ec 853d
00000120: 5632 1a3e be0b 07be 9eb3 403d 0cbd 513d
00000130: 7723 3d3e 969f 113b 16e2 2e3c c36c 8f3e
00000140: 1196 2b3e 90fe 75be 1ecf 64be 4a45 3abe
00000150: 5537 93bf 2492 953e d034 513d a696 f73c
00000160: f3fa 7f3e 7071 1d3e 7cd0 91bb 5b4f adbc
00000170: 39ef b3be 982a c63d 396e 45bf b505 f03d
00000180: 848c e0be b0cd 683e f602 37bf 065d f83d
00000190: e786 7ebd f3d1 823e e62c de3c ab24 b5be
000001a0: 086a 17bd c05b 17be f9e6 103e e1e9 bbbd
000001b0: bb76 4dbd 4654 7fbd 4c5a efbc 3e3a b0bd
000001c0: be43 5ebc ae83 c0bd 751a bf3d e748 323b
000001d0: 0b77 9a3e 1f7a dcbe 7bde a73d ee81 1d3e
000001e0: 1614 853d 132c 0f3c 6fd3 b53c b127 b5bc
000001f0: 9881 86bd dfa6 89bf f344 b1be cf4a 56be
00000200: 0bd9 84be b0c5 613e 66d9 5c3e 90d9 083e
00000210: 21d0 9bbd 5e8d 91bc 6be9 2ebe 24e6 a7bb
00000220: 57d8 2cbe 67fa 80bd b085 e7bd 8ed9 4c3d
00000230: b757 b83d 5352 f33a 3f87 903d f041 e0bd
00000240: dde3 85bd 7628 4bbc b64c 97bd 0921 763d
00000250: a377 0dbe 0f38 29be f260 22be e5b5 9dbe
00000260: f813 803d e441 90bd 61c7 28be 1af3 813c
00000270: 9db4 0a3d 0799 7c3e 7e2e a9be b953 4ebc
00000280: 91b5 21bc 469a 0e3e c0e6 09be 218f 043d
00000290: 8a3c 47bd ba33 123d 4ae8 523e 7e5b 37be
000002a0: 71de 4abe f7d5 73bd 9b6e a1bc e762 163d
000002b0: faf0 1abe 5b13 6bbe 89f0 13be cab5 143e
000002c0: d395 54bd 8bbf 2cbd c9bc d4bd a928 11bd
000002d0: 7d59 81be a85b c93e e4fe d33d 1e20 b03a
000002e0: 65f0 a2be 1416 aabd cdc8 0bbe 8f16 40be
000002f0: c325 2e3b 8067 363d 757c 23bc ea05 b53d
00000300: 74d0 233d 5e76 d23d c0e8 b93b 6699 e6bd
00000310: 227c e5bd 633d 0c3e 8782 f4bd d4e2 153e
00000320: 41cd 0abc dd85 3bbe 129d b3bd cf69 02be
00000330: 6df9 0f3e 2f39 fa3d 41b2 b83c e12e abbb
00000340: 7600 62bd 0dad 8f3d 3db6 d7be cbd4 cc3d
00000350: 292b 11bd 310c ce3d 0363 86be 4ecf 503c
00000360: fec6 0bbd 273d 8e3e 95e1 bc3c 5f3f 13bd
00000370: cddb 93bd ff87 d53e 291f 0abe 02ff c93d
00000380: eb35 67bd 2ccc 093e 16cc a8bd f2b1 cbbb
00000390: 0595 0c3e adbb fabd 2f6c 75be 8330 433e
000003a0: e82e 5dbe e565 b8bd 0dc8 10be 651c 173e
000003b0: 45c9 0abe bcd2 92bd e163 c8be f571 113e
000003c0: dfc4 403e 7b4b f8bd 1f55 d8be fcad 4c3d
000003d0: e5a4 3f3e 41fb c43c 1dc2 8e3e f1c9 163e
000003e0: b2dd 1fbd ae35 d3bd b210 153d af40 a1be
000003f0: 493f 4c3e d454 5fbd 5ab3 06be ad61 c1bc
