baselines/QLearning/checkpoints/MPE_simple_spread_v3/qmix_ps.safetensors (safetensors, 184776 bytes, 27 tensors)

agent,params,Dense_0,bias f4 [64]
0	0xbe3ce52a	-0.18446794
1	0xbf03dd7a	-0.5150982
2	0xbe9c1406	-0.30484027
3	0xbe34c16b	-0.17651908
4	0xbdc22a25	-0.09480695
5	0xbe73d6b0	-0.23812366
6	0xbd4f87fe	-0.0506668
7	0xbd5979eb	-0.053094786
8	0xbf30e061	-0.69092375
9	0x3dae09f0	0.08497989
10	0xbe61f6e2	-0.22066835
11	0xbd4c085c	-0.04981266
12	0x3d9d7973	0.0768918
13	0xbde169f1	-0.11006535
14	0xbc94e1ae	-0.018174019
15	0xbdbf8020	-0.0935061
16	0x3d6ca443	0.05777384
17	0xbd974e68	-0.07388002
18	0xbe606c88	-0.21916401
19	0x3e19af11	0.15008189
20	0x3d39e5fe	0.045385353
21	0xbe86f05b	-0.26355252
22	0xbe026551	-0.12733962
23	0xbe4e7526	-0.20161876
24	0xbf195cfb	-0.599075
25	0x3dda3613	0.10654845
26	0xbe107276	-0.14106163
27	0xbe3dbc8b	-0.18528955
28	0xbdf9be95	-0.12194554
29	0xbeacf3af	-0.33779666
30	0xbdeec57f	-0.11658763
31	0xbe90ba76	-0.28267258
32	0xbcd1e120	-0.025620043
33	0xbdf2577e	-0.11833094
34	0xbcd6554c	-0.02616372
35	0x3c80d175	0.015724877
36	0xbe27301c	-0.16326946
37	0x3e1b7fd4	0.15185481
38	0x3db6157e	0.08890818
39	0xbecfd72b	-0.40593848
40	0xbe22bb67	-0.15891801
41	0xbd347dd4	-0.04406531
42	0xbcd35bf3	-0.02580068
43	0x3df6d2dc	0.12051937
44	0xbdbf314c	-0.093355745
45	0xbc7a13fd	-0.015263555
46	0xbd284e2d	-0.04109018
47	0x3d503041	0.05082727
48	0xbec0365f	-0.37541482
49	0xbf279069	-0.6545473
50	0xbeed4710	-0.4634328
51	0xbebd7dc9	-0.3701003
52	0x3e14b84a	0.14523426
53	0xbf1a2cbd	-0.60224515
54	0xbe6cee52	-0.23137787
55	0x3e349903	0.17636494
56	0xbdd6c8fc	-0.104875535
57	0xbd970a09	-0.07374961
58	0xbe455af7	-0.19272982
59	0x3b574137	0.0032845268
60	0xbe900ced	-0.28134862
61	0xbef06f94	-0.46960127
62	0xbe932a9f	-0.28743455
63	0xbeeb68c2	-0.4597836

agent,params,Dense_0,kernel f4 [21, 64]
0	0x3d2bb1b9	0.041917536
1	0xbde45ec3	-0.11150887
2	0x3e0676c4	0.13131243
3	0x3df31bc6	0.11870532
4	0x3e669d57	0.22520958
5	0xbea022ac	-0.31276453
6	0x3e1895ff	0.14900969
7	0x3e648dba	0.2231969
8	0x3e1c5ff3	0.15270977
9	0xbee96819	-0.45587233
10	0x3e7ef4e7	0.2489811
11	0x3ed74d4e	0.42051166
12	0xbcdde532	-0.027086828
13	0xbe3684d1	-0.17824103
14	0xbc8c953c	-0.017161004
15	0xbe7c1cd6	-0.24620375
16	0xbeb0e3f9	-0.3454893
17	0x3ef3aed3	0.47594318
18	0xbee69e09	-0.45042446
19	0x3dd84245	0.10559515
20	0xbe0617c4	-0.13095003
21	0xbe38f358	-0.18061578
22	0x3e5fa243	0.21839242
23	0x3db6d830	0.08927953
24	0x3ecfbece	0.4057526
25	0xbe6b5d0c	-0.22984713
26	0xbea6839d	-0.32522288
27	0xbe41e58a	-0.18935218
28	0x3e0798d9	0.132419
29	0xbeff82ce	-0.49904484
30	0xbf0c644e	-0.5484055
31	0xbeb97435	-0.3622147
32	0x3f0d4609	0.5518499
33	0xbe29c318	-0.16578329
34	0x3e2c3fa9	0.1682116
35	0x3ed5d05c	0.41760528
36	0x3a34a29d	0.00068906863
37	0xbe956992	-0.29182106
38	0x3f0151e3	0.50515574
39	0x3f1bbacf	0.6083192
40	0xbc41ba15	-0.011824151
41	0xb99b82bc	-0.00029661309
42	0xbead34c2	-0.33829314
43	0xbe66b71b	-0.22530787
44	0x3e9c74e4	0.3055793
45	0x3e4c14b9	0.1992978
46	0x3e97c0d9	0.2963932
47	0x3f02b151	0.51051813
48	0x3e1e0a99	0.1543373
49	0xbcdba597	-0.026812358
50	0xbe29cd10	-0.16582131
51	0xbd613f31	-0.054991905
52	0xbee2f290	-0.44325686
53	0xbe97f4e5	-0.29679027
54	0xbf3fe3e7	-0.74957126
55	0xbef574e3	-0.4794074
56	0x3ec2976c	0.3800615
57	0xbe548c3d	-0.20756622
58	0x3ef43723	0.47698316
59	0xbe60f2cd	-0.21967621
60	0xbe3e9b17	-0.1861385
61	0xbeefe83c	-0.46856868
62	0x3eb5d60c	0.35514867
63	0x3e8c2e8e	0.27379268
64	0x3cec8696	0.02887277
65	0x3ec9c7be	0.39410204
66	0xbdb828c4	-0.089921504
67	0x3eb2128d	0.34779778
68	0xbe629a55	-0.22129185
69	0x3ef77357	0.48330185
70	0xbf0c1276	-0.5471567
71	0x3e90ebd6	0.2830493
72	0xbe7eb197	-0.24872433
73	0xbe144a9c	-0.14481586
74	0x3e9867e0	0.2976675
75	0xbe09a9b6	-0.13443646
76	0xbf04c45d	-0.51862127
77	0x3ef34f77	0.47521564
78	0x3d82dc58	0.063896835
79	0x3ed9fcf8	0.42575812
80	0xbe3757eb	-0.17904632
81	0xbe3646d6	-0.1780046
82	0xbe3608db	-0.17776816
83	0x3f153e27	0.5829796
84	0xbeac2319	-0.33620527
85	0xbf009c1f	-0.5023822
86	0xbf03448f	-0.5127649
87	0xbed61f0f	-0.4182057
88	0x3d9b89d9	0.07594652
89	0xbe64a2f8	-0.22327793
90	0x3ee0c319	0.43898848
91	0x3e9866ac	0.29765832
92	0x3e0598e6	0.13046607
93	0xbdf5a2e1	-0.11993957
94	0x3d3cb664	0.04607238
95	0xbe475e8e	-0.19469664
96	0x3cc10e25	0.023566315
97	0x3f09e07f	0.5385818
98	0x3f1d9fbf	0.6157188
99	0x3e068918	0.13138235
100	0xbf066336	-0.52495134
101	0x3de52817	0.11189287
102	0xbe532c5f	-0.20622395
103	0x3e833e5c	0.25633514
104	0xbc98051f	-0.01855713
105	0xbef83532	-0.48478085
106	0x3edd08f5	0.43170896
107	0x3ea91d4e	0.3303017
108	0xbe839975	-0.25703016
109	0x3ef35eab	0.47533163
110	0x3ecbad1c	0.3978051
111	0xbec6120d	-0.38685647
112	0xbf3b1543	-0.7307932
113	0xbf1a9ac8	-0.6039243
114	0x3ca0a095	0.019607821
115	0xbd992942	-0.074785724
116	0x3e2fc0f4	0.1716345
117	0x3d8054a2	0.062661424
118	0x3edb93b1	0.42886117
119	0xbf36a01d	-0.71338063
120	0x3ed62c28	0.41830564
121	0x3e863132	0.26209408
122	0x3e12cd15	0.14336045
123	0xbe1bb884	-0.15207106
124	0x3ea357c8	0.3190291
125	0x3ec0102c	0.37512338
126	0x3ee71aa9	0.45137528
127	0x3e9eba3c	0.3100146
128	0xbe1e274e	-0.15444681
129	0xbd94f5bc	-0.072734326
130	0xbec62af3	-0.38704643
131	0xbda1cfc6	-0.07900958
132	0xbeadf644	-0.33976948
133	0xbe5233ad	-0.20527525
134	0x3dc845d5	0.097789444
135	0x3b9931d0	0.0046751276
136	0xbdaf43e3	-0.0855787
137	0x3d757bdd	0.05993258
138	0xbda016a4	-0.07816818
139	0xbd2eace3	-0.042645346
140	0xbdc9ef87	-0.09860139
141	0x3db64087	0.08899026
142	0xbe17f482	-0.14839366
143	0x3d8c545c	0.06852028
144	0x3d26e450	0.04074508
145	0xbcd7cf76	-0.026344042
146	0xbe6475dd	-0.22310586
147	0xbdf97682	-0.12180807
148	0x3e600500	0.21876907
149	0x3e2fbb04	0.17161185
150	0xbd6a2095	-0.05715998
151	0xbc24f81d	-0.01006892
152	0x3db8ed43	0.09029629
153	0x3df05f05	0.117368735
154	0x3d10567c	0.035238728
155	0xbe7d837f	-0.24757193
156	0xbe6ba946	-0.23013791
157	0x3d844a69	0.06459505
158	0xbe5e0888	-0.21682942
159	0xbd6132b2	-0.054979987
160	0x3e8f3ce0	0.2797613
161	0xbcd7bca8	-0.026335075
162	0xbd1325b5	-0.035924632
163	0xbc1ec60c	-0.009690773
164	0xbe16595a	-0.14682522
165	0x3de78921	0.11305452
166	0xbe0b1d03	-0.13585286
167	0x3eb4bc61	0.35299972
168	0xbe159204	-0.14606482
169	0xbe0a85d8	-0.1352762
170	0x3dae8272	0.08520974
171	0xbd0796ca	-0.033102788
172	0x3c19815c	0.009369221
173	0xbd3d7134	-0.046250537
174	0xbd42f600	-0.047597885
175	0xbdc4812b	-0.09594949
176	0x3e0ec654	0.13942844
177	0x3e45ad1b	0.19304316
178	0xbe59fa15	-0.21286805
179	0x3daa12eb	0.083043896
180	0xbdbb360c	-0.09141168
181	0x3d3828b9	0.04496071
182	0xbe27e7de	-0.16397044
183	0xbdaa3a06	-0.08311848
184	0x3d1bc8c3	0.03803326
185	0xbe302d0c	-0.17204684
186	0x3ebe0108	0.37110162
187	0x3e0a9952	0.1353505
188	0xbe37a1a1	-0.1793275
189	0xbe4aac8f	-0.19792388
190	0x3ec8004c	0.39062726
191	0xbbc4c80e	-0.0060052937
192	0xbe2f13e0	-0.17097425
193	0x3ebd5673	0.36980018
194	0x3d99a085	0.0750132
195	0x3e14458e	0.14479658
196	0x3def1fd6	0.11675994
197	0x3cfb65d4	0.030688204
198	0xbe588037	-0.2114266
199	0xbd10e299	-0.03537235
200	0xbf1308ef	-0.57435507
201	0xbd0b73ec	-0.0340461
202	0xbe40db52	-0.18833664
203	0x3d2b5192	0.04182584
204	0xbe7343a4	-0.23756272
205	0xbd29f0ee	-0.041489534
206	0xbe182db8	-0.1486119
207	0xbc95a7e1	-0.018268527
208	0x3c5e7b83	0.013579252
209	0x3a793404	0.0009506347
210	0x3d496c73	0.04917569
211	0xbe3facce	-0.18718264
212	0x3dbc0f52	0.091826096
213	0xbd025800	-0.031822205
214	0x3d8d2cbb	0.06893297
215	0x3e74fc75	0.2392443
216	0xbe22080e	-0.15823385
217	0x3e0f44bd	0.13991065
218	0x3db3c9fa	0.08778758
219	0xbdb9fcbf	-0.090814106
220	0x3e4b29a3	0.19840102
221	0x3e981398	0.2970245
222	0x3e15a751	0.14614607
223	0x3dc7f8f4	0.09764281
224	0xbd864e94	-0.06557956
225	0x3f1f2c8a	0.62177336
226	0x3e1bbe2e	0.15209267
227	0xbc9dbe7f	-0.019255875
228	0xbc8f17ae	-0.017467346
229	0xbdc77801	-0.09739686
230	0x3dfa070e	0.12208377
231	0x3db8547c	0.09000489
232	0x3df8034b	0.12110003
233	0x3b7d8181	0.0038681927
234	0x3e83ed36	0.25766915
235	0xbdd175ed	-0.10227571
236	0x3d921c4e	0.07134305
237	0xbddcc575	-0.107798494
238	0xbdaedb5b	-0.085379325
239	0xbbd55731	-0.006510638
240	0xbd344675	-0.044012506
241	0xbee74256	-0.45167798
242	0x3d76878a	0.060187854
243	0x3ecef57c	0.40421665
244	0x3c6fa4a0	0.014626652
245	0xbda553be	-0.08072613
246	0x3e8bf03b	0.2733172
247	0xbdbd0c4d	-0.09230862
248	0xbe24a376	-0.1607798
249	0x3e18ba69	0.1491486
250	0x3eaae257	0.3337581
251	0xbe018572	-0.12648562
252	0x3e518a8d	0.20463009
253	0x3e589b13	0.21152906
254	0xbdafbb20	-0.08580613
255	0x3dac44f9	0.08411593

agent,params,Dense_1,bias f4 [5]
0	0x3c4d7935	0.012541105
1	0x3d0d6f2c	0.03452985
2	0x3c923016	0.017845195
3	0xbc2c69f1	-0.010523305
4	0x3cda558a	0.026652116

agent,params,Dense_1,kernel f4 [64, 5]
0	0x3d8372a8	0.06418353
1	0xbdcce91d	-0.100054
2	0x3ea5ee1d	0.3240823
3	0x3de4abba	0.11165567
4	0x3e61d858	0.22055185
5	0x3e354bab	0.17704646
6	0x3ea7cc20	0.32772923
7	0x3db290b0	0.08719003
8	0xbedb813c	-0.42872036
9	0xbe6d49c5	-0.23172672
10	0xbe16088b	-0.14651696
11	0xbe3bd88a	-0.18344322
12	0xbdfc8089	-0.12329204
13	0xbe4ee87f	-0.20205878
14	0xbdefd52f	-0.117105834
15	0x3d446156	0.04794439
16	0xbcaebc36	-0.02132998
17	0x3e02169e	0.1270394
18	0xbef7594b	-0.48310313
19	0xbe8b75fc	-0.27238452
20	0xbd8414bc	-0.06449267
21	0x3e1f72f2	0.15571192
22	0xbe03eef5	-0.12884124
23	0xbe559f24	-0.20861489
24	0x3dea8aeb	0.11452278
25	0xbe0a36f0	-0.1349752
26	0xbea66646	-0.32499903
27	0xbe796808	-0.24356091
28	0xbea03397	-0.3128936
29	0xbddfb441	-0.109230526
30	0xbda9f57a	-0.08298774
31	0x3ed09e74	0.4074589
32	0x3edbcf89	0.42931774
33	0x3cf80631	0.03027639
34	0x3dfc9452	0.12332977
35	0xbd42b936	-0.047539912
36	0x3d6fc522	0.05853761
37	0x3c28b3d6	0.0102967825
38	0xbcc3bb53	-0.023893034
39	0x3de557ae	0.11198364
40	0x3e3fdee9	0.18737377
41	0xbe419308	-0.18903744
42	0x3d5e88d8	0.054329723
43	0xbc6b4974	-0.014360774
44	0x3b915c6a	0.0044360654
45	0xbe1e3872	-0.1545122
46	0x3e9eaf88	0.30993295
47	0xbe00c310	-0.1257441
48	0x3ddbc083	0.10730078
49	0x3efe384b	0.49652323
50	0x3da7f6af	0.08201348
51	0x3e9620d3	0.29321918
52	0xbdf901f2	-0.12158574
53	0x3e4128d4	0.18863231
54	0x3db35a83	0.08757498
55	0x3e32ace1	0.1744876
56	0x3e23a27b	0.1597995
57	0xbe7d90a9	-0.24762215
58	0xbc7ba501	-0.015359164
59	0x3d84314f	0.06454717
60	0xbe03271a	-0.12807885
61	0xbe7fa24b	-0.24964254
62	0xbe24833f	-0.16065691
63	0xbdbce192	-0.092227116
64	0xbe63e11a	-0.22253838
65	0xbe8fcd02	-0.28086096
66	0xbee05532	-0.43815
67	0xbf013cd9	-0.5048347
68	0xbd3947dc	-0.045234546
69	0xbe709d6e	-0.23497555
70	0xbb0745ea	-0.0020641037
71	0x3c495422	0.012288125
72	0x3c9913c0	0.018686175
73	0x3dbcd346	0.09219985
74	0xbdfd9164	-0.12381247
75	0x3e2220d4	0.15832835
76	0xbeca469d	-0.39507
77	0x3d6a70dc	0.057236537
78	0x3de8942c	0.113563865
79	0x3d84776a	0.06468089
80	0xbe2e241a	-0.17005959
81	0x3e8ab40a	0.27090484
82	0xbea6c0ef	-0.32569072
83	0x3da69c38	0.08135265
84	0xbdda9fbc	-0.10674998
85	0x3cdb8b33	0.026799774
86	0x3e45d677	0.19320093
87	0xbe2ed24b	-0.17072408
88	0x3e14a8b8	0.14517486
89	0xbeac8604	-0.33695996
90	0x3e8b5478	0.27212882
91	0xbf0c96ee	-0.549178
92	0x3e6ca66c	0.2311036
93	0x3a699dde	0.00089117687
94	0xbdde2501	-0.10846902
95	0xbe645ee4	-0.22301823
96	0xbd943fdd	-0.072387435
97	0xbe9f8ab5	-0.31160513
98	0x3eb4d61b	0.353196
99	0xbca2bdfd	-0.019865984
100	0xbdc09edd	-0.09405301
101	0xbd216a6c	-0.039408132
102	0xbdcf63e0	-0.101264715
103	0xbd47516a	-0.048661627
104	0xbdfe1f8f	-0.12408363
105	0xbd93d014	-0.07217422
106	0x3d9c8395	0.07642285
107	0xbe1b018d	-0.1513731
108	0x3e1b1415	0.1514438
109	0xbe9c22fc	-0.3049544
110	0x3e9c9185	0.30579773
111	0x3e3eefe4	0.18646199
112	0x3eb70c06	0.3575136
113	0x3e37e99b	0.17960207
114	0x3eb64fde	0.3560781
115	0x3e8625c9	0.26200703
116	0x3d338168	0.043824583
117	0x3f17058b	0.5899283
118	0x3e79ac49	0.24382128
119	0xbd6f08cc	-0.058358
120	0xbe5893b6	-0.21150097
121	0x3e6fc353	0.23414354
122	0x3ea02d38	0.312845
123	0xbd3d9675	-0.046286065
124	0xbe84dbf7	-0.2594907
125	0xbf0c6392	-0.5483943
126	0xbeab158e	-0.33414882
127	0xbefe9238	-0.4972093
128	0xbed9f5d6	-0.4257037
129	0xbef45cf9	-0.47727183
130	0x3e138322	0.14405492
131	0x3e142eac	0.14470929
132	0x3dd51e20	0.104061365
133	0x3e1321da	0.14368382
134	0x3e1682bd	0.1469831
135	0xbeab7b12	-0.33492333
136	0xbbe79774	-0.007067615
137	0x3e8dac3b	0.27670464
138	0xbe7ddc98	-0.24791181
139	0x3cfc8aee	0.030827966
140	0xbe23aa19	-0.15982856
141	0xbe2d4a81	-0.16922952
142	0xbdf9e121	-0.12201143
143	0xbe260f8c	-0.16216868
144	0xbe3bfd20	-0.18358278
145	0xbd2b1382	-0.04176665
146	0xbe23507b	-0.1594867
147	0x3cfbc8c5	0.030735383
148	0x3e1a92e4	0.15095097
149	0xbe54f9eb	-0.20798461
150	0xbe33b890	-0.17550874
151	0xbe889947	-0.2667944
152	0xbd9a29d2	-0.07527508
153	0x3cbd3665	0.023097226
154	0x3f17a57d	0.5923689
155	0xbe62a190	-0.22131944
156	0x3e842c5e	0.258151
157	0xbefc1b06	-0.49239367
158	0xbca10f97	-0.019660754
159	0xbe609c51	-0.2193463
160	0x3d760ebb	0.06007264
161	0x3d76862e	0.060186557
162	0x3d3403d9	0.043948982
163	0x3e2eeab1	0.17081715
164	0x3d1d98e7	0.038475897
165	0x3e1e3a13	0.15451841
166	0x3ebc5dd7	0.36790344
167	0xbe900e21	-0.2813578
168	0x3d913f29	0.07092125
169	0x3da20fb2	0.0791315
170	0x3edeefb9	0.4354227
171	0x3de84ab5	0.11342374
172	0x3db57777	0.08860677
173	0x3f11e8e8	0.5699601
174	0x3eb2bf7d	0.3491172
175	0x3f2b273f	0.6685676
176	0x3ed43c4b	0.4145225
177	0x3ea37782	0.31927115
178	0x3ecec01b	0.4038094
179	0x3ee3ae95	0.44469133
180	0x3c5691e8	0.01309631
181	0xbd29b9f3	-0.0414371
182	0x3d82140f	0.06351482
183	0xbd5eff79	-0.054442856
184	0x3e0bd9fe	0.13657376
185	0x3eadbfc4	0.33935368
186	0x3e899399	0.2687042
187	0x3eb3192f	0.3498015
188	0x3e3b2cb3	0.1827877
189	0xbe6cd918	-0.2312969
190	0x3d70a74f	0.058753308
191	0x3e495b65	0.1966377
192	0xbf0ebc1b	-0.55755776
193	0xbd8e9ed0	-0.06963885
194	0xbc15e13f	-0.009147941
195	0x3e591212	0.211983
196	0x3e7ec38c	0.24879283
197	0x3ded5df7	0.11590188
198	0x3e0f3abb	0.13987248
199	0x3e6cc1cd	0.23120804
200	0xbcdfb874	-0.027309634
201	0xbe704566	-0.23463973
202	0xbe094036	-0.13403401
203	0x3ef1504d	0.47131577
204	0xbe9e2b39	-0.3089235
205	0x3ec97b68	0.39351964
206	0x3d933f46	0.07189803
207	0xbd086132	-0.033295818
208	0xbe3c4ea1	-0.1838937
209	0xbdee23c2	-0.11627914
210	0x3ddf6182	0.1090727
211	0x3e958616	0.29203862
212	0x3d841335	0.06448976
213	0x3df3e1c8	0.11908299
214	0x3e4ea133	0.2017868
215	0xbd10e77c	-0.03537701
216	0xbcd0a674	-0.025469996
217	0x3e3590e3	0.17731051
218	0x3e0d6c95	0.13810952
219	0xbd892451	-0.0669638
220	0x3e1e9a14	0.15488464
221	0x3e1fdaec	0.15610856
222	0x3e218d6b	0.15776603
223	0x3edb297a	0.42805082
224	0xbd941d66	-0.0723217
225	0xbe260a58	-0.16214883
226	0xbc4ac2f0	-0.012375578
227	0xbdbcefff	-0.09225463
228	0xbec872af	-0.39149997
229	0x3c02061e	0.007936029
230	0xbe22e246	-0.15906629
231	0xbe88ab0e	-0.26693004
232	0x3d263083	0.040573608
233	0xbd0fde47	-0.03512409
234	0xbee51538	-0.4474275
235	0xbea58ce9	-0.32334068
236	0xbd8f0fcc	-0.06985435
237	0x3eab8ee9	0.3350747
238	0x3d0896b2	0.03334684
239	0x3d8533af	0.065039985
240	0xbee35c92	-0.44406563
241	0xbed8eb04	-0.42366803
242	0xbed4aaba	-0.41536504
243	0xbec90e61	-0.39268783
244	0xbeb4a620	-0.35282993
245	0x3d49bdb3	0.049253177
246	0xbe64476f	-0.22292875
247	0xbe58f9a9	-0.21188988
248	0xbd923d1e	-0.071405634
249	0xbde2dda2	-0.11077429
250	0xbea365d8	-0.31913638
251	0x3e9c8dc0	0.30576897
252	0xbd04ad37	-0.032391753
253	0x3eaeeba4	0.34164155
254	0xbe955f41	-0.29174235
255	0x3e23727a	0.15961638

agent,params,ScannedRNN_0,GRUCell_0,hn,bias f4 [64]
0	0xbefaff29	-0.49022797
1	0xbe8e4d4c	-0.27793348
2	0xbdc40c32	-0.095726386
3	0x3e37d09c	0.17950672
4	0x3de1b801	0.11021424
5	0x3cb94611	0.022616418
6	0xbdbd534f	-0.092444055
7	0x3c6121b1	0.013740943
8	0x3e5be681	0.21474649
9	0xbee5e116	-0.4489829
10	0xbe831334	-0.25600588
11	0xbbda21f6	-0.0066568805
12	0x3e2547eb	0.16140716
13	0x3f44b2f2	0.7683555
14	0xbe112a10	-0.14176202
15	0xbe64a0c7	-0.22326957
16	0xbd08b404	-0.0333748
17	0x3d2310b1	0.03981084
18	0xbcd51da9	-0.02601512
19	0xbe05b58b	-0.13057534
20	0x3ef1b886	0.47211093
21	0x3d41114d	0.04713564
22	0xbe7ac733	-0.24490051
23	0xbe9ce889	-0.3064616
24	0x3e503758	0.20333612
25	0x3e3d1415	0.18464692
26	0xbeb9eac2	-0.36311918
27	0x3d993c8a	0.0748225
28	0x3e507bc9	0.2035972
29	0xbbebf424	-0.0072007347
30	0xbe038618	-0.12844121
31	0x3e5651d6	0.20929655
32	0x3ccf0fa4	0.025276013
33	0xbe13732b	-0.14399402
34	0xbecaafd8	-0.39587283
35	0xbea72fc9	-0.32653645
36	0xbd95efb0	-0.073211074
37	0xbe8df50e	-0.27726024
38	0x3e4c15ff	0.19930266
39	0x3ca77876	0.020443182
40	0x3e4fe5a5	0.20302446
41	0xbe351843	-0.17685036
42	0xbe5b924a	-0.21442524
43	0xbe27ff33	-0.16405945
44	0xbd837c3a	-0.06420179
45	0x3e9231b4	0.28553545
46	0x3eb341f2	0.3501125
47	0x3d623854	0.0552295
48	0xbdf56a9d	-0.119832255
49	0xbcd7d2ac	-0.026345573
50	0x3e50774b	0.20358007
51	0xbede7216	-0.43446416
52	0xbc507088	-0.012722142
53	0xbc436c6a	-0.011927703
54	0x3d091a9b	0.03347264
55	0x3e54893a	0.20755473
56	0xbe139206	-0.14411172
57	0xbe397c73	-0.1811388
58	0xbe201ece	-0.15636751
59	0x3e66c01e	0.22534224
60	0x3e4631b7	0.19354902
61	0x3f183df4	0.5946953
62	0x3df9b003	0.12191775
63	0x3e493b05	0.1965142

agent,params,ScannedRNN_0,GRUCell_0,hn,kernel f4 [64, 64]
0	0xbe2809f9	-0.16410054
1	0xbd4ba9f9	-0.049722645
2	0xbe665bd5	-0.22495969
3	0x3c9e5c8e	0.019331243
4	0x3bf040cf	0.0073319445
5	0xbde31c2c	-0.11089358
6	0x3e808485	0.25101104
7	0x3e6594e0	0.22420073
8	0xbdcc7c10	-0.099846005
9	0xbc08bada	-0.00834533
10	0x3d22ab67	0.039714243
11	0x3e59440e	0.21217367
12	0xbe3df8be	-0.18551919
13	0x3ead4bd6	0.3384692
14	0x3e54b017	0.20770298
15	0xbe400dda	-0.18755284
16	0xbe20a963	-0.15689616
17	0xbd88bc53	-0.06676545
18	0x3d33749d	0.043812383
19	0x3cb7c852	0.022434387
20	0xbe0d2959	-0.13785304
21	0xbece8115	-0.40332857
22	0xbe13a130	-0.14416957
23	0xbe070f78	-0.13189495
24	0xbd0dac5a	-0.034588195
25	0xbe52d782	-0.20590022
26	0xbec87294	-0.39149916
27	0xbdd29db1	-0.102839835
28	0x3d40f801	0.047111515
29	0x3e18a2e2	0.14905885
30	0x3e102041	0.14074804
31	0xbe6757f6	-0.22592148
32	0xbe3b2c1e	-0.18278548
33	0xbca8bc2f	-0.020597545
34	0xbd4c4b41	-0.049876455
35	0xbbd824cb	-0.006596183
36	0x3d32fd3a	0.043698527
37	0x3d6d9286	0.058001064
38	0x3c2cf4cb	0.01055641
39	0x3e3cff55	0.18456776
40	0x3c2cccbe	0.010546861
41	0x3ddfd1db	0.10928699
42	0xbcc42036	-0.02394114
43	0x3de33249	0.110935755
44	0x3e97542a	0.295564
45	0x3dc05a40	0.09392214
46	0x3e545482	0.20735362
47	0xbcbe02b1	-0.023194643
48	0xbd25b268	-0.040453345
49	0xbdb72802	-0.08943178
50	0x3d79b112	0.060959883
51	0x3e34e2c8	0.17664635
52	0x3dddbc49	0.10826928
53	0x3e1a5f30	0.15075374
54	0xbe108283	-0.14112286
55	0xbddc3aba	-0.10753389
56	0x3e483550	0.19551587
57	0x3ea2cbf3	0.31796226
58	0xbdfcc894	-0.12342945
59	0xbc59b4b8	-0.013287716
60	0x3d238c03	0.039928447
61	0x3d5db300	0.054125786
62	0xbe134f7a	-0.14385787
63	0x3e1b8661	0.1518798
64	0x3df48213	0.11938872
65	0xbd6d81e3	-0.057985198
66	0x3e0834e9	0.13301434
67	0x3daaaf7d	0.08334253
68	0x3e23271d	0.1593289
69	0x3d6510c4	0.055924192
70	0xbe9c869c	-0.3057145
71	0x3cd3e06c	0.025863849
72	0xbd2500ab	-0.04028384
73	0x3cfeed76	0.03111909
74	0xbe0196a9	-0.12655129
75	0x3e8851ef	0.2662501
76	0x3eacd4c3	0.33756074
77	0xbea1a9b6	-0.31574792
78	0xbe7430ad	-0.23846693
79	0x3da8ca1e	0.08241676
80	0xbd41f8f9	-0.04735658
81	0x3e0184d2	0.12648323
82	0xbe3a93fd	-0.18220516
83	0x3e6e95a2	0.23299268
84	0x3d87320b	0.06601342
85	0xbe211797	-0.15731655
86	0xbe3d1a49	-0.18467058
87	0x3cfc1839	0.030773269
88	0xbdfc365f	-0.12315058
89	0xbdfc5e53	-0.123226784
90	0xbd565bf2	-0.05233378
91	0xbe37c633	-0.17946701
92	0xbe1ea25d	-0.15491624
93	0x3dc251a6	0.094882295
94	0xbbed3d0a	-0.0072399424
95	0xbac0fbcb	-0.0014723478
96	0xbe444562	-0.19167092
97	0x3856e853	5.1237945e-05
98	0x3e19371e	0.14962432
99	0x3d06c066	0.03289833
100	0x3c9b90c4	0.018989928
101	0xbc9beb7d	-0.019033188
102	0xbdbefeed	-0.09325967
103	0x3da1d374	0.079016596
104	0xbc68d6d2	-0.014211373
105	0x3dd6f3f6	0.104957506
106	0x3e41c827	0.18924008
107	0xbe1f763c	-0.15572447
108	0x3db9ed8f	0.09078514
109	0xbc903157	-0.017601652
110	0xbe837a95	-0.2567946
111	0xbe273dfd	-0.1633224
112	0x3c03f552	0.008054094
113	0x3c94f9b9	0.018185483
114	0xbb1c4b96	-0.0023848764
115	0x3e3d89e2	0.1850963
116	0x3e90df38	0.28295302
117	0xbd1d9f22	-0.03848184
118	0x3e5c5e0a	0.21520248
119	0x3d0914ab	0.033466976
120	0xbd8467ee	-0.064651355
121	0xbd39972c	-0.045310184
122	0xbcafb977	-0.021450741
123	0xbd6cbae2	-0.057795413
124	0x3e5c3788	0.21505558
125	0xbe69085a	-0.22757092
126	0x3d6b7caf	0.057491954
127	0xbe0338c3	-0.12814622
128	0x3e8d5021	0.27600196
129	0xbd77daa7	-0.060511257
130	0xbe89a8ac	-0.268865
131	0x3e3b39a5	0.18283708
132	0x3b9a2fd8	0.0047054105
133	0x3d0052c0	0.031328917
134	0x3deb4a5e	0.11488794
135	0x3d4fbbd8	0.05071625
136	0x3dfd2d76	0.123621866
137	0x3dd72260	0.105046034
138	0xbd1d9e42	-0.038481005
139	0x3d8a6e81	0.06759358
140	0x3cfdad04	0.03096629
141	0xbeda90fe	-0.42688745
142	0xbe81f283	-0.25380334
143	0xbeb2ed11	-0.34946492
144	0xbdc755a1	-0.09733129
145	0xbe258ef8	-0.1616782
146	0xbd8df694	-0.06931797
147	0x3da16843	0.078812145
148	0xbe24541e	-0.16047713
149	0xbcecccdf	-0.028906284
150	0xbe9b8a46	-0.30378932
151	0x3a72df9e	0.0009264889
152	0xbe0a0622	-0.13478902
153	0xbd656d11	-0.056012217
154	0x3e65de94	0.22448188
155	0xbe12deaa	-0.14342752
156	0x3ddc8dcc	0.10769233
157	0xbe372b95	-0.17887719
158	0xbdfb9611	-0.12284482
159	0x3d3a28ba	0.045448996
160	0xbe196197	-0.14978634
161	0xbd9c17a9	-0.076217
162	0xbe4763d7	-0.1947168
163	0x3e17548c	0.14778346
164	0xbdf06902	-0.11738779
165	0xbc4ca051	-0.012489394
166	0xbd9dd3fb	-0.07706448
167	0x3e327696	0.1742805
168	0x3cb581a8	0.022156551
169	0xb9a2fedd	-0.00031088936
170	0x3edd5753	0.43230686
171	0xbe30dd9f	-0.17272042
172	0x3d0660b9	0.032807086
173	0x3e6b97b2	0.23007086
174	0x3df95f29	0.121763535
175	0x3e16d65b	0.14730208
176	0x3de42803	0.11140444
177	0xbe093dde	-0.13402507
178	0x3e146a55	0.14493687
179	0x3d0517f8	0.03249356
180	0xbe1cb9bf	-0.15305232
181	0xbdca88a9	-0.09889347
182	0x3d2642d3	0.040591072
183	0xbcd2106b	-0.025642594
184	0x3d55418a	0.052064456
185	0xbe75e269	-0.2401215
186	0xbdac9667	-0.084271245
187	0x3e80204e	0.25024647
188	0xbd5536ea	-0.052054323
189	0xbeaf4cf1	-0.3423839
190	0x3e177a3d	0.14792724
191	0x3d96c965	0.07362632
192	0x3dcc3b52	0.09972252
193	0xbe00e973	-0.12589054
194	0xbd5f7980	-0.05455923
195	0x3e2889ae	0.1645877
196	0x3e29b7c3	0.16574006
197	0x3dbeee03	0.09322741
198	0x3d5fc75f	0.054633494
199	0x3b662411	0.0035116712
200	0x3e34059f	0.1758027
201	0x3e724247	0.23658095
202	0xbed837e5	-0.42230144
203	0x3e59f1e2	0.21283677
204	0x3d5c97b9	0.05385563
205	0x3e4e8827	0.20169125
206	0x3de4b0c0	0.11166525
207	0xbd371600	-0.044698715
208	0x3d217ca4	0.039425507
209	0xbe85354f	-0.26017234
210	0x3d959f11	0.0730573
211	0xbdc2afa2	-0.095061556
212	0x3d1da509	0.038487468
213	0x3d94f952	0.072741166
214	0xbc94a0f3	-0.018143153
215	0xbc24a1bf	-0.010048329
216	0x3d13711d	0.035996545
217	0x3e64e99b	0.22354738
218	0x3cc60e12	0.024176631
219	0xbddbf01a	-0.10739155
220	0x3db8bcbc	0.09020373
221	0x3d5478c5	0.051872987
222	0xbdcb1b12	-0.099172726
223	0x3e2bd8c7	0.16781913
224	0xbe8eaa86	-0.27864474
225	0xbdb70b4d	-0.08937702
226	0xbb0aa3cb	-0.0021154757
227	0x3e3a3981	0.18185998
228	0x3e9cc26e	0.30617088
229	0xbe76da80	-0.24106789
230	0x3e0addc7	0.13561164
231	0xbdcfbc5e	-0.1014335
232	0x3daaf063	0.083466314
233	0x3e3cfbd5	0.18455441
234	0x3e41bc7a	0.18919554
235	0x3cea80d9	0.028625892
236	0x3de64aa3	0.112447046
237	0xbd3d88f1	-0.046273176
238	0xbdb64eae	-0.08901726
239	0x3e41bdff	0.18920134
240	0xbdf3211f	-0.11871552
241	0x3bb6d29a	0.005579305
242	0xbd735e27	-0.059415963
243	0x3dd0d5af	0.10197007
244	0xbe16f963	-0.14743571
245	0xbc120724	-0.008912835
246	0x3dad6845	0.084671535
247	0x3d77a5e4	0.06046094
248	0xbdf1148f	-0.11771499
249	0xbc5c2461	-0.013436408
250	0xbdf5aff0	-0.11996448
251	0x3cb62b25	0.02223737
252	0x3de1b207	0.11020284
253	0x3d8ffe9e	0.07030986
254	0x3e980385	0.29690185
255	0xbdbc59dd	-0.091968276

agent,params,ScannedRNN_0,GRUCell_0,hr,kernel f4 [64, 64]
0	0xbe4d0e23	-0.20024924
1	0xbe51a579	-0.20473279
2	0x3e6acfee	0.22930881
3	0xbd89418f	-0.067019574
4	0x3d424233	0.047426414
5	0x3e076c1a	0.13224831
6	0x3e7f61a1	0.24939586
7	0xbd0f44a5	-0.034977574
8	0xbe81517b	-0.25257477
9	0xbe1fdc41	-0.15611364
10	0xbdaebea8	-0.085324585
11	0xbd31580e	-0.043296866
12	0xbe1f4f8c	-0.15557688
13	0xbc80977a	-0.01569723
14	0xbe55318c	-0.20819682
15	0x3e193192	0.14960316
16	0xbe71e060	-0.23620749
17	0xbe44570a	-0.19173828
18	0xbc8913e6	-0.016733121
19	0xbd66cfed	-0.056350637
20	0xbe9d08c1	-0.3067074
21	0xbe84f4cb	-0.25968012
22	0x3db77f01	0.08959771
23	0x3e548343	0.20753197
24	0x3e33b6b3	0.17550163
25	0xbd9829ad	-0.07429824
26	0xbe95fc0e	-0.29293865
27	0xbd1c860d	-0.03821378
28	0x3d6bf245	0.057604093
29	0x3e99153e	0.2989902
30	0x3cdbba63	0.026822275
31	0xbd51aca5	-0.051190037
32	0xbe4219a3	-0.18955092
33	0x3c086754	0.008325417
34	0x3d8234f8	0.06357759
35	0xbea509d0	-0.3223405
36	0xbce11651	-0.027476462
37	0x3c429979	0.011877411
38	0xbc2d3872	-0.01057254
39	0x3d069af3	0.032862615
40	0xbc070079	-0.008239859
41	0xbdac71aa	-0.08420117
42	0x3e656a8f	0.2240393
43	0xbde07896	-0.109605
44	0x3da3f7b5	0.08006231
45	0x3e0a60e7	0.13513528
46	0xbe40be17	-0.18822514
47	0xbdb543f2	-0.0885085
48	0xbde797a3	-0.11308219
49	0xbdf4f5a1	-0.119609125
50	0xbd943213	-0.072361134
51	0xbe81d83e	-0.25360292
52	0xbd8bcbe0	-0.068259954
53	0xbe16658b	-0.14687173
54	0xbe402905	-0.18765648
55	0xbd9c8836	-0.07643168
56	0x3dc421b1	0.095767386
57	0x3dfdd888	0.12394816
58	0xbd3d4904	-0.04621221
59	0x3c7067d1	0.014673189
60	0x3deded02	0.11617471
61	0xbe95d2de	-0.2926244
62	0x3df46c2a	0.11934693
63	0x3dc6b23c	0.09701964
64	0x3e8a98c9	0.2706969
65	0xbdaf8c51	-0.08571685
66	0xbe5a79ea	-0.21335569
67	0x3d3e4aad	0.046457935
68	0x3e0696e2	0.13143495
69	0x3e55a109	0.20862211
70	0xbe07a32d	-0.1324584
71	0xbe666bef	-0.22502111
72	0x3ccc3b40	0.024930596
73	0x3beaceab	0.00716575
74	0x3db90c41	0.0903554
75	0x3cfbe61c	0.030749373
76	0xbd8bdb3f	-0.06828927
77	0x3c85ec45	0.016348014
78	0x3e0134ec	0.12617844
79	0x3d957097	0.072968654
80	0xbe1a8dcb	-0.15093152
81	0x3de6d1a7	0.11270457
82	0xbb848e02	-0.004045249
83	0x3d2458f6	0.040123902
84	0x3dcc0a68	0.09962922
85	0xbd799c51	-0.06094009
86	0xbe1b7fb3	-0.15185432
87	0x3e852983	0.26008233
88	0x3b85b143	0.004079969
89	0x3e7b7ec7	0.2456008
90	0x3db2af4a	0.0872484
91	0x3e4b96b7	0.19881712
92	0xbccf1e21	-0.025282921
93	0x3dde6e44	0.10860875
94	0xbc5ec4b9	-0.013596707
95	0x3e408033	0.18798904
96	0xbc91e4a5	-0.017809222
97	0xbdd2dad2	-0.10295643
98	0xbdf1d720	-0.1180861
99	0x3e5dd497	0.21663128
100	0x3d9cf9ff	0.076648705
101	0x3e0ebbe7	0.13938867
102	0x3e7a606c	0.24450845
103	0x3e4a83bf	0.1977682
104	0x3d10dd82	0.035367496
105	0xbdc18e1a	-0.09450932
106	0x3daeb550	0.08530676
107	0x3cc06691	0.023486407
108	0x3e36f31c	0.17866176
109	0xbdce5a31	-0.100757964
110	0xbdc2cda9	-0.09511883
111	0xb9edb72e	-0.00045340642
112	0x3de6a1ca	0.112613276
113	0x3ec81b49	0.39083317
114	0xbe5b3751	-0.2140782
115	0xbdd4585e	-0.10368417
116	0x3ca62619	0.020281838
117	0x3e0b968e	0.13631651
118	0xbe39ef2a	-0.1815764
119	0x3d5ca1d1	0.053865258
120	0xbe8acdf3	-0.27110252
121	0xbe5a5c3d	-0.21324249
122	0x3c8693b1	0.016427847
123	0x3e089514	0.13338119
124	0x3dca0a30	0.09865224
125	0x3e1f8d23	0.15581183
126	0x3d775a82	0.06038905
127	0x3c77a68a	0.01511539
128	0x3dee6659	0.11640615
129	0x3d9c6360	0.07636142
130	0x3e4cd79c	0.20004123
131	0x3e7ab2be	0.24482247
132	0xbcb8d1f2	-0.022561047
133	0xbda58e70	-0.080838084
134	0xbdee524e	-0.11636792
135	0x3d2d111c	0.042252645
136	0x3e3484b3	0.17628746
137	0xbe165bb5	-0.14683421
138	0xbe24365e	-0.16036364
139	0xbe74801c	-0.23876995
140	0xbdf74cdf	-0.12075209
141	0xbdbdca84	-0.092671424
142	0x3e0224ad	0.12709303
143	0xbd378e4b	-0.044813436
144	0xbe3036aa	-0.17208353
145	0x3e813bc6	0.25240916
146	0x3e079720	0.13241243
147	0x3ddeaf98	0.108733356
148	0xbcfdebc4	-0.03099621
149	0xbcc2480e	-0.023715999
150	0x3e7f91fe	0.24958035
151	0xbd689409	-0.056781802
152	0xbdadfb8a	-0.08495243
153	0x3d97b188	0.07406908
154	0xbee990e2	-0.4561835
155	0x3db97cc2	0.09056999
156	0x3d0ee0bf	0.034882303
157	0x3e625ecc	0.22106475
158	0x3e7dde3c	0.24791807
159	0xbdfcdc49	-0.123467036
160	0x3e2e925f	0.17048024
161	0xbdaebf76	-0.08532612
162	0xbe596124	-0.21228462
163	0x3ea4621b	0.321061
164	0xbda66726	-0.08125143
165	0xbe0c19a1	-0.13681652
166	0xbd346a07	-0.044046428
167	0x3e0eddb8	0.13951766
168	0xbd4512c7	-0.04811361
169	0xbe10cd42	-0.141408
170	0x3c8053a9	0.015664892
171	0x3d31a879	0.04337356
172	0x3e70eee1	0.23528625
173	0x3c920048	0.0178224
174	0x39a4726b	0.00031365766
175	0x3d78e67a	0.060766675
176	0x3daf3a45	0.08556036
177	0xbccb8717	-0.02484469
178	0xbdcfd7c4	-0.10148576
179	0xbdf49a26	-0.11943464
180	0x3e00d56a	0.12581411
181	0xbda06f5c	-0.0783374
182	0xbd8f5122	-0.06997897
183	0x3df14dd1	0.117824204
184	0xbd09af17	-0.033614244
185	0x3d1d3b39	0.038386557
186	0xbd8f1597	-0.0698654
187	0xbe15f8f8	-0.14645755
188	0x3b589224	0.003304609
189	0xbe7bd071	-0.24591233
190	0xbe20aac1	-0.15690137
191	0x3e9784c8	0.29593492
192	0xbd0efa01	-0.03490639
193	0x3daf4ab5	0.08559171
194	0x3e02a9ba	0.12760058
195	0xbc88655f	-0.0166499
196	0xbd016a19	-0.031595323
197	0x3e5e23c1	0.21693327
198	0xbc179f52	-0.0092542935
199	0x3cfff190	0.031243116
200	0xbd6e192d	-0.05812948
201	0x3e95fdc4	0.2929517
202	0xbd58a3d4	-0.052890614
203	0x3e3bc182	0.18335536
204	0xbd0fe28a	-0.035128154
205	0x3e7995fa	0.24373618
206	0xbe1223ec	-0.14271516
207	0xbd92dd0a	-0.07171066
208	0xbe45e0fa	-0.19324103
209	0x3d715e51	0.058927838
210	0x3d60604e	0.054779343
211	0x3b05a677	0.002039341
212	0x3cb6ac92	0.022299085
213	0x3db57106	0.08859448
214	0xbde92abe	-0.113851056
215	0x3c0c329f	0.008556991
216	0xbdb9770c	-0.090559095
217	0xbe441b2b	-0.19150989
218	0xbd3c2a43	-0.04593874
219	0x3c9bf3e4	0.019037195
220	0xbe455e19	-0.19274177
221	0xbd4f8150	-0.05066043
222	0xbe1f25ac	-0.15541714
223	0x3e75a63a	0.23989192
224	0x3da7771b	0.081770144
225	0xbd4ec318	-0.050479025
226	0x3d816756	0.06318538
227	0x3e7c22f5	0.2462271
228	0x3c78c594	0.015183825
229	0xbdba79a3	-0.091052316
230	0x3dbaaa83	0.09114554
231	0xbe2cba10	-0.16867852
232	0x3e1cd591	0.15315844
233	0x3e4059f3	0.18784313
234	0x3e7211cb	0.236396
235	0x3d954580	0.07288647
236	0x3e12c655	0.1433347
237	0x3dca4304	0.098760635
238	0x3da6005f	0.081055395
239	0xbe0c6f66	-0.1371437
240	0xbe1e05d1	-0.15431906
241	0xbccce062	-0.025009338
242	0x3e9d1ba6	0.30685157
243	0xbdf596f6	-0.11991684
244	0x3e14510d	0.14484043
245	0xbd600d3a	-0.054700114
246	0xba871dec	-0.00103086
247	0x3d4921ee	0.049104623
248	0xbe0d388b	-0.137911
249	0xbda0b6f1	-0.07847393
250	0x3d72fb66	0.059321783
251	0xbdc1fdd1	-0.0947224
252	0x3e5ba4f3	0.21449642
253	0xbd98b829	-0.07457001
254	0x3e1c7682	0.15279582
255	0xbd0d4d74	-0.034497693

agent,params,ScannedRNN_0,GRUCell_0,hz,kernel f4 [64, 64]
0	0xbc027d48	-0.00796444
1	0x3dc9fd1c	0.0986273
2	0xbdf8edbd	-0.1215472
3	0xbd38b626	-0.045095585
4	0xbd0e3ee0	-0.03472793
5	0xbc9c15e9	-0.019053416
6	0xbcf32d84	-0.02968479
7	0x3e4d71af	0.20062898
8	0xbe342f0f	-0.17596076
9	0xbdf10700	-0.11768913
10	0xbdfed9a4	-0.124438554
11	0x3cbc9ef4	0.023025014
12	0x3de34f17	0.110990696
13	0xbe708c32	-0.2349098
14	0xbe6d80bf	-0.23193644
15	0xbda69ebb	-0.08135744
16	0xbe1f0dd2	-0.15532616
17	0xbc86bfb4	-0.016448833
18	0xbd0a56cb	-0.03377418
19	0xbdf902a4	-0.12158707
20	0xbe9cf542	-0.30655867
21	0xbe0e9667	-0.13924561
22	0xbd16646f	-0.036716875
23	0xbd6aeca9	-0.057354603
24	0x3dac6796	0.08418195
25	0x3e330e2a	0.17485872
26	0xbd711de8	-0.05886641
27	0xbe6ecdfe	-0.23320767
28	0x3e2d2895	0.16910012
29	0xbe12c146	-0.1433154
30	0xbde352ee	-0.11099802
31	0x3cb59bd5	0.022169033
32	0xbdabc178	-0.083865106
33	0x3d5f3935	0.054497916
34	0x3e2c4baf	0.16825746
35	0xbea793db	-0.32729992
36	0x3ddc9e88	0.10772425
37	0x3d3559a3	0.044274937
38	0x3df12369	0.11774332
39	0xbd2c49b4	-0.042062476
40	0x3e9cd141	0.30628398
41	0xbd54a77c	-0.051917538
42	0xbd17107a	-0.036880948
43	0x3e655563	0.22395854
44	0xbdc0922a	-0.094028786
45	0xbc08fada	-0.008360589
46	0x3e2854da	0.16438618
47	0xbdccd21a	-0.10001011
48	0xbd4d4222	-0.050111897
49	0x3e53648e	0.20643827
50	0x3c3f6db3	0.011683869
51	0xbc8a7ea1	-0.016906084
52	0xbe433879	-0.19064511
53	0x3dadcef9	0.084867425
54	0xbdb63f41	-0.088987835
55	0x3d9af421	0.07566095
56	0x3c3adf09	0.011405715
57	0x3e85f5ec	0.26164186
58	0xbc8f7061	-0.017509641
59	0xbd9f5bc0	-0.07781172
60	0xbe0684ae	-0.13136551
61	0xbe83ec0a	-0.2576602
62	0xbda3fbf2	-0.08007039
63	0xbeac78d6	-0.3368594
64	0x3dc4f0c0	0.09616232
65	0x3ca87ec7	0.020568265
66	0xbaccab0e	-0.0015614943
67	0x3d81d1e0	0.063388586
68	0x3e352546	0.1769
69	0xbb9a37b9	-0.0047063497
70	0xbd2f4839	-0.042793486
71	0xbe650646	-0.22365674
72	0xbe17b6eb	-0.14815871
73	0x3c9baa7c	0.019002192
74	0xbe3b1cfc	-0.18272775
75	0x3e2e91c5	0.17047794
76	0xbda795ee	-0.08182894
77	0x3e829d2b	0.25510535
78	0x3dd4fe3f	0.10400056
79	0x3dcbd7f4	0.09953299
80	0x3ca21dd4	0.019789614
81	0x3d636ad5	0.055521805
82	0x3dd42f06	0.103605315
83	0xbdcf6391	-0.10126413
84	0x3dff3eea	0.12463172
85	0x3eb448d9	0.35211828
86	0x3d5f8b15	0.054576
87	0xbe112108	-0.14172757
88	0x3da0175d	0.07816956
89	0xbe40a634	-0.18813401
90	0xbd406b70	-0.04697746
91	0x3d5ef17f	0.054429527
92	0x3c883fe3	0.016632026
93	0x3c020f1e	0.0079381745
94	0xbd754019	-0.05987558
95	0x3cc83a17	0.024441762
96	0xbe0bf176	-0.13666329
97	0x3dd4a6be	0.10383366
98	0x3e91ba82	0.28462607
99	0x3e8652de	0.26235098
100	0xbdb68198	-0.08911437
101	0xbe074e62	-0.13213494
102	0x3e36e075	0.17859061
103	0xbd82b96b	-0.06383022
104	0xbca155b0	-0.01969418
105	0xbdcedc5a	-0.101006225
106	0x3e3d253f	0.1847124
107	0xbe8b1771	-0.27166322
108	0x3d988a95	0.074483074
109	0x3e158391	0.1460097
110	0x3ee4c199	0.44678953
111	0x3e874e44	0.264269
112	0xbd50edc5	-0.051008005
113	0xbe8fd091	-0.2808881
114	0x3c738412	0.014863031
115	0xbdcb58e8	-0.09929067
116	0xbe798e21	-0.24370624
117	0x3d28df83	0.041228782
118	0xbcf32a98	-0.029683396
119	0xbd1be819	-0.038063142
120	0x3e4b1c77	0.19835077
121	0xbcf6096e	-0.030033793
122	0x3d50c5f7	0.050970044
123	0x3c925722	0.017863814
124	0xbcff7ac1	-0.031186463
125	0x3e1371a4	0.14398819
126	0xbb8c4b96	-0.0042814715
127	0x3d19d54d	0.037556935
128	0x3c72edc9	0.0148272
129	0x3e0db34f	0.13837932
130	0xbea67610	-0.3251195
131	0x3e6510ad	0.22369643
132	0xbdb70dac	-0.089381546
133	0x3daea1b9	0.0852694
134	0x3d88c15a	0.06677504
135	0x3ba81d1e	0.005130424
136	0x3dba81ee	0.09106813
137	0x3e5db533	0.21651153
138	0xbde83b3b	-0.11339422
139	0x3d8bc865	0.068253316
140	0xbe2bf6c7	-0.16793357
141	0x3dce9487	0.10086923
142	0x3e959124	0.29212296
143	0xbd7e6050	-0.06210357
144	0x3db87fdc	0.09008762
145	0xbe105002	-0.1409302
146	0xbdb56c77	-0.08858579
147	0x3c11eec6	0.008907026
148	0x3dea0245	0.11426214
149	0xbeb76a75	-0.35823408
150	0x3d9688ba	0.07350297
151	0xbe02200c	-0.12707537
152	0x3d9c7244	0.07638982
153	0xbd577b31	-0.05260772
154	0x3d937b49	0.07201249
155	0xbbca6cfb	-0.0061775423
156	0x3dec246e	0.11530386
157	0x3d862a24	0.065510064
158	0xbd94983e	-0.072556004
159	0xbbd443d3	-0.006477812
160	0xbea35ac6	-0.31905192
161	0x3df8b5b7	0.12144034
162	0x3dca8331	0.09888304
163	0x3c4984c7	0.012299723
164	0x3bcd3424	0.006262319
165	0xbe898179	-0.26856592
166	0xbe16bcc9	-0.14720453
167	0x3eb0c8ed	0.34528294
168	0x3da07215	0.078342594
169	0xbde062f7	-0.10956376
170	0x3e031fee	0.12805149
171	0xbe0dad5b	-0.13835661
172	0x3e1ba320	0.15198946
173	0xbe77c7bc	-0.24197286
174	0xbd8a0cb3	-0.067407034
175	0xbda72ac0	-0.08162451
176	0xbe51e2b7	-0.20496641
177	0xbe375df2	-0.17906931
178	0x3d96f664	0.07371214
179	0xbd3b4bc9	-0.04572657
180	0xbc2039f6	-0.009779444
181	0x3d858d4b	0.0652109
182	0xbda5f697	-0.08103674
183	0x3d27ac68	0.040935904
184	0x3eac91de	0.33705038
185	0xbd7784ee	-0.060429506
186	0x3e27b9e2	0.16379502
187	0x3d7f82ce	0.062380604
188	0xbd6d0458	-0.05786547
189	0x3e228578	0.15871227
190	0xbdee1f1f	-0.1162703
191	0x3d7fbfd7	0.062438812
192	0xbc70ee4a	-0.01470525
193	0x3e99bcdb	0.30026898
194	0x3e9a407a	0.30127317
195	0x3cb10ef4	0.021613576
196	0xbe626adc	-0.22111076
197	0xbe24887e	-0.16067693
198	0xbb3192ec	-0.002709563
199	0xbe4082cd	-0.18799897
200	0x3e4ec81c	0.20193523
201	0xbe1f1655	-0.15535863
202	0xbd6b8623	-0.05750097
203	0x3d18576a	0.03719274
204	0x3e47e075	0.19519217
205	0xbd134be4	-0.035961047
206	0x3cab3f4f	0.020904211
207	0xbd32be21	-0.043638352
208	0xbe5f5648	-0.21810257
209	0x3e361006	0.1777955
210	0xbe90d7bb	-0.2828959
211	0xbcdc212f	-0.026871292
212	0x3e21faa5	0.1581827
213	0x3e3b2f01	0.1827965
214	0xbe42a8dd	-0.19009729
215	0xbcaf0671	-0.021365376
216	0xbc6e696a	-0.0145515
217	0xbcc2eec0	-0.023795485
218	0x3e1207d4	0.14260799
219	0xbd6269a2	-0.05527652
220	0x3d2bd697	0.041952696
221	0x3dbaaebf	0.091153614
222	0x3cccb247	0.024987353
223	0xbd9bfc7e	-0.076165184
224	0xbe4d325c	-0.20038742
225	0xbdb4135b	-0.08792754
226	0x3ca9f70c	0.020747684
227	0x3e2e456a	0.17018667
228	0xbdc9beab	-0.0985082
229	0xbd881228	-0.06644088
230	0x3e2b7bf2	0.167465
231	0x3da088e1	0.078386076
232	0xbe641a4c	-0.22275656
233	0xbd5df362	-0.054187186
234	0x3d9bab39	0.076010175
235	0xbe3a0ab8	-0.18168151
236	0xbe3087e8	-0.17239344
237	0xbe093da7	-0.13402425
238	0xbda6aa2b	-0.08137926
239	0x3c9672b3	0.01836524
240	0xbe5c162b	-0.21492831
241	0x3e17e468	0.14833224
242	0x3dda8a2b	0.10670885
243	0xbe872e8a	-0.26402694
244	0xbe377787	-0.1791669
245	0x3e1cddce	0.15318987
246	0xbe3271df	-0.17426251
247	0x3da60aa8	0.08107501
248	0xbe6562b0	-0.22400928
249	0xbe0b78fe	-0.13620374
250	0x3cd1abec	0.025594674
251	0xbe885e46	-0.26634425
252	0x3e189c0e	0.1490328
253	0xbd53e3e5	-0.05173101
254	0x3d646c9d	0.055767644
255	0xbc75685d	-0.014978495

agent,params,ScannedRNN_0,GRUCell_0,in,bias f4 [64]
0	0xbdd54e00	-0.10415268
1	0xbdacb846	-0.08433585
2	0xbdf69966	-0.12040977
3	0xbe5d13e3	-0.21589617
4	0x3db37f58	0.08764523
5	0x3d0ea8d5	0.03482898
6	0xbe3ca911	-0.18423869
7	0x3cd8fb4f	0.02648702
8	0x3e6356dc	0.22201103
9	0xbd210ed7	-0.039320793
10	0xbe4abd00	-0.1979866
11	0x3db42f67	0.08798104
12	0x3e49cb01	0.19706346
13	0x3e5b519c	0.2141785
14	0x3e28ab83	0.16471677
15	0xbe8decf4	-0.27719843
16	0xbd442d4d	-0.047894765
17	0x3cb41635	0.021983245
18	0x3e89cca4	0.2691394
19	0xbdd89c6b	-0.10576709
20	0x3e0be5dc	0.13661903
21	0x3dad71d6	0.08468978
22	0xbd386cab	-0.04502551
23	0xbed3a992	-0.4134031
24	0x3e57c3ad	0.21070738
25	0xbbacc027	-0.00527193
26	0x3e0bddfb	0.13658898
27	0xbe7dde7c	-0.24791902
28	0x3bd3ac3b	0.0064597405
29	0x3e8b4abd	0.27205458
30	0xbeb4b09c	-0.35290992
31	0x3e8f441d	0.27981654
32	0x3df4de62	0.11956479
33	0xbe4ceed0	-0.20012975
34	0xbef6d18c	-0.48206747
35	0xbe0610f3	-0.13092403
36	0xbb8bb537	-0.004263546
37	0xbea7c353	-0.32766208
38	0x3eb77806	0.35833758
39	0xbe46590c	-0.19369906
40	0x3e948887	0.29010412
41	0xbeb74c79	-0.35800532
42	0xbdce8057	-0.10083073
43	0xbe7e94a1	-0.24861385
44	0xbeb6cd2a	-0.35703403
45	0x3eb9d4bd	0.3629512
46	0x3ebe8ce3	0.37216863
47	0x3d73e31b	0.059542757
48	0x3d9e4fd6	0.07730071
49	0xbcb0eb6f	-0.021596638
50	0x3e3bf226	0.18354091
51	0xbd49d0dc	-0.04927145
52	0xbd101366	-0.03517475
53	0xbde5d43b	-0.112221204
54	0x3e7351e8	0.23761714
55	0x3e827b1f	0.2548456
56	0xbe56341b	-0.20918314
57	0xbe361dc7	-0.17784797
58	0xbde41149	-0.111361094
59	0x3e89fde6	0.26951522
60	0x3e91a8ea	0.28449184
61	0x3d915b2b	0.07097467
62	0xbcfb1ffd	-0.030654902
63	0x3e79ae82	0.24382976

agent,params,ScannedRNN_0,GRUCell_0,in,kernel f4 [64, 64]
0	0xbe64704f	-0.22308467
1	0x3e2bce48	0.16777909
2	0x3e4008a7	0.187533
3	0xbcce22f7	-0.025163157
4	0xbe0dc63d	-0.13845153
5	0xbea0646d	-0.3132662
6	0x3da8223e	0.08209656
7	0xbdd19428	-0.10233337
8	0x3e0de9bb	0.13858692
9	0xbd59e4d3	-0.05319674
10	0xbe0fddb9	-0.14049424
11	0x3e044b75	0.1291941
12	0x3efa638e	0.4890408
13	0x3d8e351d	0.06943724
14	0xbdc233d0	-0.09482539
15	0xbd36711d	-0.044541467
16	0x3dc40df1	0.095729716
17	0x3e902514	0.28153288
18	0x3d7220ba	0.05911324
19	0xbdff7fe0	-0.12475562
20	0xbe82202f	-0.2541518
21	0x3e0e6027	0.13903867
22	0x3e67af93	0.2262557
23	0xbe708d9d	-0.23491521
24	0xbe566d8f	-0.20940231
25	0xbe2cb97f	-0.16867636
26	0x3ef93937	0.48676464
27	0xbdc6dae3	-0.09709718
28	0x3d83c272	0.06433572
29	0x3e0cce5c	0.13750595
30	0x3ba7af74	0.005117351
31	0x3e6a3a7b	0.22873871
32	0xbe2f4938	-0.17117774
33	0x3c8144bd	0.015779847
34	0xbe524c7f	-0.20536993
35	0xbdb9843c	-0.09058425
36	0x3c5ce4db	0.013482298
37	0xbda482bd	-0.08032749
38	0x3eca2e08	0.39488244
39	0xbf8b4b1b	-1.0882295
40	0x3ed0001d	0.40625086
41	0x3e6eef9c	0.23333591
42	0x3d3749fe	0.0447483
43	0xbe13d7b5	-0.14437754
44	0x3e04de85	0.1297551
45	0xbcc1267e	-0.023577925
46	0x3e8c0f94	0.27355635
47	0x3d896908	0.06709486
48	0xbd008682	-0.031378277
49	0xbd28f88c	-0.041252658
50	0xbe1a5b38	-0.1507386
51	0xbe2ae02f	-0.16687082
52	0x3ea0c96f	0.31403682
53	0xbeaec9a7	-0.34138224
54	0x3d8d332c	0.06894526
55	0x3da6312a	0.08114846
56	0x3da64650	0.0811888
57	0xbe848cbd	-0.25888625
58	0xbe1102d3	-0.14161234
59	0x3cf41f39	0.029800044
60	0x3d47a945	0.048745412
61	0x3e879f72	0.26488835
62	0xbe28ddeb	-0.16490905
63	0x3d993425	0.07480649
64	0x3e139de8	0.14415705
65	0x3d1d47cd	0.038398553
66	0xbe281e30	-0.16417766
67	0x3d7e6a57	0.062113132
68	0x3d5cc3dd	0.053897727
69	0x3e61176b	0.2198159
70	0x3d91d9f5	0.0712165
71	0x3e8d5a10	0.27607775
72	0x3e3f5104	0.18683249
73	0x3e23853c	0.15968794
74	0xbd9d473a	-0.07679601
75	0x3c6e1648	0.014531679
76	0x3dc97087	0.09835916
77	0xbe0a6e34	-0.13518602
78	0x3d1b0d74	0.037854627
79	0xbc026a47	-0.007959909
80	0xbd4d8514	-0.05017574
81	0x3d85cd18	0.06533259
82	0x3e15b406	0.14619455
83	0x3e097f49	0.13427462
84	0x3dac3109	0.0840779
85	0xbe14f4c6	-0.14546499
86	0xbf373676	-0.71567476
87	0xbe34c670	-0.17653823
88	0x3e584095	0.21118386
89	0xbda4ef8c	-0.080535024
90	0xbe4c94c3	-0.19978623
91	0xbd7b363e	-0.061331026
92	0xbe19fc99	-0.15037765
93	0x3debda0b	0.11516198
94	0xbe789eda	-0.24279347
95	0x3dd8621d	0.105655886
96	0xbd99f560	-0.07517505
97	0x3b6e4bcb	0.0036361094
98	0xbe931910	-0.2873006
99	0x3d0972c3	0.03355671
100	0xbde7046e	-0.11280142
101	0xbe7bf975	-0.24606879
102	0xbdf91233	-0.12161674
103	0xbe6a7e1a	-0.22899666
104	0x3eba61c0	0.36402702
105	0xbea50511	-0.32230428
106	0x3e20a535	0.15688021
107	0xbdf3ebca	-0.119102076
108	0xbdf66bee	-0.12032305
109	0x3e7deedd	0.2479815
110	0x3e792366	0.2432991
111	0x3ea59a88	0.3234446
112	0x3d67eae6	0.0566205
113	0x3e6174d7	0.22017227
114	0x3e7a812a	0.24463335
115	0xbe293edf	-0.1652789
116	0x3ddc95b1	0.10770739
117	0x3deb8c51	0.115013726
118	0x3d94c110	0.07263386
119	0x3e606e9e	0.21917197
120	0xbe28ff64	-0.16503674
121	0xbe8a1efb	-0.2697676
122	0x3d9a86cd	0.075452425
123	0xbd711143	-0.058854353
124	0x3ddaa25c	0.10675499
125	0xbdd205db	-0.10255023
126	0xbe461303	-0.1934319
127	0xbdc7de0a	-0.097591475
128	0x3e72017b	0.23633377
129	0x3da9a3c5	0.0828319
130	0xbcfe83cf	-0.03106871
131	0xbe2ea218	-0.17054021
132	0x3e37a29c	0.17933124
133	0x3d996ee4	0.07491854
134	0x3d4f129e	0.050554864
135	0xbe364783	-0.17800717
136	0x3e386849	0.18008532
137	0xbdd2c210	-0.10290921
138	0xbe3aeca4	-0.18254334
139	0x3e1a1dac	0.15050381
140	0x3db4505e	0.08804391
141	0x3d3a9d11	0.045559946
142	0x3e031503	0.12800984
143	0xbdd73071	-0.10507286
144	0x3e9aa326	0.30202597
145	0x3d2072a7	0.03917184
146	0x3dc56965	0.09639243
147	0xbcdfc3f3	-0.027315116
148	0x3ea57d65	0.3232223
149	0xbe6e1532	-0.23250273
150	0xbb5a0cdd	-0.0033271827
151	0xbe7c100d	-0.24615498
152	0x3d4255c7	0.047445085
153	0x3ecf6981	0.4051018
154	0xbe871b7e	-0.26388162
155	0x3d90b9b1	0.07066668
156	0xbdd43af6	-0.103628084
157	0xbdcff548	-0.101542056
158	0xbe77b205	-0.24189003
159	0x3e2629b8	0.16226852
160	0xbeaffffb	-0.34374985
161	0x3d05eab3	0.03269453
162	0xbea3e72b	-0.32012305
163	0x3e4799f6	0.19492325
164	0x3eca115e	0.39466375
165	0xbe50185b	-0.20321791
166	0x3ef189ad	0.4717535
167	0x3bcebd99	0.006309223
168	0x3dad58d9	0.08464212
169	0xbe311030	-0.17291331
170	0x3d91db2d	0.071218826
171	0x3b394eb5	0.0028275673
172	0xbd2abe41	-0.041685347
173	0x3db6ef63	0.08932378
174	0x3e6f6dcc	0.23381728
175	0x3e0813c7	0.13288794
176	0x3ecaedf2	0.39634663
177	0xbe6b6e96	-0.22991404
178	0x3d9debfe	0.077110276
179	0xbc87df11	-0.016585859
180	0x3e02ae31	0.12761761
181	0x3de8edd1	0.11373485
182	0x3d3f9d71	0.046781007
183	0x3dadeaae	0.08492027
184	0xbe12f942	-0.14352897
185	0xbd6158b9	-0.055016253
186	0x3ea8973b	0.3292788
187	0x3d86c110	0.065797925
188	0xbd6d7d4f	-0.05798083
189	0xbe28cbe2	-0.16484025
190	0x3d9e048b	0.0771571
191	0x3e921f57	0.28539535
192	0x3e3cbfd2	0.18432549
193	0xbdb72f8d	-0.089446165
194	0xbe89b011	-0.2689214
195	0xbe826fc3	-0.25475892
196	0x3dd02841	0.10163928
197	0xbe77c329	-0.24195541
198	0x3c17a3e8	0.009255387
199	0x3ddba099	0.10723991
200	0x3c9d11ee	0.019173589
201	0x3ec975bf	0.39347646
202	0xbd34db71	-0.044154588
203	0x3c8c5802	0.01713181
204	0x3ddfe411	0.10932172
205	0xbefae515	-0.490029
206	0xbda6a977	-0.081377916
207	0xbe02c6cf	-0.12771152
208	0xbc7e7491	-0.015530721
209	0x3df8aef2	0.12142743
210	0x3ea761be	0.3269176
211	0xbe561c94	-0.20909339
212	0x3e1df3e3	0.15425067
213	0xbf8e07ab	-1.109609
214	0x3ea1a28f	0.31569335
215	0x3de82657	0.11335438
216	0xbddc38df	-0.10753035
217	0xbe3d9a4d	-0.18515892
218	0x3dcdd681	0.10050679
219	0x3d2bdda4	0.04195942
220	0xbe2e4962	-0.17020181
221	0xbdf35d9e	-0.118830904
222	0xbe790a0d	-0.2432024
223	0x3dce42ed	0.10071359
224	0x3e428a9f	0.18998192
225	0xbd1aeb68	-0.037822157
226	0xbe7c9a15	-0.24668153
227	0x3ee28412	0.44241387
228	0xbe97de2d	-0.29661694
229	0xbdf560dd	-0.11981366
230	0x3d0e1fe0	0.034698367
231	0xbd9e5d58	-0.07732648
232	0x3d2110c6	0.039322637
233	0xbeee3c6a	-0.46530467
234	0x3e809627	0.25114557
235	0x3dd769ec	0.1051825
236	0x3e7b7df7	0.2455977
237	0x3dcd6a2a	0.10030015
238	0x3e334cec	0.17509812
239	0xbb86c8f0	-0.004113309
240	0xbe668cc8	-0.22514641
241	0xbd8c1534	-0.06839982
242	0x3e4e4bcc	0.20146102
243	0x3dd43a54	0.10362688
244	0x3dc731e5	0.097263135
245	0xbc11dd07	-0.008902795
246	0x3e025d62	0.12730935
247	0xbd386835	-0.045021255
248	0xbe380ed2	-0.17974404
249	0x3e16655f	0.14687108
250	0x3f042e51	0.51633173
251	0xbcf9e5fd	-0.030505175
252	0xbd9f5561	-0.077799566
253	0x3d4d05d1	0.050054375
254	0x3ca5ae1a	0.02022462
255	0x3e0b5eb2	0.13610342

agent,params,ScannedRNN_0,GRUCell_0,ir,bias f4 [64]
0	0x3c46eff0	0.0121421665
1	0x3ce84462	0.02835292
2	0x3dd32bfd	0.103111245
3	0xbd83c303	-0.0643368
4	0x3cd0aebb	0.025473943
5	0xbdcc905b	-0.09988471
6	0xbba03aba	-0.0048898133
7	0xbc614c30	-0.013751075
8	0x3cdc5ef1	0.02690074
9	0xbc39fb89	-0.011351475
10	0x3d4a9c98	0.049465746
11	0xbd9c289b	-0.076249324
12	0x3dc54bca	0.09633596
13	0x3cfcd5d0	0.030863672
14	0xbdb476d7	-0.088117294
15	0x3d813a94	0.06310001
16	0x3bcd5aca	0.0062669264
17	0xbdb4e54e	-0.08832799
18	0xbd874603	-0.066051506
19	0x3d338857	0.043831196
20	0x3d876ad3	0.06612172
21	0x3d149adc	0.036280498
22	0xbdd14dbd	-0.102199055
23	0x3ddb9453	0.1072165
24	0x3d45fee9	0.048338804
25	0xbe260f35	-0.16216739
26	0x3c862c7b	0.016378632
27	0x3ae4dd28	0.0017460929
28	0xbae9b7f7	-0.0017831315
29	0xbc118229	-0.00888113
30	0xbde96826	-0.11396818
31	0x3d44a6a4	0.048010483
32	0xbdbbe20b	-0.09173974
33	0x3d1b11c2	0.037858732
34	0x3db7c862	0.08973767
35	0xbdd9126a	-0.10599215
36	0xbdba38a0	-0.090928316
37	0x3dde6157	0.1085841
38	0x3cc0fbd1	0.023557575
39	0xbe04b892	-0.12961033
40	0x3cfed42f	0.031107036
41	0x3d079826	0.033104084
42	0xbcf019e4	-0.02930922
43	0x3c2fbc16	0.0107259955
44	0xbdffc181	-0.1248808
45	0x3dc21db9	0.094783254
46	0x3dc6962a	0.0969661
47	0x3d120352	0.035647698
48	0xbc270367	-0.010193682
49	0xbd1aa60e	-0.03775602
50	0x3d36db00	0.04464245
51	0x3daf2272	0.08551492
52	0x3b149713	0.0022673055
53	0xbe00551b	-0.12532465
54	0xbcbbbf9f	-0.02291852
55	0x3db72681	0.08942891
56	0x3da79d4a	0.081842974
57	0x3dac02fd	0.083990075
58	0xbd704b45	-0.058665533
59	0x3d946a5a	0.072468475
60	0x3d79f59c	0.061025247
61	0x3d60816e	0.054810934
62	0xbcc07a87	-0.023495926
63	0x3d66715f	0.056260463
