baselines/QLearning/checkpoints/MPE_simple_spread_v3/shaq_ps.safetensors (safetensors, 107596 bytes, 14 tensors)

params,Dense_0,bias f4 [64]
00000000: a59b 01bd 1ba6 94bc 9896 2b3c 3097 edbe
00000010: 0551 273d fb90 863c 7500 3cbe b8c2 18be
00000020: 555a 0e3d cbd5 afbd 3bbc 2cbe 7048 30be
00000030: bebc d93d fa67 92bd 12bf 1bbe 6317 f03b
00000040: 4182 993d f5b1 363d b7e8 cdbd bebe bebe
00000050: 45d3 5dbd 49fe 3abd eaa6 38be 4154 dbbd
00000060: d09f 75bd 4295 ff3c 7e04 46bd 79b6 fcbd
00000070: 83b4 4a3d c58f 2ebe 7d0e 6fbd db39 c3bd
00000080: c6f3 9abd 9173 ccbd ffe7 8abe 66fe 82be
00000090: e1fc c73c a9f1 b23c be5a 14be 42fc 07be
000000a0: d93c 2dbd e5c1 56bd 585c aebd b5ba c73d
000000b0: 7538 a5ba 8fb0 9ebd 5be7 ffba 30c1 82be
000000c0: e3f0 a8bd 82e2 60be 799d dc3c 5ddb 46bd
000000d0: f767 03be f584 70bc 562f 283d 25c1 8ebd
000000e0: bc89 48be 1322 3bbb 8180 7bbe 71bb 8ebe
000000f0: a7e1 e6bd 0f96 ec3d 2fdd bdbc 6d35 a9be
-0.031642575 -0.018145612 0.010472916 -0.4640441 0.04084875 0.016426554 -0.1835955 -0.1491803
0.034754116 -0.085857 -0.16868679 -0.17215133 0.10631703 -0.07148738 -0.15209606 0.0073270067
0.07495547 0.044603307 -0.100541525 -0.372549 -0.05415656 -0.04565266 -0.18032423 -0.107094295
-0.059966862 0.031199101 -0.048344128 -0.123394914 0.049488556 -0.17047031 -0.058363426 -0.095325194
-0.07566027 -0.0998298 -0.27130124 -0.25584716 0.024412574 0.021843748 -0.1448774 -0.13279822
-0.042294357 -0.052431006 -0.08513707 0.097524084 -0.0012605326 -0.0774852 -0.0019523905 -0.25538015
-0.082490705 -0.21961406 0.026930558 -0.048549045 -0.12832628 -0.014680137 0.041060768 -0.06970433
-0.19583791 -0.0028554245 -0.24560739 -0.2787738 -0.112735085 0.11552059 -0.023176758 -0.33048573

params,Dense_0,kernel f4 [21, 64]
00000000: 8603 7fbe f80c 0bbe bd9d 88bd 9184 3fbb
00000010: eda0 dd3e 04f9 bebe 5cf3 943e 9ae7 05bd
00000020: 78b8 723e c7ad 0abf c09e f23c 1d66 58be
00000030: 48ab 19be 4a32 2e3e 1f77 933d 5dea 5f3e
00000040: dd95 4a3b 7439 12be dbdb 1fbe 74b6 e73d
00000050: 6094 663e e32f 833e d48c abbe 5a10 28be
00000060: a323 65be 34a8 39bd 87c7 413e 4913 da3e
00000070: 6423 c6bc 235f c6bd 46a6 a3be fd0f 0cbd
00000080: 66c2 933e 2455 d9be 7c2e 283e f2df 953e
00000090: 6b2d 9b3e 5ec2 9abe 0f1a 413f 013a 3dbe
000000a0: b579 85bd fecb 193f 01f8 eabd fb7a 3abe
000000b0: 2d50 6bbe a572 403e b81e 8e3e 4900 0abd
000000c0: 5c65 0e3f 684b e5bc 8f17 9b3e 0308 89be
000000d0: 1a0d 42bf cc60 c03e 6a07 c63e 2027 c03c
000000e0: 3615 0abc 21c7 92bd c385 3d3e a1e9 7f3e
000000f0: 7391 58bd 8467 29be dc2a 12be 5375 13bf
00000100: 1418 b6bd 3349 223e 76d0 d2bd 8290 2c3c
00000110: b878 f4bd 1549 99bd 92df c6be 190c 423e
00000120: 0752 7f3e a7f1 1bbf 467b a93c c89c 95be
00000130: 5c39 653e 5a6c 7e3c 7093 b2be 3dd5 4c3e
00000140: 071a 6c3e 98c8 993e ee55 1d3f 7d70 323d
00000150: 9d97 b63a 7d1c 5cbd baa5 713e 79cb 6e3e
00000160: dc71 eebd 2ca9 a63e f22c f53d 31a6 a3be
00000170: 050f b5be 2907 953d b358 8d3e 34b4 ec3d
00000180: 26f2 f33d 163e b83d 0835 9abe 2f8b 3a3e
00000190: 8e06 9bbe 171b b3bd 52db eebd 9ba1 c13e
000001a0: 59a4 c3be 3d59 69bf c909 97be cd68 2abe
000001b0: 6deb 363d bc8c 97be 0ad9 8abe f585 47be
000001c0: c187 ea3e b8ce 9cbb 65f2 4b3d 9b7f 6fbe
000001d0: b563 7cbd 552b 823e 5836 843d 0dca acbe
000001e0: 31c9 883e 9ac5 e1bc 0684 483f 7d97 753e
000001f0: cdd8 5dbe d9b9 773e be4f a1be 6aa2 0abf
00000200: d8e3 f23c d1e6 843d f88d c53d 282c 8e3d
00000210: 0f27 a9bd 7c99 b43d ca7f ee3d 2e18 50bd
00000220: 32c3 09be 5f3a 303d c910 36be 73f9 a23c
00000230: 0452 083e e7fa 5ebc 29b1 23bd bac4 29be
00000240: f6c0 6c3c 55b0 09bd 9bbe c0bd d575 c8bd
00000250: 0480 8fbe 9d83 91bd 830b 97be e2fb e33d
00000260: f592 123e 1f0f d43d 8d22 01bd 44ec 1d3e
00000270: beae f8bb 5fca d73d 7654 253d 4338 9cbd
00000280: 8d16 bb3d a547 393e 4bff 96be 9a29 a5bc
00000290: 6eca 73bd 96b3 d93d 36b6 793e df59 b33d
000002a0: b230 463d 8290 153c b8b7 09bd 4647 c93a
000002b0: 3d59 4b3c 3920 bfbd 4152 9cbd 7670 3ebd
000002c0: 3fdb b13d 3713 31bd bf9a 96bd b114 293e
000002d0: f06b 42be f1a0 adbd 1e70 9cbd c2cc 1a3d
000002e0: 07c1 aa3d 205d 813d c458 2b3d ec96 803d
000002f0: 60ea 7dba 3c97 5e3d 4eff 9a3d 5967 57be
00000300: 5f0b b2bd f8c7 f2bd 6cbc 783d f732 1fbe
00000310: 781c d43b a857 c83c df48 47be 5d9d 1fbd
00000320: 55ff 65bd 0e52 933c 42b5 0abe 7050 113e
00000330: 66ae 3bbd e6bf 00bd 0710 513c c51d 3c3e
00000340: 7e65 cfbd 0c12 85bc 2d8d 933e c6af 963d
00000350: b0bc 893e a85c 993d 85da b3bc 9a34 26be
00000360: b186 7a3e 344c f3bd 346f 1ebe 48ca 55ba
00000370: 8f03 b83d cb0f c1bd 54fc adbd 7e37 ccbc
00000380: 6b8b 243d d2e8 27bc 288a 4ebe 7f73 43bd
00000390: b25a be3d 866c 083d 77d3 643d a627 b4bd
000003a0: 860c ca3d 4624 57be 4184 32bd 3262 eb3c
000003b0: b2ab b4bd 4e2b 3abe b5f9 bf3d 4495 15be
000003c0: a45b 93bc 2eed bc3d 90e1 cabc 4ca3 1d3e
000003d0: ba33 abbc a0f6 abbd 43e3 34bb 49f4 70bc
000003e0: 8162 df3e 5fb3 553d e253 62be fc15 803e
000003f0: c390 613d d81c 01bd 0cb5 cd3d c83e 0fbd
-0.24903688 -0.13579166 -0.06670711 -0.0029223303 0.4328684 -0.3729936 0.29091918 -0.032691576
0.23703182 -0.54171413 0.029616714 -0.21132703 -0.15006745 0.17011371 0.07200455 0.21866746
0.003091208 -0.14279729 -0.15611212 0.11314097 0.22517538 0.25622472 -0.3350588 -0.16412488
-0.22376876 -0.045326427 0.1892377 0.42592838 -0.024186797 -0.09686115 -0.31962794 -0.034194935
0.28859252 -0.4244777 0.16423982 0.2927242 0.3030809 -0.30226415 0.7543039 -0.18479158
-0.065173544 0.6007689 -0.11473084 -0.18210976 -0.22979803 0.18793733 0.27757812 -0.03369168
0.5562341 -0.027990058 0.3029141 -0.26763925 -0.7580124 0.3757385 0.3867753 0.023456156
-0.008427909 -0.07166887 0.18508057 0.24991466 -0.052873086 -0.16543394 -0.14274162 -0.576009
-0.08891311 0.15848236 -0.10293667 0.0105325 -0.11937088 -0.074846424 -0.38842446 0.18949927
0.24933635 -0.6091561 0.020688664 -0.29221177 0.22385162 0.015528763 -0.3487811 0.20003219
0.23056804 0.30035853 0.61459243 0.04356431 0.0013930682 -0.053738106 0.23598376 0.23319806
-0.11642811 0.32550943 0.11971463 -0.3196273 -0.35363021 0.07276756 0.27606735 0.115578085
0.119114205 0.08996217 -0.30118585 0.18217157 -0.30278438 -0.08745401 -0.11662926 0.37818608
-0.38211325 -0.9115179 -0.29499653 -0.16641541 0.044658113 -0.2959956 -0.27118713 -0.19484694
0.45806697 -0.004785385 0.049791712 -0.23388521 -0.061618526 0.25423685 0.06455678 -0.33747903
0.26715997 -0.027560044 0.7832645 0.2398357 -0.21664734 0.24191989 -0.3150615 -0.54154074
0.02964966 0.06489337 0.09646219 0.06942016 -0.08259403 0.08818337 0.116454676 -0.05080431
-0.13453367 0.043024417 -0.1777984 0.019894337 0.13312536 -0.0136096245 -0.039963875 -0.16578951
0.014450302 -0.03361543 -0.09411355 -0.097881 -0.28027356 -0.07105181 -0.2950097 0.11132027
0.14313872 0.103544466 -0.03152709 0.1542216 -0.0075891903 0.10536646 0.04036375 -0.076279186
0.091351606 0.18093736 -0.29491648 -0.020161439 -0.059519224 0.106299564 0.24385914 0.08757376
0.048386283 0.009128692 -0.033622473 0.0015356324 0.012411413 -0.09332318 -0.07632876 -0.04649397
0.08684396 -0.043231215 -0.07353734 0.165118 -0.18986487 -0.08477963 -0.07638572 0.03779293
0.08337598 0.0631659 0.0418327 0.06278786 -0.00096861087 0.054343447 0.07568227 -0.21035518
-0.08693575 -0.11854547 0.060726568 -0.15546785 0.0064731203 0.02445586 -0.19461392 -0.038968433
-0.056151707 0.017983463 -0.13545707 0.1419084 -0.045820616 -0.03143301 0.012760169 0.18370731
-0.1012678 -0.016243957 0.28818646 0.07357745 0.2690177 0.07488376 -0.021954784 -0.16231003
0.24465443 -0.11879769 -0.15472108 -0.00081554474 0.08985054 -0.094268404 -0.084953934 -0.024928804
0.04017202 -0.01024838 -0.2016989 -0.047717568 0.092946425 0.03330662 0.05586573 -0.08796625
0.0986567 -0.21009931 -0.04358316 0.028733347 -0.08821811 -0.18180582 0.093738 -0.14607722
-0.017988034 0.09224926 -0.02476576 0.15394324 -0.020898689 -0.08396649 -0.002760128 -0.01470668
0.4362984 0.052173015 -0.22102311 0.25016773 0.055069696 -0.03152165 0.100442976 -0.034971982

params,Dense_1,bias f4 [5]
00000000: a593 b6bd bb40 61be 92f1 2dbe f9d8 35be
00000010: 48ad 31be
-0.0891488 -0.21997349 -0.16986683 -0.1775855 -0.17351258

params,Dense_1,kernel f4 [64, 5]
00000000: 038b dabe 6793 fabe aa85 03bf 75ab 12bf
00000010: 6526 f5bd 688a a0be 0d96 14bf 93be 25be
00000020: 7f45 fdbe 6628 a4be 30ba 03bf c4f8 36bf
00000030: 0155 ccbe 6cf8 e3bc c162 16bf 8d98 55be
00000040: 4385 32bf 4ebc ad3d 4467 023e 57ad 0dbf
00000050: ae0f 8e3e d35d 81bd 73a5 4b3f db1c e53e
00000060: 7c2a 883e a103 fcbe eb77 fbbe a5d3 05bf
00000070: 1b01 18bf ede1 dabe 39f5 bb3c 4851 1bbe
00000080: 4160 07be bf00 b1bd 8d8f 63bd 77a1 9d3e
00000090: ffac 9f3e 5f70 913e 10b9 973e 8bed b63e
000000a0: 8a76 173e 5853 e23c a24e 173f 5f66 2f3f
000000b0: 3415 053d 5f56 8fbe 8de3 1bbe 834c 60be
000000c0: 3a90 193c dd0b 76be e376 35bf cb04 f3be
000000d0: a785 7fbf f173 31bf 8256 58bf b88e b43e
000000e0: 248d 653e 9842 c43e b5c0 113f 7c5d ed3c
000000f0: 6263 9bbd bc54 b5be 552e 853e 4354 b83d
00000100: e386 32be 73e5 ef3e 2b1d 373f f64d bc3e
00000110: 49b3 e93d a1ad 443f bdd1 e33e 687d 003f
00000120: f802 c43e a67b d33e fea4 d53e 2fce f03e
00000130: 5d3b 4e3f ad3f 293e ebb7 113f fa32 a43e
00000140: b8af cf3e dc25 bb3e 3611 803e a8e3 e63e
00000150: e356 473d 9805 a33e adfb 513e ae15 093f
00000160: f12b 9d3e 4392 933e a4ec 703e 3ce5 143f
00000170: 3ca9 f93d 660e a53e 9e3e 143f 0105 9f3e
00000180: c19e 823e c6ea adbe 46c9 973e b268 8d3d
00000190: 2dd8 bebe 7623 e9be b469 bcbe d9a2 b7be
000001a0: 536e 14bf 1ca2 19bf c9c0 f8be 2d32 5ebe
000001b0: 8708 59bf 886b 983d 59f8 7dbe a8f7 71be
000001c0: 6e47 d1be 2f1f cdbe 5758 36be f31a 123f
000001d0: 3707 fe3e 0045 4c3f 4d0f d63e 874f 4e3f
000001e0: 381f b6be b6d2 fcbd 40b1 a5be 5fc3 11bf
000001f0: b6cc bbbe b7c0 303f 0506 3d3f e6b4 253f
00000200: 11db 2d3f 55a5 333f d3db c33e 998d e43e
00000210: f930 273e 9a1b 463e 6232 bd3e 3e4c ce3e
00000220: b311 393e d6ef b93e e038 873e 409e 3b3f
00000230: 17aa 60be cf8f 86be 7ba6 093d 390a 1ebf
00000240: 84c5 8d3e 5271 1ebf b4d3 aabe 5631 43bf
00000250: e9fa fdbe 75b9 eebe f84c f5be ea5e 33bf
00000260: 840d 06bf 85a5 13bf 08c7 20bf a1bd c2be
00000270: 8756 b3be c00c aabe a04a 9dbe b0c5 c8be
00000280: 7d6d 883d 5492 ad3c 285e 1c3f b3db a13e
00000290: e500 d43e f949 43be af34 5ebe 32dc b2be
000002a0: 238f 7d3e ea29 0ebf c4d1 8b3e 1d0c ae3e
000002b0: 4437 953e fec1 843e 26b4 943e 3299 c6bd
000002c0: e141 cebd 215e 473d 6676 e23c cb0f 8fbd
000002d0: 688f f53e a165 e23e 3e70 d23e 5bd1 b03e
000002e0: d6af 143f 9e98 f33d 7500 733d f7d7 6c3e
000002f0: ecae cf3d 96a4 4a3c deda 03bf 30d4 fdbe
00000300: bcaa debe 2b69 f6be 8ee5 d5be 83ae 1d3f
00000310: 9fa8 d03e 5170 653f b360 503f 46ee 023f
00000320: 3e40 8abe 3b8d 47be 79af 97be 1ab4 2abf
00000330: 2bdd 003e ca5a e33e e2c0 143f 51ba bb3e
00000340: 5079 ef3e b2e7 ee3e cee3 003e 1be9 d53d
00000350: 88fd 45bd 38fb 3f3e c57a afbe 37ca 133f
00000360: 70de 403f 5227 afbc 4cf4 163f 253d af3e
00000370: 0b82 16bf 73f9 2abf fd63 11bf aa95 26bf
00000380: 9bab 1cbf a054 e63e b82d f93e d57e c23e
00000390: 4998 b63e 6c90 243f 0017 5b3e 439a d43c
000003a0: 41f4 8ebe dfe4 35be c474 0b3f 40ff aebe
000003b0: 24f3 1ebf 42fd 98be 19d0 84be f7fb 2dbf
000003c0: 15cb 8c3e 8860 d63e 9302 6b3e 5ae4 ae3e
000003d0: 021c d53e 8a5c 12bd 843c e63d 78ae 9e3e
000003e0: 172d 0d3e 9aee d0be b946 303f a018 1e3f
000003f0: be0c 003f f2d0 2d3f 473b 173f 700f eebe
-0.42684183 -0.48940584 -0.5137583 -0.5729287 -0.11970214 -0.31355596 -0.5804146 -0.1618598
-0.49467084 -0.32062072 -0.51455975 -0.71473336 -0.39908603 -0.027828418 -0.58744437 -0.20858975
-0.6973459 0.08483182 0.12734705 -0.5534262 0.27746338 -0.06316724 0.7954933 0.44748577
0.26594913 -0.4922152 -0.49114928 -0.5227607 -0.59376687 -0.42750493 0.02294408 -0.15167725
-0.13220312 -0.086427204 -0.055556823 0.3078725 0.31186673 0.28406045 0.2963338 0.35728106
0.14791313 0.027627632 0.5910436 0.6851558 0.032490924 -0.27995583 -0.15223522 -0.21904187
0.009372765 -0.24027963 -0.7088453 -0.47464594 -0.9981331 -0.6931754 -0.84507 0.35265136
0.22417122 0.38332057 0.5693467 0.02897524 -0.07587315 -0.3541621 0.2601191 0.09000447
-0.17434268 0.46854743 0.7152888 0.3677823 0.11411149 0.76827437 0.44495955 0.50191355
0.38283515 0.41305274 0.41727442 0.47032306 0.8055933 0.16528197 0.5692126 0.32070142
0.4056375 0.36552322 0.2501313 0.45095563 0.048666846 0.31840205 0.20506163 0.53548706
0.30697587 0.28822526 0.23527771 0.58162284 0.12190482 0.32237548 0.57908046 0.31058505
0.25511745 -0.3396818 0.29645747 0.06904735 -0.37274304 -0.45534867 -0.36799395 -0.3586643
-0.5798084 -0.60012984 -0.48584583 -0.21698828 -0.84778637 0.07442385 -0.24801768 -0.2362963
-0.4087481 -0.40062854 -0.17807136 0.5707237 0.4961488 0.79792786 0.4180855 0.805901
-0.35570693 -0.123448774 -0.32361794 -0.5693874 -0.3667962 0.6904406 0.7383731 0.64729154
0.67912394 0.7017415 0.3825365 0.4463928 0.16327275 0.19346467 0.36952502 0.40292543
0.18073158 0.36315793 0.2641058 0.73288345 -0.21939884 -0.26281592 0.033606034 -0.6173435
0.27689755 -0.61891663 -0.33364642 -0.76247156 -0.49605492 -0.46625867 -0.47910285 -0.700667
-0.52364373 -0.5767444 -0.628037 -0.380353 -0.35026953 -0.33212852 -0.30720997 -0.39213324
0.06661508 0.021187939 0.6108117 0.3161293 0.41406932 -0.19071187 -0.21699785 -0.3493362
0.24761634 -0.55532706 0.27308476 0.33993617 0.29143727 0.25929254 0.29043692 -0.096971884
-0.10071159 0.048673753 0.027644347 -0.06985434 0.47960973 0.44218162 0.4110126 0.34534726
0.58080804 0.11894344 0.059326608 0.23129259 0.101407856 0.012368342 -0.5150584 -0.4957595
-0.43489635 -0.48127112 -0.417767 0.6159441 0.40753648 0.89624506 0.8139755 0.51144826
-0.27002138 -0.19487469 -0.29626063 -0.66681063 0.12584369 0.44405204 0.58106816 0.36665586
0.46772242 0.46661144 0.125869 0.10444852 -0.04833749 0.18748176 -0.34273353 0.5773043
0.7533941 -0.021381054 0.5896652 0.34226337 -0.5879218 -0.6678688 -0.56793195 -0.6507212
-0.6119935 0.4498644 0.48667693 0.3798739 0.3566306 0.6428287 0.21395493 0.025952464
-0.27920726 -0.17763089 0.54475045 -0.34179115 -0.62089753 -0.2988072 -0.25940016 -0.6796259
0.2749869 0.41870522 0.229502 0.34158593 0.4162293 -0.035732783 0.11242011 0.30992484
0.13786732 -0.4080704 0.68857914 0.61756325 0.50019443 0.6789695 0.59074825 -0.46496153

params,ScannedRNN_0,GRUCell_0,hn,bias f4 [64]
00000000: f660 dcbc 8b6c 5c3d 3a3a 923e 6213 ce3a
00000010: e69a dfbd 6398 8cbe 3265 d93d f927 a9bd
00000020: b8fc d7bd e8f3 5d3d 2299 64bf af65 13be
00000030: 1fb1 c0bd 430a 013e a306 f6bd 2099 233f
00000040: e007 b1bd ad5d 2fbe d484 43bf 6a99 97bd
00000050: 2f6d af3e 79bf bfbe 974f 733e 1fbe 453c
00000060: 0490 893e 270d 5e3f 6b4d f43e aea2 97bc
00000070: 56c6 8f3d a47e 7abf 5724 d8be c86b 36bc
00000080: d977 ddbe 98de 013e 83bf dabe 5f0a b03e
00000090: 1688 253d ac35 94bd 87f6 633e bfda 3dbd
000000a0: 28d7 893b 5c0c 933e 74a0 70bf 177c 9ebe
000000b0: ed21 3e3f 0b84 403e fd31 81bd ce6f 85bc
000000c0: 2bc2 8e3e 117f 81bd 0667 fabe 9ef0 773e
000000d0: 0a0e 72be c339 74be f7a5 9f3e 409a 343d
000000e0: f6ca a2bd d22d 983e b939 373f ddf8 e33d
000000f0: 1844 01be 07ee 43bf ad6f 733e 4895 1abe
-0.026901703 0.053814452 0.28560048 0.0015722329 -0.109182164 -0.27460012 0.106150046 -0.08259577
-0.10546249 0.054187685 -0.8929616 -0.14394258 -0.09408783 0.12601571 -0.120129846 0.63905525
-0.0864408 -0.17125578 -0.76374555 -0.07402308 0.34262988 -0.3745077 0.2376083 0.012069254
0.26867688 0.8673882 0.47715315 -0.018510189 0.070202515 -0.9784949 -0.42215225 -0.0111340955
-0.432555 0.12682569 -0.42724237 0.34382913 0.040412985 -0.072367996 0.22262011 -0.04635119
0.004206557 0.28720367 -0.9399483 -0.30954048 0.74270517 0.1880037 -0.06308363 -0.016288664
0.27882513 -0.06323064 -0.48906726 0.24212882 -0.23638168 -0.2385016 0.3118131 0.044092417
-0.07948868 0.29722458 0.7157245 0.11131451 -0.12623632 -0.76535076 0.2377307 -0.15096009

params,ScannedRNN_0,GRUCell_0,hn,kernel f4 [64, 64]
00000000: 04d9 ecbe e07d 8d3c 9f3b 8e3e 82bf 8dbc
00000010: a317 473d 0007 473c a1c3 ecbe fd01 573e
00000020: 5e57 bd3d de0d edbe e45e 7c3e fae5 80bd
00000030: f8ed 09be 573f c83d 77a4 9a3e 160d 2a3d
00000040: 4c8e 8fbe 828a 713e 09ea a53d ff82 a33e
00000050: 0e5e 8e3d 33a1 6c3e 182b c53e 3bae 843d
00000060: 2b7b 24bc 5f37 533e b865 343e a6ac 7c3e
00000070: c207 17bd 46d3 78be 1056 8a3d c3ed e43d
00000080: d4d9 f73d 0910 84bd 80a6 873d d9f7 173e
00000090: 8c61 fd3e 2d4e e43d b784 a13c 5355 4b3e
000000a0: cd30 efbe edba 3f3e 2ef6 b5bd 4817 adbd
000000b0: 0815 22be b197 e7bc c1a9 103c 2d61 19bf
000000c0: 5132 74be ae85 3f3e c86a 023e 9535 f63a
000000d0: f484 dd3d d375 74be a727 fc3e 9e46 8dbe
000000e0: db76 853e e0d1 5fbe 698c 823c c8b5 563d
000000f0: b114 07bd 6cfd 4e3e 71a5 dcbe 44aa 1fbe
00000100: 9672 e1be 6790 873d f3b8 363d d965 0e3f
00000110: d7bb 32be a239 13be f100 e9bd c22f 4f3e
00000120: 66bb d43d d58c fe3c 108e e8bd 1ce5 a43d
00000130: 4d0d c2bc 0605 f63d e60b b63e 3c86 983e
00000140: 2e8b 28be 5ee6 f03d f754 4d3e 3c12 773d
00000150: 24a6 0cbe cdfc 54bd 1948 d2bd f414 82be
00000160: 8779 173d f498 36be 2552 383b b953 383c
00000170: 9b87 793e 08b6 8cbc 9a8c ddbd 8604 80be
00000180: aa31 9fbe c69d aabd e215 56bd 5281 793d
00000190: f49b 55be a2bf 61be 6720 0dbe 5ca0 3f3d
000001a0: 757f 14be 8764 833e a5e6 b23d 5730 723e
000001b0: 04d9 57bd e421 d93d 5309 9e3e f429 89be
000001c0: 0bbf 833e 087a 253e a8e6 f8bd b4ba 373e
000001d0: def8 fd3d 60bd 1e3d b0ba 2dbd 3ae1 03bd
000001e0: c769 c53d 0b54 a4be 4eec 2d3e fb18 43be
000001f0: 1432 2bbf 1a38 6abd a75f 843c 8832 853d
00000200: 0452 a4be 6545 0dbe 5e82 83be dc60 1d3e
00000210: 56dd 283e ce23 ee3c 2334 9a3d 6324 30bc
00000220: ab48 c0be eddb 86be df14 5ebd 8615 a43e
00000230: 4048 c1be a246 873d 7be4 763e 0225 1ebf
00000240: bf2a fb3d ad7f 8d3e fadc 10bd 589e 1d3e
00000250: a546 81be d5a3 69bd dbb0 253e 8107 253e
00000260: a87c c23d 20ef b63e 0ed3 9a3e 4e32 81be
00000270: 7932 cfbd ab32 c6be 3533 18be ddfb 75bc
00000280: fa8b 1d3c 9b94 003d 58ff 87be 3acc 7ebd
00000290: dc85 903d 1b5f 543d 4f15 9dbe e7a9 3cbd
000002a0: afcd f23c 4337 e23d 925f 133e 292e 14be
000002b0: 132e 553e 01c3 c63e 1fa8 913d 385f 273f
000002c0: 11be 8cbb d213 4f3e 8320 653d 2055 01bd
000002d0: 718a 413d b0c7 90be 20a4 04be 2872 01be
000002e0: 4449 863d 5feb 813b 17d3 8f3e b76e 353e
000002f0: be09 95be 5b2c a13d dbae 8f3c 36d4 9ebe
00000300: 0f56 f3bd 3c2d a93d 5824 f4bd 264b 9abd
00000310: 61d6 a3be 176c bcbc 706a 80be 9d55 6f3d
00000320: ba2a a5bd dc78 3ebe 4d4d 243d f6dd f6bd
00000330: 3d32 c8bc 56f1 e73d f629 303e bb6f ffbc
00000340: 43bf dc3d f6db 2f3e cca0 003e e9a8 173e
00000350: 5c1e ec3d 4b87 893e 797d cebd d9f4 403e
00000360: 4fc3 1b3e e57b 82bd a881 0f3b c6c5 28bd
00000370: e085 4f3e 1a1c 9e3d a746 48be 4a20 afbd
00000380: 2703 a8be f601 20be 3537 55be 37fd 753e
00000390: 2933 54be 49c5 cdbc f4e4 01be 8546 dfbc
000003a0: a72a 0b3d 14c3 f3bd 87eb 953c 7883 99bd
000003b0: c4a1 cebc 37ba 35bd 2e90 e73d 91eb aebe
000003c0: db75 b63d 2e39 ed3e e011 933c fb4d 383e
000003d0: a3d7 c23d 13e5 d33d eadb 463e a34b 04bb
000003e0: dc52 863e 5620 283d 7e82 2f3e 50b6 15bd
000003f0: a517 2fbd e708 9bbc 52ce 32be 838f 753e
-0.4625932 0.017271936 0.27779862 -0.017303232 0.048606526 0.012147665 -0.46243003 0.20996852
0.092451796 -0.46299642 0.24645573 -0.062938645 -0.13469684 0.09777706 0.30203602 0.041516386
-0.2803825 0.23587993 0.08101279 0.3193588 0.06951533 0.23108368 0.3850944 0.06478544
-0.010039131 0.20626591 0.17616928 0.24675235 -0.036872633 -0.24299344 0.06754696 0.11178162
0.12102094 -0.06448371 0.06623554 0.1484064 0.49488485 0.11147723 0.019716604 0.19856767
-0.4671692 0.1872365 -0.08884846 -0.08451706 -0.15828335 -0.028270574 0.008829535 -0.59913903
-0.23847319 0.18703339 0.12736046 0.0018784279 0.108163744 -0.23873071 0.49249002 -0.2759294
0.26067242 -0.21857405 0.015936093 0.052419454 -0.032978717 0.2021386 -0.43094972 -0.15592295
-0.44032735 0.066193394 0.044609975 0.5562416 -0.17454468 -0.14377454 -0.11377133 0.20233062
0.10387306 0.031073013 -0.11355221 0.08051512 -0.023687983 0.12012677 0.35555953 0.29789913
-0.16459343 0.11762689 0.20051943 0.060320124 -0.13735253 -0.051998902 -0.10267658 -0.2540661
0.036981132 -0.17831784 0.0028125134 0.01125043 0.24368136 -0.017176643 -0.10817833 -0.2500345
-0.31092578 -0.08330874 -0.052266963 0.060914345 -0.20860273 -0.22045758 -0.13781892 0.04678379
-0.14501746 0.25662634 0.08735398 0.23651253 -0.052697197 0.10602167 0.3086649 -0.2678982
0.25731692 0.16159832 -0.12153369 0.17942315 0.12400983 0.03875482 -0.042414367 -0.032197215
0.09639316 -0.3209537 0.16984674 -0.19052498 -0.6687329 -0.05718241 0.016158892 0.06503779
-0.32093823 -0.13796003 -0.256854 0.1536898 0.16490683 0.029069807 0.075294755 -0.010750863
-0.3755544 -0.26339665 -0.054219123 0.3204767 -0.37750435 0.06605269 0.24110596 -0.6177522
0.122640125 0.2763647 -0.03536699 0.15392435 -0.2524921 -0.057041008 0.16180746 0.16116144
0.094964325 0.35729313 0.30239147 -0.25233692 -0.10117049 -0.38710532 -0.14863284 -0.015013662
0.009615893 0.03139172 -0.26562 -0.062206484 0.07056782 0.051848512 -0.3068032 -0.04606047
0.029639093 0.110456966 0.14391926 -0.14470734 0.20818357 0.3882065 0.07112145 0.6537967
-0.0042951186 0.20222405 0.05593921 -0.031575322 0.04725117 -0.2827735 -0.12953234 -0.12641203
0.06556943 0.003964826 0.28090736 0.17718016 -0.29108995 0.07869788 0.017539432 -0.3102128
-0.11881649 0.08260581 -0.119209945 -0.07533865 -0.31999496 -0.02300076 -0.25081205 0.058431257
-0.0806479 -0.18600792 0.040112782 -0.120540544 -0.024438018 0.11325328 0.17203507 -0.031181207
0.10778668 0.17173752 0.12561339 0.14810528 0.11529228 0.26861033 -0.10082526 0.18843402
0.15211223 -0.06371287 0.002189735 -0.041204236 0.20265913 0.07720204 -0.19558202 -0.085510805
-0.32814905 -0.15625748 -0.20821841 0.24022375 -0.20722641 -0.025118487 -0.12684995 -0.027255306
0.033976223 -0.119024426 0.018300785 -0.07495779 -0.02522362 -0.04436704 0.11306797 -0.34164098
0.08909198 0.46332687 0.01795286 0.17998497 0.09513786 0.10346427 0.19419828 -0.0020186685
0.26235092 0.041046463 0.17139623 -0.03655082 -0.04274716 -0.018925143 -0.17461517 0.23980527

params,ScannedRNN_0,GRUCell_0,hr,kernel f4 [64, 64]
00000000: 8b2e 9b3e e8dc 55be f43f 7a3e b579 243e
00000010: f377 2c3c dfa7 d0be 2dea 023e 1f9b 133e
00000020: 204c a7be 3fa5 863e 985b 2dbe 9fd5 803e
00000030: 63cc 43be 45fc ff3c ce9e 443e 6e5e a33d
00000040: cea1 ab3e 5619 203e beb3 3c3e 6796 2b3e
00000050: 5200 233f c709 13be a896 92bd 6617 253e
00000060: 280f 2abe 1aea c1be 38cf 7d3d 30cc e13e
00000070: 5722 dfbd 6bef ed3d 3972 373e ee1b 973e
00000080: 80f3 69be 0b03 503e 07d0 babe 1527 253e
00000090: a812 d8be 2a5f 4d3e 9c0e 90bd c5bb f1bd
000000a0: ff36 ae3e 5cd6 d03d 6379 073b dd3c d4be
000000b0: 1606 7a3d e90d b8be 9ee2 0f3e 3946 01bd
000000c0: 8123 233e 17b1 803e b780 6a3b e95c 27be
000000d0: f564 a83e ec75 a13e 05c1 10bd 767a 1a38
000000e0: 04c7 b63c 5bf6 e43d caaa 09be 3bed a3be
000000f0: 3b70 bfbd fd3d b53d fd86 eabd a624 333b
00000100: 48b6 e1bc 4084 a23d ba11 3bbe 705f 9abe
00000110: 00dd 023d 5ed7 8d3e cb58 7b3e a484 57be
00000120: 1833 cfbd 43eb b1bd b677 15be a0e7 053d
00000130: 2af3 02be b38d 5fbe 190f 0b3f 54c4 83bd
00000140: 2506 3e3c e6ba e6bd ba7d 0dbe 8fb3 753d
00000150: f421 0a3e c361 f13d 387c 2abe 1fe7 aebe
00000160: 7f3a 933d d64c 7cbe 6090 133c d54e a33e
00000170: 4f8f e43d 99d6 ed3c 6885 11be 6457 003e
00000180: ac15 d4bb ffb4 8dbe bb3d 6bbe ac89 c83d
00000190: 40fb 28be a23e af3d 37cd 273d 9383 f63d
000001a0: 8227 05be de14 5cbe 86bc cabd fba4 a93d
000001b0: 47c7 f83e da7c 9cbe 0d95 e13d 1ebe 413e
000001c0: b950 a13d 2a1c 8b3e 75b8 b1bd 1c62 4f3e
000001d0: 7392 cabe 7c59 5d3e 54b5 bf3c b5a8 d2bd
000001e0: e3ac 533e 2a6b a23d e2ba bd3d a8eb 023e
000001f0: 6de9 12bd 98a5 573d 37d7 01be a774 7dbd
00000200: 0363 3d3e 500c 2bbc 441a 88be e2ee 96bd
00000210: 60e3 0e3e b380 113e 488e 82bd 95aa 8dbd
00000220: 8a27 ac3e a516 793e 6913 08be 5538 3e3d
00000230: 3c1b 503b e96b 423e e41c 74bd 2662 d0be
00000240: 1ed5 51bd f305 903e cde9 49bd 4c5b 493d
00000250: 536e 0f3e 4e61 87be 3721 2cbe 1eb1 2ebe
00000260: 2a58 85be 6381 da3d cef4 a13e 1f0a d3be
00000270: bdd4 693e be45 89bd 56e5 d53b 8b5a f23d
00000280: 7c97 8abe 6601 423c 6b2a 2bbe 7816 0bbf
00000290: 5239 923d ab36 2f3e 8604 113e 5505 653e
000002a0: 71ca 57be 65e5 b13e 4787 1f3e da65 afbd
000002b0: 0f5a 473b 9fa1 b43e 6543 3cbd 5827 d0be
000002c0: 0ea5 193d ef4a 833d c8a3 b3bc 44e9 49bd
000002d0: 2e5d f7be 97db 86be ca2b fbbb 7164 843e
000002e0: 784e 903d 861e 903e 5570 0c3e b7ec c2be
000002f0: 3bf8 f83d c5d0 393e 5231 853e 510b 193d
00000300: e45e a13d 7014 02be e005 78be 9d55 80be
00000310: a1bc 9e3d 5fbc 9c3d 27f4 07bd 2110 b23c
00000320: 04a2 14be 099b 173e 8859 3abd 54f7 143e
00000330: caa9 04bf 50c8 a1bd 6579 4b3e a49b 873e
00000340: 0c40 3ebd 75e3 e53d 2533 493b a312 093e
00000350: 3d7f 893c 0c0e d03d f022 b9be b37d 1cbd
00000360: 9b41 c6bd 8061 b0be d476 b43e 5226 23bd
00000370: 8e85 aabb 246d 0f3d f3db 063e 6796 13be
00000380: 4a16 40bb 5ade 2dbe d55b 20be 3a55 c53d
00000390: 8eb2 1ebe 8ff7 84bc f5b2 88bc 1996 f5bd
000003a0: e6c6 663d 78d4 4cbe 2dbc b1bd 08e5 623d
000003b0: 0d00 ffbd 84ab 82be 731f c73d 85b5 413e
000003c0: 55b3 4bbd 8dcd dcbd 175a 8abd 52c1 c0bd
000003d0: c997 5bbd 36b2 173d 2aa6 72bd 5287 d5bd
000003e0: 3d57 0abe 8e4b 57be f500 aabd 0d3a 2cbe
000003f0: 40bc 14bf 38ec c43d 83ab 093e b6b1 5bbe
0.30308947 -0.2088505 0.24438459 0.16062053 0.010526645 -0.40753075 0.12784643 0.14414643
-0.32675266 0.26297948 -0.16929471 0.2516298 -0.19120936 0.031248221 0.19201204 0.079769954
0.33521885 0.15634665 0.18427941 0.16756593 0.63672364 -0.14359199 -0.07157642 0.16122207
-0.16607344 -0.37873918 0.061965197 0.44101095 -0.10895222 0.11617931 0.17914666 0.29513496
-0.22846794 0.20313661 -0.36486837 0.1612819 -0.42201734 0.20055833 -0.070340365 -0.11803392
0.34026334 0.10197136 0.0020671717 -0.41452685 0.06104096 -0.35948113 0.14051291 -0.03156111
0.15931512 0.2513511 0.0035782286 -0.16344036 0.32889524 0.3153528 -0.035340328 3.683051e-05
0.022311695 0.11179801 -0.13444057 -0.3201693 -0.09347578 0.08849714 -0.11451528 0.0027335077
-0.027552739 0.07935381 -0.18268481 -0.30150938 0.031949043 0.27703375 0.2454559 -0.21046692
-0.10117167 -0.08687451 -0.14596447 0.032691598 -0.12788072 -0.21831398 0.5431991 -0.06433931
0.011598145 -0.11266117 -0.13817492 0.059985694 0.13489515 0.11786225 -0.16648948 -0.34160706
0.071888916 -0.24638686 0.00900659 0.31896082 0.111601464 0.029032992 -0.14211047 0.12533337
-0.00647231 -0.27677152 -0.22972767 0.09791884 -0.16502094 0.08556868 0.040967193 0.120368145
-0.13003352 -0.21492335 -0.09899239 0.08283421 0.48589537 -0.30564004 0.11014757 0.1892018
0.07876725 0.27169925 -0.086777605 0.2025227 -0.39564857 0.21616167 0.023401894 -0.102860846
0.2067142 0.07930596 0.09264161 0.12785208 -0.035867143 0.052648157 -0.12679754 -0.061878826
0.18494801 -0.010439947 -0.2658254 -0.07369782 0.13953924 0.14209251 -0.06374794 -0.069173016
0.33623916 0.24325044 -0.13288654 0.04644044 0.0031754514 0.18986477 -0.059597865 -0.4069988
-0.051228635 0.2812954 -0.049295235 0.049159333 0.14006929 -0.26441425 -0.16809545 -0.17059752
-0.26043826 0.1066921 0.31632084 -0.4121866 0.2283506 -0.067027554 0.006527583 0.11833676
-0.27068698 0.011841154 -0.167154 -0.5433116 0.07139839 0.17110698 0.14161882 0.22365315
-0.21073319 0.34745327 0.15578948 -0.085643485 0.003041867 0.35279557 -0.04596271 -0.40655017
0.037510924 0.06410777 -0.021928683 -0.049294725 -0.48313278 -0.2633941 -0.007665132 0.2585788
0.07046217 0.28148288 0.13714726 -0.38071224 0.12156721 0.18146046 0.2601419 0.037364308
0.07879427 -0.12703109 -0.24220991 -0.25065318 0.07750822 0.076531164 -0.033191826 0.021736206
-0.14514929 0.14805235 -0.04549554 0.14547473 -0.5182158 -0.07899535 0.19870527 0.26485932
-0.0464478 0.112250246 0.003070065 0.13386016 0.016784305 0.10158929 -0.36159468 -0.038205814
-0.09680482 -0.34449387 0.3524691 -0.039831467 -0.0052039092 0.035016194 0.13169841 -0.14412843
-0.002931016 -0.16979352 -0.15660031 0.09635396 -0.154978 -0.016231326 -0.016686896 -0.119915195
0.056342028 -0.20002925 -0.0867847 0.055394202 -0.124511816 -0.2552148 0.09722795 0.189169
-0.04973157 -0.10781393 -0.067554645 -0.09411873 -0.05361155 0.03703519 -0.059240498 -0.10426201
-0.13509841 -0.21024916 -0.08300964 -0.1681902 -0.58099747 0.09615368 0.13444333 -0.2145451

params,ScannedRNN_0,GRUCell_0,hz,kernel f4 [64, 64]
00000000: 88d0 09bf 618a 7fbe aa18 85be 13a1 5fbe
00000010: 178c 1bbd b9b3 c8be e96b 31be 7eb6 febd
00000020: e437 20bd 88bd 87bd 3566 6c3e ebb7 7ebd
00000030: 1c68 82bd 3aeb e83d 7368 3ebf 9aa5 20be
00000040: cafb 35be e3f6 03be e50f 4ebe 5c6b f43d
00000050: 1c7f eabe 382f 0b3e 22ad 63be 8e9f dc3d
00000060: c4d6 0ebe d822 59bc 35e2 b9be 1303 e1be
00000070: 98d7 18be e378 533e b34c 763e 6451 c9be
00000080: 5eeb 703d 4bcd 07be 617c bdbe c5f0 853e
00000090: db3a 37be 65fd 58be 1737 5e3c 2f20 07bc
000000a0: 9a2a d43c 4999 9bbe c3d6 c0bc 924b dd3c
000000b0: a5a8 36be 7496 003d 20f4 443e 9f4e 55be
000000c0: c102 863e 4b29 1ebc 7cd7 17bd 2386 6abd
000000d0: 31b8 dcbd d518 e7bd e20b 9fbe 6514 ad3d
000000e0: 6ed4 18be 5dff 3ebe 374b dcbd c78a 543c
000000f0: 5420 ac3c b9d0 e7bd bb99 373d 04af d1be
00000100: 49d7 ed3d 6ad0 47be f553 dabe 22d0 17be
00000110: a937 82be b6c3 833d b9a9 a53d 7c1a 98be
00000120: a819 c0be f209 52be af85 e6bc 690e 37be
00000130: 041e 543e 692d bdbd 2ef8 b63d 09db ccbd
00000140: 0440 58bc 0a28 8abc 5a77 4abe 8d16 6e3c
00000150: 684c a9be 439b a8bd 04e0 97bd 9f4e 1fbd
00000160: 54f5 33be 1ab9 ee3b 7a71 2abe b6b5 43bc
00000170: a582 89bd ff09 27bc cc3c a83e e735 e33d
00000180: 31a7 613e a6b8 813e b496 333c 10e3 c33d
00000190: db48 2f3e 2aec 55bc cb4e 173e 6bc9 0fbd
000001a0: d699 b03d 3cd3 d33d c24b 41be 6922 68be
000001b0: 31db c63e 2c69 5cbd b1b6 f0bd 4b32 943e
000001c0: 06e6 2bbe b209 5cbd cb84 64be e521 eebd
000001d0: 0cd1 00be b42a 8a3d 61bd fdbc 38b4 12be
000001e0: 4fdb bebd b137 8dbd 369a 393e 8c6c a13d
000001f0: 8249 f7be 7631 b63e 5da2 32bd 2be1 593e
00000200: e80a 57be cba3 183e d997 3a3e 848c 393d
00000210: d8f4 aabe cf54 28be 0d71 21be 5aba c1be
00000220: 7ee9 bbbd 3d42 733e 6fa7 6e3d 0856 94bc
00000230: 598b 1abe 3b0d 063d 0a85 86bd c21e 17be
00000240: 0ba8 bdbe beac f63c 8f44 8fbc 8eda 3bbd
00000250: e5ca d8be 0500 183e f829 41be 5b90 9abc
00000260: 1646 9fbe 8758 83bd 44a1 d5bd 97ed 813e
00000270: 5eec ef3d 540c 6b3d cba3 44bc 3ed0 173e
00000280: d67b 2b3d d27d ffbd 418a 1cbe 8348 4a3e
00000290: a6f0 56be a479 56be 490e fabd 2f30 c9be
000002a0: 9d86 d43d 16a3 82bc b73b 43be 095f d4bd
000002b0: 9595 be3a 26e0 81be 223f 4e3e 332f 953e
000002c0: 35bb f8bc 86f7 69be 1810 9dbe ecf9 7dbe
000002d0: cdae b1bd fcd8 8dbe 0977 acbe 144d 4cbd
000002e0: e25f ca3d 9fa2 88bd 9f16 0dbe 6f92 d7bc
000002f0: 0276 92be dff2 eb3d a788 81be 1556 ffbd
00000300: f17f 91bd 7eef 433c e07e 1cbd 474c c53e
00000310: b312 8c3d eeae 923d 3ee2 5dbe d621 3b3d
00000320: 0d7c 523d 63ce 3ebe ca97 9cbe 6f7c 0fbe
00000330: e80f 803e d49a b53d 2192 e93c ab79 c3be
00000340: 2403 c5bd cbe4 fc3c d76c 57be e817 f63c
00000350: 38f2 96be 95e4 17bd f9b1 c3bd e357 a8bc
00000360: 5d78 b93c 8e07 e63e 9d82 bdbd 364c 30bd
00000370: fe7a 8a3d 2c7a a63c c3ca c93e a260 3d3e
00000380: aee2 9dbe 7438 9dbd 05e1 9f3c 3d64 113e
00000390: 20b4 e03e ca38 593e 40de 1abe 67df 743c
000003a0: 01c1 933d f37f 3c3e 3905 e4bc cbc4 80be
000003b0: 1f4c 5c3e 75ec 903e e7c0 403d f2a8 9d3d
000003c0: 6f4d 843e 40da 48bd 7eb2 dcbd 3032 94be
000003d0: 6250 21bd 6f34 1abe 3552 5bbe 05a6 4abd
000003e0: 6393 eb3e 31a6 153e d2e3 92be bbdb 4abd
000003f0: 8fe0 1bbd 6159 813d f6cb a2be db45 c03d
-0.5383382 -0.24955131 -0.2599538 -0.21838789 -0.037975397 -0.39199618 -0.1732632 -0.12437151
-0.0391158 -0.06627947 0.23085864 -0.062187117 -0.063675135 0.11372991 -0.74378127 -0.15688172
-0.17771831 -0.12887149 -0.20123251 0.1193454 -0.45800102 0.13592231 -0.22234014 0.1077262
-0.13949114 -0.013252936 -0.36305395 -0.43947658 -0.14925992 0.20651583 0.24052696 -0.3931991
0.058818214 -0.13261907 -0.37008956 0.26160255 -0.17893545 -0.21190412 0.013562939 -0.008247419
0.02589922 -0.30390385 -0.023539906 0.027013574 -0.1783777 0.031393483 0.19233751 -0.20830773
0.26173976 -0.0096534 -0.037070736 -0.05725683 -0.10777319 -0.11284033 -0.31063753 0.084511556
-0.14924785 -0.18652101 -0.107565336 0.01297254 0.021011509 -0.113191076 0.044824343 -0.4095384
0.11613328 -0.19513097 -0.4264218 -0.1482549 -0.2543309 0.06433813 0.08089013 -0.29707706
-0.37519574 -0.20511606 -0.028139917 -0.17876591 0.20714575 -0.09237177 0.08934055 -0.10002715
-0.013198856 -0.016864795 -0.19772092 0.014531744 -0.33066106 -0.08232739 -0.074157745 -0.03889334
-0.17574054 0.0072852494 -0.1664485 -0.011945179 -0.067143716 -0.010195254 0.32858884 0.110942654
0.22036435 0.25336188 0.010961223 0.09564793 0.17117636 -0.013056794 0.14776151 -0.035104197
0.08623092 0.10343024 -0.18876556 -0.22669376 0.38839105 -0.053811237 -0.117535956 0.2894462
-0.16786966 -0.053720184 -0.22316281 -0.116275586 -0.12579745 0.06746426 -0.030974092 -0.1432656
-0.093191735 -0.06895388 0.18125233 0.07882032 -0.4829827 0.3558461 -0.043611873 0.21277301
-0.21000254 0.14906232 0.18221988 0.04530002 -0.33389926 -0.16438602 -0.15765782 -0.37837487
-0.091753945 0.23755737 0.058265146 -0.01810743 -0.1509222 0.03272746 -0.06568344 -0.14757827
-0.3704227 0.030111667 -0.017488746 -0.045862727 -0.42342296 0.14843757 -0.18863666 -0.018867662
-0.3110816 -0.064133696 -0.104311496 0.2537658 0.11715005 0.057384804 -0.012001942 0.14825532
0.041866146 -0.1247517 -0.15287115 0.19754224 -0.20990238 -0.2094484 -0.12209756 -0.39294574
0.10377238 -0.015946906 -0.19065748 -0.10369689 0.0014540429 -0.25366324 0.20141271 0.29137573
-0.030362705 -0.22848329 -0.3067634 -0.24802369 -0.08675919 -0.27704608 -0.33684567 -0.049878195
0.098815694 -0.066716425 -0.1377816 -0.026314942 -0.28605658 0.11520933 -0.2529957 -0.12467591
-0.07104481 0.011958955 -0.038206935 0.38534757 0.06839504 0.071622714 -0.21668336 0.045686565
0.051387835 -0.18633418 -0.30584556 -0.14012311 0.25012136 0.08867422 0.028512063 -0.38178763
-0.0961974 0.030870816 -0.21037613 0.030040696 -0.29481673 -0.037083227 -0.0955543 -0.02054972
0.022640401 0.4492764 -0.09253428 -0.04304143 0.0676174 0.020321928 0.39412507 0.18493894
-0.30837005 -0.07676783 0.019516477 0.14198394 0.43887424 0.2121307 -0.15123844 0.014945841
0.07214547 0.18408184 -0.027834522 -0.2515014 0.21513413 0.28305402 0.047058966 0.076982394
0.25840327 -0.049036264 -0.10776232 -0.2894454 -0.0393833 -0.15059064 -0.21418078 -0.049474735
0.46010885 0.14614178 -0.28689438 -0.049525958 -0.038055953 0.06315876 -0.31796235 0.09388324

params,ScannedRNN_0,GRUCell_0,in,bias f4 [64]
00000000: c624 56bd 82c6 c7bd c45d 0fbd 7884 cc3c
00000010: ea7c 9b3d 6248 afbe 4a80 ec3d 8c83 563e
00000020: 89c8 823e 4d36 023d 7442 58be 08db 8f3d
00000030: ffa7 3bbc 7f25 44bc 28fc 0abe 25ca ad3e
00000040: a2e2 403d 63ba f03d 18a2 2cbe cf54 85bd
00000050: d639 a5bc 8ca0 49be 4000 9c3d 6247 d73d
00000060: 2a40 a93d 1974 ed3e 5474 063f 0ad1 953c
00000070: 5274 a23d 4203 7abf bcd2 64bf f5ca 7ebc
00000080: 2d17 e0bd fdbc c83d 01af 4f3a dc23 f53d
00000090: 4811 d3bc 7959 b3bd b815 38bd 2f65 e9bd
000000a0: 131c 833d ec31 e63e f2e3 cdbe 1ff9 15be
000000b0: b0ee c3bd 6d29 b53e c99c fdbd d54a ea3d
000000c0: bca2 863e 72c0 d6bd e501 0bbd 86f8 7abb
000000d0: ee13 0b3e 35b0 0fbd 1987 f83e 1036 4a3e
000000e0: bac6 6dbd abc9 8a3d c3a7 543d be3e a8bd
000000f0: d600 a8bc 7385 e43d 4eaf 023e 8ef4 673d
-0.052281164 -0.09754659 -0.03500153 0.02496551 0.07592185 -0.3423491 0.11547907 0.20948619
0.2554362 0.031790067 -0.211191 0.07024199 -0.011453628 -0.01197183 -0.13572752 0.33943287
0.047091134 0.117543004 -0.16858709 -0.065103166 -0.02016918 -0.1969015 0.07617235 0.10511662
0.082641914 0.46377638 0.5252125 0.018288154 0.079323426 -0.9766122 -0.89384055 -0.015551318
-0.109419204 0.09801672 0.0007922501 0.1196973 -0.025765076 -0.087573 -0.044942588 -0.11396252
0.06401839 0.44959962 -0.4021297 -0.14645813 -0.095670104 0.35383168 -0.1238342 0.11440054
0.2629603 -0.10485925 -0.033937354 -0.0038295104 0.13581821 -0.035080153 0.4854057 0.19747186
-0.05805085 0.06776746 0.051917803 -0.08215092 -0.020508211 0.11158266 0.12762186 0.05662971

params,ScannedRNN_0,GRUCell_0,in,kernel f4 [64, 64]
00000000: 00ab cd3d 1ace 023e a2c8 e43e 9a79 0b3e
00000010: 8b58 cc3c 856e 343e 668b f739 6047 b73d
00000020: 7d97 1bbe 6843 143e 64e4 ccbd ca72 3cbe
00000030: 1dce c03d d285 56be ea2c 81be af0d c7bd
00000040: 77af 39be 925d e1bd 89e0 c3be 6fbd dcbd
00000050: 79a4 553d 1b2a c23e 78be 5dbe 3dca 153d
00000060: bb99 f93d 1bc9 5ebd fae0 4b3d e343 31be
00000070: 0d50 48bd c374 d93b b479 6abd bd01 9ebd
00000080: d043 1abe fdff a8bd 4aee 63be 25e7 02bf
00000090: 35b5 9cbe 53da a93e 856b d2bd 105d 1ebe
000000a0: d3a0 8abd 92df c3be c486 02be 8fec 0bbf
000000b0: d745 693e b8d3 4dbd 48f2 ebbc 1cc9 023f
000000c0: f900 bbbd ba9b b9bd 75c9 1ebe 399b 8b3b
000000d0: d9ec 63bd 387d dcbd f782 713c f9b8 33bc
000000e0: 39dd 6a3e 82b8 293e 0c2b 3e3e 6e8c 53be
000000f0: 25c3 533e ed2d af3d 8f80 213e 75e5 b1bc
00000100: f6d8 203e 6512 773e 3fae e33d d5b7 cc3f
00000110: fc8a c7bd 83a3 e2be 1300 8a3d e3ea f5bd
00000120: 09c5 f4bd ef1a d6bd 191f 543e 0193 1abe
00000130: 71bd 813d 3e7c 31be 1b51 79bc adac abbd
00000140: 3600 cabd 93be 753d 32b5 2ebe fc4f 99bd
00000150: 11f7 c03d dcb3 fb3d cc4b 073d 8e86 0c3e
00000160: 09c3 893d 4f1e 793d d591 783e 2334 ab3d
00000170: df1b 893e 11e9 273e 0682 b8bc 6a7f fcbb
00000180: d27e 123c 521f 153e 3894 53be 3e79 8a3e
00000190: 97c6 98be 475a 0dbe 86e7 133d d01b 2dbf
000001a0: a735 613e 082e 0fbe 5538 1e3d ef4f bcbe
000001b0: f8f2 423f 6189 51bd 0f61 2fbe d3a2 783e
000001c0: b5a7 33be e597 653c ca91 08be 1175 393f
000001d0: 0b04 573c 690e 4bbe 5d0d 8dbe 0b02 f1bd
000001e0: c34e 5dbd 6685 1c3e 1909 103f c590 81bd
000001f0: 2bf6 30bb b3c7 143d 444a b0bc 354c d93e
00000200: 89d0 543e 737f 3d3e fcac c6bd 4874 d93e
00000210: 3573 a8be f0ed 863e b714 a6bd 257e eabe
00000220: 9950 2fbd bb15 ddbd e950 3d3e d4f9 2fbe
00000230: a7be e6bc db01 bc3e 28c5 9c3d 3da6 193d
00000240: 3383 79bc d513 eebe aec7 a53d 23a4 3dbe
00000250: e90e a8be dfae 9ebe 4500 db3d 8334 6abe
00000260: ad38 58bd d1b0 7fbe 056d d43a 8fd6 2a3c
00000270: 0d9b 413e 9a31 573e 4392 4f3e 71e1 9f3e
00000280: 26d8 523e 1459 abbc 26d0 9fbe ce6c 4f3e
00000290: 21d0 73be e4e6 763c 6003 08be 3ad3 31be
000002a0: b810 903d 4a10 b83d 9965 96bd 417e 923e
000002b0: c1bf c13e 89d0 b2be 5a9b bd3c a565 98be
000002c0: 7b1e c8be fd18 8ebd 5f0e b03e 439f a43e
000002d0: f26a ebbc d822 48bd f616 c9bd dac6 4bbc
000002e0: e84c 953d 45e5 3abe 2f6a 55bc 2514 423e
000002f0: e21f 24be 2a83 533e e3ab 2abd c387 f83c
00000300: a067 3d3d 3652 30be 4af3 33be e0f5 9abe
00000310: 79e0 1dbd e5e6 833f 46d4 27bd 392d e4bd
00000320: fed7 c5bb 1fac 1ebd d010 243f ada8 21be
00000330: 641b ed3d 526b 80bd f31e a7bc c7b9 6ebe
00000340: e304 093e 1000 a2bd 7800 8f3d 08d8 363e
00000350: 57d6 37bd 7c57 e53c eb60 8b3d 33ca 873d
00000360: 9983 c9bc bd90 a1bc c96f 2ebf 724e c6bd
00000370: 1660 0c3d 1138 1a3e de2d 243e f419 9d3d
00000380: e7bf dcbd 902f 83bd b5a9 0ebe 0e6d c43d
00000390: 7e03 0c3f aa4e 033d cb1b ea3d 69d1 d53e
000003a0: 60c3 1bbd 6d7f 97be 9d78 b4ba 1723 943d
000003b0: ab08 e2be 00a6 37be 4f25 4f3e 0df1 f4bd
000003c0: a760 69be 9251 f6bd 678d c03c 724a 4abd
000003d0: c94a ffbe 1b54 15be 97dd c43c e00a 8cbd
000003e0: 9c26 773e ff39 343c 4669 43be 9883 eabd
000003f0: 2642 a43d 7eae 63bd d104 73bc cfc0 c3be
0.10042381 0.12773934 0.4468432 0.13620606 0.024944564 0.17620285 0.0004721537 0.089491606
-0.15194507 0.14478838 -0.100044996 -0.18403164 0.09414313 -0.20949486 -0.2522958 -0.09719407
-0.18133341 -0.11004175 -0.38257244 -0.10778319 0.052158806 0.3792275 -0.2165469 0.036569823
0.12187525 -0.054391008 0.0497751 -0.17311053 -0.048904467 0.0066362335 -0.05724497 -0.07715175
-0.15064931 -0.08251951 -0.22258869 -0.5113395 -0.30607 0.3317438 -0.10274414 -0.15465188
-0.06768956 -0.38256508 -0.12746722 -0.54657835 0.22780548 -0.05025074 -0.028802052 0.5108812
-0.09131045 -0.090629056 -0.15506537 0.0042604473 -0.055645797 -0.10766071 0.014740697 -0.010969394
0.22935952 0.1657429 0.18571109 -0.20659038 0.2067991 0.085536815 0.15771697 -0.021715859
0.15707764 0.2412811 0.11117219 1.5993601 -0.09743306 -0.44265375 0.067382954 -0.12007692
-0.11951644 -0.10454356 0.20714988 -0.1509514 0.06334961 -0.17332551 -0.015217091 -0.08382545
-0.098633215 0.0599962 -0.17061308 -0.07485959 0.09422124 0.12290165 0.03303127 0.13723204
0.06726653 0.06081992 0.2427438 0.08359554 0.26779076 0.16397502 -0.022522938 -0.0077056186
0.008941369 0.14562729 -0.2066201 0.27045625 -0.29839012 -0.1380397 0.03610947 -0.67620564
0.21993123 -0.13982403 0.03862794 -0.36779734 0.7615199 -0.051156405 -0.17126869 0.24280863
-0.17544444 0.014013265 -0.13336864 0.72444254 0.0131235225 -0.19829716 -0.27549258 -0.11767968
-0.05403019 0.15285262 0.5626388 -0.06326441 -0.0027002196 0.03632326 -0.021519788 0.42440954
0.20782675 0.1850565 -0.09700963 0.42471528 -0.32900396 0.26353407 -0.0810942 -0.45799366
-0.042801473 -0.107951604 0.18487896 -0.17185146 -0.028167082 0.36720166 0.07654792 0.037512053
-0.015229034 -0.46499506 0.080947265 -0.18519644 -0.32823876 -0.3099279 0.10693411 -0.22871594
-0.052788425 -0.24969794 0.0016206807 0.010427131 0.18906803 0.21015015 0.20270638 0.31226686
0.20590267 -0.0209165 -0.31213492 0.2025635 -0.23809864 0.015069697 -0.13282537 -0.17365733
0.07034439 0.08987482 -0.07343597 0.2861195 0.3784161 -0.34924725 0.023145366 -0.2976505
-0.39085755 -0.0693836 0.34385964 0.32152757 -0.028737519 -0.048861355 -0.098188326 -0.012437547
0.07290059 -0.18251522 -0.013025804 0.18952997 -0.16027787 0.20655504 -0.04166783 0.030338174
0.046241403 -0.17218861 -0.17573276 -0.30265713 -0.038544152 1.0304838 -0.040973924 -0.11141438
-0.006037711 -0.038738366 0.64088154 -0.15787001 0.1157749 -0.0627047 -0.0204005 -0.23313056
0.1338077 -0.07910168 0.06982511 0.17855847 -0.044882145 0.027995817 0.06805595 0.06630363
-0.024598883 -0.019722337 -0.6813932 -0.09682931 0.034271322 0.1506045 0.16033122 0.07670966
-0.1077879 -0.06405556 -0.13931926 0.09591113 0.5469283 0.03205744 0.11431082 0.4176133
-0.03802812 -0.29589406 -0.0013768856 0.07233255 -0.44147238 -0.17934418 0.20229076 -0.11960039
-0.22790776 -0.12027277 0.023504926 -0.049387403 -0.49861744 -0.14582865 0.024031444 -0.06838012
0.24135822 0.0110001555 -0.19083127 -0.11450881 0.08020429 -0.05558633 -0.014832691 -0.3823304

params,ScannedRNN_0,GRUCell_0,ir,bias f4 [64]
00000000: 02c1 353e 526a 54bd fa2d 883c 3d4d 3b3d
00000010: 2061 653c 396e 4b3d 4abd 05bc e106 ef3d
00000020: 7b4f 233e e4c0 f63c 2b68 7ebe 6f7f 2fbe
00000030: 075d 8cbd 0fea fbbc ed65 ffbc 98b2 d83e
00000040: 1b5d febd 97e8 0f3e 4c99 843e ef37 babd
00000050: ca0c 983e a4c0 48bd eadc 4ebe 615c 7fbc
00000060: d30b 513c 9198 093e 2684 323e 6a81 debc
00000070: 5e42 ebbd 7f4c 773f 9610 073f 71d0 4a3d
00000080: a95a 7d3e 91e3 f4bb 356c 213e 462f fabd
00000090: af91 813d f538 03be c6f3 133e 2dd1 9fbc
000000a0: 8c02 2ebe dbfa d23e e5f7 213e a6aa a13e
000000b0: 7004 0c3e f949 503e 1ecd 0ebe e059 14bd
000000c0: dedd 893d bb72 01be 1e07 793e a060 a33e
000000d0: 9195 313e b615 a43e 3aac 733e 0796 f83d
000000e0: 3c81 2abe 0abe 243e de1a 2d3e 73b5 7b3d
000000f0: 18ae d33d ad13 8d3e 648c e6bd a4b4 973d
0.17749408 -0.051859207 0.016623486 0.045727957 0.014000207 0.049665663 -0.008162806 0.11671234
0.15948288 0.030121274 -0.24844424 -0.17138456 -0.06853681 -0.030751256 -0.031176532 0.42323756
-0.12420102 0.1405357 0.25898206 -0.090927 0.29697257 -0.04901184 -0.2020146 -0.01558599
0.012759167 0.13437106 0.17433223 -0.027161319 -0.11487268 0.966011 0.52759683 0.04951519
0.24741615 -0.007473417 0.15763934 -0.12216048 0.06326615 -0.12814696 0.14448461 -0.019508922
-0.16993159 0.41207013 0.1581722 0.31575507 0.13673568 0.20340718 -0.13945433 -0.036218524
0.06731771 -0.12641422 0.24319121 0.31909657 0.17342211 0.32047814 0.23796168 0.121379904
-0.16650862 0.16088119 0.1690478 0.06145234 0.1033594 0.27554074 -0.11257246 0.07407501

params,ScannedRNN_0,GRUCell_0,ir,kernel f4 [64, 64]
00000000: fae2 50be 5902 68bd e2a8 7f3c 31de 22bd
00000010: 2720 ee3d 722c d93b 424b c0bb 6751 48be
00000020: 5503 4b3e 0b5c 29be c745 cc3e 4903 4fbd
00000030: 81c6 25be 715d 4abb ca9d 433e a6e8 aebe
00000040: 1684 2abd 83f5 07be acc2 6fbe 0287 0dbd
00000050: 7f28 26be fd95 dfbe 4b03 24bd a5f3 adbe
00000060: 5dac 2d3a 4203 953d c257 73be 1550 5fbe
00000070: dc6a d13d 4ae6 323d 1e9e de3d c063 a6bc
00000080: efe9 353e a9e7 a63d 34bd 87be 480c 293d
00000090: cc41 bdbe 3d63 7e3d b338 ce3d 01a4 10be
000000a0: 8eed f13d 8a34 203e 0333 733d 8564 4b3b
000000b0: aaf2 bbbd 76dc 333e e9bb f03d 1f1e 28bf
000000c0: abdf 753d 1320 6a3e 3f36 9ebe 195f 9cbe
000000d0: 5bcc 86be 70bc f3be 337a 27be aa5d 78be
000000e0: 92b6 cd3e 655b 6a3d fddc 98be dcd9 5dba
000000f0: f34d 88be bd8a 60be 48fe 00bd b0e6 63be
00000100: 0a98 16be 250f 65bf ff31 1abe 5521 53bf
00000110: 05b4 72be 98f0 363c d14a 673e 5134 f2be
00000120: 48a7 91bd 0252 5ebe d0b2 8a3e 83da b6bd
00000130: 37a9 75be 00f2 3b3c 80e0 5f3e d46c bfbe
00000140: 8023 133e 3e72 86bd 97d6 b9bd a884 dbbc
00000150: 6f33 f0bc b561 6dbd 35b4 ef3d 4e2f 89bc
00000160: 236b 1dbe e458 80bf 4f65 dfbd d1c3 6cbe
00000170: ab92 afbd b732 5abd a4a5 e2bd dfee 9e3d
00000180: 47b8 fabe 3d5e 8fbd 0087 c93d 875d 9f3e
00000190: def5 70bf 518a 9fbe 8fa8 6ebe 448b 1cbf
000001a0: 7ba0 cf3d 0037 51be 7cb6 07be 025c b93d
000001b0: 8302 ba3d 9585 c2be 2509 9e3d 9b02 a4be
000001c0: 7e77 25bd 562b 56bd c18b f43d 9f11 4abe
000001d0: 3151 76be 05ba b23d c1e7 7dbe 5e05 5e3e
000001e0: d1d4 303e ab31 c53b abdb 0d3e 39ac d8bd
000001f0: 6d9f 80bf 43b0 b1bd b07d 11be 021f 91bf
00000200: 25ef f1be 9ced 16bf 2f3a ba3d bde4 c2bd
00000210: 3f22 493d afd4 bc3d 8ff8 e03d 1756 82bd
00000220: 7899 25be 5090 9bbd 4988 8dbe 46ec 6c3d
00000230: dbbb 18be 1613 21be b800 d8be 6a00 113f
00000240: 1abc c23e 61dd 8cbe 44f0 e2be 35db e8bd
00000250: 32e1 aebe 7c70 9b3e ee2c b2be 43d8 d1be
00000260: 6760 7b3e 590c 12bf 376f b8b9 f3e0 efbe
00000270: a63d 28bf 4aaf 3bbe fa69 22bf 8a6b 0fbf
00000280: 72e6 a2bc 1634 713e 7627 c83d ad26 893e
00000290: 68f0 d5be 17c5 78be 99e7 2bbd c976 15bf
000002a0: 15b1 5dbd 9339 88bd 1186 a83d fdb4 c6be
000002b0: 6573 8f3f 8dc8 27bf 0a52 193e 9893 303d
000002c0: 52d3 c53d 03a2 333e 7498 b43e a980 d4bd
000002d0: a2d0 5ebe 5819 9c3e 7eea ffbe e06a f4bd
000002e0: 20b5 3ebe bcf3 6cbe b4ff a63e 7d92 d83e
000002f0: cc84 84bf bc4b e23c 8796 5a3e bed5 84be
00000300: 0d3d 90be 21df 81be ebb4 36bc a349 793e
00000310: def5 74be 7475 77bf f938 693b 2a0d afbe
00000320: 91db d03a 9c6f 4bbe 9c89 00bf 0ae3 27bd
00000330: 1672 7cbd d0a7 9dbe 1c17 40be 0afc 4abe
00000340: d20e 183e 43d4 22bf 4c57 8bbe 4e46 003e
00000350: a856 0abe 3138 0d3c 345e 2d3e 4e0d 373e
00000360: a4e6 7f3e 711a 3b3e ef7c 11bf 3247 b2be
00000370: 4d6c 4bbe 4803 f4bc 97b3 09bf cd6a 843e
00000380: 5ef9 ae3e 73f8 bd3d f5dd 763d f9a5 bfbe
00000390: 0786 073f 3b4b 29be b85f cbbe e808 cf3e
000003a0: 9999 553d 2b66 08bf 8507 063e b475 d0be
000003b0: a51e 0c3e 1f0e 01bf a927 a03e 2881 ccbe
000003c0: ca39 2a3e f1b4 643c 44f5 073e 3ce0 703d
000003d0: ddb6 a3be eccb 3ebd 9af0 b2be 528a b2be
000003e0: eb6a a2be 4519 a3bd 7022 583c e8f0 17be
000003f0: a545 813d 78d4 a73e 342f 7b3d 673d 8b3e
-0.20399085 -0.056642864 0.01560423 -0.03976268 0.11627226 0.0066276127 -0.0058683464 -0.19562303
0.1982549 -0.16539018 0.39896986 -0.050540242 -0.16189004 -0.003087845 0.1910316 -0.34161872
-0.041629873 -0.13277249 -0.23414105 -0.03455258 -0.16226386 -0.4366912 -0.040042203 -0.3397495
0.00066251104 0.07276012 -0.23763946 -0.21807893 0.1022546 0.043676652 0.10870002 -0.020311236
0.1776502 0.081496544 -0.26511538 0.041271478 -0.36964262 0.06210636 0.10069408 -0.14125063
0.11812888 0.15645042 0.05937482 0.0031035256 -0.09177144 0.17564568 0.11754591 -0.6567096
0.06002776 0.22863798 -0.3090076 -0.30541304 -0.26327786 -0.47604704 -0.16355209 -0.2425448
0.40178353 0.057216067 -0.298561 -0.00084629445 -0.2662197 -0.21927924 -0.0314925 -0.22255969
-0.14706436 -0.89476234 -0.15058134 -0.82472736 -0.23701485 0.01116576 0.22587134 -0.4730554
-0.071119845 -0.21710971 0.27089548 -0.089283966 -0.23990332 0.0114712715 0.21862984 -0.37387717
0.14369011 -0.06564759 -0.09074133 -0.026796654 -0.0293214 -0.05795451 0.11704294 -0.01674619
-0.153729 -1.0027127 -0.10907995 -0.23121573 -0.085728966 -0.05327102 -0.1106675 0.07760405
-0.48968717 -0.070003964 0.09840202 0.31126043 -0.94125164 -0.31160215 -0.23306488 -0.6115
0.10138031 -0.20431137 -0.13253206 0.09050752 0.0908251 -0.3799254 0.07716588 -0.32033238
-0.04039716 -0.052287422 0.119407184 -0.19733284 -0.2405441 0.08726887 -0.24795438 0.21681735
0.17268683 0.006017884 0.13853328 -0.10579724 -1.0048653 -0.086761974 -0.14208102 -1.1337588
-0.47252765 -0.58956313 0.09093129 -0.095162846 0.049104925 0.09220254 0.10984909 -0.063640766
-0.16171825 -0.07595885 -0.2764304 0.057842515 -0.14915411 -0.15729937 -0.42188048 0.56641257
0.38034135 -0.2751265 -0.44323933 -0.113699354 -0.34156185 0.30359256 -0.34799904 -0.40985307
0.24548493 -0.5705009 -0.00035178076 -0.4685131 -0.6571907 -0.18328586 -0.6344296 -0.56023467
-0.019885276 0.23555025 0.097731516 0.2678732 -0.41784978 -0.24293934 -0.041968916 -0.58384377
-0.054123957 -0.066516064 0.08228696 -0.38809958 1.1207091 -0.6554039 0.14972702 0.043109506
0.09659447 0.17542271 0.35272563 -0.103761025 -0.21759275 0.30488086 -0.4998359 -0.11934447
-0.18623781 -0.23139852 0.3261696 0.42299262 -1.0353026 0.027624004 0.21346484 -0.25944322
-0.28171578 -0.25365546 -0.011151533 0.24344496 -0.23921916 -0.96663594 0.0035586937 -0.3418973
0.0015934577 -0.19866794 -0.50209975 -0.040988006 -0.06163224 -0.30792093 -0.18758816 -0.19822708
0.14849404 -0.63605136 -0.2721504 0.12526819 -0.13509619 0.008619354 0.16930467 0.17876169
0.24990326 0.18271805 -0.5683126 -0.34819943 -0.19865532 -0.02978672 -0.5378966 0.25862733
0.34174627 0.092759036 0.06027027 -0.37431315 0.52938884 -0.16532604 -0.39721465 0.40436482
0.052148435 -0.53280896 0.13088806 -0.407148 0.13683565 -0.5041217 0.31280258 -0.39942288
0.16623607 0.013959155 0.13277155 0.058807597 -0.3197545 -0.046581194 -0.3494919 -0.34871155
-0.31722197 -0.07963804 0.013191804 -0.14837992 0.06312112 0.32779288 0.061324313 0.27195284
