baselines/QLearning/checkpoints/MPE_simple_spread_v3/transf_qmix.safetensors (safetensors, 321612 bytes, 109 tensors)

agent,params,embedder,Dense_0,bias f4 [32]
000000 77 77 a3 bc 28 3c 0f 3c 9b 2c 25 bd b5 65 ac 3c
       -0.019954426 0.00874237 -0.040325742 0.021044591
000010 e1 e6 06 3c e0 6e 55 bc e8 e7 09 3a 69 e6 f6 3c
       0.008233757 -0.013026923 0.0005260692 0.030139165
000020 2f b6 d7 3c da f6 14 3a c6 96 01 bd 5d e9 21 3d
       0.02633199 0.00056825357 -0.03163793 0.039529193
000030 33 bf cb bc 9e 20 ca bc 3f ee 02 3d 2e f0 d5 3c
       -0.024871444 -0.024673756 0.03196549 0.026115503
000040 3f 4f f8 bc a4 4a 76 3b 2f cc 0b bd 27 06 20 bc
       -0.030311225 0.003758111 -0.03413027 -0.009767092
000050 97 f1 cd 3b c9 5b ab bb 00 f1 71 bc 68 79 00 bd
       0.0062849033 -0.0052294475 -0.0147669315 -0.031365782
000060 1b 1e c8 3c 98 8f a8 bc 2d ba b4 bc 1f 1c 2e 3d
       0.024428418 -0.020576283 -0.022061432 0.042507287
000070 ad 52 8d 3d 5c c1 fe bc 5c f3 87 3c ae e4 f2 3c
       0.06900535 -0.03109806 0.016595535 0.029650059

agent,params,embedder,Dense_0,kernel f4 [4, 32]
000000 d7 44 7a 3f a2 a4 89 3e ac 7f 84 be e8 72 1e be
       0.9776129 0.26883417 -0.25878656 -0.15473521
000010 73 ec e3 3e 78 a7 7e 3e d7 b2 3c bf 24 a9 0b be
       0.44516334 0.24868572 -0.7371039 -0.13638741
000020 c0 b4 5d 3d 7f e8 41 bd 00 f4 bd be 1e ba aa 3c
       0.054127455 -0.047340866 -0.3710022 0.0208407
000030 90 1b 99 be c6 5a 75 3d b6 c2 03 bd 57 7c 7a be
       -0.2990384 0.05990102 -0.032168113 -0.24461494
000040 c1 bd 45 be 8d 58 2c be 7b 70 cd 3c 53 f4 65 be
       -0.19310667 -0.16830654 0.025078049 -0.22456484
000050 cd b6 16 bf 91 42 c4 be 7e 98 53 bf 8a bc 8e 3e
       -0.5887268 -0.38332036 -0.8265456 0.2787822
000060 22 9e 10 3e 42 8d 94 3d ae bd e8 bc 01 38 81 be
       0.14122823 0.07253505 -0.028410759 -0.2523804
000070 39 a7 26 bf ac f3 25 3e 07 dc b3 3d 64 91 df 3d
       -0.6509891 0.16206235 0.08782201 0.10916403
000080 3e 1c f1 3d 58 41 08 bf 46 e3 b3 3e 62 fd d7 be
       0.11772965 -0.53224707 0.35134333 -0.42185503
000090 05 3c 4d bf 1d 28 b9 3e c6 e5 31 3e 9b fe 62 be
       -0.8016971 0.36163417 0.17372808 -0.22167437
0000a0 41 19 0a bf 9b c7 b4 3e f2 ad bd be 21 a2 ad be
       -0.53944784 0.35308537 -0.37046772 -0.33912757
0000b0 a2 9d a1 be cc f9 b8 be fc 58 9c be b4 3b 9e 3e
       -0.31565577 -0.3612808 -0.3053664 0.30904925
0000c0 c2 5d 19 3d 2d af b3 3d 02 b0 d9 bd d6 7e 29 bc
       0.03744293 0.087736465 -0.10629274 -0.010345181
0000d0 75 bd e2 3d ec b7 08 bf 25 ad 44 3e e0 f3 ae bd
       0.11071292 -0.5340564 0.19206674 -0.08542609
0000e0 29 86 2a 3e 0b f1 76 be df 80 d0 be 86 b2 f2 be
       0.1665274 -0.24115388 -0.4072332 -0.47401828
0000f0 f8 ab fd bd 6f 66 13 3f fa e7 d5 3d fd ea f3 3e
       -0.12386316 0.57578176 0.10444637 0.4764022
000100 92 f0 db bd 6e 3e f0 bd fc 5d d2 be 40 5a 07 3c
       -0.107392445 -0.117306575 -0.4108733 0.008261263
000110 25 b2 c5 be e6 aa 00 be d5 94 8f be 02 82 88 bc
       -0.38612476 -0.12565193 -0.28043237 -0.016663555
000120 f4 ca e9 bd 59 76 e1 3e 7c d4 7e 3e dc e5 58 be
       -0.11415663 0.44035605 0.24885744 -0.21181434
000130 3a 62 c1 be b7 93 69 bd a9 08 d5 3e 74 4e 35 3f
       -0.37770253 -0.057025637 0.4160817 0.70822835
000140 3d b5 dd 3d ce 3a 9a bd 74 c7 a7 be 32 bc 9b 3e
       0.10825584 -0.07530747 -0.32769358 0.3041702
000150 cd 51 12 be 0e d5 86 be d4 95 40 be f5 c4 17 bf
       -0.14289017 -0.26334423 -0.18807155 -0.5928491
000160 89 55 c0 3e 62 a3 d6 3e 81 80 33 be 7b 44 0d 3f
       0.37565258 0.41921526 -0.17529489 0.5518262
000170 ee f8 f3 be 29 8f 3b bf 36 3f 1a bf 3e 77 9d bd
       -0.47650856 -0.7326532 -0.602527 -0.07688759
000180 93 29 ba bc c7 f0 46 bf 32 0a f9 bd 09 d2 07 bf
       -0.022724902 -0.7771115 -0.12160148 -0.53054863
000190 88 26 84 3e ec fb a2 be a2 fe 85 3e 79 22 60 bf
       0.25810647 -0.31832826 0.26170832 -0.875526
0001a0 58 77 75 3b 38 fe 4a be 14 54 b4 3e 89 fa d1 3e
       0.0037455168 -0.1982354 0.35220397 0.41011456
0001b0 7d 74 ac bd 59 41 0b bd d2 58 8c 3d 19 c7 83 be
       -0.08420656 -0.033997867 0.06852879 -0.25737837
0001c0 34 00 5f be 68 6d a5 be 57 43 ea be 8c d8 d5 be
       -0.21777421 -0.32310033 -0.457545 -0.41766775
0001d0 fd bd 71 be c1 c2 9e 3c 18 49 71 3e a8 95 c0 3e
       -0.23607631 0.019379975 0.2356304 0.3761418
0001e0 20 3a 9f bd a7 a9 00 bf 81 e0 98 bd bf cd 0b 3b
       -0.07774758 -0.5025887 -0.07464696 0.002133235
0001f0 14 97 94 be 7b de 2e bf ce a8 13 be a8 59 b2 3e
       -0.29021513 -0.6830823 -0.14419863 0.34834027

agent,params,encoders_0,linear_0,bias f4 [128]
000000 5a fb cd bc 99 95 ba bc d9 a0 b1 bc f6 1d 73 3c
       -0.025144268 -0.022776412 -0.021683143 0.014838686
000010 01 8e 68 bc d7 f4 2e bc 4f 66 de bc 77 54 2c bd
       -0.014194013 -0.010678492 -0.027148394 -0.04207274
000020 b5 8b f4 bc 62 86 eb bc 60 f0 26 bc 94 2f 6b 3c
       -0.029851774 -0.028750602 -0.010189146 0.014354605
000030 0a e6 9b bd 8d df 48 bd 3e 50 8e 3d 7c 10 d3 bc
       -0.07612236 -0.04904132 0.06948899 -0.025764696
000040 34 99 20 3d 95 8b 96 3a 93 a8 9a bc 35 e3 8b 3c
       0.039208606 0.001148569 -0.01887921 0.017076114
000050 f0 a3 0c bd 90 e8 37 bd a0 49 a1 bc 18 7a 91 3c
       -0.03433603 -0.044899523 -0.019688427 0.017758414
000060 3f 8e 09 bd c9 f9 0b bd 35 14 11 bd bb 9e 3f bc
       -0.033582922 -0.03417376 -0.03541966 -0.011695559
000070 4a d5 0b 3d 85 57 1d bd 2c ca 1d bd 41 81 b6 3a
       0.034138955 -0.038413543 -0.038522884 0.0013924019
000080 47 2b a0 bc 62 e5 0f bd c4 62 0a 3d 3d e0 e9 bc
       -0.019551886 -0.035130866 0.033785596 -0.028549308
000090 1e 9c 1f bd 9c f5 e7 3c a8 ec 70 bc 30 36 6b bc
       -0.038967244 0.028315358 -0.014704861 -0.014356181
0000a0 12 86 fd 3c 25 1a c2 bc 55 79 4a 3d 82 73 13 3d
       0.030947719 -0.023694107 0.049432117 0.03599883
0000b0 ca d5 92 3d cf 33 fb 3c 8f 12 5d 3d 49 7e 49 3d
       0.07169683 0.030664353 0.053972777 0.0491927
0000c0 6f fa 63 bc af ca 17 bd 69 ee fa 3d a0 86 56 3d
       -0.0139146885 -0.03705853 0.122525044 0.052374482
0000d0 29 22 16 3d 7d da 97 3d 3c 64 3a 3d 77 f4 02 bd
       0.03665367 0.0741472 0.045505747 -0.03197142
0000e0 f9 5e 20 3d 78 8e 8a bb 5f cf 9d 3c 07 bc 04 3c
       0.039153073 -0.0042284094 0.019263921 0.00810147
0000f0 d7 fe 4d 3d 36 3a ea bc 12 8c 95 3d fc 6d 05 bd
       0.050291862 -0.02859221 0.07302107 -0.032575592
000100 f4 a2 b2 3c a6 9b 80 bd 8d 69 e4 3c a6 b5 de bc
       0.021806218 -0.062796876 0.027882362 -0.027186226
000110 b3 ea e7 bc 42 4b bc 3c 7a a3 b8 3c 08 d0 69 bd
       -0.028310155 0.022985104 0.02253889 -0.05708316
000120 d3 f3 11 bd 00 2f 8d 3d 06 28 b6 bb c7 86 1b 3d
       -0.03563292 0.0689373 -0.0055589704 0.03797033
000130 0f 54 18 3d 9e 8b d9 3c 14 da 91 3d eb d7 8b 3d
       0.03718954 0.026555832 0.07121673 0.068282925
000140 88 79 4e 3b 29 4c 3f 3d a6 5b 02 3d c8 44 03 3d
       0.0031505544 0.04670349 0.031825684 0.032048017
000150 c1 6b 15 3d 98 cb 9b 3b 42 83 a5 3c 81 ee 0d bd
       0.036479715 0.004754495 0.02020419 -0.034651283
000160 42 90 11 3d 18 09 c8 3c 83 f5 4c 3b c6 88 dc 3b
       0.035537966 0.024418399 0.0031274266 0.006730172
000170 80 8f 10 bd c0 fb c1 3c 4c d7 9a bc 19 cd ff bc
       -0.035293102 0.023679614 -0.01890149 -0.031225728
000180 92 40 9f 3c 87 81 a9 bc 9e 7d 78 bc 7b 5e 19 bd
       0.01943997 -0.020691646 -0.015166668 -0.03744362
000190 a2 99 7d 3c 08 37 e5 bc c0 f0 01 bd 8f 1c 79 bd
       0.015478523 -0.027980343 -0.031723738 -0.06081825
0001a0 3f 3c 7b 3d 43 b6 a7 b9 40 ab 86 bd 5a b5 3e bd
       0.061336752 -0.00031988518 -0.06575632 -0.04655967
0001b0 7b 19 1f bc 51 c9 f8 bc 46 44 d8 3b 92 89 ab bc
       -0.009710665 -0.030369433 0.0065999357 -0.020939622
0001c0 fe 2b cc bc 2a fa 0c bc 80 7d 86 3d 68 98 3c bd
       -0.02492332 -0.008604566 0.06566906 -0.046043783
0001d0 b5 8e f8 3c f4 33 90 bc de d3 07 ba a3 26 4e 3d
       0.030341486 -0.017602898 -0.0005181412 0.050329816
0001e0 4d e3 01 3d 5d 5c 34 3d 9e 95 da bc b8 d5 fb 3c
       0.03171091 0.044033397 -0.026682671 0.030741557
0001f0 cd ef 74 3c 8d 6d ad 3b 6d 3c a2 bc ab ca 73 3c
       0.014949751 0.0052926005 -0.019804204 0.014879863

agent,params,encoders_0,linear_0,kernel f4 [32, 128]
000000 7b 8e bd 3e 0b 5b 10 be a2 5d 30 3d 79 35 14 bd
       0.37022766 -0.1409723 0.043058045 -0.036183808
000010 e6 73 38 3e 73 d6 8b 3e ad fa db bd ac 64 ac 3c
       0.18012962 0.2731205 -0.10741172 0.021044098
000020 62 80 00 3e 69 ec e2 3d 3c 41 41 be 24 94 32 bd
       0.12548974 0.11080248 -0.18872541 -0.04359831
000030 11 9d 2d 3e 7c 97 90 3e d0 67 1c 3c fc c8 61 3d
       0.16954447 0.28240573 0.009546235 0.055123314
000040 26 bb c5 3e b3 eb 87 be ff 06 8f be 7a fb 63 bd
       0.38619345 -0.26547012 -0.27935025 -0.05565975
000050 89 a4 6e bd 50 b0 9b 3e d2 eb 3c be 69 06 12 3e
       -0.05826238 0.30407953 -0.18449333 0.14260258
000060 94 6d 2f 3e 51 e5 86 bd d1 71 2c be 61 9c 35 bd
       0.17131644 -0.065867074 -0.16840293 -0.044338588
000070 36 3f 86 be 17 3b 95 be 73 0a ef bc 20 2d d5 be
       -0.262201 -0.29146644 -0.029179787 -0.4163599
000080 3c 76 24 3d f2 24 31 bc 0b 19 b5 ba bd ea 7c 3e
       0.04015182 -0.010812031 -0.0013816667 0.2469892
000090 7b 9d a8 3e e7 d2 28 bc c4 12 d6 3d df 7c 17 bd
       0.32932648 -0.010304189 0.10452798 -0.03698432
0000a0 fa 4a 80 be 5a 5d 87 3e 9b 63 4f be 09 d1 10 3e
       -0.25057203 0.2643841 -0.2025284 0.1414224
0000b0 58 7d 86 3e c4 ca 17 3e e2 82 57 3e 8b 70 b3 bc
       0.26267505 0.14823443 0.21046022 -0.02190425
0000c0 89 78 b0 3d 0b 92 8c 3e 60 5b 15 be a2 40 9c 3e
       0.0861674 0.27455172 -0.14585638 0.3051806
0000d0 dc 8a 78 be 0a ef 86 3e 2c 9d 02 be 78 26 03 be
       -0.2427172 0.26354247 -0.12755269 -0.12807643
0000e0 4b 7e a3 3d fc e7 62 bd 15 ef 60 3e 2f f3 84 bc
       0.07983073 -0.05539702 0.21966203 -0.01622924
0000f0 43 61 49 3d 2d 63 7d be 61 08 71 bd 61 f0 2a be
       0.04916502 -0.24744864 -0.05884588 -0.1669326
000100 d9 75 68 3e 63 34 66 3d fc bf 49 3c da b7 ae 3d
       0.22701205 0.056202304 0.012313839 0.08531161
000110 b7 f8 15 bd 4a 03 a6 3e e3 05 51 bc be b2 6d 3c
       -0.036614146 0.32424384 -0.012757751 0.0145079475
000120 e5 79 b0 bd 72 84 df 3c 5a f4 d9 3d 64 14 cb bd
       -0.086169995 0.027284835 0.106423095 -0.099159986
000130 72 d7 2c bd a6 84 1d 3e 8d 20 e4 bd 84 90 ca 3d
       -0.042197652 0.15382633 -0.11139021 0.098908454
000140 71 96 4a 3e 4d a1 7e 3e 41 c5 a9 3e 4f eb 86 bd
       0.19783951 0.24866219 0.33158305 -0.0658785
000150 a9 fe 89 bb 39 d9 72 3e e7 83 bd 3d 95 62 2e 3e
       -0.004211266 0.23715676 0.09253674 0.17029794
000160 86 ca 87 3d 47 17 33 3e f3 c3 e4 bd c6 14 9e 3d
       0.06630425 0.17489348 -0.11170187 0.07718806
000170 38 52 40 3b b1 b3 c2 3e bf f1 39 3e dd ec 09 3c
       0.0029345881 0.3802772 0.18158625 0.008418289
000180 91 e7 82 bd 5b a0 99 be b1 56 fa bc ec 66 a6 3c
       -0.06391824 -0.30005154 -0.030558916 0.020312749
000190 be c5 5d 3d b1 8b 68 be 81 f3 51 be 1f b1 4b be
       0.05414366 -0.22709538 -0.20503046 -0.19891785
0001a0 4b 48 18 3e 26 0b 06 be 22 09 2e 3d de ae 05 be
       0.14871328 -0.1309019 0.04248918 -0.13054988
0001b0 90 78 58 bd 7e 78 88 be 5f aa 9e 3c 25 11 3b be
       -0.052849352 -0.26654428 0.019368349 -0.18268259
0001c0 ce 8a 62 be 1f 1c f7 3d 85 a4 d7 3d e2 01 11 be
       -0.22123262 0.120659105 0.105294265 -0.14160874
0001d0 88 c6 6f 3e e9 32 54 be 9a a3 02 3e cf 64 71 3e
       0.23415577 -0.20722546 0.12757722 0.23573612
0001e0 5e fe 57 bd 23 4a 2a be 50 c9 44 3e c9 b7 fb bc
       -0.052732818 -0.16629843 0.1921742 -0.030727284
0001f0 5a 7f 1c 3e 92 1c 05 be ef b0 24 3d ba 86 2b be
       0.15282956 -0.1299918 0.0402078 -0.16750613
000200 71 e8 42 be f7 63 b1 bd 70 fa 57 3e ed 6f c5 bd
       -0.19033982 -0.08661645 0.21091628 -0.09640489
000210 7d 39 b8 3d 04 d4 93 bc 17 fb 2a 3e e1 4c d9 3d
       0.0899534 -0.018045433 0.16697346 0.106103666
000220 c3 8b 15 be 06 ca 94 bd 16 e0 94 be be e4 bb 3d
       -0.14604096 -0.072650954 -0.29077214 0.091744885
000230 24 56 4d bd a7 d1 f2 3d 07 87 bf 3d 4a d4 67 bd
       -0.05013098 0.11856394 0.09351926 -0.05659894
000240 9c 25 92 3d 1a 21 8b 3c 65 ea a1 3d a6 6b 39 3d
       0.0713608 0.016983557 0.07906035 0.045268677
000250 7e 44 a9 3d b7 26 2a bd 40 fa 23 be bf a6 b3 bc
       0.08265017 -0.041540828 -0.16013432 -0.021930097
000260 34 7a 2e bd 9a 5e 7e be 9e 6b 5e 3d f3 96 e7 3e
       -0.04259701 -0.24840775 0.05430185 0.45232353
000270 2d 2e 93 3d 51 5e 10 3b 5c 44 3c 39 bb 87 b5 3b
       0.07186542 0.0022028873 0.00017954543 0.005539862
000280 71 4a 7e 3e b3 6e 2d be 05 5d 8c 3d 3d 9f 72 3e
       0.24833085 -0.1693676 0.068536796 0.23693557
000290 28 2c 9e 3c ec d0 67 3e e4 d1 28 3c 46 01 c1 3d
       0.019308165 0.22638291 0.010303948 0.09424071
0002a0 d2 17 bd bd b4 6f 94 bd 8f b1 a4 bd 1a 46 db 3d
       -0.09233059 -0.07247868 -0.08041679 0.1070673
0002b0 fc 96 1f be 19 bb 98 be 3e f3 61 3e d7 9f ab 3d
       -0.1558494 -0.29830244 0.22065446 0.083800964
0002c0 33 06 81 3e 1e a8 87 3d f3 e6 ce be ae 5c 8c be
       0.25200042 0.06623863 -0.40410575 -0.2741446
0002d0 03 25 bd 3c 38 cd 8a be d3 82 9a 3d 4a 4e 53 3d
       0.023088938 -0.27109694 0.07544484 0.051588334
0002e0 e7 6e ed bd 8b bc a0 be 94 f8 ff bd 05 8d 0d 3e
       -0.115934186 -0.31393847 -0.124985844 0.13823326
0002f0 2a 67 46 be 52 5c bf be 00 1f 4c be fa bb 1b bc
       -0.19375291 -0.37375122 -0.199337 -0.009505266
000300 70 66 db bd 82 01 b6 bd 79 2f a7 bd 9f 3f 5f be
       -0.10712898 -0.08887006 -0.081633516 -0.21801613
000310 dd 0d 56 3e 96 77 46 be 9a 04 42 3e 7d 81 89 3e
       0.20903726 -0.19381556 0.18947068 0.26856604
000320 de 23 ab 3d 76 c3 ca be ef 14 6d be c8 9f 37 3d
       0.083564505 -0.3960225 -0.23152517 0.044830114
000330 43 05 08 3d 99 e9 63 be 2b 3d cb be f3 1f 80 3e
       0.033208143 -0.22257079 -0.39695105 0.25024375
000340 a6 4e 37 3d fd 87 61 be d5 72 48 3d f9 8f 76 3e
       0.04475274 -0.22024532 0.048937637 0.24078359
000350 94 2f c7 3e 1c 41 83 3e 2e 5e b5 3d bc 1c f7 3d
       0.38903487 0.25635612 0.08855854 0.120660275
000360 47 6e 1b 3d 66 8d 7a 3e 86 e7 87 bd 17 87 bb 3e
       0.037946966 0.24468002 -0.066359565 0.36626503
000370 7e 4f 83 bc 06 3a 9f be 3f fe 87 3d 2b da 85 bd
       -0.016029116 -0.31098956 0.066402905 -0.06535753
000380 f3 c8 f8 3d 7d 25 61 3e 70 e0 70 bd eb 94 60 3e
       0.12147703 0.21986957 -0.05880779 0.21931808
000390 2f e8 1d be 19 43 aa 3d 9c 09 45 be b1 ed 6a bd
       -0.15420602 0.08313579 -0.19241947 -0.057355586
0003a0 2b c5 52 3d 5c 65 17 3b a4 d7 86 3c f9 ce 73 be
       0.051457565 0.0023101186 0.016460247 -0.23809423
0003b0 2a b4 ac be de 1f 1b bc 8d 30 30 be 4a 09 cd 3d
       -0.33731204 -0.009468047 -0.1720602 0.100115374
0003c0 c6 18 5f bc ae 02 ee bd c9 e6 26 3e 27 df 03 3e
       -0.013616746 -0.11621605 0.16298975 0.12878095
0003d0 6c fa d9 3d ee c5 32 be 74 a8 31 3e 68 24 dd 3c
       0.10643467 -0.17458317 0.17349416 0.026994899
0003e0 3b d0 2f be d1 b0 8b 3d f2 96 4f 3e 64 d1 88 be
       -0.17169277 0.068208344 0.20272425 -0.26722252
0003f0 ad 4b b7 3d 32 6e 4b 3e 20 7b c2 bd f1 d5 e5 bc
       0.08949981 0.19866255 -0.094961405 -0.028056117

agent,params,encoders_0,linear_3,bias f4 [32]
000000 90 74 99 3c fd 80 10 3d 16 3a b6 bc c2 0a bb 3c
       0.01873234 0.035279263 -0.022244494 0.022832278
000010 cc 74 bb bb 75 2e 4d 3d bc 77 99 3c b4 fb 73 bc
       -0.0057207104 0.050093133 0.018733852 -0.014891554
000020 6a 96 74 bd 2f 52 7d bd 3a a7 ac bd 0e 95 a0 3a
       -0.05971376 -0.061845955 -0.084303334 0.0012251453
000030 98 2e 47 3a f5 53 74 3c e6 74 a0 3d 9a 32 b4 bd
       0.00075981906 0.014912595 0.078347966 -0.08798714
000040 1f cc 56 bd 6c e4 f9 3b 0c e0 30 3d 3e 99 f2 bc
       -0.05244076 0.007626107 0.043182418 -0.029614087
000050 f7 cf b0 bc 81 65 9f 3b 4e 2a 12 3d 44 a6 a6 bc
       -0.02158354 0.004864395 0.035684876 -0.020342954
000060 08 ab b5 3c 10 20 20 bd 84 75 d0 3d 93 a5 76 3d
       0.02217628 -0.039093077 0.10178664 0.060216498
000070 fb 03 39 3a ca b5 0c bd f3 c0 9e bd 28 85 f3 3b
       0.0007057783 -0.034353055 -0.07751646 0.007431645

agent,params,encoders_0,linear_3,kernel f4 [128, 32]
000000 89 45 a8 bc 0e d3 02 3e 6d f8 b6 bc ff 84 f6 bd
       -0.02054097 0.12775823 -0.022335256 -0.12037086
000010 d8 1b da 3c 8e 56 46 3c 4c 0b 99 3d 4c 74 5e bd
       0.026624605 0.012105597 0.07472858 -0.054310128
000020 96 e0 04 3d 54 5f cb bd 06 00 84 bc cf fa 6d bd
       0.032440744 -0.09930292 -0.016113292 -0.058100518
000030 04 ec ae 3b f7 07 6b 3d 83 7d 55 3d fa d5 5f bd
       0.005338194 0.057380643 0.05212165 -0.054647423
000040 83 c8 2b be 74 9d e3 bd 6c 7b 84 3d 0e 38 ea bd
       -0.16775708 -0.11114016 0.06468853 -0.11436473
000050 70 62 8d 3d 18 4c 15 bd 61 52 8e 3d d2 e6 d6 bd
       0.06903541 -0.03644952 0.06949306 -0.10493244
000060 74 16 39 bd 38 fb f2 bd 4d ac 41 bc 6f e2 ba bd
       -0.04518743 -0.118643224 -0.011820865 -0.0912522
000070 12 09 e5 3b 46 8e d9 3d 74 45 2e bd cd 45 2d 3e
       0.0069896067 0.1062284 -0.042546704 0.16921158
000080 cf 7d 24 3e d9 d9 04 be a2 0a ff bd b0 b0 84 bd
       0.16063617 -0.12973727 -0.124532 -0.06479013
000090 db 10 00 3d 2a 58 c7 3d 9e f0 11 be 3f 1b 56 bd
       0.031266075 0.09733613 -0.14251944 -0.052272078
0000a0 83 92 89 bd 4c 31 27 3d 2c ed cd bd 11 fe fd bd
       -0.06717398 0.040818498 -0.100550026 -0.12401975
0000b0 b7 16 35 3c a1 6b b7 bd 29 33 5b bc 6c 27 f5 bd
       0.011052779 -0.089560755 -0.013378897 -0.1197041
0000c0 da 2b e5 bd aa 74 a4 3d 49 5e 54 bd 20 12 0f bd
       -0.11190005 0.080300644 -0.05184773 -0.034929395
0000d0 a0 00 74 bd a0 b6 c2 bd 27 83 70 bd 0d f8 03 bd
       -0.05957091 -0.09507489 -0.058718827 -0.03221898
0000e0 0e 88 92 bd ce 1b fe 3d 9b ac db 3d ac ac 7b 3d
       -0.071548566 0.12407647 0.10726281 0.06144397
0000f0 b2 c3 8c bd 7e 8b 30 3d 4c 54 c5 3d 67 1d 96 3b
       -0.068732634 0.04310178 0.09635219 0.0045811418
000100 ca 55 b6 3d 08 62 b0 3d 3b 1f 3b bd ed f4 37 be
       0.08903082 0.08612448 -0.04568408 -0.17964526
000110 02 6d ed bd d1 84 f2 3b ca fb f5 3d 69 30 8c 3d
       -0.11593057 0.007401087 0.120109156 0.06845171
000120 5f 3f 0b be 95 f1 e1 3c 8d 04 e6 bd 95 6a 1b 3e
       -0.13598393 0.027581016 -0.11231337 0.15177377
000130 03 11 64 bc 7b 99 17 be 80 9a 13 3d d0 57 2f bd
       -0.013920072 -0.14804642 0.036036015 -0.042808354
000140 90 6c b3 bd 98 86 a5 bd ef 6a b8 3d 52 a1 8e 3c
       -0.08760941 -0.08082312 0.09004771 0.017410908
000150 b6 eb 16 bd fa 33 36 bd 21 b0 8d 3c a7 59 6c 3b
       -0.036845885 -0.044483162 0.017295899 0.003606418
000160 65 33 95 3d 9c 6c 40 bc 3a 57 94 3d 41 3a ed 3c
       0.07285193 -0.0117446445 0.072432 0.028958442
000170 11 1b 01 3e 4f 1a db 3b 50 6f 84 bc 32 43 29 3d
       0.12607981 0.006686486 -0.01616636 0.041323848
000180 51 ca 12 3e 1b b2 49 3c 91 ee f9 3d de ee dd 3c
       0.1433499 0.01231053 0.12203706 0.02709144
000190 b8 27 00 bd eb a9 fb 3d 48 9f 01 be e9 a9 52 3d
       -0.03128788 0.12288269 -0.12658417 0.05143157
0001a0 fb 92 30 be 35 fc 93 be a2 91 1a be 7f 78 fd bc
       -0.17243569 -0.28903356 -0.15094617 -0.030941246
0001b0 5e 64 96 bd a6 4a f9 3d 99 28 08 3e 8f fd db bc
       -0.07343362 0.12172441 0.13296737 -0.026854305
0001c0 72 a1 f3 3d 29 e1 e0 bd c1 5d 2d bc 43 b4 b3 bd
       0.118960276 -0.10980446 -0.010581435 -0.087746166
0001d0 64 33 de 3c eb 17 dc bc 7c b5 a7 bd 89 97 23 bd
       0.027124114 -0.026866874 -0.08188912 -0.039939437
0001e0 8e b2 a2 3d b3 fc cf 3d dc c2 42 3e a6 c4 22 3e
       0.07944213 0.101556204 0.19019645 0.15895328
0001f0 77 bd ff bc 83 db 74 bd 12 d2 dd bd c2 df bc 3d
       -0.031218274 -0.059779655 -0.10831083 0.09222366
000200 63 e3 6b 3d 1f 95 21 be 76 25 8a 3d 6a 12 8c 3c
       0.0575899 -0.15779541 0.06745426 0.017098624
000210 69 ad c2 b9 80 28 2c 3e f2 ba 13 3c 7a a3 d4 3c
       -0.00037131764 0.16812325 0.009016739 0.025956858
000220 ee 30 1c be a1 c8 d1 bd cf 72 4c be b6 d5 00 be
       -0.1525304 -0.10243345 -0.19965671 -0.12581524
000230 85 6c a5 bd 5b e0 a9 3d cd b7 e6 bd f8 ca 92 bd
       -0.08077339 0.082947455 -0.11265526 -0.071676195
000240 8f e3 70 bd bf cc c5 3d 9b 71 35 bd bc f1 f8 3d
       -0.058810767 0.09658193 -0.044297796 0.12155482
000250 38 3c 5d bd 20 55 54 3d 58 76 0e 3e 07 41 a1 3d
       -0.054012507 0.051838994 0.13912332 0.07873731
000260 fd 2d 31 3d d2 9b f8 bd fc 16 b5 3d 29 78 41 3e
       0.04325675 -0.12139095 0.088422745 0.18893494
000270 c3 30 2c 3c 28 2a f6 3d bc c8 f7 3c dd 2a 23 bc
       0.010509673 0.120197594 0.030247085 -0.00995895
000280 ef 37 45 3d 91 7d 79 bb 62 05 a3 bd a2 d7 d8 3d
       0.048149046 -0.0038069228 -0.07960011 0.10588004
000290 8f 6b 8b bd eb e5 06 3d 92 c9 88 bd 54 06 0c be
       -0.068076245 0.03293411 -0.066790715 -0.13674289
0002a0 c1 d1 cb bd b2 98 bb 3d 2f 8d 10 be 83 7a 95 3d
       -0.09952117 0.09159984 -0.14116357 0.07298758
0002b0 6f 73 31 3d 00 b4 e5 bb 76 a8 f9 bd 24 25 e8 bc
       0.043322977 -0.007009983 -0.121903345 -0.028338023
0002c0 c0 f0 df bd 79 7e a9 bd e7 29 36 3c 4b f0 05 3d
       -0.10934591 -0.08276076 0.011118389 0.032699864
0002d0 fb c0 a8 3d 97 40 27 be a0 00 4e bd 22 76 c7 bd
       0.08239933 -0.16333233 -0.050293565 -0.09739329
0002e0 74 2e 1e 3e ca 5c b3 3d ae 54 42 bd 7f 33 0a 3e
       0.15447408 0.087579325 -0.047444038 0.13496207
0002f0 b0 25 5b bd b7 ef a9 bd 0d 10 6c 3d 3e ce 08 3d
       -0.05350274 -0.08297675 0.057632495 0.033399813
000300 79 6a 8f bd be a6 29 3d ab 9e 4e bd fb 3f 98 3d
       -0.0700273 0.041418783 -0.050444286 0.07434078
000310 6d fd ac bb e3 0c fa 3d cd 6d aa 3a 0f e1 c9 bd
       -0.005279234 0.12209489 0.0013002694 -0.0985738
000320 c4 b0 95 bd 4e 38 e0 3a a4 5e 7b 3c ad 3d 04 be
       -0.07309106 0.0017106624 0.015342388 -0.12914152
000330 18 b7 d0 3d b5 ac d4 bc 6e 12 ee 3d f3 86 07 3d
       0.10191172 -0.02596126 0.11624609 0.033087682
000340 b1 72 a9 bd 78 7f 83 bd 8b 49 75 bc 4f ee 14 be
       -0.08273829 -0.06420797 -0.014971147 -0.14544033
000350 46 7c d3 3b 76 4a 91 bd 19 02 1e 3d 74 cc 38 bd
       0.0064540235 -0.070942804 0.03857622 -0.045116857
000360 fc f9 85 3d 51 b9 e8 bd 77 ed 55 3d 85 73 0f 3e
       0.06541821 -0.11363471 0.052228417 0.14008911
000370 e4 56 ef bd 8d fa 4a 3d af 0e d6 3d 76 5c 2a bd
       -0.11686495 0.04955535 0.104520194 -0.041592084
000380 b9 da 09 be 2c 63 ed 3d 91 66 1e be cc f2 48 bd
       -0.13462342 0.11591181 -0.15468813 -0.049059674
000390 69 85 04 3e 09 55 45 3d 77 88 24 3d 02 4a 81 bc
       0.12941517 0.0481768 0.040169206 -0.01578236
0003a0 29 d1 39 be 98 20 da 3a 39 e9 b1 3d 2a d4 1f 3e
       -0.18146195 0.0016641794 0.08687062 0.15608278
0003b0 8d 27 47 bc 49 20 28 3e e6 2e f4 3d a8 e1 92 bc
       -0.012155426 0.16418566 0.11923008 -0.017929867
0003c0 54 cb 80 bd 2c b4 27 bd 51 74 6e ba 13 5d 35 bd
       -0.06288782 -0.04094331 -0.0009096312 -0.044278216
0003d0 45 09 64 bd fc 6f 53 bc d0 a1 a7 bd fd 7d d5 bd
       -0.055672903 -0.012905117 -0.0818516 -0.10424421
0003e0 65 40 16 3d a7 2f 06 bc 38 89 8e 3d 0e a6 d5 bd
       0.036682505 -0.008190072 0.06959766 -0.10432063
0003f0 5b d9 48 3e 4a 85 e8 3d 4b 38 18 bd 2e 79 99 bc
       0.19614165 0.11353548 -0.03716306 -0.01873454

agent,params,encoders_0,norm1,bias f4 [32]
000000 cb 4b 2e 3d 5a 02 9e bd 3e 41 f6 bc aa 79 f0 3c
       0.04255275 -0.07715292 -0.030060407 0.029354889
000010 ec a8 c0 bb 75 de a6 bc 18 e0 5d 3d 6d 34 f6 3b
       -0.005879512 -0.020369748 0.05416879 0.007513574
000020 67 c7 a6 3d 9c 21 20 3d e1 cb 93 bc 85 3b af bd
       0.08143502 0.039094552 -0.018041553 -0.08556274
000030 0c a9 25 3d 42 4d 7d bd ae 5c ac 3d 90 74 16 3d
       0.04044442 -0.061841257 0.08416115 0.036732256
000040 2a 44 3c bc e4 92 1d bd 76 ed 20 3d 70 e5 7c bd
       -0.011490861 -0.038470164 0.03928896 -0.061742246
000050 c0 94 49 bc d2 dc a2 3d b6 e6 1f bd f4 01 e5 bc
       -0.012303531 0.079522744 -0.039038382 -0.027955033
000060 59 84 0c bd 09 93 d3 bc 41 1a 57 bd 09 4c 90 3a
       -0.034305904 -0.025826948 -0.052515272 0.0011008988
000070 a5 9a ac bd a1 5b 05 bb 56 e8 12 3c 12 a5 2d 3c
       -0.084279336 -0.0020348805 0.008966526 0.010598438

agent,params,encoders_0,norm1,scale f4 [32]
000000 f1 ba 80 3f 3c 4a 83 3f 6e 18 78 3f 70 91 81 3f
       1.005705 1.025703 0.96912277 1.0122509
000010 ac b2 71 3f b8 1b 7d 3f f1 56 84 3f 13 c4 78 3f
       0.94413257 0.9887042 1.0339032 0.97174186
000020 f7 4f 80 3f 6d 8a 75 3f ce ba 82 3f bb ca 85 3f
       1.0024403 0.95914346 1.0213258 1.0452493
000030 1b 93 74 3f 3c e8 8a 3f 46 b3 6e 3f c4 13 86 3f
       0.95536965 1.0852122 0.932423 1.0474782
000040 46 15 7d 3f e3 83 75 3f cf 65 83 3f 9f 75 84 3f
       0.98860586 0.9590437 1.0265445 1.0348395
000050 c6 8f 80 3f 08 e1 74 3f 80 c5 79 3f 0a 71 76 3f
       1.0043876 0.9565587 0.97566986 0.96266234
000060 5a fa 80 3f ff 6e 76 3f 2e ce 72 3f e9 4d 7b 3f
       1.0076401 0.96263117 0.94845855 0.98165756
000070 5c 3c 81 3f 97 8d 82 3f fe 3d 7c 3f fe 27 78 3f
       1.0096545 1.019946 0.9853209 0.96936023

agent,params,encoders_0,norm2,bias f4 [32]
000000 d6 b7 28 bd 46 43 23 3d f0 63 f7 ba 19 5e 92 bc
       -0.041190945 0.03985908 -0.0018874388 -0.017867135
000010 05 e4 9a bd 8f c1 8e 3c 30 99 9d 3c f9 4f d8 bc
       -0.075630225 0.01742628 0.019238085 -0.026405321
000020 d6 45 a4 bd 7d 17 e7 bd 6c 77 ea bd 0c 17 d5 b9
       -0.08021133 -0.11283777 -0.11448559 -0.00040643697
000030 db 4e c5 bc 65 1f 4f ba ba 98 ad 3d 94 7c d1 bd
       -0.024085453 -0.00079011015 0.08476396 -0.102288395
000040 eb ce 70 bd 43 ff 64 3c b2 de 73 3d c7 53 33 3c
       -0.058791082 0.013976875 0.05953855 0.010945267
000050 fc 44 81 3c f5 72 be 3c a0 4e da 3c 15 d1 8e 3b
       0.015779965 0.023248175 0.02664882 0.0043584206
000060 25 03 98 bc 1c 3d 8a bd e3 49 4b 3e a0 30 95 3d
       -0.018556187 -0.06749937 0.19852404 0.07284665
000070 dc bf 31 bd dc 7b 9e bd bf 83 05 be ea cf 85 bc
       -0.043395862 -0.07738468 -0.13038538 -0.016334493

agent,params,encoders_0,norm2,scale f4 [32]
000000 4c bf 71 3f 25 f6 81 3f ad a5 75 3f 09 7c 6f 3f
       0.9443252 1.0153242 0.95955926 0.9354864
000010 04 01 84 3f 81 46 80 3f bc 25 6f 3f 0e 01 79 3f
       1.031281 1.0021516 0.93416953 0.97267234
000020 a6 ff 87 3f 20 c4 83 3f 2e f1 8a 3f b7 6c 73 3f
       1.0624893 1.0294228 1.0854852 0.9508776
000030 4e 59 77 3f c3 48 79 3f da 64 88 3f 2e 21 8c 3f
       0.96620643 0.9737665 1.0655777 1.0947626
000040 81 5d 85 3f ce b0 7b 3f e8 4e 81 3f 9e f0 70 3f
       1.041916 0.9831666 1.0102205 0.9411715
000050 70 17 7e 3f ad 22 7e 3f a9 03 6e 3f 4a 5b 76 3f
       0.9925451 0.9927166 0.92974335 0.96233046
000060 e2 da 73 3f 26 0b 88 3f 72 6f 9d 3f 5c ee 7e 3f
       0.95255864 1.0628402 1.2299635 0.9958246
000070 86 8c 79 3f 3e 86 77 3f a6 02 87 3f 3f c6 6f 3f
       0.97480047 0.9668921 1.0547683 0.93661875

agent,params,encoders_0,self_attn,key,bias f4 [4, 8]
000000 c0 87 a1 bb 2d a1 ce bc 7e 38 1c bc dd 28 b2 bc
       -0.0049295127 -0.025223339 -0.009534953 -0.021748
000010 53 2b f9 bc 61 61 fe bc d5 cf 79 bc cb a7 82 bc
       -0.030416166 -0.031052293 -0.015247305 -0.01594915
000020 b0 ba 39 bd 54 ff 3b 3d 7e 10 f3 bc f2 74 94 3d
       -0.045344055 0.045897797 -0.02967095 0.07248868
000030 43 70 f4 bc af 49 b2 bc 6f ac db bc b6 b0 f2 bc
       -0.029838687 -0.02176365 -0.026815621 -0.029625278
000040 3d cc ee bc 29 f1 24 bd 0b b0 8b bc f1 93 e6 bc
       -0.029150123 -0.04026905 -0.017051717 -0.028146716
000050 45 5e ef bc e9 e6 cd bc 62 e2 d8 bc 6a 19 2d bc
       -0.029219756 -0.02513452 -0.026475135 -0.010565141
000060 0d d1 16 bd c3 47 0b 3d f4 7b 05 3d d4 f9 20 bd
       -0.03682046 0.034003984 0.032588914 -0.039300755
000070 ec f9 d1 bc 22 74 8b 3c e5 f7 18 3d 99 e5 19 3d
       -0.025631867 0.01702315 0.037345786 0.037572477

agent,params,encoders_0,self_attn,key,kernel f4 [32, 4, 8]
000000 c9 93 65 3d 92 fd d8 be 3a 08 ae 3d e7 8c 95 3d
       0.056049142 -0.4238096 0.08497663 0.073022656
000010 c9 13 37 bd 05 d1 ae 3d bd 54 87 3e 9b 10 2d 3c
       -0.044696603 0.08535961 0.26431838 0.010563041
000020 35 b4 26 be ac 9d 37 bd 41 a7 f8 bd bf bd 28 3e
       -0.16279681 -0.044828102 -0.12141276 0.16478632
000030 a3 d1 f4 3c 28 e0 5f 3d 67 b9 c8 bd b2 a6 4e be
       0.029885119 0.05465713 -0.09800988 -0.20180777
000040 f5 93 8b bb 44 d6 d4 bd c1 ba 65 3e 81 d4 0b be
       -0.004259581 -0.103924304 0.22434522 -0.13655283
000050 a3 ba 88 3e 2d 1c f9 3a 94 b4 49 be 56 f2 1f 3e
       0.26704893 0.001900559 -0.19697791 0.15619788
000060 ed f0 81 bd e3 7c 9e bd 58 35 68 be 7b ea cd bc
       -0.06344781 -0.07738664 -0.22676599 -0.025136223
000070 cb 54 0f be 3b 75 97 bd e2 17 97 3d 6e eb 10 3e
       -0.1399719 -0.07395407 0.07377602 0.1415231
000080 a8 1f 93 3e 33 20 5e be 22 c6 fe 3d a6 2b f4 bc
       0.2873509 -0.2169197 0.124401346 -0.02980597
000090 36 39 35 be e7 ec 51 3d 90 b9 e7 bd 98 c9 8e 3c
       -0.17697605 0.05125132 -0.1131469 0.017430112
0000a0 52 04 81 3e d8 19 30 3d 81 b1 7f 3e a8 07 93 3d
       0.2519861 0.042993397 0.24970056 0.07179195
0000b0 1c c0 60 be 39 b7 14 be 05 70 b2 bc 73 5d 9c be
       -0.21948284 -0.14523019 -0.02178193 -0.30540046
0000c0 c2 b1 48 3e db 8f 34 3e 04 9f ab be 05 f8 c2 bd
       0.19599059 0.17633002 -0.33519757 -0.09519962
0000d0 b8 49 c0 be 04 8e 9a be ea 0e bc 3d c2 62 3a be
       -0.37556243 -0.30186474 0.09182532 -0.18201736
0000e0 ee be 9d 3d 80 61 5e be b7 5b 53 bc 78 3b a1 bd
       0.077024326 -0.21716881 -0.0129002845 -0.07872671
0000f0 a4 9a a6 3d e4 fd 7b be 07 c3 55 be c9 17 bb be
       0.08134964 -0.2460857 -0.20875178 -0.36541584
000100 6c c5 72 be 52 a8 08 3e 8e eb 79 bc 68 b2 e6 bd
       -0.23708123 0.13345459 -0.0152539145 -0.11264497
000110 aa 4b 5d be 1d 1e f2 3d b3 14 d9 bd 70 67 e7 3c
       -0.21610895 0.1182215 -0.10599651 0.028247565
000120 52 4d 0e 3e c2 a1 c0 3d 0b a1 36 3e d5 f3 71 be
       0.13896683 0.09405853 0.1783487 -0.23628171
000130 e8 e1 01 3e c3 7c a5 3d 03 5d a1 bd 11 bf 0b 3d
       0.12683833 0.08080437 -0.07879069 0.034117762
000140 63 3a 86 3c 83 de af bd b6 9c 5a be 51 ff f5 bd
       0.016385263 -0.085873626 -0.21348843 -0.12011588
000150 24 04 10 bc 6f c4 41 3e 56 de 48 3e 94 d3 01 bc
       -0.00879005 0.1892259 0.19616064 -0.007923979
000160 41 a9 4d 3e cc e0 0d be 66 b7 d3 bd 62 9c 8a bd
       0.20084096 -0.13855284 -0.10337715 -0.06768109
000170 08 8a 39 3e 0e 90 02 3d 37 1d 8b be 08 f5 29 3e
       0.18119061 0.031875663 -0.27170727 0.16597378
000180 60 fd 1b 3e d1 1f 03 3e 49 c6 29 be 43 7d 0d 3e
       0.15233374 0.12805106 -0.16579546 0.13817315
000190 71 b4 af 3d 36 97 d9 3d 22 5b 75 be 4a e8 16 3e
       0.08579338 0.10624544 -0.23960546 0.14737049
0001a0 cf 98 dc bd 63 a6 6f bd 1d 1f 0c 3e 9b 76 12 be
       -0.107713334 -0.058508288 0.13683744 -0.14303057
0001b0 bc 6a 4c 3e ac 6d 4a 3d 44 55 17 be 3b 61 ab 3e
       0.19962591 0.049420998 -0.1477862 0.33472618
0001c0 da ab 46 3e 2f f3 ec 3d 4e 78 0e 3e d8 40 b0 be
       0.19401494 0.11569821 0.1391308 -0.34424472
0001d0 7b 98 17 3e 41 6c 93 be 40 9f 81 3e 16 59 0d be
       0.1480426 -0.2879353 0.2531681 -0.13803515
0001e0 35 32 9f 3c 2e c6 02 3e cb 6c 44 be c4 be c3 3e
       0.01943312 0.12770912 -0.19182126 0.3823148
0001f0 1a 7a 9b be 11 d0 3b 3e 6f 39 b6 3d 6b 71 4c be
       -0.30366594 0.1834109 0.08897673 -0.1996514
000200 ce 60 9b 3e 1f 4c 64 3e 0c df 22 3d c8 c1 56 3d
       0.30347294 0.22294663 0.039763495 0.052430898
000210 9b 83 41 be 44 40 90 bd 23 81 1b 3d ea 2a 13 3d
       -0.1889786 -0.07043508 0.03796495 0.035929598
000220 9b 16 b2 bc 8c 91 86 be 56 ad 9f 3d ac 62 10 3e
       -0.021739295 -0.26282918 0.07796733 0.1410014
000230 c0 b9 0d be 94 27 61 be aa 35 25 be d8 f7 cd 3e
       -0.13840389 -0.21987754 -0.16133752 0.40228152
000240 ef de 2f be fd 5d 1f be 4f 35 be 3e 94 d3 b9 be
       -0.17174886 -0.15563197 0.37150046 -0.36294234
000250 95 db 9e 3c 75 dc 05 bd 3f cf a3 3e eb 29 01 be
       0.019391814 -0.032680947 0.31994054 -0.12613647
000260 f7 f4 49 be 02 61 bc 3d c4 f8 75 bd fd a2 07 bd
       -0.19722353 0.0919819 -0.060051695 -0.033114422
000270 e5 f9 bc 3d b7 9b 49 be ed 34 0f 3e f4 76 31 3e
       0.09227351 -0.19688307 0.13985033 0.17330533
000280 91 a2 8f be 9b 5f 67 bd 9d 3b b9 3e c2 c5 bd bb
       -0.28053716 -0.05648766 0.36178294 -0.005791397
000290 ff 2c a3 3d 9f df 94 bc 3f cb 11 be 07 1c 2a 3d
       0.07967567 -0.018173037 -0.14237688 0.041530635
0002a0 f4 7f 31 3e 3e e8 46 be 0a 39 50 3e a1 ad 8e bd
       0.17333966 -0.19424531 0.20334259 -0.06966711
0002b0 12 cb 14 3d 2d 9f 5b 3d 36 5d f8 3c 70 f7 88 3c
       0.036326475 0.0536186 0.030317884 0.01671955
0002c0 67 82 2e be 03 38 b6 bd 8d 5d 2f be db 61 a5 3d
       -0.17041932 -0.08897402 -0.1712553 0.08075305
0002d0 33 ef bc bd 71 e0 db be 33 06 4b be 07 01 81 be
       -0.09225311 -0.42944673 -0.19826584 -0.25196096
0002e0 fc 67 c0 3e 6f 62 25 be 34 f7 1d 3e 08 51 48 3e
       0.37579334 -0.1615083 0.15426332 0.19562161
0002f0 cb 13 1a 3e fe a6 73 bd 0d b8 fc bc 76 06 6b 3d
       0.15046613 -0.059485428 -0.030849481 0.05737921
000300 2f ed 18 3d ad 83 a1 be 07 51 a4 3e a9 9a 62 3e
       0.03733557 -0.31545773 0.3209307 0.2212931
000310 52 5e d7 3d 1a d8 a4 be e5 64 39 bd 09 49 d5 bd
       0.10516037 -0.32196122 -0.045262236 -0.10414321
000320 04 6c 4c be 60 5d 28 3e 58 50 92 3e cd 63 96 be
       -0.1996308 0.1644187 0.28576922 -0.29373017
000330 53 17 c7 bb 8d 41 a2 be bc d6 a0 3b 7a 8c f4 3d
       -0.0060757785 -0.31690636 0.004908411 0.11940856
000340 0f 69 8a 3e 1c 05 fb bd b1 c2 82 3e b7 6c fc bd
       0.27033278 -0.12256834 0.25539163 -0.12325423
000350 5a 9f 7c 3d 95 c6 47 be c6 42 9b 3d 1f 39 ac 3d
       0.061675407 -0.19509347 0.075810954 0.084093325
000360 dc 01 9f be e0 34 4f bd 0f 36 3c be 70 01 05 3e
       -0.31056106 -0.050587535 -0.18379997 0.1298883
000370 5e 29 a1 be 27 5a 41 bd d3 66 0b be ac e4 8e 3e
       -0.31476873 -0.047205117 -0.13613443 0.27908838
000380 29 85 8a be e2 c7 2e be 89 90 80 3e 95 59 a2 3d
       -0.27054718 -0.17068437 0.25110272 0.07927243
000390 96 e4 56 3e 68 1e 92 be 1c 33 73 bb 67 98 13 be
       0.20985636 -0.28538823 -0.003710932 -0.14413606
0003a0 6b 8f 34 3d 9d 6f 14 3e 41 f7 03 bd 88 98 00 be
       0.044082087 0.14495702 -0.03221822 -0.12558186
0003b0 19 42 46 bc 25 5f 68 be 18 ba dc 3c ab ca 25 3d
       -0.01210072 -0.22692545 0.026944205 0.040476482
0003c0 df c2 5a be 90 93 51 3e b2 62 7e 3e 4e 79 dc bd
       -0.213634 0.20466447 0.24842337 -0.107653245
0003d0 a0 8c a8 3d 6a ce d5 3d 92 f9 f2 bd 93 47 80 be
       0.08229947 0.10439761 -0.11864008 -0.25054607
0003e0 f5 eb 70 3e d6 67 da be 10 83 07 be 70 d4 86 3e
       0.2352751 -0.42657346 -0.1323359 0.26333952
0003f0 c1 61 8a 3e 67 db 82 be f1 87 c5 bd 2e 8f 97 3e
       0.27027705 -0.25558016 -0.096450694 0.29601425

agent,params,encoders_0,self_attn,out,bias f4 [32]
000000 a6 23 7a 3d 26 56 93 bd 2f 93 74 3c 78 bc 8c 3c
       0.061069153 -0.07194166 0.014927669 0.017179713
000010 15 b6 ca bb 26 ed c9 bc 36 2b 2a 3d a0 8a 51 bc
       -0.0061862567 -0.024649214 0.041545115 -0.012789398
000020 61 61 ba 3d 29 89 28 3d 94 7b 6e bc a3 9f 36 bd
       0.09100605 0.04114643 -0.0145558305 -0.044585835
000030 fa d2 bd 3c a5 37 41 bd 37 e5 45 3d 48 d4 84 3c
       0.02317189 -0.047172207 0.0483143 0.016214505
000040 25 c9 cb bc 42 52 17 bd 41 9a ed 3c 71 51 77 bd
       -0.024876187 -0.03694368 0.029004218 -0.060380403
000050 92 76 83 bc 61 af 1e 3d ee 36 66 bc f8 68 f3 bc
       -0.01604775 0.038741473 -0.014051182 -0.029713139
000060 ed b7 92 bc 6d 1c 1a 3b e2 d3 44 bd ba af d0 3c
       -0.017909968 0.0023515478 -0.04805363 0.025474418
000070 0d 04 9f bd 66 98 98 3c 50 f1 17 3b a7 62 78 bc
       -0.077644445 0.018627357 0.0023184605 -0.015160239

agent,params,encoders_0,self_attn,out,kernel f4 [4, 8, 32]
000000 5a e5 7a 3e 37 fd c2 3e 95 4a 7c 3c 80 81 4b 3d
       0.24501553 0.38083813 0.015398641 0.049684048
000010 ae 9c e8 bd 51 5b 49 be b5 b4 80 be 6c bf ea 3d
       -0.11358009 -0.1966374 -0.2513787 0.11462292
000020 5b d0 03 bd 7a 4b 52 3d 29 18 c8 3d f6 0e 45 be
       -0.032181125 0.05134151 0.09770233 -0.19243988
000030 42 be 59 3e 03 3a 14 be 63 ae 05 be 44 79 21 be
       0.21263984 -0.14475255 -0.13054805 -0.15768915
000040 6d 01 2c 3e 06 38 0d 3e f9 75 ea 3d 0c a4 e0 3d
       0.16797419 0.13790902 0.11448283 0.109687895
000050 ef 76 8d bc 0b 87 91 3d b4 c4 8b be b9 96 8d bd
       -0.017268626 0.071058355 -0.2729851 -0.06913514
000060 12 68 8c be b5 34 02 3e 52 7b 9f bd d9 6f d1 3e
       -0.2742315 0.12715419 -0.07787193 0.40905645
000070 d3 21 2b be a9 ac 0d be d2 ee 16 be 14 50 78 be
       -0.16712122 -0.13835396 -0.1473954 -0.24249297
000080 e0 cf b7 3d 05 98 3c bc 00 d2 47 bd 33 75 23 bd
       0.08975196 -0.011510854 -0.048784256 -0.03990669
000090 6d e5 8d 3d 9f f0 20 3e 50 5e bd 3a e9 e3 22 3d
       0.06928525 0.1571679 0.0014447663 0.039768133
0000a0 43 5b 0a 3e cc 60 2b bb e7 7e ff 3d 88 c7 c8 3d
       0.13511376 -0.0026150225 0.124753766 0.098036826
0000b0 43 25 ca bd 01 30 21 3e c6 ae 97 3e 38 70 af 3e
       -0.09870388 0.15740968 0.2962553 0.34265304
0000c0 0c 99 96 be b4 0a b2 be bb 2c 66 be ad 37 72 3d
       -0.2941364 -0.3477379 -0.22478001 0.059135128
0000d0 ea be 77 be f8 36 7e be 95 f8 cb bc 59 b7 e9 bc
       -0.24193922 -0.24825656 -0.024898807 -0.02852981
0000e0 89 c7 75 bd 18 15 25 3e 8c f8 3d 3d cc e8 aa be
       -0.060004745 0.16121328 0.04637961 -0.33380735
0000f0 41 b8 8c 3c 2c 31 ef 3d 7b fd 6d be 5d 4e 87 be
       0.017177703 0.11679301 -0.23241226 -0.26426974
000100 b5 20 85 3e 9b 3f ca bc 6a b9 c5 be 8f 5b 3b be
       0.26001516 -0.024688533 -0.38618022 -0.18296646
000110 29 bb b5 3a 92 60 16 bd 41 9f 75 3e 30 76 5c be
       0.0013864982 -0.03671319 0.23986532 -0.2152946
000120 96 dc f7 3d 91 60 70 be 0f 60 01 3d 96 06 5a be
       0.1210262 -0.23474337 0.03158575 -0.21291575
000130 4e 6e b9 3d 27 60 93 3c 36 6a 27 bd 57 66 95 3e
       0.09054242 0.017990185 -0.040872775 0.29179642
000140 85 3f 42 3e c9 2e 3b 3c ec 5b 9a be 97 e3 8d 3d
       0.18969543 0.011424729 -0.30148256 0.06928175
000150 97 01 66 bd 1d 59 af 3d 29 59 46 3a 28 4a 04 be
       -0.05615386 0.08561919 0.00075663865 -0.12918913
000160 e1 d1 d7 bd cf 4d 94 be 4e 81 fa 3d 25 80 13 be
       -0.10538078 -0.28965613 0.12231694 -0.14404352
000170 5a 36 74 bd d5 75 9a 3c 69 db f4 bc 19 6b cf be
       -0.059622146 0.018855015 -0.02988978 -0.40511397
000180 b1 14 4a 3e 60 fe 60 be ad b4 a0 be a4 05 3e 3d
       0.19734456 -0.21972036 -0.31387845 0.046392098
000190 01 4a b3 bd 73 09 10 be 47 09 29 3e f6 07 12 be
       -0.087543495 -0.14066105 0.16507445 -0.1426085
0001a0 b1 ba f9 3d 59 29 bd 3d ec 72 b4 bc 0a 74 49 3c
       0.12193812 0.09236402 -0.022027455 0.012295732
0001b0 0a 06 e8 3d c0 a8 90 be c5 90 1e bd ec bd 8f 3e
       0.11329277 -0.28253746 -0.03871228 0.28074586
0001c0 1f 4e 81 be 3e 65 03 bd 31 ed 3f bd 52 fd 79 be
       -0.25254914 -0.032078974 -0.046857063 -0.2441304
0001d0 13 71 d5 3d 88 f2 16 bc 3b 49 19 be af 92 42 be
       0.10421958 -0.009213097 -0.14969341 -0.19001268
0001e0 cb 6a 19 3e 23 4d 0b be e7 49 52 3e 71 56 44 3e
       0.14982145 -0.13603644 0.20536004 0.191736
0001f0 22 25 e4 bd 3a 62 82 be c1 16 c2 ba 26 7a 9a 3e
       -0.11139895 -0.25465566 -0.0014807807 0.30171317
000200 b9 44 b2 3e b3 77 b1 3e c9 09 73 be bd 65 25 3e
       0.34818056 0.34661636 -0.23734201 0.16152091
000210 6a 7f 66 3e 4e 49 ef bd 0b 64 90 be 93 08 17 be
       0.22509542 -0.11683904 -0.28201327 -0.14749365
000220 8e 8d f8 3d a7 04 e6 3d 63 da a6 3d 7e 5a 26 be
       0.121363744 0.11231356 0.08147123 -0.16245458
000230 0a fa 1e be 92 b0 8e 3d 01 63 b9 be 77 61 ec bd
       -0.1552507 0.06967272 -0.36208346 -0.115420274
000240 5e 36 43 3e 86 a5 9f 3d 68 00 dd bc 4f 3f 7c 3d
       0.19063708 0.07795243 -0.026977733 0.061583813
000250 80 28 f9 3d 09 bf a6 be 55 cb 38 be 97 0f d1 bd
       0.12165928 -0.32567623 -0.18046315 -0.10208052
000260 83 96 b9 bd 2e 23 33 be a0 14 73 be c0 38 b8 be
       -0.09061911 -0.17493889 -0.23738337 -0.35980797
000270 a2 ff ad bc b4 da ab be fc 07 c0 bc 1e cc 01 3d
       -0.02124006 -0.33565295 -0.023441307 0.031688802
000280 a4 dc 85 bd 79 03 40 3e 1c 6b 8f be 5b 05 c0 3d
       -0.065362245 0.18751325 -0.28011405 0.093760215
000290 27 f5 1e 3a 70 aa 3f 3d f2 7c 96 3c f3 bd 0b be
       0.0006063752 0.0467934 0.018370125 -0.13646679
0002a0 b6 48 c7 be 80 be 73 3c e8 ab 8e bd df b1 40 bd
       -0.38922662 0.014876962 -0.06966382 -0.04704463
0002b0 df 36 d8 bd 72 80 83 3e ff 8c c4 bd 40 88 ea 3d
       -0.10557341 0.25683933 -0.09597205 0.11451769
0002c0 58 3c cd 3c 09 75 de bd 21 24 c7 3d 26 75 e8 bd
       0.025053188 -0.108621664 0.09723688 -0.11350469
0002d0 4f 75 07 3e 41 28 57 be 98 95 9c be d0 64 8c bc
       0.13228343 -0.2101145 -0.3058288 -0.017137915
0002e0 e7 d8 94 be c7 4a 36 3e 51 07 9a 3b d7 38 54 3e
       -0.29071733 0.17801963 0.004700579 0.20724808
0002f0 e0 7d 30 3e a0 3d c0 3e 49 a0 61 bd 54 b9 89 3e
       0.17235518 0.37547016 -0.0550845 0.26899207
000300 58 ba ab be 92 23 a1 bd 4a 2b a4 be 7c fa 35 bd
       -0.33540606 -0.078681126 -0.32064277 -0.044428334
000310 24 2f 53 3d 7f d0 50 be 7d 1a b1 3e 35 83 43 3d
       0.05155863 -0.20392035 0.3459052 0.04773255
000320 e6 fb 03 be 97 19 b4 3d a9 22 76 3c 17 78 d2 3e
       -0.1288906 0.087939434 0.015022912 0.41107246
000330 63 f7 b3 3e 5f 11 62 be 69 06 ac be 8a eb 98 3e
       0.3514968 -0.22076939 -0.3359864 0.29867202
000340 3e de 7b 3b 06 5d 57 be 04 51 41 bd 45 2f 54 3e
       0.0038432027 -0.2103158 -0.047196403 0.20721157
000350 64 7f b8 3e 83 2d 99 be 37 cc bc b8 04 3f c9 bc
       0.3603469 -0.29917535 -9.0025766e-05 -0.024566181
000360 c4 d2 3c 3e 14 87 42 bd f8 26 6d 3d d3 9c 2e be
       0.18439776 -0.0474921 0.05789849 -0.17052011
000370 4d 4c 17 be dd 50 89 be cc cf 31 be b6 e0 ac 3e
       -0.147752 -0.26819506 -0.17364424 0.3376519
000380 e4 84 6c bc be 93 6c 3e be ea 83 be 6f ef ca be
       -0.0144359805 0.23103234 -0.25765032 -0.39635798
000390 c1 79 01 bd 18 f5 0b 3d 7b 33 4f 3e 15 0b 1f bd
       -0.031610254 0.034169286 0.20234482 -0.038828928
0003a0 2d 5f 80 bd b2 59 32 3e e2 63 4c 3d f3 ee 3e 3c
       -0.06268153 0.17417029 0.049899943 0.01165365
0003b0 8a d1 7e be ce 66 73 3d 0d 37 24 3d db a8 81 bd
       -0.2488462 0.059424214 0.040091563 -0.06331035
0003c0 03 55 90 be c1 83 51 3d 7a 52 d0 be 38 8f 14 3c
       -0.2818986 0.05115104 -0.40687925 0.009067349
0003d0 cf 6e 93 3d c8 54 27 3d 01 0c 98 3d 1c 63 e7 bd
       0.071988694 0.040852338 0.074241646 -0.112982005
0003e0 94 8d be 3e fc bb 6d 3e 5f c5 01 bd 79 6e 2c 3e
       0.3721739 0.23216242 -0.03168237 0.16839017
0003f0 22 c6 27 be 07 00 69 3e 75 40 44 bd 93 f8 4f 3e
       -0.16384175 0.22753917 -0.047913034 0.20309667

agent,params,encoders_0,self_attn,query,bias f4 [4, 8]
000000 0e b4 4f 3c f1 24 05 bd 78 b1 6d bc 84 ed 80 bc
       0.012677206 -0.032505933 -0.014507644 -0.015738256
000010 b5 01 58 3d fb 00 57 bd f5 7d fd bc a5 60 2e 3d
       0.052736003 -0.05249117 -0.03094385 0.042572636
000020 2e 3c e2 bc b8 0c 9a bc 38 9b c6 bc 3e bd 4b 3d
       -0.027616587 -0.018804893 -0.024243936 0.049741022
000030 69 ee c5 bc cc 45 1e 3d 16 82 cd bc 71 d7 e8 bc
       -0.024161534 0.038640782 -0.025086444 -0.028423043
000040 09 03 34 3b 0b 97 06 bd 0b fd d2 bc 8f 21 0b bd
       0.002746763 -0.03285889 -0.025755426 -0.03396755
000050 fd fb 19 3d f1 f3 13 3d e7 9d 62 bc 1b 5f ef bc
       0.03759383 0.036121313 -0.013831592 -0.029220155
000060 b7 d3 d1 bc e7 e6 d6 bc 64 8c 0b 3d 51 eb 01 bd
       -0.025613649 -0.02623315 0.034069434 -0.031718556
000070 08 3d 12 bd 5a ef cc bc 7b 36 7e bc 70 f2 ef 3c
       -0.035702735 -0.025016475 -0.015515919 0.029290408

agent,params,encoders_0,self_attn,query,kernel f4 [32, 4, 8]
000000 0a 85 31 be 53 d0 41 3e 57 99 ee bd ce 28 43 3d
       -0.17335907 0.18927126 -0.11650341 0.047646336
000010 84 02 a8 3d 59 b8 3a 3e 34 fb c5 3d 89 d5 72 3e
       0.08203605 0.18234386 0.09667054 0.2371427
000020 2d 97 92 be 49 9c 3f 3d fb 98 4e be f6 8f 37 be
       -0.28630963 0.046779905 -0.20175545 -0.1792601
000030 da 4c b7 bd 10 02 de 3d 14 a9 55 bd ea b0 e7 3d
       -0.08950205 0.10840237 -0.0521632 0.113130406
000040 6a d3 6c 3e a4 b2 45 3e 61 14 e8 bd a8 fb a1 3e
       0.23127523 0.19306427 -0.11332012 0.3163731
000050 4f 66 29 bd ed f0 36 be 83 bd 1d 3e 4d 9c 93 3e
       -0.041357335 -0.17865343 0.15404324 0.28830186
000060 3e d9 30 be d6 78 50 be e4 72 0a bd 8f 19 03 3e
       -0.17270371 -0.20358595 -0.033800974 0.12802719
000070 bd f8 e0 bd f9 22 b5 3d 72 14 16 bd df f5 6c 3e
       -0.10984943 0.08844561 -0.036640592 0.23140667
000080 35 93 62 be fd 32 34 3e 55 59 86 3e 9c de ab bb
       -0.22126468 0.17597575 0.2624003 -0.005245043
000090 2d 72 8c 3d 38 10 97 3e 89 67 03 3e de f3 01 be
       0.06857715 0.2950456 0.12832464 -0.12690684
0000a0 fd 28 a8 3e 87 15 40 bd 6e 35 da 3d c0 bd c4 3b
       0.32843772 -0.04689553 0.10654722 0.0060040653
0000b0 77 cd b6 bd 59 7a b5 be 10 92 80 bd 22 0a 50 bd
       -0.08925908 -0.35444906 -0.06277859 -0.050790913
0000c0 5a 9f 78 bc 7a 90 13 bd 13 ca c4 bd 6c 22 aa bd
       -0.015174711 -0.036026455 -0.09608855 -0.08307347
0000d0 be ac 2d 3d fc ae 78 3c 1a 08 0d 3d 92 33 b9 bd
       0.042401068 0.015178438 0.034431554 -0.090430394
0000e0 0e 2b 2c 3e e1 0b b6 3d b5 8d c2 bd e0 c9 b2 3d
       0.16813299 0.088889845 -0.09499685 0.08729911
0000f0 f2 21 bc be ea ae 90 bc 2b 07 08 be 27 48 c4 3d
       -0.36744648 -0.01766153 -0.13283984 0.095840745
000100 0e 2c b1 3d 94 8f d0 3d d8 00 07 3e 07 6d 28 3e
       0.08650981 0.10183635 0.13183916 0.1644784
000110 50 f5 86 3e 74 5f 03 3d 0e 6d 0a be 4d 3d d2 3e
       0.26359034 0.032073453 -0.13518164 0.41062394
000120 bd b6 6c 3e 3e f5 74 3d 1e 29 e8 bd 72 34 2c 3e
       0.23116584 0.059804194 -0.113359675 0.16816881
000130 d7 e5 43 3e 74 c4 a4 3e 45 cf 79 3e d8 d3 d5 bd
       0.19130646 0.32181132 0.24395473 -0.104407966
000140 16 d8 b2 bd 51 96 9b 3d 89 7d 87 be 78 b5 fc 3c
       -0.08732621 0.0759703 -0.26462963 0.03084825
000150 78 4d 7e 3d 1b d6 d6 bd 23 49 6b bc d3 b5 28 3d
       0.0620856 -0.10490056 -0.014360699 0.041189026
000160 32 06 e0 3c 6d 2d 30 3e 5b 5c a2 be f4 89 90 3e
       0.027346704 0.17204829 -0.31711087 0.2823025
000170 eb 2a 9b be 41 9f 7f 3e 00 c1 0b 3e aa 1e 4e 3e
       -0.3030618 0.24963094 0.13647842 0.20128885
000180 49 da 8e 3e b7 d5 b5 bb 45 c0 a6 3d 3f e2 5a be
       0.27900913 -0.0055491584 0.08142141 -0.21375369
000190 bd 89 38 bc f0 57 d8 3d f2 69 33 3e d2 2f 1f 3d
       -0.011263308 0.10563648 0.17520884 0.038863964
0001a0 e0 19 34 3d 53 15 91 bd 53 97 26 3e ff 79 5c 3e
       0.04396999 -0.070841454 0.16268663 0.21530913
0001b0 06 27 0d 3e c4 a0 c2 bd a9 30 f1 bd a1 bb e1 bc
       0.13784418 -0.0950332 -0.11776859 -0.027555289
0001c0 cd 98 d6 3e e2 82 4b be 63 4c 4c 3e 75 a4 8e bd
       0.41913453 -0.19874147 0.19951014 -0.069649614
0001d0 17 62 0c be 90 0e d6 bd c5 87 bc be 92 f5 29 3e
       -0.13709293 -0.10451996 -0.36822334 0.16597584
0001e0 4c 04 a6 bd 34 d3 22 be f7 c8 09 3e a8 d6 06 be
       -0.08106288 -0.1590088 0.13455568 -0.13167822
0001f0 97 2b 1f 3e 1a f4 68 3e 2a c5 32 bb 77 97 6a 3e
       0.15543972 0.22749367 -0.0027278163 0.22909342
000200 51 64 23 bd e2 64 95 bc 01 45 69 3e 92 2b eb bd
       -0.03989059 -0.018236581 0.22780229 -0.1148292
000210 2d 25 5f 3e df f9 ec 3b b7 f4 15 be 95 9e c0 be
       0.21791525 0.0072319354 -0.14644133 -0.37620988
000220 5f 1a c9 bd a6 eb 94 3e 8f ce 23 3e 7f a1 e4 3d
       -0.09819483 0.29086035 0.15996765 0.111636154
000230 d8 92 25 3e 84 7b cd 3d f4 9e 5b be ad e5 9a bc
       0.16169298 0.10033324 -0.21447355 -0.018908346
000240 4e d1 14 be 7d c1 fd 3d fb 26 10 bd b8 a1 a9 3e
       -0.14532968 0.123904206 -0.035193425 0.33131194
000250 08 ec e0 3d 74 b8 4c be d5 6e 85 3e 98 0a 3b 3e
       0.109825194 -0.19992238 0.2606112 0.1826576
000260 d4 7a c2 3d 97 91 82 bd ae 26 19 3d e3 33 62 bd
       0.09496084 -0.06375425 0.037390403 -0.055225264
000270 56 b5 3a 3e a5 5d 56 3d 61 12 e6 bc f7 dd a7 3e
       0.18233237 0.0523354 -0.028084936 0.32786533
000280 d6 60 66 be de 5c 2b be 8f d5 d1 bc e6 db 14 3d
       -0.22497877 -0.16734645 -0.025614528 0.036342524
000290 9d 02 08 3e 7d a4 cd 3d f9 2c ba 3e 0d df 22 3e
       0.13282247 0.10041139 0.36362436 0.159054
0002a0 cc 19 d7 3c d4 94 09 be bc f8 08 3e 03 0e 52 3e
       0.026257418 -0.1343568 0.13376135 0.20513158
0002b0 ff 70 b8 be 78 fd 3d bc 19 23 f6 3c e4 62 8d 3e
       -0.3602371 -0.011596076 0.030046033 0.2761451
0002c0 78 79 43 be 43 44 98 be 90 16 cf bd 3f 1c 84 3e
       -0.19089305 -0.2973958 -0.10111725 0.258028
0002d0 90 b7 48 be 2d 5e 38 3d a7 8b 12 bd 9f 4b 97 3c
       -0.19601274 0.045011688 -0.035777714 0.018468676
0002e0 44 c7 b1 3e fa 64 01 bd 3a 49 bf 3d d8 73 19 3e
       0.3472234 -0.03159044 0.09340139 0.14985597
0002f0 56 86 15 3e 9c 9a 87 be 0a 67 b2 be e3 74 15 3e
       0.14602026 -0.26485145 -0.34844238 0.1459537
000300 0b b5 b3 bd 3d 49 44 be 99 77 28 be 88 aa 53 3c
       -0.087747656 -0.19168563 -0.16451873 0.012919076
000310 cc 3e 6e 3c c6 2d 2a 3e 08 9a ac 3d ca 80 b4 be
       0.014541339 0.16619024 0.08427817 -0.35254508
000320 2e 94 a6 3d cc f4 1c be 38 d9 b1 3d 12 dc 76 be
       0.08133732 -0.15327758 0.08684009 -0.24107388
000330 95 ca 07 3d 20 41 0b be 7d f1 3a be 30 b1 42 3d
       0.03315218 -0.13599062 -0.18256183 0.04753226
000340 c1 6d 0b 3e 75 b9 39 3e ee 0c eb bd c3 81 a9 3e
       0.13616087 0.18137152 -0.114770755 0.33106813
000350 1f e6 a3 bb a8 db 27 3e 32 82 62 be 11 85 79 bc
       -0.005001798 0.16392386 -0.22119978 -0.015229479
000360 a6 7b cc 3c 94 17 7f be 4c 47 01 3d 33 fb 86 bd
       0.024961304 -0.24911338 0.031562135 -0.06590881
000370 ee a7 9a bd 42 14 13 bd 40 63 90 3e ba fb b4 3e
       -0.07551561 -0.03590799 0.28200722 0.35348302
000380 b3 a7 20 3d 0c 11 8a bd 50 fc 92 be ba d4 ee bc
       0.03922243 -0.06741533 -0.28708124 -0.02915417
000390 51 a9 de 3d f1 85 34 be 8f 30 e5 3d 9e ee 80 bd
       0.10872138 -0.1762922 0.111909024 -0.062955126
0003a0 1f b7 8b 3e 66 73 7f 3d cd a8 85 3d 75 f7 76 bd
       0.27288148 0.062365912 0.06526337 -0.060294587
0003b0 8b d7 eb bd 0b 90 74 3e bd a8 c3 3d 41 8a 96 bc
       -0.11515721 0.23883073 0.09553669 -0.018376471
0003c0 9f 34 8c bd 3b 29 69 be 1b a7 a9 3e a3 b2 81 3e
       -0.06845974 -0.22769634 0.33135304 0.25331602
0003d0 73 81 85 3e e9 c2 5b 3e dc 63 84 3e e1 75 ec bd
       0.26075324 0.21461071 0.25857437 -0.11545921
0003e0 4c 74 94 be 92 ef 3e 3e c6 60 15 be 90 af 21 bd
       -0.28994977 0.18646076 -0.14587697 -0.03947407
0003f0 3d 94 7a bc 8e ae 16 be 8a 42 1e bc 39 71 39 be
       -0.015294132 -0.14715025 -0.009659419 -0.18109597
