baselines/QLearning/checkpoints/MPE_simple_spread_v3/vdn_ps.safetensors (safetensors, 107596 bytes, 14 tensors)

params,Dense_0,bias f4 [64]
-0.4780564 -0.07079226 -0.16732424 -0.0023276624 0.05297766 0.036847893 -0.031894118 -0.06002264
-0.17006087 0.0436604 -0.12718713 -0.10063868 -0.29918313 -0.09423799 -0.10450333 -0.057617
-0.2234154 -0.002171142 -0.19059782 -0.31952676 -0.21721949 -0.08940489 -0.17200616 -0.4624949
-0.23838429 -0.29724848 -0.2601239 -0.117845215 -0.11125392 -0.25833276 -0.030455876 0.007817056
-0.085237965 -0.3742104 -0.033015195 -0.098479405 -0.010425586 -0.33506367 -0.15612717 -0.26694196
-0.14957058 -0.18505605 -0.13228671 -0.020345649 0.026726719 -0.03490972 -0.13012803 -0.17562553
-0.049429998 0.01685894 0.12407392 -0.07927871 -0.12660667 -0.06647182 -0.27289695 -0.26389617
0.0034490046 -0.025579007 -0.261652 -0.25508407 -0.01475022 -0.1253469 -0.020196173 -0.05704222
00000000: cfc3 f4be 88fb 90bd 0c57 2bbe b28b 18bb
00000010: 1aff 583d d1ed 163d 68a3 02bd 4dda 75bd
00000020: 7024 2ebe 3fd5 323d 583d 02be a71b cebd
00000030: 882e 99be d9ff c0bd d805 d6bd ceff 6bbd
00000040: 02c7 64be b849 0ebb 132c 43be 0399 a3be
00000050: c96e 5ebe e919 b7bd 6222 30be 22cc ecbe
00000060: 031b 74be f430 98be f62e 85be d558 f1bd
00000070: 18d9 e3bd 3144 84be 9a7e f9bc 1c13 003c
00000080: 3e91 aebd 8198 bfbe f13a 07bd 92af c9bd
00000090: 14d0 2abc 778d abbe cddf 1fbe 9eac 88be
000000a0: 0829 19be 557f 3dbe 2b76 07be ebab a6bc
000000b0: fef1 da3c 7ffd 0ebd 4840 05be 2ed7 33be
000000c0: 1c77 4abd c21b 8a3c 781a fe3d e05c a2bd
000000d0: 2ea5 01be 6122 88bd 26b9 8bbe 661d 87be
000000e0: b208 623b 118b d1bc 40f7 85be 619a 82be
000000f0: e8aa 71bc f05a 00be 7272 a5bc 1aa5 69bd

params,Dense_0,kernel f4 [21, 64]
-0.11401264 -0.3606201 -0.5343609 -0.08986557 0.41442358 0.020752722 -0.19318314 -0.051267665
-0.053118672 -0.24711105 0.2695831 0.077845626 1.1134701 -0.026769668 0.102149785 -0.06769772
0.04927836 -0.13841529 0.11644391 -0.72429186 0.50708574 -0.07765572 -0.22924222 0.0063566538
-0.026256233 -0.13751166 0.6683544 0.35461557 -0.34775233 0.5971436 0.22721173 0.3817463
-0.01888462 -0.6840076 -0.2998468 0.49918148 -0.2766558 -0.24736935 -0.15995194 -0.6230833
0.24163634 0.36834285 0.114344224 -0.19259126 -0.41557458 0.19248168 0.31718612 0.31100106
0.3534265 0.22156999 0.17592469 0.17774302 -0.27066958 -0.35227847 0.54399806 -0.3976074
0.20119606 0.19033138 0.07965548 0.29442647 -0.13967817 -0.124429256 0.09561545 0.42541197
0.074604966 0.060614802 0.0964995 -0.39662498 -0.05138245 0.5004039 -0.16842827 0.0012863986
-0.11266193 0.2599223 0.09560723 0.3962114 -0.57064044 0.4081877 0.32598424 0.4573534
0.06663183 -0.3316305 -0.10921373 -0.97958815 -0.41897312 0.074060604 -0.12925127 -0.10800185
-0.11219589 -0.33925056 0.5587415 0.1510878 -0.24699426 -0.007575776 -0.3898901 0.17787147
-0.4501061 0.46331197 -0.1276561 0.5697203 0.14191644 -0.38362908 0.36791143 -0.6557893
-0.11551679 -0.055757437 0.043917395 -0.3975256 0.14879505 0.3470923 -0.48074168 -0.17405903
-0.07859557 -0.34273487 -0.2944185 -0.20489934 0.24683237 0.22292824 0.9357958 -0.0009422045
0.40085322 -0.25340697 -0.36042356 -0.053189788 -0.10146337 0.65248597 0.049706835 0.15567023
-0.0045552985 0.12749305 -0.16821796 -0.017683715 -0.13600908 -0.03866626 0.19607979 -0.09151896
0.17648119 0.14532404 -0.14647324 -0.011227401 0.12465061 0.040843714 -0.026937202 0.054865506
0.11453141 0.07031348 -0.20787086 -0.043345023 0.04263435 0.13263947 0.24044695 -0.019916682
0.20211346 0.07655054 0.15927698 -0.035227735 0.13507646 0.04718972 -0.06800364 -0.12861213
0.0075557297 -0.50974053 0.16187786 0.0059816376 0.06632951 -0.07537947 -0.01605078 -0.17349169
-0.27846077 -0.19837566 -0.192983 0.13230017 0.14232616 -0.07737519 -0.09700559 -0.1687517
-0.15333988 -0.11128539 -0.07953031 -0.12726103 0.0888158 0.14042556 0.044921692 -0.06161783
-0.1572338 -0.1095027 -0.13940372 0.41076863 0.24728565 -0.063126445 0.031276144 -0.1301286
-0.25165096 -0.051821567 0.041850206 0.15944098 0.031304445 -0.19526258 0.17450683 0.11939448
0.06647235 -0.14711839 -0.076804385 -0.08823786 -0.04270856 -0.12205625 -0.10955959 -0.13509592
-0.26003724 0.05615766 0.14475702 0.00855972 0.04626921 -0.077792905 0.121213235 0.13415922
-0.019033805 0.012127791 0.04249189 -0.10618788 0.048444577 0.09871641 0.13199411 -0.11059506
0.08555669 -0.045250773 0.079812005 0.26129827 -0.048712056 -0.032479223 0.018656885 -0.3243203
0.032192644 0.017224815 -0.15195827 0.18840402 -0.06909365 -0.13639592 0.01709876 -0.004942007
0.102292396 0.07741403 0.07840422 0.19435062 -0.11567676 -0.091170356 -0.0029847207 0.13050273
-0.08278192 0.026571551 0.015740225 -0.11577478 0.16963051 0.21108696 -0.17239884 -0.05519986
00000000: 767f e9bd 33a3 b8be e0cb 08bf 710b b8bd
00000010: 542f d43e 9d01 aa3c cdd1 45be 0bfe 51bd
00000020: f792 59bd ae0a 7dbe cc06 8a3e 876d 9f3d
00000030: 3086 8e3f 104c dbbc e833 d13d 1aa5 8abd
00000040: 1bd8 493d bdbc 0dbe 257a ee3d 316b 39bf
00000050: 5fd0 013f f609 9fbd 79be 6abe 7a4b d03b
00000060: 5017 d7bc dbcf 0cbe 4619 2b3f 2c90 b53e
00000070: 980c b2be 67de 183f 31aa 683e 4074 c33e
00000080: ebb3 9abc 1f1b 2fbf 8585 99be b794 ff3e
00000090: d4a5 8dbe 644e 7dbe 71ca 23be 6382 1fbf
000000a0: 846f 773e 6f97 bc3e 4e2d ea3d a536 45be
000000b0: 31c6 d4be eb19 453e 3866 a23e 883b 9f3e
000000c0: 51f4 b43e 3ee3 623e 9a25 343e 4402 363e
000000d0: 3495 8abe d85d b4be 7543 0b3f 3293 cbbe
000000e0: 5706 4e3e 3be6 423e 6a22 a33d 11bf 963e
000000f0: cb07 0fbe c4d4 febd 08d2 c33d 99cf d93e
00000100: 7dca 983d 3a47 783d 88a1 c53d 6e12 cbbe
00000110: 6776 52bd 781a 003f 7678 2cbe 609c a83a
00000120: 4cbb e6bd 8914 853e b9cd c33d 38dc ca3e
00000130: 7e15 12bf fafd d03e 68e7 a63e 3a2a ea3e
00000140: 4576 883d 79cb a9be 73ab dfbd 4ac6 7abf
00000150: a583 d6be 16ad 973d 725a 04be 1330 ddbd
00000160: f5c6 e5bd 40b2 adbe af09 0f3f c3b6 1a3e
00000170: 10ec 7cbe 373e f8bb ad9f c7be f023 363e
00000180: 4f74 e6be 3a37 ed3e 48b8 02be 31d9 113f
00000190: 8b52 113e 086b c4be e35e bc3e cfe1 27bf
000001a0: 1194 ecbd e961 64bd bae2 333d 7a88 cbbe
000001b0: bb5d 183e 15b6 b13e c623 f6be 883c 32be
000001c0: b7f6 a0bd f27a afbe 06be 96be 22d1 51be
000001d0: a0c1 7c3e 4d47 643e 5090 6f3f 46fe 76ba
000001e0: a23c cd3e 8fbe 81be 7089 b8be 89dd 59bd
000001f0: 07cc cfbd 5209 273f 6599 4b3d 0468 1f3e
00000200: 9d44 95bb 8a8d 023e 5441 2cbe 70dd 90bc
00000210: f745 0bbe 8360 1ebd 24c9 483e 4b6e bbbd
00000220: 7cb7 343e d3cf 143e 15fd 15be 22f3 37bc
00000230: d248 ff3d bd4b 273d 68ab dcbc a7ba 603d
00000240: 728f ea3d 8400 903d 19dc 54be 8d8a 31bd
00000250: 5ba1 2e3d a4d2 073e ba37 763e 4f28 a3bc
00000260: d5f6 4e3e 88c6 9c3d 8119 233e f54a 10bd
00000270: 7c51 0a3e 024a 413d 7e45 8bbd e6b2 03be
00000280: 0e96 f73b 5b7e 02bf 4fc3 253e 9d01 c43b
00000290: c4d7 873d 8d60 9abd ed7c 83bc cea7 31be
000002a0: 6992 8ebe fd22 4bbe 569d 45be b279 073e
000002b0: f3bd 113e e276 9ebd deaa c6bd 3fcd 2cbe
000002c0: 2105 1dbe 98e9 e3bd cae0 a2bd b750 02be
000002d0: 0fe5 b53d b8cb 0f3e cfff 373d fa62 7cbd
000002e0: e601 21be f442 e0bd d9bf 0ebe 4450 d23e
000002f0: 7338 7d3e 7048 81bd 6a1b 003d 6f40 05be
00000300: 65d8 80be da42 54bd 1f6b 2b3d 7f44 233e
00000310: 1739 003d eaf2 47be ebb1 323e 1885 f43d
00000320: a822 883d 34a6 16be 9e4b 9dbd 0db6 b4bd
00000330: 2cef 2ebd a1f8 f9bd c760 e0bd 9656 0abe
00000340: 9a23 85be 9305 663d 2f3b 143e 113e 0c3c
00000350: c884 3d3d e351 9fbd a53e f83d 0961 093e
00000360: c8ec 9bbc a4b3 463c fa0b 2e3d 0879 d9bd
00000370: d26d 463d d42b ca3d 7729 073e aa7f e2bd
00000380: 5938 af3d e058 39bd 7a74 a33d e3c8 853e
00000390: 4b86 47bd ef08 05bd 53d6 983c 4f0d a6be
000003a0: 6fdc 033d 0e1b 8d3c f39a 1bbe fcec 403e
000003b0: f980 8dbd 5fab 0bbe b312 8c3c 8ff0 a1bb
000003c0: ad7e d13d 3f8b 9e3d 6492 a03d d903 473e
000003d0: f0e7 ecbd 86b7 babd 4e9b 43bb 82a2 053e
000003e0: 9189 a9bd 95ac d93c a5f1 803c 541b edbd
000003f0: 9fb3 2d3e 2e27 583e 5289 30be 4019 62bd

params,Dense_1,bias f4 [5]
-0.13505836 -0.32908958 -0.252862 -0.28465036 -0.33118162
00000000: bd4c 0abe 6e7e a8be 2177 81be b1bd 91be
00000010: a390 a9be

params,Dense_1,kernel f4 [64, 5]
-0.47878113 -0.56600934 -0.35566327 -0.48416394 -0.48612967 0.021256134 0.20510985 -0.2102509
0.08672838 0.040003736 -0.4609147 -0.22925001 -0.5193388 -0.27699417 -0.47676522 0.37570354
0.49415442 0.10358938 0.59958076 0.08429417 -0.1914821 -0.08033367 -0.22004966 -0.101264454
-0.14409743 -0.16357471 -0.18414995 -0.24497968 -0.19125888 -0.3020015 0.6348603 0.20282708
0.9901067 0.5148385 0.50237656 0.14552504 0.2777037 -0.030477338 0.3587422 -0.09326677
0.48634106 0.16104671 0.7458335 0.13886234 0.7673232 -0.4415961 -0.42537472 -0.46113357
-0.40714148 -0.3846583 0.47602403 0.46216688 0.478713 0.29791912 0.5936662 0.13981931
0.10626735 0.03445651 0.25838974 0.027064629 -0.5932552 -0.57369685 -0.6227737 -0.91245186
-0.32498592 -0.36037904 -0.36138698 -0.3682458 -0.37802628 -0.40645745 -0.1719259 -0.32514215
-0.012925758 -0.30797264 0.043618776 -0.31978187 -0.5820265 -0.22253849 -0.31087708 -0.4651017
-0.3403939 -0.38251632 -0.36741966 -0.3797758 -0.32584888 -0.3532038 -0.5866237 -0.29406554
-0.40838924 -0.4046463 -0.2819535 0.0077458974 -0.5155346 -0.5938859 0.023720602 -0.25013342
-0.22851112 -0.37647298 -0.4007569 -0.19197671 -0.6415915 -0.76851606 -0.4613145 -0.3802162
-0.765139 -0.5094649 -0.48288053 -0.24486083 -0.7221551 -0.13704999 0.19990037 0.06655291
0.22072826 0.2874196 0.07577949 0.46780473 0.373335 0.47146243 0.41079414 0.4697185
-0.31504738 -0.23788108 -0.36118704 -0.42040733 -0.21925421 -0.34816173 -0.49617139 -0.43780553
-0.43298858 -0.5134609 -0.18417613 -0.14572836 -0.23117754 -0.10619311 -0.16467696 0.42557967
0.6202859 0.22088274 0.14050916 0.67802167 -0.38669103 0.20211086 -0.80133617 -0.53378433
-0.14088196 -0.014295339 0.096135296 -0.14678816 -0.2739111 0.1756933 0.3964379 0.20479743
0.44976535 0.41344005 0.3574439 0.038010173 0.26130804 -0.31973544 0.079513684 -0.10579887
0.20283845 0.30225056 0.20558302 0.12869193 0.31560597 0.46370283 0.25864163 0.6576545
0.32027152 0.6391136 -0.6260095 -0.82299817 -0.36516124 -1.0306125 -0.17758347 0.12158224
-0.3192564 0.43887684 -0.110353574 0.2515145 -0.07378887 -0.41271392 0.09836756 0.011464813
-0.2535749 -0.16891274 -0.1636297 -0.21334393 -0.28781173 -0.07313108 0.33705503 0.2592883
0.46074018 0.43731454 0.280769 0.38672218 -0.21947129 0.7835833 0.4631111 0.31350416
-0.5133364 -0.39294213 -0.63794655 -0.45516682 -0.60499793 -0.2775056 -0.33678833 -0.26881
-0.47188166 -0.1854972 -0.36305574 -0.32590073 -0.44690982 -0.44761416 -0.31908193 -0.5892136
-0.81040734 -0.15885949 -0.78696746 -0.31271398 -0.45373657 -0.36643606 -0.5095269 -0.45983025
-0.40432462 -0.33546758 -0.37600303 -0.25886276 -0.40191334 -0.21531108 0.23360296 0.17942137
0.14638756 0.32590258 0.056249022 0.10215877 -0.055959836 0.1968819 0.08948545 0.21665132
0.15903182 0.42379206 -0.11025601 -0.017379409 0.35862082 0.24198547 0.24714269 0.8952629
0.79135627 0.1606426 -0.049778808 -0.22383608 0.15648478 -0.034068726 -0.16065812 -0.38643506
00000000: cd22 f5be fde5 10bf 7f19 b6be 56e4 f7be
00000010: fde5 f8be 5821 ae3c 5108 523e 034c 57be
00000020: a69e b13d f5da 233d 03fd ebbe 84c0 6abe
00000030: 63f3 04bf 2ed2 8dbe 921a f4be 375c c03e
00000040: cf01 fd3e ab26 d43d 207e 193f 6ca2 ac3d
00000050: e213 44be fb85 a4bd b354 61be bd63 cfbd
00000060: 478e 13be 2180 27be ce91 3cbe f4db 7abe
00000070: 5ed9 43be f19f 9abe 3486 223f e7b1 4f3e
00000080: a277 7d3f 75cc 033f c09b 003f 8404 153e
00000090: 2e2f 8e3e 9cab f9bc 0fad b73e a602 bfbd
000000a0: b201 f93e 6ee9 243e f2ee 3e3f ee31 0e3e
000000b0: 4b6f 443f e218 e2be b7ca d9be b319 ecbe
000000c0: d974 d0be eff1 c4be 6cb9 f33e 23a1 ec3e
000000d0: df19 f53e db88 983e 82fa 173f cb2c 0f3e
000000e0: b2a2 d93d 4522 0d3d a94b 843e a4b6 dd3c
000000f0: 93df 17bf ccdd 12bf 196e 1fbf 7296 69bf
00000100: 8e64 a6be 9a83 b8be b707 b9be b78a bcbe
00000110: a98c c1be 311b d0be 580d 30be 0879 a6be
00000120: 8fc6 53bc 97ae 9dbe 9aa9 323d 73ba a3be
00000130: b0ff 14bf 21e1 63be 482b 9fbe cf21 eebe
00000140: 1c48 aebe 2ed9 c3be 6e1e bcbe f971 c2be
00000150: aad5 a6be 21d7 b4be f92c 16bf c28f 96be
00000160: 6518 d1be cd2d cfbe 365c 90be 4cd1 fd3b
00000170: 13fa 03bf e808 18bf b551 c23c 7d11 80be
00000180: d2fe 69be 11c1 c0be 0230 cdbe 8b95 44be
00000190: 573f 24bf 78bd 44bf 6a31 ecbe b3ab c2be
000001a0: 26e0 43bf 4b6c 02bf 1e3c f7be ccbc 7abe
000001b0: 28df 38bf d556 0cbe afb2 4c3e e44c 883d
000001c0: 9706 623e a928 933e 4732 9b3d 1a84 ef3e
000001d0: c425 bf3e 8663 f13e 9c53 d23e f17e f03e
000001e0: e44d a1be 1997 73be 82ed b8be a13f d7be
000001f0: 2d84 60be 4142 b2be 2d0a febe 0c28 e0be
00000200: aeb0 ddbe 2c72 03bf ab98 3cbe d139 15be
00000210: ceb9 6cbe c67b d9bd 14a1 28be 94e5 d93e
00000220: 0fcb 1e3f 162f 623e a2e1 0f3e d492 2d3f
00000230: 5efc c5be 26f6 4e3e 5e24 4dbf 17a6 08bf
00000240: 5c43 10be ff36 6abc 95e2 c43d a34f 16be
00000250: 133e 8cbe f2e8 333e e9f9 ca3e 6bb6 513e
00000260: a547 e63e 6aae d33e e302 b73e 8eb0 1b3d
00000270: 2bca 853e 5db4 a3be 12d8 a23d 14ad d8bd
00000280: e2b4 4f3e 96c0 9a3e 5b84 523e d1c7 033e
00000290: 1b97 a13e 756a ed3e ad6c 843e 0c5c 283f
000002a0: a1fa a33e f39c 233f 2942 20bf 02b0 52bf
000002b0: 6af6 babe 1ceb 83bf 71d8 35be 1c00 f93d
000002c0: 9375 a3be 77b4 e03e 0e01 e2bd 82c6 803e
000002d0: 9e1e 97bd 3d4f d3be ee74 c93d e9d6 3b3c
000002e0: 92d4 81be 76f7 2cbe 8b8e 27be d576 5abe
000002f0: 0f5c 93be bfc5 95bd 7a92 ac3e 70c1 843e
00000300: 23e6 eb3e b1e7 df3e f4c0 8f3e 7300 c63e
00000310: 15bd 60be ea98 483f e61c ed3e 9e83 a03e
00000320: 046a 03bf b62f c9be 7750 23bf a00b e9be
00000330: 25e1 1abf 3715 8ebe 856f acbe 77a1 89be
00000340: 799a f1be faf2 3dbe 71e2 b9be 76dc a6be
00000350: 5dd1 e4be af2d e5be b55e a3be b4d6 16bf
00000360: db76 4fbf 10ac 22be b376 49bf 0c1c a0be
00000370: 2950 e8be 829d bbbe 5b70 02bf df6e ebbe
00000380: a303 cfbe 68c2 abbe 7883 c0be a989 84be
00000390: 96c7 cdbe 827a 5cbe 9d35 6f3e 3cba 373e
000003a0: 9fe6 153e b4dc a63e 6065 663d 9e38 d13d
000003b0: 2436 65bd 699b 493e 2644 b73d d8d9 5d3e
000003c0: 3dd9 223e 46fb d83e e7cd e1bd 435f 8ebc
000003d0: 269d b73e 0acb 773e f912 7d3e f32f 653f
000003e0: 5396 4a3f 7e7f 243e dde4 4bbd 4935 65be
000003f0: 8c3d 203e a68b 0bbd 9083 24be d1da c5be

params,ScannedRNN_0,GRUCell_0,hn,bias f4 [64]
0.026204046 0.21614395 0.23086424 -0.35777572 0.17182796 -0.7519249 -0.47670484 -0.47896707
-0.37702566 0.18368433 -0.44165733 0.6221946 0.22797027 -0.051059924 -0.14396706 0.048999805
-0.9524941 0.30547258 0.13873403 -0.7880588 0.8969934 0.39677644 -0.6221524 0.15906152
0.39341965 -0.9499432 -0.20705938 0.4655458 0.14575407 0.10694318 -0.035647597 -0.2615958
0.08510078 -0.14807321 0.33564532 -0.050028034 0.08541903 -0.27479774 0.5729987 -0.2573194
0.13699222 -0.12396051 0.088813975 0.4257362 0.13708021 -0.015702695 -0.3376854 -0.22469313
-0.059667077 -0.6588365 0.16684195 -0.15837811 -0.34029138 -0.10087211 -0.16503507 -1.1201427
-0.30650336 -0.15695266 -0.027880639 -0.63247865 -0.20952576 0.23880595 -0.2993109 0.060392607
00000000: dea9 d63c d754 5d3e ad67 6c3e 612e b7be
00000010: abf3 2f3e 267e 40bf a812 f4be 2c3b f5be
00000020: 8209 c1be bf17 3c3e e920 e2be 2548 1f3f
00000030: 0a71 693e 3624 51bd 1a6c 13be 05b4 483d
00000040: a7d6 73bf e766 9c3e 4b10 0e3e 39be 49bf
00000050: 5ca1 653f 4826 cb3e 6145 1fbf 06e1 223e
00000060: 4d6e c93e 7a2f 73bf 6007 54be 055c ee3e
00000070: 8e40 153e 0705 db3d 3703 12bd e2ef 85be
00000080: 5149 ae3d 81a0 17be b4d9 ab3e 32ea 4cbd
00000090: 2cf0 ae3d 4ab2 8cbe 0bb0 123f 5ebf 83be
000000a0: b047 0c3e 02df fdbd 1ae4 b53d 18fa d93e
000000b0: c15e 0c3e f0a2 80bc 1ae5 acbe f515 66be
000000c0: 7765 74bd 82a9 28bf 9ed8 2a3e df2d 22be
000000d0: ac3a aebe 0996 cebd f4fe 28be d660 8fbf
000000e0: 02ee 9cbe 33b8 20be f065 e4bc 1fea 21bf
000000f0: ec8d 56be 8c89 743e 473f 99be 3d5e 773d

params,ScannedRNN_0,GRUCell_0,hn,kernel f4 [64, 64]
-0.77518207 0.10475746 -0.21546264 -0.35692343 0.010726809 -0.26459342 0.096704274 0.23723146
0.03442567 -0.0038820752 -0.27618247 0.021082249 0.13470508 -0.4218367 -0.20640539 0.06650461
-0.3719207 -0.21517672 0.07864219 -0.07955541 0.27078578 -0.15745969 -0.3378866 0.26160365
0.18176012 -0.05008875 0.21986224 0.19850865 0.11279497 0.41798204 0.38584688 0.017546212
-0.06407036 0.031531956 -0.0066821156 -0.035181366 -0.06359819 0.24648677 -0.013048121 -0.10310627
0.056956686 -0.12471284 -0.4146376 0.07615343 -0.26416087 0.0110573005 -0.28558373 -0.39669305
-0.06311529 -0.06473235 -0.0019758611 0.10096066 0.11098974 -0.10767359 -0.11131588 0.1990317
0.23814593 0.12636912 -0.3237696 -0.022569658 -0.057203185 -0.14929682 0.09952567 -0.22695965
0.11995874 -0.73627293 0.2663555 -0.19007248 -0.06579351 0.045499537 -0.2584223 -0.47611538
0.17113017 0.056674007 0.21790309 -0.052822452 0.2894905 0.2080351 0.071899325 -0.59935504
0.11378049 0.37748626 0.3749963 -0.037308007 0.05756663 0.37148064 -0.16402827 -0.298851
-0.32519394 -0.05599301 -0.051204946 -0.26685777 0.04713796 0.08516389 -0.22705726 -0.41734093
0.11982339 0.07787911 -0.24999943 0.331141 -0.08949908 -0.03045318 0.037480425 0.28830418
0.11512809 0.16613476 0.2030473 -0.11907769 0.13602217 0.032438766 -0.057363644 -0.33537388
-0.44294697 0.06771775 -0.1583878 -0.37968218 -0.038595278 -0.18403292 0.17010802 -0.20547494
-0.11402396 -0.01654029 0.074776985 0.1851257 0.19220059 -0.05494163 -0.009123892 -0.28995693
0.057289533 0.16477263 -0.8074574 -0.27291128 -0.07277546 0.3126018 0.41181812 0.13945231
0.13872544 -0.47432348 0.22533499 0.0982228 -0.14809512 -0.00032072613 -0.244979 0.06903014
0.23344123 -0.07423307 -0.14043088 -0.115465224 -0.047131218 -0.18825397 -0.016303374 0.3970575
-0.07578621 0.18435799 -0.027034637 0.0565091 -0.15625733 0.026911555 -0.089121096 -0.004577241
0.10466285 0.3662928 -0.36852744 -0.10071579 -0.03994177 0.45662373 -0.071779326 0.36848098
-0.12935315 -0.17893532 -0.15744877 -0.23248878 -0.03363377 -0.20047826 -0.007841344 0.11243092
0.1268477 -0.22481993 -0.12308704 0.058304366 -0.15674973 0.44308752 0.04975009 0.18252936
0.5838874 -0.2535269 -0.12920842 0.17175919 0.14138404 0.051692706 0.16184255 -0.04166574
0.6401715 -0.010116071 0.42373922 -0.21084449 -0.112138495 0.2075071 0.0688342 -0.043510005
0.108834125 0.40296364 -0.6210126 0.037305374 -0.41275415 -0.0991906 0.16916065 0.02431049
0.08961858 0.19189322 0.09827592 -0.045072176 0.4450546 0.2025769 0.22967336 -0.61944234
0.42879507 0.28659406 0.3170302 -0.055884764 0.22209154 0.45907065 -0.111457 0.20938261
-0.23132579 0.084381446 0.20939362 0.2312884 0.06855876 0.4237714 -0.14698963 -0.30466816
-0.3035951 0.14829992 0.1911235 0.4799675 0.057005733 0.39570633 -0.40540582 0.11393298
0.050262768 -0.20096415 0.4525095 0.050322615 -0.019061107 -0.48096836 0.15149699 0.16551293
0.11925461 0.15299365 -0.26892945 -0.074726865 -0.14359881 0.56314033 0.004649198 0.022687258
00000000: 5572 46bf 148b d63d 3da2 5cbe abbe b6be
00000010: 7fbf 2f3c ca78 87be e40c c63d ceec 723e
00000020: ee01 0d3d 6a6a 7ebb ca67 8dbe aeb4 ac3c
00000030: 21f0 093e fbfa d7be ef5b 53be 9233 883d
00000040: 646c bebe 4957 5cbe 280f a13d f2ed a2bd
00000050: 6fa4 8a3e 1d3d 21be 79ff acbe eaf0 853e
00000060: 531f 3a3e dc29 4dbd 9123 613e da45 4b3e
00000070: 0d01 e73d be01 d63e b98d c53e 13bd 8f3c
00000080: 5237 83bd a727 013d a6f5 dabb 561a 10bd
00000090: c53f 82bd 0767 7c3e c9c7 55bc 6129 d3bd
000000a0: 6a4b 693d 7269 ffbd 614b d4be 54f6 9b3d
000000b0: 1840 87be ae29 353c 0838 92be 5a1b cbbe
000000c0: 9742 81bd 6592 84bd 737d 01bb 76c4 ce3d
000000d0: 974e e33d f983 dcbd 95f9 e3bd f7ce 4b3e
000000e0: 87dc 733e e866 013e 21c5 a5be 01e4 b8bc
000000f0: e34d 6abd 44e1 18be 1dd4 cb3d 1c68 68be
00000100: eeac f53d 627c 3cbf c05f 883e 5ca2 42be
00000110: bfbe 86bd b95d 3a3d ed4f 84be 65c5 f3be
00000120: bf3c 2f3e 0123 683d fd21 5f3e 5b5c 58bd
00000130: 1938 943e 2707 553e f43f 933d 556f 19bf
00000140: bf05 e93d e145 c13e 84ff bf3e 48d0 18bd
00000150: fdca 6b3d b632 be3e 07f7 27be 0003 99be
00000160: d27f a6be ed58 65bd 47bc 51bd 95a1 88be
00000170: bc13 413d 686a ae3d b381 68be b6ad d5be
00000180: f765 f53d 157f 9f3d daff 7fbe 508b a93e
00000190: 4b4b b7bd f378 f9bc 1385 193d 9b9c 933e
000001a0: 47c8 eb3d 3b1f 2a3e a2eb 4f3e 01df f3bd
000001b0: 6549 0b3e 83de 043d 24f6 6abd 20b6 abbe
000001c0: f2c9 e2be 9baf 8a3d 6930 22be b465 c2be
000001d0: 1516 1ebd 2073 3cbe cc30 2e3e 0668 52be
000001e0: 6585 e9bd 817f 87bc ad24 993d 9791 3d3e
000001f0: 3bd0 443e 7a0a 61bd 607c 15bc 3c75 94be
00000200: 6ea8 6a3d 28ba 283e 87b5 4ebf 07bb 8bbe
00000210: 4d0b 95bd 580d a03e d3d9 d23e 96cc 0e3e
00000220: 0b0e 0e3e 87da f2be 37be 663e 0929 c93d
00000230: 3fa6 17be 2227 a8b9 c6db 7abe ad5f 8d3d
00000240: 380b 6f3e 8207 98bd 1dcd 0fbe 0879 ecbd
00000250: aa0c 41bd a6c5 40be a78e 85bc 1f4b cb3e
00000260: cd35 9bbd 57c8 3c3e be77 ddbc 1676 673d
00000270: ec01 20be 9f75 dc3c 1f85 b6bd aefc 95bb
00000280: 7a59 d63d bb8a bb3e a1af bcbe 1544 cebd
00000290: fb99 23bd 96ca e93e 0a01 93bd 8aa9 bc3e
000002a0: 2775 04be d23a 37be 403a 21be 8a11 6ebe
000002b0: 90c3 09bd 2c4a 4dbe fb78 00bc 2f42 e63d
000002c0: 5de4 013e 3237 66be 0f15 fcbd 8fd0 6e3d
000002d0: 0083 20be 5edc e23e c0c6 4b3d fae8 3a3e
000002e0: a579 153f 47ce 81be 364f 04be a4e1 2f3e
000002f0: fac6 103e bbbb 533d 0eba 253e b2a9 2abd
00000300: 48e2 233f e1bd 25bc 59f4 d83e 9ee7 57be
00000310: dea8 e5bd be7c 543e f2f8 8c3d 8c37 32bd
00000320: 6de4 de3d 4051 ce3e affa 1ebf 85cd 183d
00000330: 8354 d3be 7124 cbbd 7338 2d3e cb26 c73c
00000340: f289 b73d a87f 443e e344 c93d 9a9d 38bd
00000350: 32de e33e 5270 4f3e 7e2f 6b3e c693 1ebf
00000360: 078b db3e 75bc 923e c851 a23e 6ce7 64bd
00000370: f76b 633e 4f0b eb3e 9143 e4bd 6568 563e
00000380: abe0 6cbe 2ed0 ac3d 486b 563e ded6 6c3e
00000390: 8968 8c3d 91f8 d83e 7384 16be 77fd 9bbe
000003a0: d170 9bbe efdb 173e e1b5 433e 4dbe f53e
000003b0: d87e 693d 059a ca3e 5a91 cfbe b255 e93d
000003c0: 55e0 4d3d 8cc9 4dbe 53af e73e 161f 4e3d
000003d0: 0a26 9cbc 7c41 f6be 0722 1b3e 397c 293e
000003e0: c33b f43d 5eaa 1c3e 1fb1 89be 660a 99bd
000003f0: 910b 13be f729 103f 4d58 983b a1da b93c

params,ScannedRNN_0,GRUCell_0,hr,kernel f4 [64, 64]
0.38932315 0.004285371 -0.010761486 0.2596526 -0.36240658 -0.18035357 0.40966436 0.06978287
-0.060742367 0.35352096 -0.11078747 0.06691329 -0.3176122 0.15814486 0.0015235817 0.08399059
0.1488945 0.20589508 0.36114776 -0.01878555 -0.11911557 -0.13699697 -6.966792e-05 0.27715653
-0.11182864 -0.20045023 -0.12571451 0.07701488 -0.13806798 -0.058891237 0.3172735 0.3260005
0.21863234 0.21975008 -0.3065802 -0.07342498 -0.08181189 -0.0744838 -0.049054727 -0.00022947739
-0.38743487 0.192345 -0.072567575 0.08196751 -0.028850382 0.14736097 -0.10136793 -0.24800254
0.08964743 0.23447596 -0.045575533 0.06374411 0.12046641 0.06762866 -0.119460456 0.26923686
0.1084559 0.14472339 -0.089609176 0.201005 0.03531304 0.030528542 0.1585752 0.23466788
0.019730005 -0.17795475 0.09696046 0.059876796 0.003797488 -0.21889764 -0.020349579 0.12754238
-0.26333117 -0.08396287 0.012722536 -0.07627125 0.016719531 -0.038343098 0.17354745 -0.2647306
0.068260565 0.121297516 -0.15038578 0.10163197 0.06756259 0.28566837 0.14721966 -0.31287733
-0.26154196 -0.018590065 -0.023963246 -0.10066431 0.15739343 -0.025378773 -0.042546093 0.06989959
-0.3401794 0.038573805 -0.07919486 0.13934708 -0.10370726 0.13120364 -0.1191961 -0.051212784
0.1749991 0.037693538 0.08459359 0.005907222 0.19764483 0.29975986 -0.01079642 0.18334249
0.34855336 0.1007586 0.027101584 0.027180033 -0.009737119 0.06672065 -0.08502029 0.12725994
0.2606148 -0.12168427 0.11462807 -0.025224889 -0.031057013 0.28080752 -0.1917183 0.08294962
-0.045037623 -0.08200649 0.6677076 0.14297639 -0.31498063 -0.38362783 -0.03439942 0.030058127
-0.17042083 0.5252313 0.14454977 -0.20613125 -0.2514693 -0.22280005 -0.06669331 -0.042713866
-0.5068674 -0.29708055 -0.11188462 0.0455079 0.026134077 0.061769906 -0.10004228 0.054705
0.28696573 -0.23189293 0.11389828 -0.14134422 0.20480539 0.24307661 0.05760725 0.03761061
-0.17583445 -0.023412757 0.26597625 -0.121071436 0.19663925 0.20530465 -0.3430965 0.11254411
-0.108489506 -0.02224764 -0.14097525 0.13472846 -0.3757973 0.038866606 0.01819219 -0.2426467
-0.03456235 -0.0228494 -0.15376453 -0.04270063 -0.20525298 -0.084131725 -0.031659834 -0.07701492
0.49878508 -0.05034225 0.120354585 -0.18249224 0.049054034 -0.10712151 -0.012923922 -0.03943448
-0.11352001 0.08571262 -0.24800473 0.13350664 -0.33455533 -0.00074611354 -0.32555813 0.30617166
-0.15638806 0.09521945 -0.0073048538 -0.04944543 -0.13449475 -0.13867806 -0.511156 -0.37042344
-0.0955493 0.038654037 -0.03989398 -0.035175852 0.39493892 -0.22639444 0.06775768 -0.66098416
0.0037193485 -0.020186383 0.22283088 -0.2920119 -0.08541264 -0.25645655 -0.073579304 0.49367407
-0.115104415 -0.19545664 -0.19762139 0.023421742 0.05038386 0.102126904 0.14440413 -0.1416083
-0.20185946 -0.16419968 -0.0806475 0.13628832 0.027902178 -0.1600786 -0.029331146 0.08364491
0.1281162 -0.031624377 -0.095254496 -0.14454748 -0.036493346 -0.1969618 0.15133843 -0.30628496
-0.40092427 -0.099392615 -0.012011925 -0.07515216 0.15355805 -0.1655262 -0.075024396 -0.084244914
00000000: 5d55 c73e 4c6c 8c3b f250 30bc 30f1 843e
00000010: 5b8d b9be 9bae 38be 87bf d13e 52ea 8e3d
00000020: fdcc 78bd b300 b53e 8be4 e2bd d609 893d
00000030: 119e a2be baf0 213e ebb2 c73a 4203 ac3d
00000040: cd77 183e 29d6 523e 5ce8 b83e 27e4 99bc
00000050: ddf2 f3bd ef48 0cbe ae1a 92b8 76e7 8d3e
00000060: 6a06 e5bd d342 4dbe 4ebb 00be fab9 9d3d
00000070: b161 0dbe f037 71bd ac71 a23e 8ae9 a63e
00000080: 28e1 5f3e 2a06 613e 14f8 9cbe d65f 96bd
00000090: fe8c a7bd f68a 98bd 9ced 48bd de9f 70b9
000000a0: dd5d c6be 16f6 443e 4f9e 94bd 95de a73d
000000b0: a357 ecbc cbe5 163e fd99 cfbd 61f4 7dbe
000000c0: 1299 b73d 771a 703e 69ad 3abd 468c 823d
000000d0: 18b7 f63d e580 8a3d afa7 f4bd 6ad9 893e
000000e0: 201e de3d 5e32 143e 0485 b7bd 41d4 4d3e
000000f0: 68a4 103d fe16 fa3c 8a61 223e c74c 703e
00000100: d2a0 a13c c539 36be 3593 c63d 5f41 753d
00000110: 47df 783b b426 60be 29b4 a6bc 789a 023e
00000120: 58d3 86be baf4 abbd 2f72 503c 1a34 9cbd
00000130: 66f7 883c a70d 1dbd 6cb6 313e c58a 87be
00000140: 32cc 8b3d d56a f83d bbfe 19be 6c24 d03d
00000150: 415e 8a3d 2043 923e c0c0 163e 7531 a0be
00000160: d4e8 85be 314a 98bc 924e c4bc 1729 cebd
00000170: be2b 213e 25e7 cfbc d044 2ebd 8427 8f3d
00000180: ff2b aebe 91ff 1d3d ea30 a2bd 00b1 0e3e
00000190: 7964 d4bd 3f5a 063e 161d f4bd 7fc4 51bd
000001a0: f732 333e 8a64 1a3d 673f ad3d 5f91 c13b
000001b0: 6863 4a3e 207a 993e 78e3 30bc 22be 3b3e
000001c0: 9675 b23e 865a ce3d 2404 de3c a9a8 de3c
000001d0: 7088 1fbc d6a4 883d 1e1f aebd 6e50 023e
000001e0: 4e6f 853e 9a35 f9bd 1fc2 ea3d 6da4 cebc
000001f0: 476b febc 01c6 8f3e cd51 44be 7ee1 a93d
00000200: 5f79 38bd 05f3 a7bd e3ee 2a3f 6768 123e
00000210: 2445 a1be de6a c4be 68e6 0cbd 763c f63c
00000220: cc82 2ebe 8f75 063f db04 143e 1214 53be
00000230: 96c0 80be b225 64be 8196 88bd bcf4 2ebd
00000240: 10c2 01bf f11a 98be c323 e5bd 7e66 3a3d
00000250: 2217 d63c 7102 7d3d f8e2 ccbd 5a12 603d
00000260: 2ced 923e 5775 6dbe 8043 e93d 8abc 10be
00000270: 81b8 513e 13e9 783e 94f5 6b3d 950d 1a3d
00000280: f20d 34be 1ccc bfbc 0a2e 883e 4df4 f7bd
00000290: cd5b 493e 623b 523e 58aa afbe 877d e63d
000002a0: bf2f debd af40 b6bc d15b 10be 42f6 093e
000002b0: 8168 c0be 9732 1f3d ca07 953c 6078 78be
000002c0: 4091 0dbd aa2e bbbc 7374 1dbe dbe6 2ebd
000002d0: d62d 52be 414d acbd bead 01bd 00ba 9dbd
000002e0: c260 ff3e ad33 4ebd 777c f63d 3fdf 3abe
000002f0: e2ec 483d 8662 dbbd dcbe 53bc 0d86 21bd
00000300: 2e7d e8bd 198a af3d f4f4 7dbe f7b5 083e
00000310: d64a abbe d596 43ba 8eaf a6be 88c2 9c3e
00000320: 3124 20be 6a02 c33d 8e5d efbb 4b87 4abd
00000330: feb8 09be 9f01 0ebe 1fdb 02bf 24a8 bdbe
00000340: 5aaf c3bd b253 1e3d df67 23bd 8e14 10bd
00000350: 6f35 ca3e f2d3 67be 8ac4 8a3d 4236 29bf
00000360: 50c0 733b ea5d a5bc c72d 643e 9582 95be
00000370: d2ec aebd 464e 83be bfb0 96bd d9c2 fc3e
00000380: ddbb ebbd c925 48be 435d 4abe f4de bf3c
00000390: 4e5f 4e3d e927 d13d adde 133e c401 11be
000003a0: 3fb4 4ebe f623 28be 842a a5bd 2a8f 0b3e
000003b0: 1c93 e43c a5eb 23be df47 f0bc 064e ab3d
000003c0: e530 033e 9088 01bd ca14 c3bd 4104 14be
000003d0: 0c7a 15bd 5bb0 49be 76f8 1a3e 62d1 9cbe
000003e0: f245 cdbe 5b8e cbbd aacd 44bc 60e9 99bd
000003f0: 523e 1d3e b37f 29be 64a6 99bd 9988 acbd

params,ScannedRNN_0,GRUCell_0,hz,kernel f4 [64, 64]
-0.36168715 0.043105926 0.1313766 -0.1328205 0.05630592 -0.01353349 -0.048610184 -0.04387722
-0.21192053 0.029442776 -0.015464513 -0.13382927 -0.1787867 0.04700181 -0.21967956 0.119680315
0.07978541 0.0126256915 -0.15219305 -0.0816554 -0.023765367 0.09314222 0.00045637676 -0.02460026
0.12783581 -0.25241408 0.08613358 -0.08552168 0.15832214 -0.095757544 -0.14273198 -0.054393653
0.050659824 0.20775902 -0.09060706 -0.06806123 -0.032208856 -0.15464835 0.06188908 -0.017109338
0.040407073 -0.1905991 0.28348196 -0.12861402 -0.07506712 -0.15906854 -0.123379394 -0.07727235
0.031230146 0.014895923 0.20568396 -0.22128011 -0.0298251 -0.10772201 -0.003724843 -0.0104944315
-0.01434979 -0.3854512 0.2649512 0.016901672 -0.15570067 -0.3100004 -0.22943023 -0.15357774
0.033609886 -0.19279905 0.0813754 -0.23824407 -0.10211571 0.10156885 -0.082727134 0.07363762
-0.070559226 -0.11113699 -0.110450745 -0.3058902 0.021897607 -0.21314378 0.079592645 0.13384679
-0.13263212 -0.175168 -0.27968675 0.036198232 -0.008284946 0.07752335 0.007113843 0.06786259
0.095086634 0.28129247 -0.052434295 -0.05411406 -0.051996004 0.07993268 -0.06960099 -0.19146661
-0.115768254 0.025228046 -0.13122483 0.0016862882 -0.14755604 0.029775932 0.27522027 -0.052406956
-0.06838866 0.3797517 -0.15469985 0.26157162 0.101670586 0.024556758 0.027293036 0.13232794
-0.1484491 0.05186956 -0.17958976 0.056357786 0.15591216 0.10072769 -0.1448996 -0.10710058
-0.1661905 -0.20280537 0.14061779 -0.10176638 -0.06411672 0.167632 -0.1343584 0.26025552
0.1357516 -0.06781024 -0.1639168 0.25777575 -0.16221908 -0.19650938 0.32712877 -0.16793604
-0.15695637 -0.05046165 0.2598545 -0.058067925 -0.21446611 -0.042493165 0.013959089 -0.4680821
-0.2094561 -0.086792424 -0.14718783 0.022212096 -0.31695116 0.09890465 0.08520336 -0.19363461
-0.10014273 -0.0246992 -0.114431135 -0.1002567 -0.058856923 0.082710564 -0.0032801991 0.00048154194
-0.11335695 0.29087383 -0.07545923 0.106678955 -0.2251474 0.1970754 -0.00856283 -0.14578097
0.0871885 -0.25452024 0.10370864 -0.10726367 0.09600549 0.07254236 -0.2470435 -0.016509969
-0.045200866 -0.045367103 0.14146939 -0.23572986 0.13591011 -0.01667433 0.0043953187 -0.15590966
-0.3222648 0.14795409 0.14176542 -0.30528277 -0.065252654 -0.28906184 -0.081101365 -0.13743737
-0.26720676 0.14127995 0.1058282 -0.23002712 -0.06401322 -0.113151945 0.07406006 0.23148139
0.10886134 -0.19552013 0.023401901 -0.078959696 -0.02896373 0.03116352 0.3517066 0.37201312
0.12333768 0.12234412 0.16511786 0.024555942 -0.10703577 -0.062262572 0.11419287 -0.21143112
0.22585833 -0.034770016 -0.20990624 0.1695518 0.12419766 -0.18146968 -0.029294267 0.16086793
0.12231743 -0.15566026 -0.024165083 -0.030729048 0.15638995 0.20751178 -0.009366824 -0.04915209
-0.044314183 0.011905462 0.48031917 -0.0018454033 0.20511957 -0.15370779 -0.15764336 -0.09310074
-0.18228759 -0.05416134 0.1234855 0.094535194 -0.07650237 0.16962841 -0.11172765 -0.19107977
-0.1632495 0.09012837 0.32572263 -0.034973647 -0.09215624 0.061716262 0.007863917 0.236853
00000000: 0f2f b9be d78f 303d 9687 063e 1902 08be
00000010: 09a1 663d 92bb 5dbc 791b 47bd 9ab8 33bd
00000020: b201 59be fa31 f13c de5e 7dbc 8a0a 09be
00000030: dc13 37be f884 403d aef3 60be f41a f53d
00000040: 8866 a33d fddb 4e3c 7fd8 1bbe f23a a7bd
00000050: 96af c2bc 59c1 be3d da45 ef39 7c86 c9bc
00000060: 64e7 023e 6b3c 81be cd66 b03d fe25 afbd
00000070: 331f 223e 881c c4bd 5528 12be e1cb 5ebd
00000080: ad80 4f3d c8be 543e 3290 b9bd b063 8bbd
00000090: 6fed 03bd 235c 1ebe 677f 7d3d e228 8cbc
000000a0: e381 253d 692c 43be 8c24 913e 65b3 03be
000000b0: cabc 99bd dde2 22be 56ae fcbd f740 9ebd
000000c0: 5dd6 ff3c 080e 743c d19e 523e 4197 62be
000000d0: c553 f4bc 5b9d dcbd 7f1c 74bb d6f0 2bbc
000000e0: 621b 6bbc dc59 c5be afa7 873e 6075 8a3c
000000f0: ff6f 1fbe 5fb8 9ebe c2ef 6abe 7c43 1dbe
00000100: 85aa 093d 1d6d 45be 25a8 a63d 41f6 73be
00000110: 0b22 d1bd 5403 d03d d86c a9bd 52cf 963d
00000120: 5b81 90bd ca9b e3bd 0034 e2bd a49d 9cbe
00000130: 9c62 b33c 5d42 5abe 7801 a33d 220f 093e
00000140: b7d0 07be 3d5f 33be 1a33 8fbe 9944 143d
00000150: 95bd 07bc 90c4 9e3d 3e1b e93b 8bfb 8a3d
00000160: c8bc c23d 9105 903e 58c5 56bd b4a6 5dbd
00000170: c3f9 54bd bfb3 a33d f78a 8ebd d30f 44be
00000180: e817 edbd 0cab ce3c cd5f 06be 7106 dd3a
00000190: ee18 17be a8ec f33c ace9 8c3e ada8 56bd
000001a0: 5b0f 8cbd d16e c23e a369 1ebe b7ec 853e
000001b0: ab38 d03d 412b c93c a595 df3c fa80 073e
000001c0: 0a03 18be 2d75 543d 61e6 37be 6cd7 663d
000001d0: 70a7 1f3e 524a ce3d 9060 14be 8d57 dbbd
000001e0: d82d 2abe 36ac 4fbe 1cfe 0f3e e46a d0bd
000001f0: a04f 83bd b9a7 2b3e 4095 09be 3640 853e
00000200: 7802 0b3e 18e0 8abd ced9 27be 2ffb 833e
00000210: c21c 26be c139 49be 6c7d a73e 6df7 2bbe
00000220: 2cb9 20be e0b0 4ebd a60b 853e a2d8 6dbd
00000230: 019d 5bbe 500d 2ebd aab4 643c 75a8 efbe
00000240: a97b 56be 3ac0 b1bd 68b8 16be 24f6 b53c
00000250: 6c47 a2be 858e ca3d 197f ae3d 2748 46be
00000260: a217 cdbd fa55 cabc df5a eabd 6253 cdbd
00000270: f513 71bd 2864 a93d 9cf8 56bb 7777 fc39
00000280: b027 e8bd 6aed 943e 5e8a 9abd 7f7a da3d
00000290: 0a8d 66be 22ce 493e 1d4b 0cbc 9b47 15be
000002a0: e28f b23d 7a50 82be 3265 d43d 0ead dbbd
000002b0: 879e c43d 1791 943d f9f8 7cbe ea3f 87bc
000002c0: 8b24 39bd dbd2 39bd 5add 103e 2b63 71be
000002d0: 052c 0b3e 9b98 88bc 9b06 903b c8a6 1fbe
000002e0: e4ff a4be 4781 173e f42a 113e 064e 9cbe
000002f0: 2fa3 85bd eaff 93be 7918 a6bd 62bc 0cbe
00000300: 53cf 88be b1ab 103e 75bc d83d 3b8c 6bbe
00000310: 5d19 83bd 35bc e7bd cdac 973d 7509 6d3e
00000320: b2f2 de3d 6e36 48be 58b5 bf3c 9fb5 a1bd
00000330: 5845 edbc a34a ff3c e312 b43e 8178 be3e
00000340: 7798 fc3d 8e8f fa3d a814 293e 8b29 c93c
00000350: 9235 dbbd 0a07 7fbd f4dd e93d 6681 58be
00000360: 6847 673e 016b 0ebd a9f1 56be fd9e 2d3e
00000370: 585b fe3d 30d3 39be 88fa efbc 90ba 243e
00000380: 9081 fa3d 6765 1fbe daf5 c5bc 7cbb fbbc
00000390: b024 203e f87d 543e 4f77 19bc b453 49bd
000003a0: ca82 35bd 200f 433c 65ec f53e 76e1 f1ba
000003b0: dd0a 523e 9365 1dbe 436d 21be 9aab bebd
000003c0: 99a9 3abe 48d8 5dbd f7e5 fc3d ab9b c13d
000003d0: 46ad 9cbd 12b3 2d3e 77d1 e4bd 6aaa 43be
000003e0: e02a 27be 3995 b83d 1ec5 a63e 8740 0fbd
000003f0: 69bc bcbd 31ca 7c3d a9d7 003c 9889 723e

params,ScannedRNN_0,GRUCell_0,in,bias f4 [64]
-0.19005969 0.35091966 -0.04273681 -0.07770077 0.05201227 -0.90533924 -0.20824924 -0.029454516
0.04096247 -0.05640594 -0.1364553 0.6777431 0.31534156 -0.21131924 -0.32491562 -0.1505959
-1.192413 -0.013624603 -0.20069265 -0.8163498 0.1274963 0.20151916 -0.023061408 0.35816634
0.16865806 -1.0463239 0.007957424 0.839281 -0.031320088 -0.18046924 0.22185262 -0.1456136
0.11203607 0.07939317 0.23859882 -0.08309871 -0.1527943 -0.2291908 0.6913659 -0.21344773
-0.04872668 -0.37326792 -0.20913345 0.025199521 -0.24886674 -0.25292912 -0.011387376 -0.018783735
-0.16998823 -0.36065394 0.17139468 -0.31837177 -0.009991125 0.16190892 -0.11830806 -0.25619733
0.01646424 -0.43541366 0.22138451 -0.13090886 -0.25310528 0.08164747 -0.3369161 0.08870838
00000000: 029f 42be beab b33e cb0c 2fbd 9521 9fbd
00000010: d10a 553d 50c4 67bf 4a3f 55be 994a f1bc
00000020: 43c8 273d ea09 67bd f0ba 0bbe 9280 2d3f
00000030: 7374 a13e 1264 58be 575b a6be d035 1abe
00000040: fda0 98bf ba39 5fbc 6082 4dbe 4dfc 50bf
00000050: 648e 023e 0a5b 4e3e 47eb bcbc 9461 b73e
00000060: b3b4 2c3e f1ed 85bf db5f 023c 1fdb 563f
00000070: 7e49 00bd eecc 38be 552d 633e bb1b 15be
00000080: 2b73 e53d e398 a23d 4053 743e a82f aabd
00000090: 1c76 1cbe feb0 6abe 5bfd 303f 0b92 5abe
000000a0: a195 47bd f91c bfbe 1427 56be 3a6f ce3c
000000b0: ecd6 7ebe ed7f 81be 1e92 3abc 59e0 99bc
000000c0: 6511 2ebe a2a7 b8be 1682 2f3e a001 a3be
000000d0: d1b1 23bc 74cb 253e 7f4b f2bd 4c2c 83be
000000e0: 04e0 863c 8aee debe 9fb2 623e f90c 06be
000000f0: 0497 81be ca36 a73d 4480 acbe bdac b53d

params,ScannedRNN_0,GRUCell_0,in,kernel f4 [64, 64]
0.4624842 0.08957845 0.14753427 -0.2543776 0.4271408 0.33274686 0.10360937 0.04306426
0.09743001 -0.2771686 0.2001949 0.081107706 0.32330856 0.2980931 0.075679414 0.034487292
0.7256655 0.026954414 0.20564364 0.25353122 -0.11223818 0.20639192 0.20835476 0.22182629
0.29176515 0.21733786 0.019535847 -0.21467893 -0.30813238 0.28156963 -0.2187112 -0.04919181
0.016645847 -0.23960246 -0.026389927 -0.053630978 0.13689543 0.13863622 -0.30564538 -0.07581457
0.22727327 0.10214356 0.3604475 -0.26987582 0.22825304 0.1386343 -0.20329927 -0.1252841
0.03846482 0.100533225 -0.09278986 0.22615762 0.25071308 -0.73595315 0.37092513 -0.10374195
0.6527636 0.15261544 -0.012189098 -0.3206793 0.0098224515 -0.32915542 0.16582802 0.169388
0.52079356 -0.05950612 -0.03262144 -0.024318162 0.09231327 0.122811995 -0.60900426 0.15891413
0.013886871 0.07168678 -0.022108508 -0.31511974 0.18825604 -0.208158 0.082083546 -0.100540645
0.1960699 0.6693704 0.23141478 0.0058277887 1.3337146 0.25124252 -0.015703935 -0.37570325
0.5772446 0.10825725 -0.24115658 -0.034082737 -0.097823195 0.07207908 -0.34383368 -0.0056991647
-0.5298467 -0.14317887 1.0933006 -0.02344486 0.05350204 0.09840639 0.18476003 -0.37398496
0.066764526 0.20886762 0.037072748 -0.03001564 0.020340377 0.39276144 -0.044703808 -0.3986484
-0.11659454 -0.14867428 0.42723492 0.11445892 0.10229011 -0.21582244 -0.18430679 -0.12777573
-0.037691552 -0.3723791 -0.042110786 0.030718265 -1.2728932 0.099264264 0.27061287 0.06946406
0.2528004 0.0038975275 0.170244 -0.16247478 -0.24063067 0.09529212 0.04007981 -0.15660332
-0.04418659 0.2985331 -0.09776928 -0.007117958 0.05942125 0.05887361 -0.0031045373 0.35746223
0.37994587 0.104581855 -0.048496008 0.058077272 -0.037785232 0.19826438 -0.12141989 0.040394075
0.05829793 0.09281642 -0.01236444 -0.06592645 -0.13728501 -0.11836455 0.10191749 -0.16421573
-0.21454197 -0.0358174 0.0058806217 -0.07954846 -0.23632705 0.024765654 -0.1694219 -0.10069251
0.03147136 -0.062763 -0.053242285 0.23373772 0.04739002 0.36181274 -0.1600135 0.07146838
-0.3524294 -0.061722957 0.29202518 -0.09695541 0.009884704 -0.08727223 0.19465145 -0.16545135
0.019590158 0.47750747 -0.040213287 0.067317955 -0.124323726 -0.050712463 0.28925383 0.54543
-0.17973113 0.019136032 -0.32597157 -0.08555238 -0.5085598 -0.17930056 0.3468935 0.42112175
0.28767815 -0.3986301 0.056794148 -0.64920384 -0.25223216 0.1362313 0.086015716 -0.2713487
-0.14089017 -0.3909256 0.35210544 0.21541266 -0.23397216 -0.07249222 0.25275683 0.08178719
-0.550571 -0.20036967 -0.24369267 -0.2624818 -0.02293802 -0.27365273 0.19870882 0.24815184
0.050093506 -0.07411041 -0.40268537 0.018693991 0.3482395 0.3978138 -0.044788394 0.0028472526
0.10544055 -0.66398144 0.29747087 0.070777915 -0.013165335 0.017401276 0.4064531 0.23086004
0.015413267 0.10600232 0.10161019 -0.39241952 0.14244454 0.08021955 -2.1025364 0.33577138
0.1725012 0.15906636 0.054824874 0.2723471 0.41586798 -0.12133202 -0.06959123 -0.18887517
00000000: bbca ec3e e874 b73d 3913 173e c83d 82be
00000010: 33b2 da3e cc5d aa3e 2631 d43d 2664 303d
00000020: 6389 c73d 0be9 8dbe e4ff 4c3e cc1b a63d
00000030: b388 a53e a99f 983e cffd 9a3d 8c42 0d3d
00000040: 37c5 393f 81cf dc3c 3f94 523e d8ce 813e
00000050: 22dd e5bd 6758 533e f35a 553e 6e26 633e
00000060: 3e62 953e d18d 5e3e a409 a03c cbd4 5bbe
00000070: 87c3 9dbe e529 903e d4f5 5fbe 5a7d 49bd
00000080: df5c 883c 595a 75be b02f d8bc 28ac 5bbd
00000090: 512e 0c3e a7f6 0d3e 8d7d 9cbe ab44 9bbd
000000a0: 53ba 683e a530 d13d 938c b83e 2a2d 8abe
000000b0: 2abb 693e 26f6 0d3e af2d 50be 7a4a 00be
000000c0: 498d 1d3d 5de4 cd3d 9c08 bebd dd95 673e
000000d0: 775d 803e 6d67 3cbf e6e9 bd3e a976 d4bd
000000e0: 841b 273f 3947 1c3e c8b4 47bc 1430 a4be
000000f0: 59ee 203c 0f87 a8be d2ce 293e 0c74 2d3e
00000100: ba52 053f b0bc 73bd 0f9e 05bd e236 c7bc
00000110: bd0e bd3d db84 fb3d b4e7 1bbf 63ba 223e
00000120: c285 633c 85d0 923d e71c b5bc 6057 a1be
00000130: 31c6 403e 5f27 55be 6b1b a83d 41e8 cdbd
00000140: 8cc6 483e dc5b 2b3f fff7 6c3e 09f7 be3b
00000150: 29b7 aa3f dca2 803e 8aa5 80bc 2d5c c0be
00000160: 4dc6 133f fab5 dd3d c0f1 76be 579a 0bbd
00000170: 8757 c8bd 329e 933d f80a b0be 0fc0 babb
00000180: 09a4 07bf 7b9d 12be 46f1 8b3f 6f0f c0bc
00000190: f524 5b3d 4a89 c93d bc31 3d3e f57a bfbe
000001a0: d7bb 883d 65e1 553e 98d9 173d 5ce3 f5bc
000001b0: dda0 a63c 0718 c93e 571b 37bd a51b ccbe
000001c0: 1ec9 eebd 123e 18be 89be da3e 7069 ea3d
000001d0: 7a7d d13d 8f00 5dbe ebba 3cbe a4d7 02be
000001e0: 7562 1abd 79a8 bebe 5c7c 2cbd dfa4 fb3c
000001f0: 2aee a2bf 104b cb3d c58d 8a3e 2c43 8e3d
00000200: 0e6f 813e a96d 7f3b 7154 2e3e ca5f 26be
00000210: e367 76be 8428 c33d ba2a 243d 9f5c 20be
00000220: fffc 34bd 55d9 983e 433b c8bd c23d e9bb
00000230: b263 733d 7425 713d 7e75 4bbb 4a05 b73e
00000240: 4488 c23e 032f d63d c0a3 46bd 6fe2 6d3d
00000250: b0c4 1abd d105 4b3e feaa f8bd 4274 253d
00000260: cfc9 6e3d 8916 be3d 3894 4abc 7204 87bd
00000270: 7194 0cbe 1d69 f2bd 1eba d03d 2b28 28be
00000280: e4b0 5bbe 44b5 12bd 3bb2 c03b 4eea a2bd
00000290: b8ff 71be 57e1 ca3c ef7c 2dbe e037 cebd
000002a0: 1de8 003d e389 80bd 9514 5abd f158 6f3e
000002b0: 0a1c 423d 853f b93e 94da 23be 045e 923d
000002c0: a071 b4be 36d1 7cbd 5384 953e 8f90 c6bd
000002d0: 74f3 213c c8bb b2bd b652 473e 146c 29be
000002e0: 8a7b a03c dc7b f43e b0b6 24bd ffdd 893d
000002f0: 709d febd dfb7 4fbd 1419 943e 4da1 0b3f
00000300: 700b 38be 2bc3 9c3c bfe5 a6be 1636 afbd
00000310: fa30 02bf 919a 37be 069c b13e 459d d73e
00000320: 8d4a 933e 3f19 ccbe fba0 683d 3932 26bf
00000330: 9324 81be 3880 0b3e 0229 b03d 38ee 8abe
00000340: 8345 10be 6627 c8be 2a47 b43e 2395 5c3e
00000350: 6696 6fbe cd76 94bd 5869 813e 0b80 a73d
00000360: 39f2 0cbf b52d 4dbe 928a 79be 0464 86be
00000370: 84e8 bbbc 361c 8cbe 537a 4b3e 841b 7e3e
00000380: d92e 4d3d 33c7 97bd c72c cebe 2424 993c
00000390: 734c b23e 40ae cb3e 0974 37bd f998 3a3b
000003a0: 37f1 d73d b0fa 29bf 1a4e 983e 03f4 903d
000003b0: 6bb3 57bc 1f8d 8e3c 9f1a d03e 9366 6c3e
000003c0: ed87 7c3c bf17 d93d 0119 d03d 36eb c8be
000003d0: fbdc 113e 264a a43d f58f 06c0 3aea ab3e
000003e0: 28a4 303e 4be2 223e 0c90 603d 1471 8b3e
000003f0: a6ec d43e ec7c f8bd d985 8ebd 7e68 41be

params,ScannedRNN_0,GRUCell_0,ir,bias f4 [64]
0.2060305 -0.028649744 0.24263363 0.0787872 0.04152435 0.5513288 0.13952735 0.120745815
-0.050272204 0.123885185 0.17141941 0.24692628 0.06297792 0.21655257 -0.02981027 0.13793074
0.6446997 0.11184 -0.08536991 0.27579594 0.101170436 0.022594657 0.2709466 0.16534093
0.05317999 0.47842935 -0.022601532 0.52190757 0.23237714 -0.092091694 0.15811853 -0.08738483
-0.10460535 -0.023198456 0.029546212 -0.13384578 -0.14606956 0.043732088 0.23074237 -0.21695001
0.045074403 0.08590067 0.044093017 0.15238571 0.31701994 0.044926986 0.18089151 -0.040539555
-1.1752054e-05 0.22823918 0.029329633 -0.32649758 -0.023636268 0.27607974 -0.39363834 0.27827534
0.22289343 0.009481127 0.15638646 0.399415 0.09086115 0.068569526 0.1296573 -0.044809617
00000000: a9f9 523e deb2 eabc f374 783e 2f5b a13d
00000010: 7015 2a3d e223 0d3f 42e0 0e3e 9549 f73d
00000020: 3aea 4dbd 84b7 fd3d 9288 2f3e 3eda 7c3e
00000030: 91fa 803d f5bf 5d3e ab34 f4bc b73d 0d3e
00000040: 0a0b 253f 5f0c e53d 6bd6 aebd 2035 8d3e
00000050: 7232 cf3d 6e18 b93c 83b9 8a3e 224f 293e
00000060: 43d3 593d b1f4 f43e d926 b9bc bc9b 053f
00000070: 46f4 6d3e 929a bcbd d3e9 213e d1f6 b2bd
00000080: 543b d6bd b00a bebc e60a f23c de0e 09be
00000090: 4293 15be 6b20 333d ba47 6c3e 2528 5ebe
000000a0: f09f 383d b1ec af3d e19a 343d 000b 1c3e
000000b0: 7050 a23e 5c05 383d a03b 393e ce0c 26bd
000000c0: b02a 45b7 88b7 693e b344 f03c b12a a7be
000000d0: d9a0 c1bc 535a 8d3e f78a c9be 1b7a 8e3e
000000e0: 2d3e 643e bb56 1b3c c623 203e 1f80 cc3e
000000f0: 6915 ba3d 2e6e 8c3d e2c4 043e 4a8a 37bd

params,ScannedRNN_0,GRUCell_0,ir,kernel f4 [64, 64]
-0.31273815 -0.028697802 0.097946726 -0.40600428 -0.2965344 -0.085376844 0.053231817 -0.109218255
0.032599017 -0.20032689 -0.32799265 0.08346017 -0.3733505 -0.5873303 0.026398975 0.006971368
-0.08717484 0.049945105 0.08648953 -0.22555661 0.05862531 0.00041842356 0.016041793 0.08230643
0.02359 0.033540167 0.1264111 0.11209421 0.020069862 -0.22609104 -0.35872826 0.26403895
-0.13851449 -0.031899665 -0.2406955 0.10212685 -0.12719809 -0.04236304 -0.08334738 -0.0022014293
-0.13338654 -0.3105872 -0.15276068 -0.02068824 -0.094820306 -0.25185552 -0.17385249 0.1046649
0.22346267 -0.17786093 0.15882784 0.19948463 0.060564693 -0.21087393 0.20356171 -0.08473733
0.31358021 -0.08830719 0.0914247 0.17033097 -0.05131485 -0.010592371 0.13361728 -0.27118656
0.047390178 -0.21212758 -0.14113674 0.004963905 -0.008982665 0.027525688 -0.29202384 -0.011673575
-0.17261365 -0.27602863 0.025914168 -0.2712122 0.10572429 -0.2873207 0.24724977 -0.008521648
0.06252195 -0.27168947 0.085868925 -0.14594567 -0.37779906 0.012468445 -0.19393222 0.031343173
-0.51793265 0.18548633 0.16134776 -0.20725326 -0.22616959 -0.0582364 -0.23766385 0.27437633
-0.77166283 -0.18431526 -0.91524774 0.19595423 -0.16158587 0.02603458 0.15569586 -0.37801605
-0.16834214 -0.16997023 -0.17890468 -0.031565662 0.1240186 -0.14443038 -0.33318594 -0.046815947
0.26289585 -0.1188112 0.00571101 0.012585009 0.14159705 -0.36307275 0.09744145 -0.044885613
-0.08145347 0.28031793 0.14679325 -0.011775551 -0.8036342 -0.19508412 -0.1752974 0.16225636
-0.7072887 0.35129365 -0.15812713 -0.071563564 -0.22182326 0.13919388 -0.38525647 0.106485285
-0.6019208 -0.53928864 -0.46776745 0.058510315 -0.22784702 -0.63452506 0.05141289 -0.075691424
-0.11955988 0.14279948 0.0018706713 -0.09044934 0.046666827 -0.12679799 -0.39418197 -0.3530804
-0.2054688 -0.019730557 0.0009792042 0.03878427 0.0873092 0.096291035 -0.19847006 -0.03842986
-0.24639305 -0.11712749 -0.44999617 0.090480484 0.011712308 -0.079805076 -0.09742764 -0.2411859
-0.4920576 -0.22143933 -0.256701 -0.07952542 -0.25406194 -0.67121994 -0.09022668 -0.08300815
-0.2467634 -0.0957628 -0.16955777 0.05236852 -0.28713557 0.19846442 -0.058522865 0.13956776
-0.40352562 -0.20444341 -0.33548802 0.04937854 -0.29721704 0.048624158 -0.056438807 -0.10757507
0.15107566 0.043465532 -0.06525187 -0.5138745 -0.11066807 -0.018795162 0.42189938 0.26126245
-0.06338515 0.10355481 -0.8842709 -0.35170335 0.34618205 0.010203078 0.31563285 -0.10294232
-0.13783419 0.41908592 -0.04671501 0.15012522 -0.7855771 -0.08673017 -0.10705153 -0.05178126
0.01774542 0.20548886 0.12781987 -0.21844989 0.033084344 0.08194455 -0.079047196 0.14790046
0.10348818 0.23859867 -0.21104544 -0.10152263 0.1576688 -0.23679787 -0.13455884 -0.4246074
0.040132914 -0.07634721 -0.22157176 -0.4310015 0.07777167 -0.096133076 0.39857885 -0.095356435
0.27301317 -0.23389782 -0.030012053 0.32928798 0.1759563 -0.09168693 0.03936578 0.30298075
-0.10251521 0.050060082 0.004031134 -0.41958642 0.22186734 -0.29963464 -0.07168836 0.13899574
00000000: 371f a0be a717 ebbc 4b98 c83d cbdf cfbe
00000010: 5bd3 97be 0eda aebd 9b09 5a3d d2ad dfbd
00000020: 8c86 053d 7e22 4dbe a7ee a7be 2aed aa3d
00000030: cc27 bfbe 475b 16bf aa42 d83c 1370 e43b
00000040: b988 b2bd 3d93 4c3d 6c21 b13d 50f8 66be
00000050: 1821 703d dc5f db39 146a 833c 4690 a83d
00000060: d13f c13c 6a61 093d e971 013e a691 e53d
00000070: 8d69 a43c 6984 67be 3bab b7be 1d30 873e
00000080: bed6 0dbe 39a9 02bd e278 76be e227 d13d
00000090: 3740 02be de84 2dbd 08b2 aabd db45 10bb
000000a0: 7b96 08be 4905 9fbe 4c6d 1cbe 627a a9bc
000000b0: 2631 c2bd 35f3 80be 6306 32be 8d5a d63d
000000c0: 66d3 643e 2d21 36be c4a3 223e b345 4c3e
000000d0: af12 783d 56ef 57be 7b72 503e c48a adbd
000000e0: 968d a03e 66da b4bd e03c bb3d 3e6b 2e3e
000000f0: 852f 52bd a08b 2dbc f8d2 083e f7d8 8abe
00000100: 341c 423d f937 59be 2686 10be 41a8 a23b
00000110: 072c 13bc 8d7d e13c 2684 95be 8642 3fbc
00000120: a2c1 30be a053 8dbe f349 d43c 53dc 8abe
00000130: fa85 d83d b31b 93be 0b2f 7d3e 629e 0bbc
00000140: 820b 803d e21a 8bbe 0cdc af3d c872 15be
00000150: e16e c1be 7348 4c3c 2b96 46be b361 003d
00000160: 3c97 04bf 21f0 3d3e 5938 253e 333a 54be
00000170: 0099 67be 4b89 6ebd 275e 73be 0e7b 8c3e
00000180: b28b 45bf 24bd 3cbe ad4d 6abf 3aa8 483e
00000190: c476 25be 7946 d53c bc6e 1f3e 528b c1be
000001a0: e261 2cbe ad0c 2ebe ca32 37be ff4a 01bd
000001b0: 77fd fd3d 8fe5 13be 5997 aabe 14c2 3fbd
000001c0: 499a 863e 4953 f3bd 6d23 bb3b 5b31 4e3c
000001d0: d1fe 103e ace4 b9be 628f c73d fad9 37bd
000001e0: 14d1 a6bd d585 8f3e f850 163e 3eee 40bc
000001f0: f9ba 4dbf 22c4 47be 2981 33be 8826 263e
00000200: df10 35bf c3dc b33e 14ec 21be eb8f 92bd
00000210: a325 63be d788 0e3e 5640 c5be f514 da3d
00000220: 7b17 1abf d20e 0abf 377f efbe 83a8 6f3d
00000230: bb50 69be 3c70 22bf 5396 523d 1b04 9bbd
00000240: cfdb f4bd 073a 123e 5031 f53a 813d b9bd
00000250: b725 3f3d 55d7 01be 38d2 c9be f4c6 b4be
00000260: 6a66 52be faa1 a1bc a458 803a 41dc 1e3d
00000270: 2acf b23d 3c34 c53d bc3b 4bbe a168 1dbd
00000280: 764e 7cbe 8ae0 efbd e665 e6be d54d b93d
00000290: fbe4 3f3c d870 a3bd 2488 c7bd 70f9 76be
000002a0: f9ee fbbe fec0 62be 506e 83be 39de a2bd
000002b0: 6814 82be 12d5 2bbf c4c8 b8bd 2d00 aabd
000002c0: 8baf 7cbe 491f c4bd 8da0 2dbe 6080 563d
000002d0: 6f03 93be 423a 4b3e acb5 6fbd daea 0e3e
000002e0: e99a cebe 9d59 51be 16c5 abbe 2741 4a3d
000002f0: d52c 98be 202a 473d 612c 67bd 5150 dcbd
00000300: 94b3 1a3e ea08 323d c6a2 85bd 478d 03bf
00000310: f1a5 e2bd 50f8 99bc 3203 d83e 31c4 853e
00000320: 13d0 81bd 8b14 d43d 945f 62bf 7612 b4be
00000330: c63e b13e d02a 273c a19a a13e 6cd3 d2bd
00000340: 6824 0dbe 6e92 d63e 3d58 3fbd 6dba 193e
00000350: 951b 49bf 969f b1bd d53d dbbd 9618 54bd
00000360: d85e 913c ac6b 523e 36e3 023e 54b1 5fbe
00000370: 7383 073d 8bd2 a73d 7fe3 a1bd 3873 173e
00000380: 9cf1 d33d 3653 743e 4c1c 58be 19eb cfbd
00000390: ee73 213e 247b 72be cbc9 09be 2466 d9be
000003a0: 6962 243d ed5b 9cbd b5e3 62be 3bac dcbe
000003b0: c146 9f3d 6be1 c4bd 8712 cc3e 3c4a c3bd
000003c0: 62c8 8b3e e982 6fbe d6db f5bc 6f98 a83e
000003d0: e32d 343e 5bc6 bbbd 033e 213d 4b20 9b3e
000003e0: 7ff3 d1bd cd0b 4d3d 9a17 843b 08d4 d6be
000003f0: 3131 633e b669 99be 59d1 92bd e654 0e3e
