baselines/QLearning/checkpoints/MPE_simple_adversary_v3/iql_ps.safetensors (safetensors, 105548 bytes, 14 tensors)

params,Dense_0,bias f4 [64]
00000000: dd7a 82be f9a5 42be 0fb5 4ebd cce6 6d3c
00000010: 6b06 1bbe f191 0dbd 7aea c53d d0d9 aebe
00000020: 1486 18be 374e 31be 46c8 8fbe 3e25 91be
00000030: 8055 33bd 4682 8ebe 3255 93be bc8b 4bbe
00000040: f3aa ecbe 53db a63e 7665 cbbe a19c ddbe
00000050: 1064 a9bd 53b7 85be ac7c b2be 16bc 8a3e
00000060: 0b63 1bbe 4827 17be d784 bdbe 9026 f93e
00000070: 9dfd 5bbe 27b4 86be 50a1 b2be a381 59be
00000080: feca 18be 2706 00be 5256 a3be 5b76 00be
00000090: eab6 853d bbc4 99be fb8f 2fbf c38a 28bf
000000a0: 407f f2be ab05 8d3d 603a 99bd 4dcc 22be
000000b0: 9ad4 a6be 8c77 68be 76c1 a53e d214 38be
000000c0: 8a1c 45bf 89ed eebe b2fe d9be 9ce8 b2be
000000d0: 4143 15be b673 31bf 4b86 87be 1768 b3be
000000e0: 55d8 813b 9dbc 21be f379 debd 3e80 2fbf
000000f0: a34a 883e a807 adbe 3d0a 23bf 4bbf a53d
-0.25484362 -0.19008626 -0.05046564 0.014520358 -0.15139167 -0.03456301 0.096638635 -0.34150553
-0.14894897 -0.17314993 -0.28082484 -0.28348726 -0.04378271 -0.27833766 -0.28775936 -0.19877523
-0.46224174 0.32589206 -0.39725846 -0.4328356 -0.082710385 -0.26116428 -0.34860742 0.27096623
-0.151745 -0.14761078 -0.3701541 0.48662233 -0.21483465 -0.2630932 -0.34888697 -0.21240859
-0.14921185 -0.12502347 -0.31901795 -0.12545149 0.06529029 -0.30032906 -0.6857907 -0.65836734
-0.4736271 0.06885847 -0.07481837 -0.15898247 -0.32584077 -0.22701854 0.3237416 -0.17976692
-0.7699667 -0.466656 -0.4257713 -0.34943092 -0.14576437 -0.69317186 -0.26469645 -0.35040352
0.0039625564 -0.15794607 -0.10863104 -0.6855506 0.26619443 -0.33794904 -0.636875 0.08093127

params,Dense_0,kernel f4 [13, 64]
00000000: 7d00 803f 0cbc 343d 9464 353e bd8d 12be
00000010: ae96 ebbd 2ce4 353e 9b41 353d 5083 773e
00000020: 8c65 d4bc 0e71 8cbf 4127 173e c7d9 8cbe
00000030: f11a 3fbe ad4c 16be a2e8 73bf 5e27 a6be
00000040: 0e2b b93e 852c 653f 4907 17bf 7642 5f3f
00000050: 3fcf a43f 666d 01bf 230f ae3f 4d94 d53d
00000060: 1d8d f53c 024c a9be c57b c73e f081 923d
00000070: 8dbb b63e 2093 dbbf 3015 413f fec8 a03f
00000080: e098 153f bc90 063f 8561 8abf 9aff aa3e
00000090: e545 fabe aba5 993e 187a 83bd 29e9 44be
000000a0: 692f 0bbf d133 28bf 9cff bb3f fae6 bdbe
000000b0: 5de8 d33e 8853 0bbf f705 a73f c283 b9bd
000000c0: da76 d43e 9db5 973e a2e6 31bd 11ca 76bf
000000d0: 7cde 3cbf 9d07 5c3d 73f1 54be 1158 71bc
000000e0: 410f cebe a14b 49bd e539 d8bd e401 59be
000000f0: 47ae 5ebf 57f9 373f 7ab7 4e3a 776b 0f3e
00000100: 6fa0 953e f10b 27be 5d2c c0bf ce6e 863e
00000110: dd57 ecbd 60e7 673f 6110 4b3e d341 803f
00000120: 68fe dcbd 2ddb 533f 9133 923c 47d0 64be
00000130: cb20 9dbe 3796 0cbd 58f5 7dbf a26c 07be
00000140: b715 43bf e1f2 1cbe 28bb 6b3e afff 4cbe
00000150: 249b 09bf a8be d5be 72bb eb3d 4613 45bf
00000160: f3d9 a43c 5ff5 ac3e 35dd 14bd 9b6e b03e
00000170: 13eb 8cbf f919 fd3e 95dd d33e 30cd 693f
00000180: edc1 e33e 7361 a5be 2af0 a0be c4e7 64be
00000190: fe41 723f 4220 0f3f fb5b d5be ed3e c43e
000001a0: d419 a63e 5013 e0be 4261 62be fc87 953f
000001b0: 3634 11bf 7be9 693e e3fd 3a3f b193 6a3e
000001c0: c6cb 923e 7608 f63d 2e50 c43e 8ec0 a5bd
000001d0: c265 2ebf 82a7 0dbf e7e0 abbf d290 1c3d
000001e0: df31 7fbf a5c6 f23d 314e 6d3e e7a6 f1be
000001f0: 7965 853f 5a1c 8d3f 7cb2 2c3f 142a 413d
00000200: 4644 93be 83e3 2fbe 98be 36bd 1c7d febc
00000210: 369e 69bd 92b2 69bd 66ff b7bd 8204 c4bd
00000220: b310 53bd 9d94 743e edef 58be aa39 623f
00000230: bb1d d13d a91e 9dbe 9306 953e 80fe 0a3f
00000240: 6281 cabd 5a89 6b3d 5b7f 223f 4c7c 0fbe
00000250: 6da7 43be b98d ce3b f224 fbbe 0b96 85bd
00000260: cda0 22be a7b7 7a3f b2e2 8ebf c609 87bc
00000270: f88e 9a3b 38c4 3cbd 388c 9b3a a54e ccbe
00000280: 584d cf3d 4a6e 4bbe 5a96 333e a621 cebe
00000290: 03d1 0c3d a883 11bf 8b60 6b3e 2455 d63e
000002a0: e033 3ebe 7626 59bb c343 f8bc a8b0 32bc
000002b0: e877 c73c 1a23 fe3e ae07 39bc 77ed 7fbd
000002c0: 31a3 bb3e 837b 0dbe ce44 c33c 3e80 7a3e
000002d0: 7698 48bd 47d4 a0bd 5888 153e 2694 2bbf
000002e0: 4161 3b3d 1b40 183d 16bc 06bd 630a a3be
000002f0: e236 923e 1fac d6bd 6999 d9bc ae29 f6bd
00000300: a77b ad3c af9c 873f 6b08 fbbd 511a 643e
00000310: 4ad8 65bd 4255 443d 8ce0 a0bd 3902 7dbe
00000320: 15d8 903c 03d8 13be deda 3a3e 2a59 693f
00000330: e790 263f 3d89 b93e 1689 9e3e 8d73 ef3e
00000340: 5a9a d53e e191 a5bb 9a6e 08bf 929b 3f3e
00000350: 7136 413d 84d3 163c 0cb4 ebbb 2740 413e
00000360: 8088 193e 99e4 08bf 31ce 133e 12ec 3a3e
00000370: 3d34 833e df3d 04bd 16cf ae3d 60b3 6fbe
00000380: a0f7 993d e058 28be efd4 873d d3c9 b3bb
00000390: 7f93 e33c faa6 a8bd 1193 b13e c768 083e
000003a0: 6c7e 6dbd 401c 373d c1df 69bc 1c0d 7fbe
000003b0: 817e 973b e97f 28bf 6bda 8c3d 36f9 56bf
000003c0: caea 483e 90b1 e6bd 876e 9fbf 0fc6 7ebe
000003d0: 9692 20bd 2dab 0abf b816 c53e aac0 06bf
000003e0: 1144 013e 6778 713e 33a7 c3be ecfc 8bbe
000003f0: 7b2a 40be 09cc a0be 612e e6bb c0bf a13e
1.0000149 0.044124648 0.17714149 -0.14311881 -0.11503349 0.17762822 0.04425202 0.24171185
-0.025927328 -1.0972002 0.14761068 -0.275099 -0.18662621 -0.14677687 -0.95276845 -0.3245191
0.3616566 0.89521056 -0.5899549 0.87210786 1.2875746 -0.50557554 1.3598369 0.10428677
0.029974515 -0.33065802 0.38961616 0.0715369 0.35689965 -1.7154274 0.75422955 1.2561338
0.58436394 0.525646 -1.0811011 0.33398134 -0.4888145 0.30009207 -0.06419772 -0.19229569
-0.5436922 -0.65704066 1.4687381 -0.37090284 0.41388217 -0.54424334 1.3048695 -0.09058334
0.41496927 0.29630747 -0.04343284 -0.9640208 -0.73776984 0.053718198 -0.2079523 -0.014730469
-0.40246013 -0.04914439 -0.105579175 -0.21192127 -0.86984676 0.7186484 0.00078856165 0.14005838
0.29223964 -0.16313149 -1.5013539 0.26256412 -0.11540196 0.90587425 0.19830467 1.0020088
-0.10790712 0.8275631 0.017846854 -0.22345077 -0.30689082 -0.034322944 -0.9920249 -0.13225034
-0.7620501 -0.15327026 0.23020613 -0.2001941 -0.5375235 -0.41747022 0.11510362 -0.76982534
0.020123458 0.33780953 -0.036343772 0.34459385 -1.1009239 0.49433878 0.4137999 0.91328716
0.4448389 -0.3230091 -0.3143323 -0.22354037 0.94631946 0.55908597 -0.41671738 0.3832926
0.3244158 -0.43764734 -0.22107413 1.1682124 -0.5672029 0.22842972 0.7304365 0.22907902
0.28671092 0.120133325 0.38342422 -0.080933675 -0.6812402 -0.5533372 -1.342801 0.03822405
-0.9968547 0.11854295 0.23174359 -0.4719765 1.0421592 1.1024277 0.67459846 0.04715927
-0.28763026 -0.17176633 -0.044615358 -0.031065516 -0.057035647 -0.057055064 -0.0898426 -0.09571172
-0.051529597 0.23884816 -0.21185274 0.8836924 0.10210749 -0.30687454 0.29106578 0.54294586
-0.09887959 0.057504036 0.6347558 -0.14012259 -0.19106837 0.0063035158 -0.49051625 -0.06522759
-0.15881653 0.9793648 -1.1162932 -0.016484153 0.0047167502 -0.046085566 0.001186735 -0.3990375
0.10122174 -0.1986629 0.17537823 -0.40260047 0.034379017 -0.56841516 0.22986047 0.41861832
-0.18574476 -0.0033134497 -0.030305749 -0.010906376 0.024349168 0.49636155 -0.011293335 -0.062482323
0.36647943 -0.13816647 0.02383652 0.24462983 -0.048973523 -0.07852989 0.14602792 -0.6702293
0.045747045 0.03717051 -0.032894216 -0.31843862 0.28557497 -0.10482048 -0.02656241 -0.120196685
0.021177126 1.0594691 -0.12257465 0.22275664 -0.056114472 0.04793287 -0.07855329 -0.24707879
0.017681161 -0.1443787 0.18247554 0.9115168 0.65064853 0.36237517 0.30963963 0.46767846
0.41719323 -0.0050527905 -0.53293765 0.18711689 0.04717106 0.009205703 -0.007193094 0.18872128
0.14993477 -0.5347381 0.14434125 0.18254116 0.25625792 -0.032285567 0.08535592 -0.2340827
0.07517934 -0.16440153 0.06632411 -0.005486706 0.027780293 -0.08234973 0.34682515 0.1332122
-0.057981893 0.044704676 -0.0142745385 -0.24907345 0.0046232347 -0.65820175 0.068775974 -0.83974016
0.19620815 -0.11264336 -1.2455605 -0.24880241 -0.039202295 -0.54167444 0.38493896 -0.5263773
0.12623622 0.23581086 -0.382135 -0.27341402 -0.18766205 -0.31405666 -0.0070245718 0.31591606

params,Dense_1,bias f4 [5]
00000000: dbe9 043e 3cb3 57bd ea0a 3b3d 0819 7f3d
00000010: a7ed a53d
0.12979834 -0.052661166 0.045664705 0.06227973 0.08101969

params,Dense_1,kernel f4 [64, 5]
00000000: 3d20 ee3d b1d2 18be 5bad 02bc b116 5fbd
00000010: 0d49 55bd 4b54 0c3f d057 bc3e 4e30 6a3e
00000020: 6f76 be3e 5333 f23e 1ead 8dbf 7b57 64bf
00000030: 7e60 60bf 5290 79bf a049 71bf dd1e 8f3f
00000040: 7fba 823f f1bd 743f ae32 8c3f f0f0 783f
00000050: ae30 86be f70b 7dbe 9e30 e9be bff5 2abe
00000060: 9efb 8cbe 5bee b7be 5a82 26bf f4cb 2fbf
00000070: 5b27 1fbf ae1d 00bf c83f 973f 8158 a73f
00000080: 477d a63f f5b1 9a3f 4ab4 a13f 2bf9 01be
00000090: 9059 443c 4ddd 16bd cd88 c13d be06 e6bd
000000a0: cfa8 2d3f a94a dd3e 4ad2 a23e 2bcf f43e
000000b0: b2a5 2f3f 6dc0 c0bd 5e52 cd3d 755b 8b3d
000000c0: 4854 d43d 0ac1 9f3d 15f1 663c cc56 903d
000000d0: 0d5f 313d b4e9 d53c ab0b 483e 4482 233f
000000e0: 3208 433f 80ac 043f c95b 3f3f 0218 223f
000000f0: 1d03 23bf 4f60 49bf 4d8a 38bf 1c48 61bf
00000100: d053 2ebf b277 0e3f e864 a53e 3dd9 c63e
00000110: 9702 103f 1047 813e ba93 213f 5e06 313f
00000120: 8bbf 323f 4800 463f ad5f 333f cb37 d43e
00000130: 5baa 173e 23b2 a63e ca80 513e b383 4d3e
00000140: da0e e4be e59d ebbe 009c d7be 0931 c1be
00000150: 10c8 a6be b207 163d b375 c2be ddc4 64be
00000160: 23e5 78be 9b82 b9be 73cc d33c 768a 993e
00000170: 2c2f 6a3e 192e d53d b2cb c63e 07e3 acbd
00000180: e5a4 87bd afc0 0ebe 832b 98bd ac57 32bd
00000190: c620 c2bd e03d 7fbd 5ccd 233e 9877 933e
000001a0: 4db0 fd3c cf52 e6be 7714 61be ebc6 74be
000001b0: 7403 05bf 8dfa 65be 8d9c 803f 1cee 813f
000001c0: bced 833f dce0 823f 3189 633f 21f4 923f
000001d0: b58f 983f b124 993f a3a7 a73f 9a3d 9c3f
000001e0: 298c 74bf 2176 84bf 6867 80bf eebe 8ebf
000001f0: 6f42 70bf ce06 273e 904c 263e 5aec 2e3e
00000200: 5786 013d 11b2 f5bd 93d1 5c3d 5f6e 4e3e
00000210: ba04 263e ec84 ab3e 9b73 d43e 3952 ffbe
00000220: d937 eebe 5bc9 babe ef4e 12bf 4aff fcbe
00000230: 052a 5cbf 1951 81bf b939 8abf bce4 5ebf
00000240: 5677 82bf 39a1 843e 83d0 d63e 39b2 733e
00000250: 3576 9c3e be3b 013f ce7a 233f 9193 1d3f
00000260: 05c9 ed3e 68ac 053f 2de6 483f a228 79be
00000270: e0d8 afbe 310d 0dbf 2df5 13bf 053f cabe
00000280: 5768 893e a111 963e f4a0 8c3e c3b7 793e
00000290: 2096 a93e 138e 473e 1fec 433d 3814 8d3e
000002a0: 4585 fdbd d07d be3e 77c2 bb3c af87 3abe
000002b0: 4bd6 02be 7133 8bbd 7d71 f03d 7871 053f
000002c0: e8d2 663e f52a 0a3f 635c a73e 6d3f 0f3f
000002d0: d657 c63d f5f9 a1be b6f0 223e 07bd 493e
000002e0: 0a78 013e ec3f 01bf b8c4 c2be b0b2 a1be
000002f0: fa67 98be d15c 9bbe 27e9 80be 7e36 80be
00000300: 5788 4bbe de45 d3bd c981 61be aefe 473f
00000310: 0f95 083f fa92 603f 26c3 493f 6201 303f
00000320: b5ed 9ebe 2db7 51be 1757 bbbe ab9c 96be
00000330: ef01 93be de43 04bf 62da e0be 02d3 06bf
00000340: 1c52 27bf c7b4 bbbe c74d e2be 0d27 d0be
00000350: 9a7d 0cbf 8b4a 0ebf 57c3 febe 8ba7 25bf
00000360: cc77 3bbf 4ff8 31bf 0cf4 35bf 03b5 36bf
00000370: fdd7 fdbe 0154 0abf 62f4 2ebf 43cd 27bf
00000380: de56 39bf 4b5b c6be da46 0bbf e28b 4ebd
00000390: ac92 04bf 3713 b83c 67d9 5f3f 24b7 543f
000003a0: e754 543f 77af 703f 18b3 423f ae2c 18bf
000003b0: 2dc8 1ebf f9fa 1abf 67e5 bbbe d095 babe
000003c0: 00a6 a23e 8fd1 803e b2e5 7d3d cfbd 8e3e
000003d0: c0ae 383e 6418 723f 7327 8f3f 07ed 8d3f
000003e0: e5c6 953f 9875 783f 3ccf 893f c4bb 673f
000003f0: b7ca 783f d012 513f 6266 8d3f d946 b8bf
0.11627243 -0.14924122 -0.0079759015 -0.054465 -0.05207162 0.5481612 0.36785746 0.2286999
0.37199733 0.47304782 -1.1068456 -0.89195985 -0.87647235 -0.9748584 -0.9425297 1.1181294
1.0213164 0.9560233 1.0952966 0.9724264 -0.26209015 -0.24711595 -0.45544904 -0.16695307
-0.2753572 -0.35924038 -0.6504265 -0.6867058 -0.62169427 -0.5004529 1.181634 1.3073884
1.3006982 1.2085558 1.2633145 -0.12692706 0.011984244 -0.036832143 0.09449921 -0.11231755
0.67835706 0.43221024 0.31801063 0.47814307 0.68612206 -0.09411702 0.10025476 0.068045534
0.10367638 0.07800491 0.014095564 0.07047805 0.043303538 0.026112415 0.19535701 0.63870645
0.7618438 0.51825714 0.7474943 0.63317883 -0.63676625 -0.7866258 -0.7208603 -0.88000655
-0.6809664 0.5565139 0.32303548 0.38837615 0.5625395 0.2524953 0.6311604 0.6915034
0.6982352 0.7734418 0.70067865 0.41448817 0.14811079 0.32557783 0.20459285 0.2006977
-0.4454258 -0.460189 -0.42111206 -0.37732723 -0.3257451 0.036628433 -0.37980422 -0.22340722
-0.24306159 -0.36232457 0.025854325 0.2998845 0.22869557 0.10409183 0.38827282 -0.084417395
-0.06623248 -0.1394069 -0.07430174 -0.04354064 -0.09478907 -0.062314868 0.15996307 0.2880218
0.030967856 -0.44985053 -0.21980463 -0.23904006 -0.51958394 -0.22458859 1.0047776 1.015079
1.0306926 1.0224872 0.8888121 1.1480752 1.1918856 1.1964322 1.3098034 1.2206299
-0.9552637 -1.034855 -1.0031557 -1.1152017 -0.9385137 0.1631119 0.16240144 0.17082348
0.031622257 -0.11996854 0.053910803 0.2015929 0.1621274 0.3349985 0.4149445 -0.49867418
-0.46526983 -0.36481747 -0.57151693 -0.4941352 -0.86001617 -1.0102874 -1.0798866 -0.8706777
-1.0192668 0.25904253 0.41955957 0.23798455 0.30558935 0.50481784 0.6385926 0.61553293
0.46442428 0.52216196 0.7847622 -0.24331906 -0.3434515 -0.55098253 -0.57795984 -0.39501205
0.26837417 0.29310325 0.27466547 0.24386506 0.3312235 0.19487791 0.047832604 0.27554488
-0.12378935 0.37205362 0.022919877 -0.18215822 -0.12777059 -0.06796921 0.11740396 0.52126265
0.22541392 0.539718 0.32687673 0.55956155 0.09684722 -0.31636015 0.15912136 0.19701014
0.12643448 -0.5048816 -0.3804071 -0.3158164 -0.29766828 -0.3034425 -0.2517788 -0.25041574
-0.19876228 -0.103160605 -0.22022165 0.78122985 0.53352445 0.8772427 0.788134 0.6875211
-0.3104073 -0.20480032 -0.36589882 -0.29416403 -0.28712413 -0.5166606 -0.43916613 -0.5266572
-0.65359664 -0.3666136 -0.44199964 -0.40654793 -0.5487915 -0.55582494 -0.49758407 -0.64708775
-0.7322967 -0.69519514 -0.7107551 -0.7136995 -0.49578848 -0.5403443 -0.6834165 -0.6554758
-0.72398174 -0.38741526 -0.54404986 -0.05042637 -0.51786304 0.0224701 0.87441105 0.8309195
0.8294205 0.9401774 0.76054525 -0.59443176 -0.62024194 -0.60539204 -0.36698458 -0.36442423
0.31767273 0.2515988 0.061986633 0.27879187 0.18035412 0.9456847 1.1183914 1.108796
1.1701323 0.97054434 1.0766368 0.9052088 0.9718432 0.8166933 1.104687 -1.4396621

params,ScannedRNN_0,GRUCell_0,hn,bias f4 [64]
00000000: 9d87 28bc c9c6 1b3e 43b2 04bf 907f 9abe
00000010: ac25 963b 9611 62be e848 8e3c c69c adbd
00000020: 8e26 fdbe 6c43 70bd b5b8 28be eb92 06be
00000030: 26d5 17bf 5235 d2be 0651 69be 4c64 94bd
00000040: 5ef2 99bc e27d 25bd 295a 1d3d 7e70 e9bd
00000050: a0e4 91bd bfb7 a3be e714 d03e 9c28 943e
00000060: bd55 053f ba3f 3dbd 8a3f 8f3d 4a4a b9be
00000070: 07ef ff3d e1b6 e4be 5161 0ebc c894 7ebd
00000080: 8d82 f53d ed2c b53b 25a0 bbbc f7c7 80bb
00000090: bc85 1abc 803b 7fbd c4e3 1c3e 341d 893e
000000a0: 8d6c b53d 2f99 babd 22b0 a5bd 44e9 8cbe
000000b0: 462d e8be 4a36 0dbe 0b8f c1be 87f8 0abf
000000c0: f7d5 443d eefa dabe bbf6 d73e 0cf8 533f
000000d0: e1d2 423e 7f72 17be 5a38 4abd 0b8a ebbd
000000e0: a601 1bbd a1ce 89be e106 e13e ee5c d5be
000000f0: 9560 063f 2051 f5bd ca32 f3be de7e 1bbf
-0.010286239 0.1521255 -0.51834506 -0.30175447 0.0045821276 -0.22077021 0.017368749 -0.08477168
-0.49443477 -0.05865805 -0.1647671 -0.13141982 -0.59309614 -0.41056305 -0.22784814 -0.072456926
-0.018792327 -0.040403254 0.03841606 -0.11398409 -0.07123685 -0.31976125 0.40640947 0.28937232
0.5208395 -0.046203353 0.06994541 -0.3618949 0.12496763 -0.44670776 -0.008690194 -0.062153608
0.11987791 0.005529037 -0.022903511 -0.0039300877 -0.009431299 -0.062312603 0.1532126 0.26780093
0.08858595 -0.09111249 -0.08090235 -0.27521718 -0.4534704 -0.13790241 -0.37804446 -0.5428547
0.048055615 -0.4276957 0.42180428 0.82800364 0.19025756 -0.1478977 -0.049370147 -0.11500939
-0.03784337 -0.26915458 0.4395056 -0.41672462 0.5249112 -0.11978364 -0.47499686 -0.6074046

params,ScannedRNN_0,GRUCell_0,hn,kernel f4 [64, 64]
00000000: e6e3 cebe c88e 25be fc52 843e 880e c63d
00000010: a713 2fbd c476 3d3e 7c96 083e a69d 3a3d
00000020: 52de a53e f793 963d 7fba b8be da17 a03d
00000030: cce4 7d3d 36ac 95bd 42a0 8fbd 4027 6abd
00000040: ed0d 9b3d c62f 34bd 4a1e a0bd 110a adbd
00000050: 0ede 823e f726 043e b1f0 e2be 444e f7bd
00000060: dbbe 40bd 394a 3abe eb03 8e3d ceb8 443e
00000070: 36c8 febb 1134 b53e 0495 973d 84b7 6e3e
00000080: 8e2e a1bb 7969 06be d8ed 61be 188c efbc
00000090: 378f 39bd 9bc0 0abe 47f8 30be 55a7 cd3c
000000a0: 9056 0f3d 37cb b63d 9f8d a0be b14f 0f3e
000000b0: 344c 383e a742 cabd dada 223e 8184 e4be
000000c0: 9c37 d3bd 5686 993c 5c51 ddbe c095 2ebf
000000d0: 450c 293e 7c7a 01bd 6c51 33be 2b39 c43d
000000e0: e0f7 e93d 3c99 143d 75a7 78be 7384 03be
000000f0: 181f d0bd 98cc 1fbe bc8e a03d 1c64 d8bc
00000100: c43a 253e b7c0 aabe 4277 fd3e 81de b33d
00000110: 9575 9dbd 6db3 b13d f0ed 95be 8d9c f2bd
00000120: 0c65 f3bc 1141 87bc e048 40bb 182c ba3e
00000130: 2085 9a3e 073f 0d3e c455 b23e e9b9 80bd
00000140: c11b 4ebd a6dd bfbd 2471 b73e decf 92be
00000150: f7e2 ed3e dc87 ae3e e1b0 92be 573d 52be
00000160: eb3d 36bf 71e9 f8bd 85d3 2c3e f4bf cdbe
00000170: 29a5 4d3e 33f8 0b3e 014a 77be 568d bcbe
00000180: 1eee 9abe 0cfa 87bd d29c 91bd f4d9 883d
00000190: 0621 34be 31c2 4abe ccf5 9aba e73e 893e
000001a0: b3ba 9dbe 7a04 483e 8928 9a3d 94da 3b3e
000001b0: 57c2 f6bd 494d 973e ce46 cb3d dbd4 64be
000001c0: f1c6 5c3d 4067 9b3e 6514 61be 3be0 5bbe
000001d0: 960a 25be e8a1 393e ff8d 533e 3a32 953e
000001e0: a9f9 bdbd f1e1 e6bd eabb a7be c474 813e
000001f0: b328 663d a665 dbbc a6b4 1dbe 726c aebd
00000200: 8a46 0a3e 833f b33d 88ff 02bf c640 ec3c
00000210: eb35 593c e394 ce3c 9749 963e f19b e63d
00000220: d6ac b33e abf2 093e a7cb 9bbe f91f 743e
00000230: 7ab8 eabd 8e5e 853d 81aa 27be 35da b9be
00000240: ff59 07be a5b7 9c3d 05f7 f83d a174 c33d
00000250: 28bc 25bd 4594 54bd 7a82 da3d a7d3 a63e
00000260: 3e58 1bbe 39bd 143e d0c0 f23d 4da6 9fbe
00000270: fe5d 7fbe 6478 243d bc3a 00be 0d66 4f3d
00000280: 5933 8e3e b1b6 553e b613 253e 7ae2 4d3e
00000290: 84de 023e 172b 583d c349 773e 613b 443e
000002a0: 806d 193e dc28 603d fe0d 8bbc d764 b9be
000002b0: 5ebc 173e 45b4 483e 5b21 653e 2463 afbd
000002c0: f7b6 b3be 763c 87bd df38 743d ba26 81bd
000002d0: f335 833d f5f5 5a3e 80f7 15bf 8e48 bc3e
000002e0: 9ec9 f1bd 0651 8f3d 3356 a73d 9302 30bd
000002f0: 22d2 533e 9f5e 493e f43d 66bd 52dd a4bc
00000300: aaf3 923e 0a2f 5abe 5ba6 343e eb21 12bf
00000310: 7368 733d bacf 5d3e e0c3 59be 68c2 97bd
00000320: 6696 43be f55b 6bbe 0d57 743c a1e6 a1bd
00000330: 800d a03e 4087 35be ee98 bf3d 6b88 983e
00000340: 3819 6d3e 0a24 8b38 cc2c 8fbd 0e47 0bbe
00000350: b0e5 313e c7ef 083e c02e 07be 120a c5be
00000360: fa99 053f 2a76 45bd afbd 12be e07e bd3d
00000370: 3e95 fa3e ba3a dc3c 9739 06be 3f38 9a3d
00000380: 6746 ecbe 60c1 a1bd e57f 1dbe e56e 363d
00000390: 58d3 913c 3a64 be3e 1ea8 a73d 9b6f 59be
000003a0: 6565 7dbe 45a8 ffbc c4ed a23e 87f3 b23e
000003b0: 2147 d0bc 4c46 4b3d 2d9e 6cbe d1e5 933e
000003c0: e3f4 b03e 9451 e8be a2e7 d83e d8a8 193f
000003d0: a955 de3c ae64 88be aa48 383e 0c4c 2dbe
000003e0: 3eac 233e fc2a 9e3d 1219 53be 0e40 fbbd
000003f0: aae3 ec3d f031 dcbc 131c 39be ae17 a6bd
-0.40408248 -0.16167748 0.25844562 0.0967074 -0.04274335 0.18502337 0.13338655 0.0455605
0.3239618 0.07352441 -0.36079785 0.07817049 0.061985776 -0.07308237 -0.070129886 -0.057166338
0.075710155 -0.043990873 -0.07818277 -0.08449186 0.2556004 0.12905489 -0.44324258 -0.12075475
-0.047057014 -0.18192376 0.06934341 0.19211122 -0.007775332 0.35391286 0.07401469 0.23312193
-0.00491888 -0.13126172 -0.22063386 -0.029241607 -0.045302596 -0.13550036 -0.1728221 0.025104204
0.03499466 0.08925479 -0.31358048 0.13995244 0.17997819 -0.09875994 0.15903798 -0.44632342
-0.10313341 0.018740814 -0.43226135 -0.6819725 0.16508587 -0.03161095 -0.17511529 0.095812164
0.114242315 0.03627895 -0.2428263 -0.12843494 -0.10162181 -0.1560539 0.078397244 -0.026414923
0.16135699 -0.33350155 0.4950505 0.087826736 -0.076884426 0.08676801 -0.29283094 -0.11846266
-0.029711269 -0.016510518 -0.0029340312 0.36361766 0.3017969 0.13793574 0.3483106 -0.062854595
-0.050319437 -0.09368448 0.35828507 -0.28674215 0.46462223 0.34088027 -0.28650573 -0.20531212
-0.7118823 -0.121539004 0.16877563 -0.4018551 0.20082535 0.13668899 -0.24149324 -0.3682658
-0.30259794 -0.066394895 -0.07109989 0.06682196 -0.17590722 -0.1980064 -0.0011822521 0.26805803
-0.30806503 0.19532958 0.07527263 0.183451 -0.12048786 0.2955115 0.09925614 -0.22346823
0.053900663 0.3035221 -0.21980436 -0.21472256 -0.1611732 0.18128169 0.20659636 0.29139882
-0.092761345 -0.11273564 -0.32760555 0.25284398 0.056191158 -0.026781868 -0.15400943 -0.08516778
0.13503471 0.08752348 -0.5117116 0.02883948 0.013257484 0.02521748 0.2935302 0.11260212
0.350928 0.13471477 -0.30428812 0.23840322 -0.11460967 0.065121755 -0.16373636 -0.3629929
-0.13217925 0.07652215 0.1215649 0.095437296 -0.040462643 -0.051899213 0.10669418 0.32583353
-0.1517038 0.14525308 0.11853182 -0.31181565 -0.24938199 0.040153876 -0.12522405 0.050634433
0.2777355 0.20870472 0.161208 0.20105925 0.12780195 0.05277547 0.24149232 0.19163276
0.14983177 0.054726467 -0.016974445 -0.36209747 0.1481795 0.19600017 0.22376005 -0.085638314
-0.3510053 -0.06603329 0.05962455 -0.06306215 0.06406774 0.21382888 -0.5858078 0.36774105
-0.118060336 0.06997876 0.08170738 -0.042971205 0.20685628 0.19665001 -0.056211427 -0.020125065
0.28701526 -0.21307006 0.17641585 -0.57083005 0.059425782 0.21661273 -0.21266127 -0.07410127
-0.19100341 -0.22984298 0.014913333 -0.07905317 0.312603 -0.17727375 0.09355341 0.2979158
0.23154151 6.634749e-05 -0.06990966 -0.13601324 0.17372775 0.13372718 -0.13201427 -0.38484246
0.52188075 -0.048208393 -0.14330171 0.09252715 0.48941988 0.026883472 -0.13107906 0.07530259
-0.46147463 -0.078982115 -0.15380819 0.04453935 0.017800972 0.37185842 0.08186363 -0.2123398
-0.2474571 -0.031208167 0.31822026 0.34951422 -0.025424542 0.049627587 -0.23107214 0.28886274
0.34561834 -0.4537474 0.42364222 0.6002326 0.027140455 -0.26639313 0.17996469 -0.16923541
0.15983674 0.07723042 -0.20615032 -0.12268077 0.11566861 -0.02687928 -0.18077116 -0.08109985

params,ScannedRNN_0,GRUCell_0,hr,kernel f4 [64, 64]
00000000: de2a 83bd f2b6 debc 6bd4 983d 9c57 a5bc
00000010: a217 a4be 9887 41be 626f 243e 2f21 353e
00000020: 0e56 813d 5e1b 833e 41cc b5bd 5005 413e
00000030: 3a48 8cbd 1560 bc3c e0b6 6ebd 442d 073e
00000040: 2342 203e 57a7 d13c 9ac7 043e 9fee 843c
00000050: c3fa 923c 7bb1 11bd c38a a8be 7180 b6bc
00000060: 7471 33be 60ae 0ebe b5ac a9bb e4a6 143e
00000070: 5cb1 81bd 3d53 903d b316 6e3d 2342 4a3e
00000080: 061c 133e 6aee debc 95c5 27be e4de 1fbe
00000090: 1ab1 a03d 0f06 6bbd 47a3 bcbc ecfd cf3c
000000a0: 3a02 4a3c 682c 35bd aa9e 85bc 2479 b6bd
000000b0: 5e83 d73c e710 6fbd 1e6a 95bd bf0f 6abe
000000c0: d7cd 2c3d 5331 583e 30d6 72bd 9eed f03d
000000d0: a1e1 0b3e 20cb 1fbe 36bb 413e b2ed 7f3e
000000e0: 49ab cb3d 0c8e af3d fd17 41be 5b4f 4cbd
000000f0: 6ea3 ce3d 86f8 b0bd a574 a03d c6f9 a33d
00000100: baaf b33d 8287 39be 0af2 73be 0d60 abbc
00000110: 40cc 15be 8e3a 86be ae22 2fbd a0f5 75be
00000120: cc3a dabc 9680 9a3d a183 113e 207b a8bd
00000130: c421 d1bd 4aa3 c43d 2e1b 853e 7cc8 91bd
00000140: 2211 12be 7768 4f3e a865 5dbb c5a3 383d
00000150: 1221 2b3e 3af1 973d 8b35 f93d 91c6 67be
00000160: cc5e 96be 4d9e 1ebd 381a 343e 0e81 c9be
00000170: 5306 bfbe 0dd0 b23d 31f2 cb3d 1e2d c83d
00000180: 7750 2dbe 7bb4 3b3d 28df f13d d80a 4c3e
00000190: cc65 5fbd 337c be3d b751 45be 4e38 db3d
000001a0: 02c4 363e 8426 0b3e 7459 b93d b61f 9838
000001b0: 9d7d 5bbe 5bf1 853d 92af b8bd 7dc8 473d
000001c0: 193a 0e3e 94cb 0b3d 97f9 b8bd e4ad 143d
000001d0: 31d6 6f3d 4a77 8c3d 46dd 243e 4d13 1fbe
000001e0: fb4c 8f3d e4b1 ccbb 424e 1c3e 2b14 1abe
000001f0: 6933 ec3d a341 7e3e 125e 32be 406c 533e
00000200: 0a5d 34be 6960 eabd 0e7c 46be 7189 0d3e
00000210: ae47 febd 067f c73d d37b 0d3e 1a67 c83d
00000220: 9d3b 8abd b6dc 6f3e 449f 063d d735 343c
00000230: aee3 a4bd b4ff 89bc 902b 8e3d 0b36 a43d
00000240: 61bf 70bd f7ec 0cbe 6549 f6bc cc38 cbbd
00000250: 455c e53d 930b b43e cc8d da3d d564 4e3d
00000260: b948 a53e c64c 89bd 1378 ae3d c308 783b
00000270: 041b 373e 8c8e 39be 6937 84bd 5e61 babd
00000280: 91f6 37be e574 ee3c 4d36 2e3e 19cb 253d
00000290: 3c1f d5bc e161 133e 0390 083e 4cdf 6abd
000002a0: 84f8 07bd a388 bdbb 5a1d 84be e6dc 15bc
000002b0: 339e 41be 64f1 f53c f5b3 063e a85a b1be
000002c0: b693 413d a316 81bd 6c52 8ebd 9513 7bbd
000002d0: 6f42 12be 0dee be3d 4744 b13d 743d 9c3d
000002e0: db1e 1e3d 0807 1a3e 3eeb 58bd ed40 1fbd
000002f0: aa57 2bbd f12f c0bd 95a7 34bb b591 d2bd
00000300: 745c 663d 4ef7 8e3d 4e70 273e 48f0 1fbe
00000310: c65c 63be 36fb 9d3d 3c3f 39be 9bb7 133e
00000320: c087 8dbc df50 ad3d 4d71 2bbe 75bf 093e
00000330: b7da 5fbe 3f7a 943d f646 d9bd e953 40bd
00000340: 984e 81bd c7e5 f13b 7639 adbc 434b 183e
00000350: a4cd 8c3e 7cef 59be c06e d53d a141 2a3e
00000360: 55b5 033e 5124 32be 40ef 3e3e 2bd4 35be
00000370: 445d f6bd aedf 3fbd c094 2b3e 8599 693e
00000380: a15e 3abc c849 8cbd 8922 a0bd 9ac9 ca3d
00000390: 8d57 febd ff75 533e 7e48 893e 5b81 133e
000003a0: 5d6f 80bc 8aac 98be 0724 b13d 5f0b 023d
000003b0: 5a0f 993d 3963 0cbc 0081 2b3e 3644 aa3c
000003c0: 5f2a 1a3e 2f79 64bd b176 743d 2f75 0cbe
000003d0: be45 1e3d 24f6 e4bb d77d 07bd e4bf ed3d
000003e0: ce53 14be 2fe7 19be a292 0e3d dd7e ba3d
000003f0: 8533 483e 3c7c 33be 6fa5 e4bd 7f09 d8bd
-0.06404661 -0.027186844 0.074623905 -0.020183377 -0.3204928 -0.18899381 0.16058114 0.1768844
0.06315242 0.25606817 -0.08876849 0.18849683 -0.068497136 0.022995034 -0.058279872 0.13200861
0.15650229 0.02559249 0.12966767 0.016227065 0.017941838 -0.03556965 -0.32918367 -0.022278043
-0.17523748 -0.13933706 -0.005178059 0.14516789 -0.06332657 0.070471264 0.058127116 0.19751792
0.14366159 -0.027213294 -0.16383965 -0.1561237 0.078462794 -0.057378825 -0.023027075 0.025389634
0.012329632 -0.044231802 -0.016311008 -0.089098245 0.026307758 -0.05836573 -0.07295631 -0.22857569
0.04218849 0.21112566 -0.059286296 0.11764072 0.1366029 -0.1560483 0.18919072 0.24993017
0.099447794 0.08572015 -0.18856807 -0.049880367 0.100897655 -0.08641152 0.07834748 0.08006625
0.087737516 -0.18118098 -0.238228 -0.020919824 -0.14628696 -0.2621655 -0.042757683 -0.2401948
-0.026639365 0.07544057 0.14210369 -0.08226609 -0.102115184 0.096014574 0.259973 -0.071183175
-0.14264348 0.20254694 -0.0033782516 0.045078058 0.16711834 0.07419057 0.12168416 -0.22634341
-0.293692 -0.038725186 0.17588127 -0.39356273 -0.37309512 0.08731089 0.09958304 0.097742304
-0.16925226 0.045826416 0.11810142 0.19926012 -0.05454044 0.09301033 -0.19269453 0.10704099
0.17848209 0.13588911 0.09050265 7.2538314e-05 -0.21434636 0.065401755 -0.090178624 0.048775185
0.1388935 0.034129694 -0.090319805 0.036298648 0.05855388 0.0685869 0.16100034 -0.15534706
0.06997105 -0.006246792 0.15264228 -0.15046756 0.11533243 0.24829726 -0.17418697 0.20646763
-0.17613617 -0.1144417 -0.1938326 0.13821961 -0.124160156 0.09741025 0.13816766 0.0978529
-0.067496516 0.23424038 0.03286673 0.010999165 -0.08051239 -0.016845562 0.06941903 0.080181204
-0.058776263 -0.1376227 -0.030064294 -0.099229425 0.1119924 0.3516508 0.10671577 0.05038913
0.32282045 -0.067040965 0.08518996 0.003784702 0.178814 -0.18120784 -0.06455881 -0.091006026
-0.17965151 0.029108474 0.17012902 0.040476892 -0.02601587 0.14392807 0.13336186 -0.05734186
-0.033195987 -0.0057841106 -0.25803643 -0.009146905 -0.18908004 0.03002233 0.13154586 -0.34639478
0.04726001 -0.06303146 -0.069493145 -0.06129797 -0.14283155 0.09322748 0.08655601 0.07628909
0.038603645 0.15041745 -0.05295872 -0.038880277 -0.04183165 -0.09384144 -0.0027565707 -0.10281698
0.056240514 0.069807634 0.16351435 -0.15619004 -0.22203359 0.0771393 -0.18090528 0.14425509
-0.017276645 0.084626906 -0.1674244 0.13451941 -0.21860777 0.07249879 -0.10609238 -0.046955023
-0.06313819 0.007382128 -0.021145564 0.1487246 0.2750064 -0.21282762 0.104215145 0.16626598
0.12862141 -0.17396666 0.18645954 -0.17756717 -0.12029508 -0.046844177 0.16755962 0.2281247
-0.0113751 -0.0685001 -0.07819087 0.09901734 -0.12419043 0.2065048 0.2681312 0.14404814
-0.015678102 -0.29819137 0.0864945 0.031749126 0.07473631 -0.008568578 0.16748428 0.020784479
0.15055226 -0.055779632 0.059683505 -0.13716577 0.03864073 -0.00698735 -0.033078995 0.11608866
-0.14485094 -0.15029596 0.03480781 0.091062285 0.19550903 -0.1752786 -0.111643665 -0.10548686

params,ScannedRNN_0,GRUCell_0,hz,kernel f4 [64, 64]
00000000: 59c7 d9bd 65fa 84be 692a e8bd 9834 9dbe
00000010: cc27 b039 feb3 eabd ae28 a4be 57ef afbd
00000020: 140f 09be 2cfe 253e 2aae 203e 5430 d3be
00000030: 22b6 d0be 50dd c939 4a35 adbe d7ca 503e
00000040: 5aac afbd e53e 3fba 9ea0 24be ef06 513e
00000050: 880b 993d 26fc a2bd 302e 85be b237 a5bd
00000060: 8ccd bdbd 0576 a9bd 9b42 dfbc 741d 86be
00000070: 5452 29bc 9f43 0bbe a91f 81be ad92 31be
00000080: 18ed d23d 2073 f33c 18fc 263d 9803 85be
00000090: 2cba 0cbe 44ae 6fbe 95cc 133e 6fdd 21be
000000a0: 9128 6abd edda 39be 92b0 17be 82cb 4dbc
000000b0: 507d 85be d68f 34be 2c74 94be 451c 28be
000000c0: 9d8f 113e 5e45 0fbd ccd3 1dbe 656f 9cbe
000000d0: 0781 e4bc e15a debd a000 b73d 22f7 69bd
000000e0: 9529 fa3a 8329 9ebe 126a e8bc 2401 85bd
000000f0: 2c52 aabe caac aabe 65ef 41be 46d8 22be
00000100: eeca 813c c850 b6be fb54 6bbe 35ac 97be
00000110: 1adf 1fbe 86d6 0cbe f2e1 62be 47fd 113d
00000120: adb0 9cbe c7fe e5bc 5980 80bd 4ee3 edbe
00000130: 27bc cbbd 2472 45be d2eb 35be 261b aabd
00000140: 21e7 28bd a975 18bd 46b9 83be 5091 7d3d
00000150: 2806 5fbd 11c8 d43c dad2 7dbe 2918 d0be
00000160: f2e5 79be f00b 903e 302c b53d 64e3 cbbd
00000170: 4cf5 e9be a515 7f3d 80ba b9be e972 a1be
00000180: fa92 38be d0d5 da3b 7879 83bd 96c8 66bd
00000190: 8e8d 6fbd 9a73 963d 008e 393e 8452 1ebe
000001a0: 6c5f 16bd c9ce 85bd 0ffc 55be 865d 1ebe
000001b0: c1b1 62bc fe4b 5bbd 3c54 0dbe 2efd 253d
000001c0: 5684 08bb a14c b7bd f98a bebe 1246 c6be
000001d0: 928a cb3d 9da0 90be c73d 97bd 7d1c 34be
000001e0: b22d 89be a6de 65be 9e43 4fbd c3eb abbe
000001f0: 4fda 8fbe 8c86 c3bd defd a9be f613 94bd
00000200: 430b 67bc 9fab dfbd 2c70 43be 33cd 2d3e
00000210: 3541 2bbe 3c4b 9ebd bec2 cb3e e490 48bd
00000220: 69c3 133d cd49 583e 79ba 6c3c f062 533d
00000230: bc8e f4bd 54ed 083e 27db 843d 6558 b0be
00000240: 32cc 4fbe 9b5b 85bc 4777 53be 05df d83d
00000250: 9c20 61be 787c 1d3d f5be 673e 68d9 f73d
00000260: 12c6 26bd 0b77 3b3d 5f2d 08bb 545c 2cbe
00000270: 7726 923d a778 873d b61d 1f3e 73ab 44bd
00000280: 507d 7f3d a655 523e 8aa2 6c3d 6c5e c6bb
00000290: 7c1a 08be 0bfb 2f3d d2de c53d 9742 38be
000002a0: 9e2f 063e 7695 e7bd d710 2cbe b3c4 853d
000002b0: 2c78 923d 0068 a33d 384f 29be ee67 683d
000002c0: 5c33 5dbe a580 54bd 2a02 21bc 9bf2 943d
000002d0: da9b 8bbd 9f7e 42be 0240 953e 8629 babd
000002e0: c9e6 4a3d 0b04 fa3d de4f c03c 2f6a 08be
000002f0: f4b4 c8ba c678 7abe 276d 52bd 3728 97bc
00000300: 7f0e ddbd 94b7 fbbb 3d73 9e3c e5d7 83bd
00000310: d539 29bd 46ef c4bd 8d75 bb3d 34ef b33d
00000320: b04c de3d 0ff3 aa3c 278e cabd 9896 ae3c
00000330: e251 6c3d e38a b9bd 3f6f 8f3e 7ab5 083e
00000340: cd6e 143d 8f94 843d 5ff9 073e 468a 8a3d
00000350: 4f65 34be 5847 2a3e 4fb0 e73d 883f 513b
00000360: 4fd7 0a3e 6bb1 7ebd aa71 2ebe 4f16 473d
00000370: 9d7c 7c3e 5e01 3bbe 4e9e ca3b d9fc 633e
00000380: 86a6 bbbd 8a38 05be f212 ebbc 3afa 56bd
00000390: c5c8 053e a3a4 fb3d 57f6 a8bc 3d00 663d
000003a0: 7c36 d2bd 2165 31be 5234 a93e 0ac1 2b3d
000003b0: 67a6 963e 75ee 73bd c0df 1dbe 6a2f 5bbd
000003c0: bf53 f2bd ce3a 9fbc e135 0abc dbeb 833d
000003d0: 1231 613c 7c58 473e 2746 3dbe b25a 0fbe
000003e0: 8856 7ebe 639d 2e3e 8bfb a93e 4fbd 13be
000003f0: fd0f bfbd 1f45 0c3e 3d7f 073e 796e da3c
-0.10633726 -0.25972286 -0.11336214 -0.30704188 0.00033598987 -0.11460112 -0.32062286 -0.08590572
-0.13384658 0.1621024 0.15691438 -0.4124781 -0.40763956 0.00038502598 -0.3382972 0.20389877
-0.08577795 -0.0007295444 -0.16076896 0.20412801 0.074729025 -0.0795825 -0.260118 -0.08067264
-0.092677206 -0.082744636 -0.02725344 -0.26194346 -0.01033457 -0.13600014 -0.25219467 -0.17341109
0.10299128 0.029717982 0.04076776 -0.25979304 -0.13742894 -0.23406321 0.1443351 -0.15807126
-0.057167593 -0.1814992 -0.1481345 -0.012560727 -0.26072168 -0.17632994 -0.28994882 -0.16417034
0.1421494 -0.034978263 -0.15412825 -0.30553737 -0.027893556 -0.108571775 0.08935666 -0.05712045
0.0019085879 -0.30891046 -0.02837089 -0.06494358 -0.33265817 -0.33334953 -0.18938978 -0.15902814
0.015843835 -0.35608506 -0.22981636 -0.2962357 -0.1561245 -0.13753709 -0.22156504 0.035641935
-0.30603543 -0.028075589 -0.062744804 -0.46462482 -0.099479966 -0.19281822 -0.1776574 -0.083059594
-0.041236047 -0.037221584 -0.2572729 0.06190616 -0.05444923 0.025974305 -0.24787465 -0.40643433
-0.24404123 0.28134108 0.08846319 -0.09955481 -0.4569496 0.0622765 -0.362751 -0.31532982
-0.18024817 0.0066783205 -0.06419653 -0.056343637 -0.058484606 0.07346268 0.18120575 -0.15461165
-0.036712095 -0.06533582 -0.20896934 -0.15465364 -0.013836325 -0.05353927 -0.13801664 0.040524654
-0.0020830831 -0.08950163 -0.37215403 -0.38725334 0.099385396 -0.28247538 -0.0738483 -0.17588992
-0.26792675 -0.22448215 -0.050601594 -0.3357831 -0.28096244 -0.09547147 -0.33201498 -0.0723037
-0.014101806 -0.10921406 -0.19085759 0.16972809 -0.16724093 -0.077291936 0.39797014 -0.048966303
0.03607503 0.21121903 0.014448755 0.051608026 -0.11941287 0.13371783 0.064871125 -0.3444244
-0.20292738 -0.016279032 -0.2065097 0.105894126 -0.21985096 0.03844878 0.22631438 0.12102014
-0.04071624 0.045767825 -0.0020778996 -0.16832095 0.07136243 0.066148095 0.15538678 -0.04801507
0.062375367 0.20540485 0.057772197 -0.0060537364 -0.13291353 0.042964023 0.0966164 -0.17994152
0.13104102 -0.11307804 -0.16803299 0.06531658 0.07151827 0.07978821 -0.16534126 0.05673974
-0.21601623 -0.051880497 -0.009827176 0.07272836 -0.06816836 -0.18993615 0.29150397 -0.09089951
0.0495365 0.122078024 0.023475584 -0.13321756 -0.0015312717 -0.24460134 -0.051373627 -0.018451793
-0.107937805 -0.0076817963 0.01934206 -0.06437663 -0.04131492 -0.0961595 0.091532804 0.08785859
0.10854471 0.020867852 -0.09890395 0.021312043 0.057695277 -0.09059694 0.28014562 0.13350478
0.03623848 0.06473648 0.13278721 0.06764655 -0.17616771 0.16628778 0.11312925 0.0031928737
0.13558696 -0.062180918 -0.17035547 0.04860526 0.24656911 -0.1826224 0.006183422 0.22264422
-0.09162621 -0.13009849 -0.028695557 -0.05248473 0.13064869 0.12287261 -0.020625276 0.05615257
-0.10264298 -0.17323734 0.3304773 0.041932143 0.2942383 -0.059553582 -0.15417385 -0.053512014
-0.118323795 -0.01943722 -0.008435697 0.0644147 0.013744609 0.19467348 -0.18483792 -0.13999441
-0.24837697 0.17052226 0.33199725 -0.14427684 -0.093292214 0.13698243 0.13232131 0.026664006

params,ScannedRNN_0,GRUCell_0,in,bias f4 [64]
00000000: b910 4f3d 6c6f 933d 8b0f 3fbf f824 bbbe
00000010: 9fcd 21bd 769a 71be 0bcf 973d e634 cdbd
00000020: af76 15bf 0c17 a83b 1dad 4dbe 69ad 53be
00000030: 8975 25bf 7b11 1bbf c229 4ebe 0604 a7bd
00000040: ef78 72be 8ae1 7fbc e542 113d bbdc ffbd
00000050: 4361 04be 8735 f4be fc0a c73e 961f ac3e
00000060: f251 f43e f3d4 45bd b90d e23d c587 01bf
00000070: 105a ed3c f1d0 09bf c2ba a33d 017d 42bd
00000080: 77d2 f83c 4e2a 06bc 139c 02be 320f 5ebd
00000090: 9e8e 8b3d 18d3 5cbb acf6 a63e 9ae1 923e
000000a0: a09e e23d 12f3 13bd d572 88be 4e20 88be
000000b0: 51ce 4abf d972 0ebc 1cea d8be ee3f 1abf
000000c0: e215 1c3e bb90 54be ce6d 373f 535a 023f
000000d0: 8b76 353e 1a30 17bf 0ab6 1cbd a1ae b0bd
000000e0: 3eab 943d 81fd 00bf dc48 133f 507d 07bf
000000f0: 7ffb 4d3f e63e 90be 4cba 42bf adb0 2ebf
0.050553057 0.071989864 -0.7463309 -0.36551642 -0.039502736 -0.23594078 0.07412537 -0.10019855
-0.5838422 0.0051297005 -0.20085569 -0.2067162 -0.6463247 -0.6057355 -0.20133117 -0.08155064
-0.23678945 -0.015617738 0.035464186 -0.12493273 -0.12927727 -0.47697088 0.38875568 0.33617848
0.4771877 -0.048298787 0.11037774 -0.5059779 0.02897361 -0.53834444 0.079946056 -0.047482494
0.030373795 -0.008188797 -0.1275485 -0.05421371 0.068143114 -0.0033695158 0.3261007 0.28687745
0.110654116 -0.03612048 -0.2665011 -0.26587147 -0.79221064 -0.008694374 -0.4236611 -0.602538
0.15242723 -0.20758335 0.71651924 0.50919074 0.17721002 -0.5905777 -0.038259543 -0.08627058
0.07259224 -0.50386816 0.5753305 -0.52925587 0.8046188 -0.28172988 -0.76065516 -0.68238336

params,ScannedRNN_0,GRUCell_0,in,kernel f4 [64, 64]
00000000: 1229 d83e c668 e6bd d472 3b3c c236 f4bd
00000010: 0a64 7e3e ce5b 9abd 9f52 5b3d e7d8 913e
00000020: 8df8 9b3e a711 a8be 6e0d 5b3e 6e4d 8f3e
00000030: d457 4dbd 82ed 6bbc b623 053e b22b 5dbe
00000040: 5ea7 0e3f 0447 1d3c 4367 2abe b52d d03d
00000050: 9fbe 77be c373 a63e 1f85 583e a44f 96bd
00000060: 7c8c 253d b327 2abe c182 b9be 4a5e 28be
00000070: 56a6 803a 828f ae3e 4b62 04be d9e1 df3d
00000080: 32ab 8fbd 3edd 3dbe e2fd 68be 049e 543e
00000090: eaa8 643e f5b7 a5be af3b 233e cf14 11be
000000a0: 1502 0e3e bdac b9bc 99ba cd3d 6db1 d13d
000000b0: 8e29 f93d 1aa8 63be 64cc c2bd de67 253e
000000c0: fcc9 a6bb 96b8 333e 041c 02be 20bb 933b
000000d0: 598d 0b3e ed3a c3be 145b 423d 28be dc3c
000000e0: ca1d 973e 874a 9f3d d115 82bd 08b3 26be
000000f0: b3df 013e 59e4 273d e0df 6b3e 3e64 1d3e
00000100: 0ded 583e 718a 1cbe 59c8 333e 9a23 ab3d
00000110: 8151 1dbe 703d 283e 5fcc afbe 0ed7 703d
00000120: 4eb4 babd 47d2 9abd be7b 513e fbd4 4fbe
00000130: a5a3 b13e b4f3 69be 079f 67be 0152 9cbe
00000140: 2fd6 543e ceab 303e 2b8a b4bc 40e6 0bbe
00000150: dd5e a13e eb4a e33d 9e9d 83be 019f 52be
00000160: f867 083e 9fad 69be bced bcbe fbdc 103f
00000170: 0f20 04be 1f65 a13d 0fcb 1a3e 9de9 1f3e
00000180: 03b7 9b3e f720 62be 929f cd3e 2fe7 20bd
00000190: 947d 05be 9c5e eebd fed4 633d 8649 67be
000001a0: 0ad7 b0bc 3fbb c03d d0ed 8a3e c228 633c
000001b0: cdd9 3b3e 59da e13d 2d8d e93b 904b 51bd
000001c0: a0b0 49be db4e 163e b8c2 afbe ec85 dbbd
000001d0: 6a74 51be 6fc3 133e 1920 1fbe c042 c5bd
000001e0: 60bf 9f3d d787 aa3d f81c 50be 52ef e23d
000001f0: a5d5 c3be 2ac8 913e 4693 4d3e d1ae fd3d
00000200: 5292 c3bd 5386 843d a513 af3c d81b a8bd
00000210: 76f1 143c b230 bc3e 7a7e a7be 5c71 163d
00000220: 6da2 94bd 7ead 78bd e65b ae3d f8d1 cfbe
00000230: b688 943e cfd6 23bd 9f26 64be 60d3 c63d
00000240: 182c 21bf df9f 80ba 6314 ebbd abb2 83be
00000250: 4cee f13d 19a4 38be 93fb 4fbe edeb 383d
00000260: b9d3 873e 9849 0bbb 0f30 bf3d 56db bfbd
00000270: 72d3 e93e 3381 0abe 2839 b03e 2eca 03be
00000280: c1d0 e33d 5078 143d 5be4 f9bd 64f5 c9be
00000290: a13a 0ebd c33e a63e 5732 b5bd c2f9 53be
000002a0: ae1e 0abe 0091 01be adac 91be ee08 643e
000002b0: b324 333d ae05 683e b723 81be a17d af3d
000002c0: ba80 bb3c 71d4 343c 8d7a 2abe a8bc 8abd
000002d0: c2af 18be d633 073f 8da4 823d 304e 83be
000002e0: 5661 d9be c9eb 4b3e fc9b 9cbd 180b 683d
000002f0: d62f 91be bc2c 8e3e 62e8 a33d 5fbc 383d
00000300: 26ba 6bbc 4b75 843d 5c8b b33d 6729 43bd
00000310: 228b d7bc 8c1b 603e dcbd e23d 728f 463d
00000320: 72e5 3ebe 5202 04be 8e99 493e d593 6fbd
00000330: 03e5 1d3e ac0d 213e 59d1 cb3d 6e04 f4bd
00000340: 3bc3 c0be 1626 063e df6e 303e da8d 7dbe
00000350: 20bc 1fbd b3c7 ce3c 5fe5 3fbe 6823 7abe
00000360: b734 d83d 7b50 c0bd 5e27 95bc f1a5 d23c
00000370: 1517 8bbe 5728 0dbe 5020 a23d b9fd 883e
00000380: 2295 153e 1508 67be 58bc de3d 851d 313e
00000390: 40f8 7f3d 352e 47be 4974 343e a657 05bd
000003a0: 80c3 9dbd 2a29 543e b307 003e 5712 1a3e
000003b0: fe7f 323e c58c 50be 3966 a1bd 1730 30bc
000003c0: 16f5 92be 48cf 363e 1fdd 83be a3bd 0f3e
000003d0: 170b 78be f0c4 c3be 85e0 3fbe f00e 3c3b
000003e0: 677e d63e 021e 5bbe 1eea 5cbe 04b6 fb3d
000003f0: d15d 68be e974 193e f996 843e c392 4d3e
0.42218834 -0.11250453 0.011440951 -0.11924507 0.2484285 -0.075370416 0.05354559 0.28485796
0.30463067 -0.32825968 0.21391842 0.27988762 -0.050132588 -0.014399888 0.13001904 -0.215987
0.5572413 0.009599451 -0.16640954 0.10164968 -0.2419381 0.32510194 0.21144532 -0.07339409
0.04041718 -0.16616707 -0.3623257 -0.16442218 0.0009815197 0.34093863 -0.12928121 0.10931749
-0.07015075 -0.18541428 -0.22753099 0.20763403 0.2233006 -0.3236691 0.15940736 -0.14168094
0.13867982 -0.022665376 0.10045356 0.102389194 0.12166129 -0.22232094 -0.09511641 0.16152903
-0.0050899964 0.17550883 -0.12706 0.004508391 0.13628139 -0.38130894 0.04745014 0.026946142
0.29514915 0.07777887 -0.063518174 -0.16279233 0.1268299 0.040989254 0.2303462 0.1537027
0.21184178 -0.15287186 0.17556895 0.083564 -0.15363123 0.16429687 -0.3433561 0.058798842
-0.09116422 -0.075596385 0.2045736 -0.2029609 0.34695163 -0.22846872 -0.22619258 -0.30531314
0.2078483 0.17253038 -0.02203854 -0.13662052 0.31517687 0.11098274 -0.2570619 -0.20568468
0.13320911 -0.22820137 -0.36900127 0.5658719 -0.12902854 0.078806154 0.15116523 0.1561646
0.30413064 -0.22082888 0.40160805 -0.039282974 -0.13036186 -0.11639139 0.055623047 -0.2258664
-0.021586914 0.09410714 0.27134562 0.013864698 0.18344803 0.11027975 0.007127425 -0.051097453
-0.19696283 0.14678518 -0.34328246 -0.10718903 -0.20454565 0.14430021 -0.15539588 -0.09631872
0.07800174 0.08326691 -0.2032355 0.11080803 -0.38248935 0.28473026 0.20075712 0.12386859
-0.09549393 0.06470933 0.021371672 -0.08208436 0.009090772 0.36755902 -0.3271368 0.0367292
-0.07257543 -0.06071233 0.08513622 -0.4058988 0.29010552 -0.03999978 -0.22280358 0.09708285
-0.62957907 -0.000981327 -0.11478498 -0.2572225 0.1181303 -0.18031348 -0.20310812 0.04514687
0.2652872 -0.0021253582 0.09335338 -0.09368007 0.45669132 -0.13525848 0.34418607 -0.12870094
0.11123801 0.03624755 -0.122017585 -0.3944503 -0.03472388 0.32469758 -0.08847492 -0.20700744
-0.13488266 -0.1265297 -0.28452054 0.22269031 0.04373617 0.22658417 -0.2522256 0.08568884
0.02288853 0.011036978 -0.16648312 -0.067742646 -0.14910796 0.5281347 0.06379042 -0.2564559
-0.42457074 0.19914164 -0.07646939 0.056651205 -0.28356808 0.27768505 0.08003308 0.04510152
-0.014387643 0.06467684 0.08766815 -0.047646906 -0.02631146 0.21885508 0.11071369 0.048476644
-0.18642214 -0.1289151 0.19687483 -0.058490593 0.15419392 0.15727872 0.09952039 -0.119149074
-0.3764895 0.13100466 0.17229794 -0.24761143 -0.03899777 0.025241708 -0.18739842 -0.24427569
0.105569296 -0.093903504 -0.018207248 0.025713893 -0.27166048 -0.1378492 0.07916319 0.26756075
0.14607671 -0.22561677 0.108757675 0.17296417 0.06249261 -0.1945122 0.17622484 -0.03255429
-0.07703304 0.20718828 0.12502937 0.15046059 0.17431638 -0.203662 -0.078808255 -0.010753653
-0.2870261 0.17852509 -0.2575464 0.14037184 -0.2422298 -0.3823619 -0.18737991 0.0028695427
0.41893312 -0.21398166 -0.21573684 0.12290576 -0.22692038 0.14986004 0.25896433 0.20075516

params,ScannedRNN_0,GRUCell_0,ir,bias f4 [64]
00000000: 933c 963b 129d 803d 0ed8 a33e 9038 813e
00000010: 3588 eebc 1f2d 2f3e cbb9 bf3e c11c 913c
00000020: 1c00 f23d 3fb6 ffbc b484 9e3d 8519 fc3d
00000030: 24f0 723e cabe b8bb e937 0b3e 6a7b 2cbd
00000040: c155 27bd e1c3 d13a ff7e 1f3c 7474 20bd
00000050: 353d 003d 6420 3abd 0615 de3e 82af 263f
00000060: 9129 9c3e 0ecc 2cbd da9e 56bd a9d6 333d
00000070: da66 703e 7a30 723d b7d4 063e edf1 a23d
00000080: 55a4 5f3e 58d3 8c3c e4ef 963d 1c6c 7c3b
00000090: a9b2 d6bc 0a71 4f3d ebf4 653d 273b 493e
000000a0: 26e3 8b3d 3f73 263d 333b 923d 5b46 893e
000000b0: 294d e53d 59cb 57bd 324d df3e bd2d 8d3e
000000c0: 66ce 843c e82e 983e e24d 5cbc 0ce4 243f
000000d0: 3acd 003d 722a ffbc 20c0 cd3d c7bc f13d
000000e0: 95ad d8bc b4eb a1b8 e937 983e 7f9a 503e
000000f0: 4e71 923d ac44 f93b eb75 213e 5fc9 083e
0.0045848577 0.06279959 0.32000774 0.25238466 -0.029117683 0.17107056 0.37446436 0.017713906
0.11816427 -0.031214831 0.07740155 0.12309555 0.23724419 -0.005637978 0.13595547 -0.042109884
-0.040853266 0.0016003811 0.009734868 -0.03917356 0.03130837 -0.045441046 0.43375415 0.65111554
0.30500463 -0.04218679 -0.052397586 0.043905888 0.23476735 0.059128262 0.13167082 0.079563
0.21840031 0.01719062 0.07369974 0.0038516587 -0.026208239 0.05064491 0.056141775 0.19651471
0.068304345 0.04063725 0.071401976 0.2681149 0.11196358 -0.05268416 0.43613583 0.27573958
0.0162117 0.29723287 -0.013446303 0.6441047 0.03144572 -0.03114817 0.100464106 0.118035845
-0.026449958 -7.7209814e-05 0.29730156 0.20371436 0.071505174 0.0076070633 0.15767638 0.13358067

params,ScannedRNN_0,GRUCell_0,ir,kernel f4 [64, 64]
00000000: cc91 13be 6b1f 2bbd eced 66be 181e 91be
00000010: 481a 68be 5e0c a3bb 9e6f ab3e 31a8 f3bd
00000020: dff3 963e ca20 b63d 4092 ffbd ad13 d73d
00000030: 119b 29be eb6c 3bbe 9c0f 1bbe 9904 c13c
00000040: 1161 a33d 10ed 073d 8d99 443d b10e 20be
00000050: 6043 253e 028c 803d 1b51 64be 79f1 29be
00000060: beb5 063e 53db 1e3d 5ed7 3a3e 1113 aa3e
00000070: b19e 1ebe 08ea 60bd 86e8 45be 4aa9 953e
00000080: e56a 3fbe ad5d 7abd dcf1 ee3d 87aa bc3b
00000090: 5836 05bd bf4a f5bd 1dc3 4dbe 2795 133e
000000a0: 04e6 213e 5497 54be 0fc5 fb3c b4c6 85be
000000b0: 1d3b 73bd 5d37 493c dbcf f7bd b065 c73d
000000c0: 2e26 3a3c f912 3bbe 836b 613b 614a 703e
000000d0: 638d b63c 7656 febc 9a8d 693e a57e 40bd
000000e0: a606 833d 5192 7fbd 7b27 fb3d 08e1 32bc
000000f0: eeb9 8abd 220d 88bd 5f4c c23d bde8 29be
00000100: f405 3c3e 13cb 7ebe b9f1 3abe 4bf8 2bbe
00000110: c75d d73c cfc2 913d 7bdb 2cbe b131 f1bc
00000120: 037c dd3c 5b02 913d ec94 3f3d de56 22be
00000130: 2f9d 063d db12 99bd b526 643e 9f84 9f3e
00000140: 802d 4a3c dc64 d2bd 261b 93bd 0de9 abbc
00000150: 9837 11bd 0bd3 e53d 68e5 7bbd 513d d9bd
00000160: 54b8 273e f8f4 013e 743b 4dbd dd14 15be
00000170: 6b17 cfbd 7a12 213e 24ed 30be 8783 233e
00000180: 358b 5fbe 052c 30be 6afa 24be 4ca7 563e
00000190: b1f2 b03d 845a d63d 376b 673e d33f 9abe
000001a0: 81b7 e53d 9d60 b3bc ba2e a53c ba05 0cbd
000001b0: f36a 503e 17bd 933d bee2 9c3c 5399 893c
000001c0: 5146 52bd b3ce 11bd b32b d53d dc87 07be
000001d0: 2276 783e 9f6b 5a3d 62d9 163d 88d7 9b3d
000001e0: 11dd 2e3e a97c d13d 2443 743d 11e6 18bd
000001f0: cd1a abbc cdbc 01be 70f6 66be 31f0 173e
00000200: e3d4 8abe 3021 703e d435 723d 7a02 593e
00000210: 2b06 85be 0054 60be 9c85 a4be e753 c7bb
00000220: 0ebf fcbd 6e96 5a3d 1970 b73a 0e3e fb3d
00000230: 2377 3cbe 4ecb 85bd 642f 363e 0ba2 19bb
00000240: bc6c 3bbe 409f 0a3e 56c7 e4bc bbf5 bc3d
00000250: 3de6 de3d 58fe 12be 8d69 28be 7bf0 443e
00000260: 9aba 723d 9b20 00be 9813 2a3d a7e0 043e
00000270: 10ef f73d 6434 1e3d dc19 52be f144 043e
00000280: 6999 523d ce95 563e 8a43 603b 2fa9 483c
00000290: 434f cebd fd6b 37bd 567e 513e 582b 11be
000002a0: c3cf 33bd 491d ecbd a9e6 6bbc bff5 9d3d
000002b0: 3a92 99be 2f42 bfbd e03b a7be 5ece d1bd
000002c0: 1c95 b0bd 9114 8dbe 6130 493e 5ac4 32bf
000002d0: 8d66 fabd 5cc7 903e c30a 9e3d 075c 0b3e
000002e0: a0fa 92be 1ac9 01be 629c 91be 330b e43c
000002f0: 5ac7 2b3e a3f0 803e ed00 16be 5786 203d
00000300: 08a5 bb3d 96e1 1d3d 591c 4f3d b9db 02bf
00000310: 7c03 96bd f341 9c3a 98ed 02bf 3d9f 2abc
00000320: f8f6 36bd 61a7 9bbe 170e 083e 7acb 54be
00000330: a36f c3bc b12e 583d f73e 05bd 05c2 b03d
00000340: 4869 363d f360 573c d477 89be 2cdb 2a3e
00000350: 1675 b23c be7a 6ebd 2748 28bd 47ea 06be
00000360: 3c2a 36be 4580 bd3d 2686 d13d 0364 15bd
00000370: 7b5f f4bd cb80 4c3e f7a2 8f3c fabe 693d
00000380: f9c4 2f3e 5fa2 4c3e 42b0 173e 5779 543d
00000390: 2a26 063e 1999 42be fc11 013c a659 89be
000003a0: 5356 0cbd 259d 0fbe 7e41 f8bd 5eeb a53d
000003b0: 48fc 9e3d e7b2 bcbc 67a9 83be 3a05 7dbd
000003c0: e699 b43d c7c5 9c3d fc3d 26be 5b18 fd3d
000003d0: c6e6 423e 7559 47be 77d5 cd3d cd9a ddbd
000003e0: 80f5 0c3d 99d0 1abd 7c2b b63c 3aef e7bd
000003f0: e4dc c23d 451f d63c 4457 84bc 693e 933d
-0.14411086 -0.04177801 -0.22551697 -0.28343272 -0.22666276 -0.0049758395 0.33483595 -0.11897314
0.29482934 0.08892973 -0.12479067 0.105018 -0.1656306 -0.18303268 -0.15142673 0.023561763
0.07977498 0.033185065 0.047998 -0.15630604 0.16138983 0.06276704 -0.22296564 -0.16596021
0.13155267 0.038783383 0.18246219 0.33217672 -0.15490223 -0.05491069 -0.19326982 0.2923072
-0.18693121 -0.061124492 0.11667225 0.005757633 -0.03252253 -0.11977147 -0.20093961 0.14412366
0.158104 -0.20760852 0.030733613 -0.2612816 -0.059382547 0.012281266 -0.12100192 0.09736192
0.011361642 -0.18268956 0.0034396357 0.23465873 0.022284215 -0.031047087 0.22807923 -0.046995778
0.063977525 -0.062395398 0.1226339 -0.010917909 -0.067737445 -0.0664313 0.09487223 -0.16592689
0.18361646 -0.24882154 -0.18256272 -0.16793935 0.026289834 0.07117235 -0.168806 -0.02944264
0.027036672 0.070805274 0.046772882 -0.1585345 0.032864746 -0.074742995 0.2228039 0.3115587
0.01233995 -0.10273144 -0.071829125 -0.02098515 -0.03545341 0.11221894 -0.061498076 -0.10607398
0.1637891 0.12691104 -0.050105527 -0.1455874 -0.101118885 0.15729704 -0.17277962 0.15968142
-0.21830447 -0.17204292 -0.1611115 0.20962256 0.0864004 0.10466483 0.22599493 -0.3012682
0.11216641 -0.021896655 0.020163883 -0.03418515 0.20353298 0.072138004 0.019151088 0.016796743
-0.05133659 -0.035597514 0.104087256 -0.1323542 0.24263814 0.05332529 0.036828406 0.07609469
0.17076518 0.10228855 0.059634343 -0.037328783 -0.020886803 -0.12669678 -0.22554946 0.1483772
-0.27115545 0.2345016 0.059133366 0.21192351 -0.25981268 -0.21907043 -0.32133186 -0.006083
-0.12341128 0.053366117 0.00139952 0.12267695 -0.18404822 -0.06532918 0.17791516 -0.0023442532
-0.18303198 0.13537312 -0.027927082 0.09226557 0.10883758 -0.14354837 -0.16446514 0.19232361
0.05925999 -0.12512438 0.041522592 0.12976323 0.121061444 0.038624182 -0.20517677 0.12916924
0.051415835 0.20955583 0.0034219944 0.012247368 -0.10073712 -0.04478072 0.2045835 -0.1417669
-0.04389931 -0.11529023 -0.014398255 0.07712888 -0.29994375 -0.093387954 -0.32662868 -0.102444395
-0.0862219 -0.27554753 0.19647361 -0.6983086 -0.12226591 0.282771 0.077168964 0.13609324
-0.28706837 -0.1267437 -0.28439623 0.027837371 0.16775265 0.2518359 -0.1464879 0.039190616
0.091623366 0.038545214 0.050564144 -0.5111652 -0.07324883 0.001192151 -0.5114379 -0.010413942
-0.04466912 -0.30401137 0.13286625 -0.20780745 -0.023856943 0.052778903 -0.03253075 0.08630756
0.044533998 0.013145673 -0.26849234 0.1668517 0.021784347 -0.058222525 -0.041084435 -0.13175307
-0.17789549 0.09252981 0.10230665 -0.03647233 -0.11932274 0.19971006 0.017533762 0.057066895
0.17164983 0.19983815 0.14813331 0.05187353 0.13100496 -0.19003715 0.007877823 -0.2682621
-0.034262013 -0.1402479 -0.12121867 0.08101533 0.077629626 -0.023034526 -0.2571518 -0.061772563
0.08818416 0.076549105 -0.16234583 0.12358161 0.19033346 -0.19467719 0.10050481 -0.108205415
0.034413815 -0.03779659 0.022237532 -0.11324926 0.09514788 0.026137957 -0.016154893 0.07189638
